pol_models/aqi_model_state.pt (torch, 650340 bytes, 16 tensors)

conv1.weight f4 [64, 300, 3]
0.017035939 -0.022480795 0.015794802 0.0011806922 -0.0036476755 -0.005556768 -0.005937375 -0.02148846
-0.020038065 -0.028351452 -0.025399925 0.0062540006 0.0120531535 -0.036504306 -0.031146327 -0.028348925
-0.02835382 0.0032736657 -0.013477894 -0.025916802 0.013575795 -0.0131502645 0.011528716 -0.021761311
0.012949254 0.02532147 0.021307701 0.0049809692 0.021974916 -0.03774087 -0.021474563 -0.031976905
-0.027814137 -0.0019893623 -0.0028737064 0.012707239 -0.021287011 -0.027005104 0.010878379 0.013931665
0.019200344 -0.037073895 0.016557503 -0.0096783545 -0.00014599126 -0.021207143 -0.020428058 0.023194266
-0.0042523956 -0.009118663 -0.0027563078 -0.03791695 -0.039021015 0.010269897 0.014501932 -0.03544932
0.017953988 0.0026696958 -0.03446385 -0.0012349037 -0.019821161 -0.013573322 -0.03843543 -0.019157104
0.023354074 0.019334802 -0.029619478 0.0073970933 -0.018714348 -0.022591522 -0.024950324 -0.03055634
0.0067211874 0.0152102 -0.03865101 0.0014421369 0.021582367 0.027176693 0.0243864 -0.010863518
-0.030696552 -0.03284372 0.01296502 -0.036433656 -0.0040651113 -0.022032533 0.0053992774 -0.030260341
0.006634122 0.024657147 -0.031083986 -0.03133154 -0.0334367 -0.0018518919 -0.029592816 0.014454841
0.009857622 -0.009218056 -0.008409338 0.0058300905 -0.024278207 -0.0070360517 0.009357479 -0.027441759
-0.038118936 0.0145381475 0.009252001 -0.002005402 0.014296821 -0.021257577 -0.02598769 0.0034363137
-0.019727875 -0.005624266 -0.00042172853 -0.0031525283 -0.028860714 -0.024340333 -0.020277139 -0.0025984626
0.021106666 -0.029261539 0.02069366 0.021516223 0.013299296 -0.033212185 0.009079998 0.0264009
0.018512756 0.01863083 -0.011328246 -0.008312958 0.015106867 0.007703106 -0.027601993 -0.019859707
-0.036278617 0.024905829 0.0006722725 0.0020425152 -0.019613601 -0.015007473 0.0039607864 0.021347925
-0.0015868221 0.018542022 -0.013619426 -0.03610243 -0.0034004992 -0.030013599 -0.004802314 0.005681598
-0.008373318 0.0028008216 0.007655191 -0.017149812 -0.019322332 -0.015049345 0.022070097 -0.013428492
-0.00040467645 0.022260835 -0.03250373 0.008927921 0.008590224 0.0036492012 -0.0012539421 0.019501615
0.004605511 0.024696652 -0.01836605 0.004835256 0.0023957419 0.019919962 0.022514708 0.015395588
-0.0055162366 0.01454886 0.02555455 -0.02847782 -0.016834911 -0.0029140105 0.0202894 -0.016073097
-0.024905635 0.01048836 -0.021395192 -0.030568738 -0.012805594 0.024909992 0.0018654839 0.007455508
-0.016012734 -0.018124238 0.0104860645 0.026930524 0.014186865 -0.011515647 0.024244623 -0.026197782
-0.0049752514 -0.038423683 -0.008950724 -0.012766606 -0.027394926 -0.01862276 0.0120601095 0.021691168
-0.027048884 -0.010782461 -0.00026872513 0.0009707394 -0.025501622 -0.008186589 0.0069210306 0.011736222
-0.02823448 -0.0150280595 0.023981482 -0.008518514 -0.022290897 -0.013618912 0.007975176 -0.017273756
-0.02266925 -0.006034327 -0.03450826 0.008982698 0.020495554 -0.0015971414 -0.01734178 0.0050799563
0.016819412 0.008234124 -0.01356401 -0.0010172171 -0.029828472 -0.020151228 -0.009057652 -0.03497498
-0.015128612 -0.031093257 -0.0084753875 0.023034433 0.0015321678 -0.019104008 -0.031024773 -0.03298056
-0.027139412 -0.0042563793 -0.0071757934 0.013551587 0.0048734895 0.005939413 0.020057091 0.000505625
00000000: f48e 8b3c a529 b8bc 1a64 813c 75c1 9a3a
00000010: d70d 6fbb 8c15 b6bb 508e c2bb 9108 b0bc
00000020: de26 a4bc 4e41 e8bc 8113 d0bc 5cee cc3b
00000030: 977a 453c 8a85 15bd 9526 ffbc 013c e8bc
00000040: 4546 e8bc ff8a 563b 62d2 5cbc 794f d4bc
00000050: 036d 5e3c 3574 57bc f1e2 3c3c c744 b2bc
00000060: 1c29 543c f96e cf3c 7d8d ae3c 6637 a33b
00000070: bd04 b43c 2c96 1abd 6ceb afbc 37fa 02bd
00000080: 79da e3bc f65f 02bb cb54 3cbb 0632 503c
00000090: 1962 aebc cf39 ddbc 3b3b 323c a341 643c
000000a0: 0a4a 9d3c ccda 17bd 9aa3 873c f691 1ebc
000000b0: 3b15 19b9 9aba adbc be58 a7bc e701 be3c
000000c0: ae57 8bbb 7266 15bc 2ca3 34bb ce4e 1bbd
000000d0: 80d4 1fbd 1243 283c 8399 6d3c 4e33 11bd
000000e0: 3e14 933c 10f6 2e3b f729 0dbd 7edc a1ba
000000f0: fd5f a2bc a462 5ebc 786e 1dbd 5cef 9cbc
00000100: 0b51 bf3c 0564 9e3c 8ca4 f2bc 5163 f23b
00000110: d54e 99bc db11 b9bc 9f64 ccbc 4a51 fabc
00000120: 683d dc3b 3434 793c 8550 1ebd 1606 bd3a
00000130: 81cd b03c a8a1 de3c fdc5 c73c e6fc 31bc
00000140: 5677 fbbc 2387 06bd 3c6b 543c 753b 15bd
00000150: a034 85bb 927d b4bc 6cec b03b 89e4 f7bc
00000160: 0d63 d93b c9fd c93c d8a3 febc 8055 00bd
00000170: ecf4 08bd 2ebb f2ba a26c f2bc ffd3 6c3c
00000180: dd81 213c 5407 17bc 52c7 09bc 580a bf3b
00000190: 17e3 c6bc ae8e e6bb 1d50 193c 8acd e0bc
000001a0: 9a22 1cbd 6931 6e3c b495 173c 106d 03bb
000001b0: 373d 6a3c 5f24 aebc 23e4 d4bc c733 613b
000001c0: 5a9c a1bc c34b b8bb 721b ddb9 a69a 4ebb
000001d0: 4e6d ecbc 6165 c7bc 3e1c a6bc f84a 2abb
000001e0: e3e7 ac3c e5b5 efbc c085 a93c ca42 b03c
000001f0: 4ae5 593c 8009 08bd 46c4 143c b346 d83c
00000200: 10a8 973c af9f 983c 1c9a 39bc 1333 08bc
00000210: cb82 773c 566a fc3b 931d e2bc d3b0 a2bc
00000220: e398 14bd 4f07 cc3c 723b 303a b8db 053b
00000230: b4ac a0bc e7e1 75bc 7cc9 813b d8e1 ae3c
00000240: eafc cfba 70e5 973c 0324 5fbc 24e0 13bd
00000250: e9da 5ebb 14df f5bc bb5c 9dbb b32c ba3b
00000260: 3e30 09bc fd8d 373b 65d8 fa3b c37d 8cbc
00000270: de49 9ebc 8791 76bc 59cc b43c 2d03 5cbc
00000280: c12a d4b9 5b5c b63c a222 05bd 6a46 123c
00000290: 03be 0c3c 7027 6f3b 515b a4ba dac1 9f3c
000002a0: d4e9 963b a250 ca3c 6674 96bc 1171 9e3b
000002b0: e101 1d3b 302f a33c c470 b83c c73d 7c3c
000002c0: 8cc1 b4bb 575e 6e3c c757 d13c 514a e9bc
000002d0: 5ee9 89bc fcf8 3ebb f535 a63c baab 83bc
000002e0: e706 ccbc 5fd7 2b3c f844 afbc 4a6b fabc
000002f0: 8ece 51bc 0a10 cc3c 4183 f43a 564d f43b
00000300: 232d 83bc 4879 94bc becd 2b3c 679d dc3c
00000310: 0670 683c 20ac 3cbc a99c c63c bb9c d6bc
00000320: 6f07 a3bb 2762 1dbd 0fa6 12bc 072b 51bc
00000330: 536b e0bc c28e 98bc c497 453c adb1 b13c
00000340: 9f95 ddbc eba8 30bc ade3 8cb9 3879 7e3a
00000350: c7e8 d0bc 0b21 06bc d0c9 e23b 4849 403c
00000360: ff4b e7bc 4038 76bc d074 c43c 3d91 0bbc
00000370: 669b b6bc db21 5fbc 50aa 023c b181 8dbc
00000380: ddb4 b9bc 9bbb c5bb 8958 0dbd 2b2c 133c
00000390: 4be6 a73c 2c57 d1ba 5910 8ebc c375 a63b
000003a0: ddc8 893c 6be8 063c 953b 5ebc 2454 85ba
000003b0: d75a f4bc 3014 a5bc 8c66 14bc ed41 0fbd
000003c0: ffdd 77bc 49b7 febc 5adc 0abc b5b2 bc3c
000003d0: 05d3 c83a 0280 9cbc aa27 febc a016 07bd
000003e0: 7953 debc 1979 8bbb eb22 ebbb 7a07 5e3c
000003f0: cbb1 9f3b 689f c23b c54e a43c eb8b 043a

conv1.bias f4 [64]
-0.016046476 -0.026658468 -0.008635923 0.015431112 -0.24943615 0.01389928 -0.22193706 0.015389442
-0.1696665 -0.009473822 -0.008587907 -0.15633097 -0.008489358 0.012726363 -0.00931266 -0.0018010375
-0.016830428 -0.025083037 -0.021695914 -0.0076881307 -0.122420505 -0.020374315 -0.03571154 0.02257192
0.0009302772 -0.029844558 -0.030841438 -0.024371948 0.0101839295 0.01847665 -0.030133873 -0.06554889
-0.034968257 -0.030170718 0.009227287 0.013188596 -0.010458494 -0.18681185 -0.30579937 -0.123219244
-0.015185996 -0.023329804 -0.031149946 0.0136507265 -0.028155426 -0.036114007 0.011413836 0.02424757
-0.026773015 -0.025098355 0.026388029 -0.12712377 -0.037771545 -0.09372666 -0.014358496 0.009176974
-0.006520939 -0.23272684 -0.007875043 -0.16581245 0.02183955 -0.023142783 0.02985345 -0.02603113
00000000: e673 83bc dc62 dabc b07d 0dbc c6d2 7c3c
00000010: 316c 7fbe ceb9 633c 7843 63be 0024 7c3c
00000020: 0ebd 2dbe 1738 1bbc 4bb4 0cbc 3a15 20be
00000030: f316 0bbc 3c82 503c 2194 18bc ca10 ecba
00000040: f7df 89bc f17a cdbc a1bb b1bc b7ec fbbb
00000050: 9ab7 fabd 09e8 a6bc 4446 12bd bfe8 b83c
00000060: d9dd 733a 937c f4bc 2fa7 fcbc aea7 c7bc
00000070: 7fda 263c 585c 973c 50db f6bc 7f3e 86bd
00000080: e03a 0fbd 9528 f7bc 0c2e 173c fb14 583c
00000090: 1a5a 2bbc 9b4b 3fbe bc91 9cbe 5f5a fcbd
000000a0: afce 78bc 251e bfbc 2c2e ffbc 4ca7 5f3c
000000b0: 35a6 e6bc 48ec 13bd 1901 3b3c d7a2 c63c
000000c0: 1553 dbbc 119b cdbc b52b d83c bc2c 02be
000000d0: 56b6 1abd c3f3 bfbd e63f 6bbc 055b 163c
000000e0: 9aad d5bb f24f 6ebe 5306 01bc bdca 29be
000000f0: dbe8 b23c ef95 bdbc 398f f43c 3d3f d5bc

conv2.weight f4 [128, 64, 3]
-0.061796155 -0.03853383 0.04220401 0.028557427 0.04025404 0.052654915 0.028912103 0.0037983442
-0.021490367 0.0744133 0.077034056 0.017526908 0.03288496 0.13335687 -0.04979449 -0.03931393
-0.042182446 0.06885603 -0.00082846114 0.101292536 0.06197928 -0.018213792 -0.03237329 -0.026198305
-0.038275596 -3.1792035e-05 -0.089572184 -0.061915718 0.01388429 0.073767796 -0.0064447727 -0.105218075
-0.123953626 -0.18911989 -0.15800318 -0.19173756 -0.017109724 -0.019721277 0.028206754 -0.03519987
-0.023988219 0.03368816 0.05365065 -0.066947065 -0.024123507 -0.017432317 0.040972643 0.035379134
-0.024343992 -0.050125882 0.059693642 -0.043850116 0.015228214 -0.036571406 -0.04118492 -0.05925927
0.05201709 0.06227143 0.015983267 0.04949353 -0.042740062 -0.07663392 -0.1094403 0.06840548
-0.011437791 -0.00964044 0.054555815 -0.02170231 0.024496688 0.05289857 0.010079566 0.0036157288
0.04184911 0.0034131617 -0.030956445 0.06583423 -0.06265152 -0.05015744 0.01607158 0.048127882
0.039338484 -0.0613211 -0.06696033 0.061780084 -0.031870678 -0.028737126 0.068992846 -0.0387981
-0.04446029 0.064518444 0.05986206 0.021334456 -0.0273195 -0.06548517 -0.071700156 0.02248006
0.008089242 0.028477633 0.004796558 -0.02843237 0.049011238 0.026830927 -0.007687054 0.043754887
0.047444068 0.049673643 -0.03802883 -0.0359701 0.0274816 0.018829228 -0.025483314 0.05144922
-0.11097289 -0.22806187 -0.02392179 0.12487457 -0.13921902 0.004111289 0.13923456 0.20721768
0.02104621 -0.029303584 -3.105986e-05 -0.003766492 0.07166073 -0.050380964 -0.0508439 0.010857746
-0.04212942 -0.013493631 0.036316153 -0.046884913 -0.0026529115 -0.010195881 0.025621682 -0.07580056
-0.03601598 -0.012178713 0.051252715 -0.009796692 0.05370295 0.04639189 -0.010105841 0.016401775
-0.06360646 0.066034034 0.03503046 -0.04220998 -0.010638082 0.074651785 0.017420774 -0.06685456
0.045847714 0.0013795049 0.15033592 -0.26957554 -0.01732891 -0.0368994 -0.014938717 -0.0066581015
0.072474085 0.19481087 0.004280942 0.06410965 0.006344234 -0.055723947 -0.04462417 -0.035374943
-0.05660722 0.024552872 0.01289921 0.02943657 -0.011929887 -0.21489955 -0.07137369 -0.065143734
0.05628547 -0.054632988 0.0034261227 -0.14242738 -0.05309681 -0.028204514 0.016229928 0.0005526937
-0.01630612 -0.036656156 -0.010037672 -0.07893939 -0.0036585988 -0.04428415 0.033019416 0.06799977
-0.05945083 -0.06494857 -0.0525458 -0.06203892 0.011972703 -0.035909016 -0.026389947 0.062464226
-0.018604498 0.00053309987 -0.020478152 -0.049747676 0.038632844 -0.11156992 -0.04886482 -0.019633474
0.011121827 -0.042489853 -0.04927782 -0.005838865 0.035113446 -0.003387019 -0.039350487 0.049950905
-0.13823117 0.030000543 -0.04871649 0.041601628 -0.029825673 -0.010106999 0.0006288324 -0.20093974
-0.16960548 -0.08647139 0.10762024 -0.081341185 -0.039447866 0.03079674 0.0189953 -0.008749368
0.022906188 0.015807576 -0.038203612 0.009498391 -0.0647285 -0.018708754 -0.017865865 -0.008156814
0.06262833 -0.06543356 0.05143433 -0.08536853 0.032546416 0.09013694 0.04366008 0.017263044
-0.06776481 -0.020129768 -0.055653322 0.053564355 0.015597441 0.032145698 -0.034087267 -0.054928087
00000000: f71d 7dbd a6d5 1dbd 1dde 2c3d 44f1 e93c
00000010: 6ce1 243d aeac 573d 13d9 ec3c a4ed 783b
00000020: 910c b0bc 0066 983d 08c4 9d3d 9794 8f3c
00000030: 61b2 063d b48e 083e 4ff5 4bbd a507 21bd
00000040: 80c7 2cbd 6404 8d3d 162d 59ba 7672 cf3d
00000050: fcdd 7d3d 1735 95bc db99 04bd d49d d6bc
00000060: dfc6 1cbd 7058 05b8 9f71 b7bd 569b 7dbd
00000070: ef7a 633c 9213 973d ac2e d3bb 937c d7bd
00000080: 66db fdbd a5a8 41be 96cb 21be da56 44be
00000090: b129 8cbc 848e a1bc da11 e73c bd2d 10bd
000000a0: f182 c4bc 99fc 093d c9c0 5b3d 8b1b 89bd
000000b0: a99e c5bc 38ce 8ebc eed2 273d b6e9 103d
000000c0: 0d6d c7bc cc50 4dbd 5281 743d 2e9c 33bd
000000d0: c27f 793c e6cb 15bd 85b1 28bd d9b9 72bd
000000e0: df0f 553d 5410 7f3d 57ef 823c bab9 4a3d
000000f0: 3410 2fbd 3ff2 9cbd 3c22 e0bd 2c18 8c3d
00000100: 9365 3bbc f0f2 1dbc eb75 5f3d 0bc9 b1bc
00000110: 47ad c83c 2cac 583d c424 253c ddf5 6c3b
00000120: f969 2b3d 5aaf 5f3b 5f98 fdbc 19d4 863d
00000130: 714f 80bd e371 4dbd 8ca8 833c be21 453d
00000140: 6421 213d d52b 7bbd 7f22 89bd 1d0d 7d3d
00000150: d48a 02bd 1f6a ebbc 1f4c 8d3d c2ea 1ebd
00000160: fe1b 36bd 3f22 843d eb31 753d 99c5 ae3c
00000170: 25cd dfbc 171d 86bd 88d7 92bd 1a28 b83c
00000180: bd88 043c ed49 e93c 722c 9d3b 00eb e8bc
00000190: 02c0 483d 88cc db3c afe3 fbbb 5338 333d
000001a0: b654 423d 9776 4b3d 1ec4 1bbd 6255 13bd
000001b0: 1821 e13c c13f 9a3c 62c2 d0bc 6bbc 523d
000001c0: c145 e3bd 0d89 69be a1f7 c3bc 3dbe ff3d
000001d0: 6e8f 0ebe feb7 863b 8193 0e3e df30 543e
000001e0: 1a69 ac3c 120e f0bc 4546 02b8 40d7 76bb
000001f0: dcc2 923d 455c 4ebd b141 50bd b0e4 313c
00000200: e68f 2cbd 6414 5dbc 3fc0 143d 650a 40bd
00000210: 78dc 2dbb a00c 27bc 90e4 d13c 533d 9bbd
00000220: 7e85 13bd 3a89 47bc 5eee 513d 4e82 20bc
00000230: a0f7 5b3d 6c05 3e3d f892 25bc 045d 863c
00000240: 1b44 82bd da3c 873d 1a7c 0f3d 5fe4 2cbd
00000250: 5a4b 2ebc 09e3 983d 03b6 8e3c 0beb 88bd
00000260: d0ca 3b3d 81d0 b43a a9f1 193e ce05 8abe
00000270: 5cf5 8dbc d323 17bd 85c1 74bc 342c dabb
00000280: 4b6d 943d 807c 473e 2547 8c3b ec4b 833d
00000290: 4be3 cf3b cb3e 64bd d5c7 36bd 51e5 10bd
000002a0: f9dc 67bd 1b23 c93c 3557 533c f624 f13c
000002b0: 9375 43bc a10e 5cbe 5f2c 92bd 146a 85bd
000002c0: 988b 663d d7c6 5fbd cd88 603b 7cd8 11be
000002d0: 0a7c 59bd 270d e7bc a0f4 843c a5e2 103a
000002e0: 6a94 85bc c424 16bd 0c75 24bc faaa a1bd
000002f0: 1ac5 6fbb 4c63 35bd 5e3f 073d 7743 8b3d
00000300: b782 73bd c203 85bd 443a 57bd 861c 7ebd
00000310: 2829 443c 5515 13bd bb2f d8bc 7dda 7f3d
00000320: 7668 98bc babf 0b3a ccc1 a7bc 38c4 4bbd
00000330: 793d 1e3d c57e e4bd 7a26 48bd 61d6 a0bc
00000340: 5338 363c d709 2ebd 8ad7 49bd f353 bfbb
00000350: 1ed3 0f3d c0f8 5dbb fa2d 21bd 5299 4c3d
00000360: 798c 0dbe b3c3 f53c f18a 47bd 7866 2a3d
00000370: f854 f4bc d497 25bc 3ad8 243a 26c3 4dbe
00000380: 0fad 2dbe ea17 b1bd 0068 dc3d 3596 a6bd
00000390: 1694 21bd 7249 fc3c 089c 9b3c 8259 0fbc
000003a0: c2a5 bb3c e47e 813c 647b 1cbd 249f 1b3c
000003b0: 6090 84bd 1a43 99bc 6f5b 92bc 28a4 05bc
000003c0: 4843 803d 0802 86bd ceac 523d b2d5 aebd
000003d0: 644f 053d b799 b83d e9d4 323d 3a6b 8d3c
000003e0: 47c8 8abd 2fe7 a4bc bdf4 63bd 4c66 5b3d
000003f0: 698c 7f3c 35ab 033d 179f 0bbd 46fc 60bd

conv2.bias f4 [128]
-0.040813196 -0.028138392 -0.070015475 0.070712425 0.11315011 0.04694976 -0.06825792 -0.031287525
-0.07454306 -0.08682246 -0.116567634 0.102394626 0.07074853 -0.13338858 -0.0314444 0.120824836
-0.10331312 0.192872 -0.022016246 -0.14834665 -0.09217478 -0.21219066 0.26871023 -0.1770263
-0.09934797 -0.078258105 0.18021046 -0.069471754 -0.009615939 -0.17017987 -0.10988981 0.06183733
-0.11970587 -0.14672464 -0.09534029 -0.07220787 -0.19824961 -0.05713291 -0.13034575 0.15176126
-0.115311615 -0.13562512 -0.027672488 -0.0927312 -0.03848354 -0.094762065 -0.12695737 -0.13962995
-0.048067138 -0.08503605 0.16031976 -0.04151337 0.08114097 0.030087778 -0.022223119 -0.011761563
-0.0768988 -0.117575556 -0.18657124 -0.045250718 -0.07672384 -0.13661404 0.21105449 -0.059972353
-0.12654102 -0.20955664 -0.13461368 -0.02611218 -0.09284715 -0.022071011 -0.0664318 0.16103214
-0.112113155 -0.022590002 -0.19254386 -0.046915833 -0.018721446 -0.1572925 -0.07725766 -0.13280338
-0.16553414 -0.111741446 -0.17662501 -0.11600698 -0.11170033 -0.05897928 -0.13696894 -0.018005589
0.027370302 -0.0752139 -0.1289579 -0.009745589 -0.06522505 -0.05504654 -0.12804748 -0.0642094
0.21151048 -0.07074784 0.022853063 -0.050077617 -0.1792422 0.023338245 -0.05831637 -0.15350395
-0.11607861 -0.07203353 0.16690432 -0.18798995 -0.08470224 -0.008197261 0.06938807 -0.057799917
-0.19355278 -0.03146218 -0.024206309 -0.031026859 -0.12478115 -0.04915552 0.1294449 -0.1621181
-0.032667633 0.22361137 -0.13451257 -0.034110896 -0.06663102 -0.04247166 -0.053515002 -0.065515764
00000000: bd2b 27bd 7c82 e6bc 4664 8fbd add1 903d
00000010: 3fbb e73d 644e 403d cfca 8bbd 5927 00bd
00000020: 08aa 98bd f9cf b1bd 03bb eebd 46b4 d13d
00000030: 9be4 903d 0497 08be d8cb 00bd 0373 f73d
00000040: d495 d3bd 3d80 453e 6a5b b4bc 2fe8 17be
00000050: 22c6 bcbd 8248 59be 6394 893e 6246 35be
00000060: f376 cbbd c945 a0bd 1789 383e 3547 8ebd
00000070: 2c8c 1dbc a243 2ebe e90d e1bd 2449 7d3d
00000080: 5a28 f5bd fc3e 16be c541 c3bd b8e1 93bd
00000090: f201 4bbe 3304 6abd 5b79 05be 4e67 1b3e
000000a0: 7f28 ecbd 50e1 0abe 6ab1 e2bc dbe9 bdbd
000000b0: eba0 1dbd 9d12 c2bd 1d01 02be 27fb 0ebe
000000c0: 0ce2 44bd 6127 aebd dd2a 243e ec09 2abd
000000d0: 3d2d a63d a57a f63c 420d b6bc 92b3 40bc
000000e0: 1e7d 9dbd 74cb f0bd 880c 3fbe d158 39bd
000000f0: 6321 9dbd 8de4 0bbe ab1e 583e 92a5 75bd
00000100: f893 01be 0496 56be 2bd8 09be 36e9 d5bc
00000110: a626 bebd 44ce b4bc 650d 88bd 9ce5 243e
00000120: 959b e5bd ab0e b9bc 382a 45be d12a 40bd
00000130: b85d 99bc 4911 21be 4439 9ebd 9cfd 07be
00000140: c881 29be b3d8 e4bd 30dd 34be 1195 edbd
00000150: 25c3 e4bd 4294 71bd 9641 0cbe 7580 93bc
00000160: af37 e03c bf09 9abd 8a0d 04be f7ab 1fbc
00000170: b694 85bd 7b78 61bd e11e 03be 3880 83bd
00000180: 3496 583e 3ee4 90bd 5936 bb3c 301e 4dbd
00000190: 448b 37be d92f bf3c 25dd 6ebd 2430 1dbe
000001a0: 9fba edbd 5186 93bd f7e8 2a3e 7080 40be
000001b0: 5e78 adbd ce4d 06bc 551b 8e3d 9bbf 6cbd
000001c0: b332 46be 7dde 00bd 4f4c c6bc 0a2c febc
000001d0: 428d ffbd 4c57 49bd 348d 043e 4a02 26be
000001e0: 7fce 05bd 61fa 643e aabd 09be deb7 0bbd
000001f0: d875 88bd c3f6 2dbd 8c32 5bbd 212d 86bd

lstm.weight_ih_l0 f4 [200, 128]
-0.0046176002 -0.24205506 0.08484996 0.21640581 -0.03710072 0.026063127 -0.0052936836 -0.1820582
-0.25943214 -0.10283733 -0.12699221 0.23962228 0.017892845 -0.04340503 0.047946755 0.16094011
0.11358911 0.33857214 0.116783775 -0.040087305 -0.13623674 -0.042835932 -0.007222659 -0.084687196
-0.16111872 0.059836414 0.08861889 -0.12267699 -0.10978344 -0.2175683 -0.0057178875 0.029642234
-0.12763454 -0.026674256 -0.039527755 -0.34676093 0.032881413 -0.0908694 0.12997004 -0.027333543
0.18985377 0.15760992 0.030924708 -0.097258545 -0.052422896 0.008574228 0.06836192 -0.17315403
0.0055543864 -0.22880615 0.2788317 0.012840051 -0.019102745 0.24728057 0.075776145 0.29045144
-0.24898264 -0.10406211 0.04941133 -0.11818689 0.14390685 -0.08399385 0.14375216 0.06300221
-0.02089538 -0.037178956 0.032594115 -0.14190769 -0.14080036 -0.26395473 0.055200927 0.094734356
-0.3405229 -0.054745756 0.043049753 -0.2187153 -0.10838533 -0.06452664 -0.044780612 -0.22255474
0.012640923 0.11205204 -0.062075675 -0.06867372 -0.056710068 0.016458884 0.15714613 -0.07421021
-0.08730284 0.021410085 0.15679714 0.06533881 0.109799914 -0.001459295 0.014748391 -0.091232374
0.18250002 0.120914035 0.27402732 -0.009632571 -0.18731788 0.09939218 -0.18112017 -0.16794373
-0.08539517 -0.09587248 0.0017754057 -0.013539326 -0.43482995 -0.28234446 0.0520869 -0.020016046
-0.004894381 -0.045068134 0.012161785 0.022129025 -0.06958526 -0.09463503 0.27463624 -0.042425603
0.0009901619 0.3375854 0.09854649 -0.1252533 -0.005702876 0.14137089 0.012536671 -0.06766143
0.25834408 0.025613358 -0.036186486 0.06988372 0.48714325 0.06596858 -0.15255637 -0.23737112
0.0883859 -0.13364567 0.00413177 0.0023467408 -0.009888621 0.054226287 0.08598325 0.5956834
-0.07354181 0.6513086 0.042619117 -0.0058790063 -0.1325994 0.11382508 -0.047831208 -0.039142147
0.04313129 0.013641641 0.322172 -0.03663645 0.09832643 -0.09443945 0.056581732 0.17353559
-0.11000331 0.0020711105 -0.056847367 0.14045772 0.07197849 -0.046453346 -0.032956947 0.057826072
-0.13022728 0.093207285 0.11644719 0.10109559 -0.08614233 0.07929626 0.06658429 -0.0298283
-0.064825915 -0.08036419 0.1108675 0.12004241 -0.15748672 -0.116832644 0.0018099335 0.11434037
-0.050431814 0.19343725 0.12421435 -0.07887921 0.5240637 0.006330891 0.5594008 0.018897006
-0.17137586 0.071582645 -0.054880295 -0.07912816 0.017288497 0.010159081 -0.11471481 0.16998263
0.17693609 0.11918955 -0.026826499 -0.0039181584 -0.09087386 -0.11019125 -0.06372688 0.13572228
-0.018204506 -0.06543962 -0.05875405 -0.10925546 0.16753082 0.14967678 -0.024390314 -0.100885734
-0.2565517 0.2240054 -0.12473981 -0.0055339253 -0.14452805 -0.1140058 -0.035929468 -0.103948444
0.11496371 0.13580865 -0.17732766 -0.074409835 0.11310534 0.0067490125 0.01871445 0.051366363
0.2061318 -0.07699838 -0.22345339 -0.084023595 -0.07619756 0.20310242 -0.031844124 0.0022776993
-0.0018658686 -0.14253286 0.1355504 -0.026795609 -0.066680096 0.012452137 0.45369062 0.12210319
-0.09353374 -0.04898566 -0.107521 -0.005687922 -0.10455043 0.12928297 0.03650017 -0.00664493
00000000: 3d4f 97bb 48dd 77be d1c5 ad3d 7c99 5d3e
00000010: edf6 17bd 5782 d53c a376 adbb 776d 3abe
00000020: 4ad4 84be 619c d2bd 3f0a 02be 8b5f 753e
00000030: 0494 923c 79c9 31bd d163 443d 7ccd 243e
00000040: 68a1 e83d 5459 ad3e 552c ef3d 9632 24bd
00000050: a581 0bbe bb74 2fbd 0eac ecbb 7b70 adbd
00000060: 4efc 24be 0717 753d d27d b53d 133e fbbd
00000070: 24d6 e0bd 39ca 5ebe 1e5d bbbb 45d4 f23c
00000080: a1b2 02be f883 dabc dbe7 21bd a68a b1be
00000090: a9ae 063d bc19 babd de16 053e 98ea dfbc
000000a0: 0769 423e 7f64 213e d055 fd3c 7d2f c7bd
000000b0: 64b9 56bd eb7a 0c3c 5601 8c3d 4a4f 31be
000000c0: 9201 b63b 294c 6abe 07c3 8e3e 145f 523c
000000d0: 5c7d 9cbc 1e37 7d3e 8630 9b3d 0db6 943e
000000e0: 4ef5 7ebe 841e d5bd 8963 4a3d f80b f2bd
000000f0: 515c 133e f804 acbd c433 133e 4d07 813d
00000100: ca2c abbc f648 18bd 6881 053d 4050 11be
00000110: f82d 10be 1325 87be 5e1a 623d 1604 c23d
00000120: 0459 aebe 163d 60bd f054 303d e7f6 5fbe
00000130: 21f9 ddbd 8b26 84bd e06b 37bd 64e5 63be
00000140: e01b 4f3c 8a7b e53d 1043 7ebd cfa4 8cbd
00000150: d148 68bd c8d4 863c eaea 203e 86fb 97bd
00000160: d5cb b2bd 3464 af3c 6e8f 203e 5bd0 853d
00000170: c7de e03d d145 bfba 3ca3 713c 0ad8 babd
00000180: 49e1 3a3e c7a1 f73d 4f4d 8c3e eed1 1dbc
00000190: 42d0 3fbe 218e cb3d 9177 39be 71f9 2bbe
000001a0: aae3 aebd ca58 c4bd bbb4 e83a 0dd4 5dbc
000001b0: 08a2 debe 748f 90be 1359 553d b1f8 a3bc
000001c0: 0b61 a0bb 5d99 38bd 3942 473c ee47 b53c
000001d0: b782 8ebd 03d0 c1bd 1f9d 8c3e 78c6 2dbd
000001e0: 52c8 813a fed7 ac3e bed2 c93d 6742 00be
000001f0: 31df babb 88c3 103e 9c66 4d3c 1392 8abd
00000200: ad45 843e 1bd3 d13c 4838 14bd 321f 8f3d
00000210: d76a f93e 891a 873d bd37 1cbe 6a11 73be
00000220: ab03 b53d 69da 08be cd63 873b c7cb 193b
00000230: e203 22bc 621c 5e3d fc17 b03d b57e 183f
00000240: 179d 96bd 29bc 263f 6291 2e3d aea4 c0bb
00000250: 23c8 07be 201d e93d a8ea 43bd 8453 20bd
00000260: 6faa 303d 3081 5f3c baf3 a43e 1a10 16bd
00000270: 5e5f c93d 7869 c1bd 3fc2 673d 50b3 313e
00000280: 6a49 e1bd 78bb 073b c9d8 68bd 26d4 0f3e
00000290: 7569 933d dd45 3ebd ddfd 06bd 08db 6c3d
000002a0: 4d5a 05be 76e3 be3d dd7b ee3d 340b cf3d
000002b0: 646b b0bd 1466 a23d 585d 883d 7b5a f4bc
000002c0: 73c3 84bd fb95 a4bd 800e e33d ccd8 f53d
000002d0: 3344 21be f445 efbd 4a3b ed3a 492b ea3d
000002e0: 9791 4ebd 6a14 463e 1864 fe3d 6c8b a1bd
000002f0: 0a29 063f 5d73 cf3b e434 0f3f e5cd 9a3c
00000300: 277d 2fbe ec99 923d 29ca 60bd f20d a2bd
00000310: 9ba0 8d3c 4672 263c 99ef eabd ed0f 2e3e
00000320: bc2e 353e a719 f43d 3fc3 dbbc e563 80bb
00000330: 131c babd f3ab e1bd 3d83 82bd c8fa 0a3e
00000340: 9e21 95bc 3505 86bd 16a8 70bd 54c1 dfbd
00000350: 338d 2b3e df44 193e 32ce c7bc 2e9d cebd
00000360: bf5a 83be ac61 653e 9677 ffbd ee55 b5bb
00000370: 29ff 13be df7b e9bd c72a 13bd ece2 d4bd
00000380: 1872 eb3d 6c11 0b3e 6295 35be 2f64 98bd
00000390: c6a3 e73d d226 dd3b 0c4f 993c 8965 523d
000003a0: 3714 533e 54b1 9dbd f7d0 64be 9014 acbd
000003b0: 770d 9cbd 15fa 4f3e fc6e 02bd 7445 153b
000003c0: 2990 f4ba 22f4 11be b9cd 0a3e 7782 dbbc
000003d0: 938f 88bd 0c04 4c3c 234a e83e 3d11 fa3d
000003e0: 9e8e bfbd 30a5 48bd f833 dcbd bf61 babb
000003f0: 891e d6bd c162 043e 3481 153d b7bd d9bb

lstm.weight_hh_l0 f4 [200, 50]
-0.054758705 -0.002672712 -0.3164471 -0.023383245 -0.025530072 0.09906512 -0.0010671942 0.05421768
-0.027776469 -0.26197597 -0.14549 0.17331892 -0.024618827 0.039419465 0.31708047 0.18239129
0.01695829 -0.5655969 0.16561837 -0.17653377 -0.008589902 -0.05715347 0.06285057 -0.17691125
-0.083900385 0.0729895 -0.045908112 -0.22274186 0.12521148 0.121526524 -0.31585154 -0.11076222
-0.17668095 -0.12035717 0.029392555 -0.20716672 -0.12419214 -0.13576649 0.1842389 0.08457566
0.28295955 -0.13759457 -0.14312771 -0.14283152 0.11828893 -0.34598842 0.32354283 -0.036887158
0.04014359 0.46699744 -0.48995855 0.2987276 -0.2875352 0.13810124 0.31496492 -0.14070138
-0.18442792 0.051822208 -0.5880649 0.31560907 -0.03756664 -0.078737736 -0.0046718875 0.050780162
-0.053864352 0.12247906 0.059779223 -0.29844195 0.032201275 -0.11364269 -0.11436939 -0.13979056
-0.034846712 -0.0011431898 0.17870767 -0.01973102 -0.036421135 -0.53476155 0.087181844 0.0086789355
0.104303986 0.21861936 -0.24755408 -0.15908293 0.2226366 0.038472332 -0.09253637 -0.36887428
-0.049657404 0.054901205 0.011416155 0.1802436 0.12924948 -0.067288004 0.18501039 -0.33724606
0.64796394 -0.2712686 -0.14827763 0.2715271 -0.24544957 0.36482877 -0.019953974 0.004838391
0.019250201 0.0026205368 0.111255445 0.164829 -0.23826064 0.17155366 0.13165224 -0.16143312
0.055879965 -0.01676939 0.119147085 -0.0166747 0.116365284 0.041526783 0.08494998 -0.015096588
0.1453321 -0.05271234 -0.17431149 0.01415359 -0.16219608 -0.041767083 0.18162532 -0.03922689
-0.03307526 0.016730506 0.06173618 0.04539987 0.053125065 0.018642064 0.04453312 0.21726723
-0.039761476 0.28802496 0.1284297 -0.02392136 0.010769726 -0.11008909 0.051644813 -0.07577282
0.038515646 0.191669 0.19578129 0.113630906 -0.15652975 0.008679665 -0.12699673 0.01101364
0.038654633 0.12811206 -0.055122867 -0.09134749 -0.05630953 -0.014094982 0.025203735 -0.07808905
0.0061270962 0.059425615 0.13470988 -0.0963001 -0.24772447 0.09300401 -0.059766155 0.013663554
-0.030870449 -0.046836983 -0.17885016 -0.013695232 0.040425133 -0.0131134335 0.04569033 -0.05032026
-0.025546353 -0.00030277154 0.020853166 -0.0034621924 0.08590519 -0.15137818 0.06552214 0.046257466
0.0789991 -0.13399123 0.09450241 -0.0029749267 -0.041973095 0.02559284 0.11790664 -0.06488137
-0.052971665 0.07144083 0.15818271 -0.110855885 -0.03925013 0.18729918 -0.044588897 -0.10131979
-0.07094586 -0.06693587 -0.14015684 0.07481015 0.10652781 -0.08916371 -0.11044835 0.078150116
-0.051976524 -0.008384241 0.072942056 0.11815295 0.08987041 -0.08851435 0.1856336 -0.07581938
0.10808891 0.019693803 -0.05846494 -0.15519147 0.07031745 0.071308576 0.20225054 -0.19123335
0.018759804 0.070038855 0.053834144 0.16863589 0.01836197 -0.04640399 0.18807119 -0.039664783
-0.07593524 -0.052270137 0.044745278 -0.055468 0.05795026 -0.10652991 0.05441585 0.097652994
-0.024371836 -0.03560583 0.065774664 -0.15239501 0.060468305 -0.2297271 0.12941523 -0.013329083
0.14922136 0.015347628 -0.27130735 -0.22622989 -0.012452671 -0.027539106 0.064147934 0.039371107
00000000: aa4a 60bd ab28 2fbb 5b05 a2be 388e bfbc
00000010: 7124 d1bc a7e2 ca3d 18e1 8bba 5c13 5e3d
00000020: 7a8b e3bc b721 86be 55fb 14be 847a 313e
00000030: 6cad c9bc 4e76 213d 5f58 a23e c8c4 3a3e
00000040: 1dec 8a3c f5ca 10bf dd97 293e 45c5 34be
00000050: a9bc 0cbc c219 6abd cdb7 803d 3928 35be
00000060: f7d3 abbd 857b 953d 250a 3cbd 7116 64be
00000070: 7037 003e e6e2 f83d 4bb7 a1be 4ed7 e2bd
00000080: daeb 34be d27d f6bd a8c8 f03c 8323 54be
00000090: 7358 febd 5f06 0bbe 1fa9 3c3e 0136 ad3d
000000a0: 13e0 903e 97e5 0cbe 1290 12be 6d42 12be
000000b0: 7741 f23d 6525 b1be 68a7 a53e fd16 17bd
000000c0: 9b6d 243d 4a1a ef3e d9db fabe d3f2 983e
000000d0: d037 93be 696a 0d3e 1543 a13e 0614 10be
000000e0: acda 3cbe 8643 543d 6c8b 16bf 8397 a13e
000000f0: 7adf 19bd 4041 a1bd a216 99bb dcfe 4f3d
00000100: dea0 5cbd 4dd6 fa3d 0fdb 743d 62cd 98be
00000110: 7ce5 033d 80bd e8bd 803a eabd 4225 0fbe
00000120: 6dbb 0ebd 16d7 95ba 25ff 363e f3a2 a1bc
00000130: 542e 15bd 22e6 08bf 658c b23d 1832 0e3c
00000140: 549d d53d c1dd 5f3e d17e 7dbe a3e6 22be
00000150: d9fa 633e 2a95 1d3d b583 bdbd 17dd bcbe
00000160: 9065 4bbd 16e0 603d d30a 3b3c c791 383e
00000170: fa59 043e 4bce 89bd 5d73 3d3e 84ab acbe
00000180: f7e0 253f b8e3 8abe 17d6 17be 9a05 8b3e
00000190: 2257 7bbe d6ca ba3e 8476 a3bc 5e8b 9e3b
000001a0: 99b2 9d3c 50bd 2b3b e5d9 e33d efc8 283e
000001b0: 99fa 73be c3ab 2f3e d8cf 063e b94e 25be
000001c0: 64e2 643d f65f 89bc 6303 f43d 6199 88bc
000001d0: ec50 ee3d fd17 2a3d 41fa ad3d ae57 77bc
000001e0: f0d1 143e e5e8 57bd b67e 32be 76e4 673c
000001f0: bb16 26be f613 2bbd fdfb 393e 60ac 20bd
00000200: ed79 07bd 6a0e 893c 14df 7c3d 37f5 393d
00000210: ab99 593d 3eb7 983c 5c68 363d 4d7b 5e3e
00000220: eedc 22bd 0278 933e 1383 033e baf6 c3bc
00000230: 8173 303c 6476 e1bd 8389 533d c82e 9bbd
00000240: 95c2 1d3d e144 443e e47a 483e 52b7 e83d
00000250: 5649 20be 2735 0e3c 6e0b 02be 8e72 343c
00000260: 5254 1e3d cf2f 033e 84c8 61bd 6514 bbbd
00000270: d2a4 66bd a4ee 66bc 1078 ce3c 27ed 9fbd
00000280: cfc5 c83b 4668 733d 63f1 093e fd38 c5bd
00000290: 7cab 7dbe e378 be3d 5bcd 74bd 19dd 5f3c
000002a0: 06e4 fcbc 23d8 3fbd 7f24 37be f761 60bc
000002b0: d394 253d bad9 56bc c925 3b3d 9e1c 4ebd
000002c0: 9646 d1bc 4fbd 9eb9 42d4 aa3c f3e5 62bb
000002d0: 0fef af3d e202 1bbe 7930 863d 7878 3d3d
000002e0: 48ca a13d ff34 09be 7b8a c13d fdf6 42bb
000002f0: fbeb 2bbd 13a8 d13c 0979 f13d 86e0 84bd
00000300: d1f8 58bd 924f 923d a6fa 213e 6908 e3bd
00000310: bfc4 20bd 5bcb 3f3e d9a2 36bd c080 cfbd
00000320: 104c 91bd ac15 89bd 4685 0fbe 1036 993d
00000330: 412b da3d 779b b6bd bf32 e2bd 2b0d a03d
00000340: 56e5 54bd 0e5e 09bc a562 953d 2dfa f13d
00000350: fa0d b83d 0347 b5bd bc16 3e3e 3147 9bbd
00000360: b85d dd3d e654 a13c ef78 6fbd 83ea 1ebe
00000370: 9802 903d 3b0a 923d c41a 4f3e add2 43be
00000380: 29ae 993c 8870 8f3d 3181 5c3d e3ae 2c3e
00000390: d86b 963c 1c12 3ebd bc95 403e 8a77 22bd
000003a0: ef83 9bbd 3619 56bd d346 373d 6a32 63bd
000003b0: 405d 6d3d 5a2c dabd 28e3 5e3d 4bfe c73d
000003c0: 72a7 c7bc 6bd7 11bd deb4 863d 700d 1cbe
000003d0: 9dad 773d 953d 6bbe 6d85 043e 3a62 5abc
000003e0: 7ccd 183e 9e74 7b3c cce8 8abe cfa8 67be
000003f0: 4a06 4cbc b199 e1bc fe5f 833d 9943 213d

lstm.bias_ih_l0 f4 [200]
0.2300948 0.4409977 0.109862685 0.08995056 0.056984074 0.045427103 0.21484858 -0.0052717915
-0.09133567 0.27830237 0.11400348 0.061802834 0.040406488 -0.122453466 0.16381827 -0.13330595
-0.089992695 0.06273074 0.033711195 0.017801227 0.051221736 0.03379295 0.06642386 0.087737985
-0.027602334 0.0057624993 -0.051376633 0.32080698 0.10059363 0.068276025 0.028747853 0.025200123
0.07878141 0.091873325 -0.009044323 0.29918313 0.13130994 0.25363246 -0.07186298 0.37261003
0.21308123 -0.14766121 -0.10688695 0.046363022 -0.14076176 0.020947747 0.06328827 -0.13393095
0.24622263 0.12424121 -0.17658927 -0.018783955 0.11591984 -0.06813944 -0.098963305 -0.08013717
0.01211306 0.033079326 0.08271743 -0.11178474 -0.016042301 -0.0015052527 -0.08503346 0.09654345
-0.014332489 0.038374454 -0.06874352 0.10381837 -0.028469298 -0.11438946 0.06767774 -0.056151222
-0.103778884 -0.017336823 0.017210355 0.050993897 0.036017343 -0.05654818 -0.028223569 -0.17529982
-0.07319568 -0.0055764588 -0.02985446 0.1589176 -0.05416344 0.027112164 -0.047562364 -0.07477964
0.16478007 -0.15257715 -0.119506896 -0.011066704 -0.12069581 -0.028259492 0.019574348 0.13995682
-0.22560914 -0.1709023 0.06413692 0.0008730887 -0.10919804 -0.03725264 -0.01843599 0.070028745
-0.054882616 -0.14697018 -0.03293055 0.06737274 -0.0693653 -0.11767672 -0.016731758 -0.057637822
-0.063271984 0.08303765 0.047668107 0.07632497 0.15415823 -0.10596218 0.011899096 0.09217731
0.060577687 0.028712662 -9.614261e-05 -0.11578158 -0.034952797 -0.11343307 0.07370238 -0.09801595
-0.006932973 0.04729491 0.004864162 0.05802533 -0.076823466 -0.0065825135 0.036630213 -0.1416501
-0.16252144 -0.068570875 0.017435992 -0.011768458 0.09523374 -0.02688277 -0.056372758 -0.09325863
0.06541815 -0.037237357 0.15046278 -0.019925676 -0.041139033 -0.007246251 0.114043154 0.28808898
-0.06776296 -0.1320594 -0.0020373692 0.13673721 0.09703219 -0.036728803 0.07434388 0.0190701
0.13646935 0.011434856 0.081150554 -0.0123962425 0.14765827 -0.007922846 -0.10807218 0.16939035
-0.17093264 0.07143948 -0.070479445 -0.09472057 -0.048626408 0.117928356 -0.04799328 0.0030358348
0.10651941 0.2566145 0.081091516 -0.10739395 0.13549154 0.030552784 0.030158203 0.0029357874
0.06573992 0.12117252 0.18245775 0.259222 -0.14433569 0.20342596 0.37573084 -0.02622825
-0.023801614 0.04209195 0.08983904 0.064358324 0.1302717 0.014621009 0.11471952 0.2782803
00000000: f99d 6b3e 73ca e13e b0ff e03d 0038 b83d
00000010: 2268 693d c511 3a3d 4401 5c3e febe acbb
00000020: 320e bbbd a67d 8e3e a87a e93d f824 7d3d
00000030: 4681 253d e2c8 fabd fabf 273e 5b81 08be
00000040: 174e b8bd f978 803d c014 0a3d e1d3 913c
00000050: e2cd 513d 7a6a 0a3d 3c09 883d f9af b33d
00000060: 4a1e e2bc 59d3 bc3b 4e70 52bd d040 a43e
00000070: 0804 ce3d 4dd4 8b3d 9e80 eb3c 7d70 ce3c
00000080: 2658 a13d 1528 bc3d a42e 14bc 882e 993e
00000090: 1d76 063e 1ddc 813e e62c 93bd bec6 be3e
000000a0: f731 5a3e 8034 17be 8ce7 dabd 27e7 3d3d
000000b0: da23 10be 9c9a ab3c 489d 813d 3225 09be
000000c0: c921 7c3e 2d72 fe3d d1d3 34be cfe0 99bc
000000d0: 6267 ed3d b18c 8bbd 46ad cabd f51e a4bd
000000e0: db75 463c 307e 073d c267 a93d 66ef e4bd
000000f0: 256b 83bc e64b c5ba 0626 aebd 93b8 c53d
00000100: d1d2 6abc 882e 1d3d 67c9 8cbd ba9e d43d
00000110: 7238 e9bc 0545 eabd a09a 8a3d d3fe 65bd
00000120: 068a d4bd f405 8ebc bbfc 8c3c fade 503d
00000130: ec86 133d 109f 67bd 1d35 e7bc cc81 33be
00000140: 9ee7 95bd baba b6bb 5791 f4bc 4cbb 223e
00000150: 7cda 5dbd 541a de3c c1d0 42bd 1126 99bd
00000160: 1bbc 283e 2f3d 1cbe 08c0 f4bd 1f51 35bc
00000170: 5d2f f7bd 7380 e7bc 625a a03c d750 0f3e
00000180: 1506 67be 0301 2fbe 385a 833d fedf 643a
00000190: 39a3 dfbd 3996 18bd 1307 97bc 3b6b 8f3d
000001a0: 98cc 60bd 5a7f 16be 2fe2 06bd b8fa 893d
000001b0: 650f 8ebd 7e00 f1bd 0a11 89bc a315 6cbd
000001c0: be94 81bd a50f aa3d a23f 433d 4450 9c3d
000001d0: a8db 1d3e b302 d9bd 6df4 423c 75c7 bc3d
000001e0: 4f20 783d d136 eb3c 2ca0 c9b8 e51e edbd
000001f0: aa2a 0fbd 994f e8bd 46f1 963d 96bc c8bd
00000200: fe2d e3bb 4fb8 413d 8c63 9f3b f8ab 6d3d
00000210: 9f55 9dbd 20b2 d7bb 9009 163d b90c 11be
00000220: 056c 26be e36e 8cbd edd5 8e3c 7ed0 40bc
00000230: e809 c33d 4139 dcbc 1fe7 66bd 61fe bebd
00000240: f3f9 853d 3386 18bd ea12 1a3e 2c3b a3bc
00000250: 6781 28bd f671 edbb 758f e93d 6680 933e
00000260: 4fc7 8abd 943a 07be 6285 05bb d704 0c3e
00000270: d0b8 c63d f170 16bd 9b41 983d e638 9c3c
00000280: 9fbe 0b3e 4359 3b3c 4332 a63d 9c19 4bbc
00000290: bb33 173e d3ce 01bc f254 ddbd aa74 2d3e
000002a0: f708 2fbe dd4e 923d 8757 90bd dcfc c1bd
000002b0: 7c2c 47bd 6c84 f13d 9a94 44bd dbf4 463b
000002c0: d926 da3d fa62 833e 4f13 a63d 5cf1 dbbd
000002d0: 4bbe 0a3e d549 fa3c 560e f73c 5766 403b
000002e0: a7a2 863d 4c29 f83d 34d6 3a3e bfb8 843e
000002f0: bccc 13be e54e 503e cb5f c03e a0dc d6bc
00000300: 9afb c2bc 9c68 2c3d 88fd b73d 4cce 833d
00000310: f265 053e f58c 6f3c 11f2 ea3d c17a 8e3e

lstm.bias_hh_l0 f4 [200]
0.22195354 0.4586487 0.16501755 -0.113011874 0.15843323 0.14810425 0.15662736 -0.11904096
0.14024162 0.17270803 0.27948213 -0.05097819 0.09125875 0.05934309 -0.039613023 0.09371326
0.056587867 0.16540317 -0.16656324 -0.14427094 0.0984586 -0.08466958 0.182006 -0.062459555
0.11415758 -0.11109214 -0.10777382 0.06415545 0.083893694 -0.021974027 0.012397385 -0.12407222
0.052354712 -0.0768048 0.015501745 0.37203497 -0.024149882 0.44341847 -0.046210494 0.21386187
0.23252742 -0.12842256 -0.15142056 -0.12078757 -0.16030107 0.18490653 0.15421781 0.11420448
0.25066182 0.15927145 -0.050058864 -0.15113562 -0.12666813 0.07295862 -0.057351995 -0.11920487
-0.05430851 0.062390264 0.011534928 -0.20763351 -0.13208157 -0.0868081 -0.02999256 -0.043568436
-0.11590636 -0.10956823 -0.011225209 -0.07216603 0.17709163 -0.04513598 0.06883063 -0.10627078
-0.10439739 -0.053420827 0.034566116 -0.09677265 -0.08697906 -0.16119607 0.10661123 -0.10477291
0.05877481 0.037264045 -0.09809376 0.13903913 0.03976501 -0.06282926 0.021220854 -0.0070497007
0.1957862 -0.04150387 0.055338927 -0.04779733 -0.060263768 -0.03254127 -0.073260665 0.23974912
-0.180294 -0.0864088 0.1259944 -0.24809973 -0.011836088 0.15698554 0.0020476794 -0.053264774
-0.01864648 0.074258566 -0.089778244 -0.053363703 -0.14701581 0.08956152 -0.013748159 0.026699698
-0.06714263 -0.054156434 0.04761722 0.010663283 -0.052940972 -0.0513789 0.12878166 -0.06661855
-0.009005485 -0.04762137 -0.043344125 0.09705892 -0.1287941 0.085772164 -0.0160308 -0.0873265
-0.06982409 0.11770195 -0.050083045 0.009805271 -0.06502265 0.010006737 -0.12529318 0.060491033
0.02682484 -0.009962285 0.12453148 0.07477729 0.099662155 0.07169628 -0.10661937 -0.06728151
0.0017146757 0.015470328 0.030292226 -0.128913 -0.022638671 0.030946927 0.08528176 0.37420192
0.056239597 -0.07152034 0.17271072 0.21829802 0.19637896 0.07127321 -0.03225026 0.12027129
0.28131855 0.026149396 -0.051282015 -0.18102905 -0.03373647 -0.11025257 -0.017770689 0.28228652
0.078037314 -0.09410757 0.08204363 -0.07415901 0.17715523 0.10649165 0.16431563 -0.074924335
0.066062376 0.14078182 0.252924 -0.14923696 -0.024880627 -0.007186001 -0.12622584 -0.06381384
-0.15628819 0.32952118 0.1094265 0.1561837 -0.04688335 0.20808531 0.26564756 0.089766905
0.06516655 -0.08242223 -0.005776723 -0.04947422 0.12941149 0.056085043 0.09271411 0.20479213
00000000: ca47 633e 01d4 ea3e 5cfa 283e c572 e7bd
00000010: 523c 223e a4a8 173e ec62 203e bfcb f3bd
00000020: 809b 0f3e 60da 303e 4818 8f3e 82ce 50bd
00000030: dee5 ba3d bd11 733d 4441 22bd bdec bf3d
00000040: aec8 673d 735f 293e 8e8f 2abe c3bb 13be
00000050: aaa4 c93d 3f67 adbd c85f 3a3e 97d5 7fbd
00000060: 73cb e93d 4784 e3bd 85b8 dcbd ef63 833d
00000070: 75d0 ab3d e002 b4bc 671e 4b3c 9319 febd
00000080: e571 563d d64b 9dbd 08fb 7d3c 5e7b be3e
00000090: f9d5 c5bc bf07 e33e 3747 3dbd 9bfe 5a3e
000000a0: ab1b 6e3e 3481 03be fe0d 1bbe 795f f7bd
000000b0: f725 24be 2358 3d3e 46eb 1d3e 0ae4 e93d
000000c0: bf56 803e 0e18 233e 860a 4dbd 4cc3 1abe
000000d0: 4ab5 01be 546b 953d ede9 6abd af21 f4bd
000000e0: 9a72 5ebd ef8c 7f3d fffc 3c3c e19d 54be
000000f0: 6440 07be 72c8 b1bd f5b2 f5bc d174 32bd
00000100: 5060 edbd 4f65 e0bd f0e9 37bc c9cb 93bd
00000110: 8257 353e 81e0 38bd 13f7 8c3d 7fa4 d9bd
00000120: 4cce d5bd cccf 5abd 3395 0d3d bd30 c6bd
00000130: 1422 b2bd 9510 25be fd56 da3d 2e93 d6bd
00000140: dbbd 703d 2fa2 183d 62e5 c8bd 4660 0e3e
00000150: a3e0 223d a1ac 80bd 5bd7 ad3c 2d01 e7bb
00000160: 2d7c 483e f6ff 29bd 12ab 623d 22c7 43bd
00000170: 24d7 76bd ff49 05bd b009 96bd cb80 753e
00000180: fe9e 38be 19f7 b0bd ad04 013e db0d 7ebe
00000190: 27ec 41bc d1c0 203e 5c32 063b 2a2c 5abd
000001a0: 81c0 98bc e014 983d a8dd b7bd e693 5abd
000001b0: 508b 16be 086c b73d f53f 61bc 53b9 da3c
000001c0: 1382 89bd 23d3 5dbd 460a 433d 0db5 2e3c
000001d0: a2d8 58bd ae72 52bd 57df 033e 4e6f 88bd
000001e0: be8b 13bc a00e 43bd 9c89 31bd d4c6 c63d
000001f0: 9ae2 03be 51a9 af3d 0653 83bc 3cd8 b2bd
00000200: efff 8ebd b80d f13d e123 4dbd 4aa6 203c
00000210: 982a 85bd 4cf3 233c db4c 00be 72c5 773d
00000220: c4bf db3c da38 23bc 5c0a ff3d d624 993d
00000230: ac1b cc3d 80d5 923d 425b dabd e3ca 89bd
00000240: f8be e03a 4277 7d3c 6727 f83c c501 04be
00000250: bc74 b9bc 6984 fd3c 34a8 ae3d 6597 bf3e
00000260: 7e5b 663d 4279 92bd 14db 303e 8489 5f3e
00000270: 9117 493e b0f7 913d d918 04bd cb50 f63d
00000280: fc08 903e 4237 d63c 170d 52bd ae5f 39be
00000290: 412f 0abd 19cc e1bd d693 91bc dc87 903e
000002a0: 07d2 9f3d 78bb c0bd 7e06 a83d aee0 97bd
000002b0: 2e68 353e 4b18 da3d 5b42 283e ee71 99bd
000002c0: b64b 873d 1c29 103e 417f 813e 93d1 18be
000002d0: 75d2 cbbc 8c78 ebbb 5941 01be d5b0 82bd
000002e0: 030a 20be 00b7 a83e 001b e03d 9fee 1f3e
000002f0: c108 40bd 5114 553e f502 883e b6d7 b73d
00000300: 0a76 853d fccc a8bd aa4a bdbb 7ba5 4abd
00000310: 7284 043e 6eb9 653d e5e0 bd3d 07b5 513e

lstm.weight_ih_l1 f4 [200, 50]
0.21351977 -0.042055648 0.038071383 0.09190128 -0.04936777 0.14694756 0.024480335 0.109293155
0.17656223 0.13273463 0.035716936 -0.09654743 0.012283596 -0.079107255 0.012090184 0.00014537499
0.05877356 0.0009714932 0.10426758 -0.020265656 -0.05628519 -0.022949263 0.18088433 -0.16535604
-0.06550821 0.0679174 0.00063359237 -0.13987903 0.018254308 -0.14194232 -0.08296286 -0.037972916
0.15617824 0.033805713 -0.101218484 0.17836261 -0.07081108 0.10794181 -0.09963152 -0.0551385
-0.18246713 -0.09317855 -0.003560337 -0.03273625 -0.035182778 0.23089562 0.09093232 0.11445254
0.090059675 -0.067372106 0.0497349 -0.058078147 0.0016593724 0.13398165 -0.0054247454 -0.061070424
-0.0250907 -0.014037176 0.05989925 -0.017714439 0.076759726 0.018897276 0.13626345 -0.0672182
0.03206208 0.013160034 0.015249201 0.12805456 -0.07445936 0.13802643 -0.044700656 0.078053266
-0.07565145 0.16891536 -0.14177814 0.12939577 0.0027348436 -0.15480919 0.109372996 0.0856329
-0.03688401 -0.14053467 0.121522516 -0.22036195 0.111973196 0.12903528 -0.131129 -0.012387452
-0.07211549 0.11072594 -0.060669653 0.03028666 0.0112415105 -0.12704413 -0.033844586 0.0763403
-0.01136509 -0.13555971 0.08214552 0.04497929 -0.08214631 0.015298629 -0.2011468 0.10785928
0.21890137 -0.014028597 0.086711645 0.10898981 0.023639351 -0.112479374 -0.15771675 0.022072667
0.09823351 0.13975655 -0.12664242 0.29706046 -0.07083338 -0.23622316 -0.122468516 0.09743575
-0.15949833 -0.28722972 0.07682221 0.27230966 -0.0028425946 0.117807694 0.045336954 0.13428345
-0.1281441 -0.030231997 0.17965874 -0.021056278 -0.14383891 0.30245262 -0.029486183 -0.053025387
-0.07360832 -0.066773035 -0.09515326 0.17051126 -0.16371602 0.029527185 -0.053925704 0.09226652
0.19904703 0.03212178 0.019556185 -0.021787273 -0.11459924 -0.025272392 0.06811416 -0.103389256
0.1037311 -0.05126575 -0.01662013 -0.15233885 -0.087506115 -0.11877077 -0.09954145 0.10718434
0.22874005 0.16916297 -0.05545756 -0.04775674 0.043957338 -0.121842735 0.1025238 -0.07068154
0.0057047447 0.05474449 -0.038702823 -0.056695644 0.0019692613 0.009552727 -0.15669951 0.15989009
-0.16570233 -0.09688522 0.012091324 -0.12715715 0.011445683 0.06586798 0.13047798 0.17548308
0.08450082 -0.039918672 0.045880638 -0.0662244 -0.058791656 0.141722 0.13642104 -0.11659705
-0.005524721 0.09379715 -0.16065115 -0.073554076 -0.052294217 -0.048490092 0.09138156 -0.19109778
-0.13921331 -0.0060460824 0.03661473 0.15298884 -0.056328196 0.06612029 0.16303615 0.13620864
0.13748065 0.13801953 0.13277361 -0.027988499 0.1273108 -0.0027871933 -0.024720067 -0.06033666
0.0016434137 0.043424867 -0.107609265 0.018695066 -0.063744955 -0.09231905 0.11465681 0.07031461
0.07335244 -0.030367635 0.004357416 -0.21855092 0.023373116 0.08521184 0.16833656 0.10523613
-0.056926172 -0.00991182 0.09838735 -0.05484408 0.07283392 0.09764862 0.028225178 -0.2324387
-0.040390026 0.052272756 0.07368009 -0.17579831 0.18581907 -0.02192622 -0.123251125 0.11293309
-0.10029974 0.03050638 -0.07788027 -0.12571138 -0.0856359 -0.07129436 0.11954879 0.01846478
00000000: eda4 5a3e 8b42 2cbd bdf0 1b3d bd36 bc3d
00000010: dc35 4abd 6c79 163e fc8a c83c 17d5 df3d
00000020: bbcc 343e 96eb 073e ec4b 123d a9ba c5bd
00000030: 2341 493c fc02 a2bd e815 463c cd6f 1839
00000040: 8bbc 703d ceab 7e3a 3e8a d53d 2904 a6bc
00000050: 4d8b 66bd 1800 bcbc be39 393e 1853 29be
00000060: 2b29 86bd 4718 8b3d aa17 263a 733c 0fbe
00000070: 0f8a 953c 5459 11be 6fe8 a9bd 7d89 1bbd
00000080: 30ed 1f3e dc77 0a3d a34b cfbd b0a4 363e
00000090: 6605 91bd 9810 dd3d 9c0b ccbd e8d8 61bd
000000a0: aad8 3abe 65d4 bebd 8b54 69bb 7216 06bd
000000b0: d11b 10bd e76f 6c3e b93a ba3d 1866 ea3d
000000c0: 3571 b83d 63fa 89bd d3b6 4b3d 5ae3 6dbd
000000d0: 4c7f d93a 7c32 093e 10c2 b1bb fb24 7abd
000000e0: 038b cdbc 2ffc 65bc ea58 753d df1d 91bc
000000f0: 3434 9d3d 76ce 9a3c a588 0b3e b2a9 89bd
00000100: 8753 033d 2f9d 573c c9d7 793c bc20 033e
00000110: 267e 98bd cd56 0d3e 0918 37bd 64da 9f3d
00000120: 26ef 9abd 26f8 2c3e 4a2e 11be 5380 043e
00000130: 103b 333b 4d86 1ebe f3fe df3d 4d60 af3d
00000140: b013 17bd 52e8 0fbe cce0 f83d 90a6 61be
00000150: 3452 e53d d321 043e ae46 06be bdf4 4abc
00000160: 49b1 93bd 48c4 e23d be80 78bd bb1b f83c
00000170: 502e 383c db17 02be 9fa0 0abd 4e58 9c3d
00000180: a434 3abc 2ad0 0abe e93b a83d 343c 383d
00000190: 533c a8bd 1aa7 7a3c 6df9 4dbe 54e5 dc3d
000001a0: ae27 603e 33d8 65bc e095 b13d 0d36 df3d
000001b0: 50a7 c13c 965b e6bd 8080 21be bdd1 b43c
000001c0: a72e c93d 571c 0f3e 8dae 01be 4f18 983e
000001d0: 1711 91bd 7ce4 71be c6d0 fabd 658c c73d
000001e0: 8853 23be c60f 93be f654 9d3d 2c6c 8b3e
000001f0: d34a 3abb 2945 f13d 3eb3 393d 9a81 093e
00000200: 3538 03be 18a9 f7bc 76f8 373e 377e acbc
00000210: 824a 13be 12db 9a3e 028d f1bc 2631 59bd
00000220: f5bf 96bd 4dc0 88bd b6df c2bd 819a 2e3e
00000230: 2ca5 27be ffe2 f13c 33e1 5cbd 3bf6 bc3d
00000240: fcd2 4b3e 2192 033d 4b34 a03c 397b b2bc
00000250: 02b3 eabd 0c08 cfbc 707f 8b3d bfbd d3bd
00000260: f970 d43d 09fc 51bd f026 88bc b7fe 1bbe
00000270: 6836 b3bd 173e f3bd 63dc cbbd 7783 db3d
00000280: d53a 6a3e 0f39 2d3e 7727 63bd 929c 43bd
00000290: 9c0c 343d af88 f9bd 00f8 d13d 7cc1 90bd
000002a0: deee ba3b c23b 603d da86 1ebd b139 68bd
000002b0: b90e 013b 0b83 1c3c d675 20be 3aba 233e
000002c0: dfad 29be c26b c6bd b01a 463c 7c35 02be
000002d0: ad86 3b3c cbe5 863d 059c 053e d6b1 333e
000002e0: c40e ad3d c381 23bd 56ed 3b3d a9a0 87bd
000002f0: 85cf 70bd 921f 113e f5b1 0b3e 6fca eebd
00000300: b808 b5bb b818 c03d bc81 24be 85a3 96bd
00000310: 7632 56bd 8c9d 46bd 4126 bb3d 23af 43be
00000320: ef8d 0ebe 371e c6bb 54f9 153d 1ba9 1c3e
00000330: 65b8 66bd 136a 873d f3f2 263e 477a 0b3e
00000340: bac7 0c3e fe54 0d3e cef5 073e 2348 e5bc
00000350: c35d 023e 58a9 36bb bd81 cabc 9323 77bd
00000360: d067 d73a 46de 313d 3f62 dcbd 6526 993c
00000370: b78c 82bd c511 bdbd 31d1 ea3d 1b01 903d
00000380: ce39 963d 8cc5 f8bc a8c8 8e3b d0cb 5fbe
00000390: fa78 bf3c 8c83 ae3d 6b60 2c3e 0a86 d73d
000003a0: 6b2b 69bd 3065 22bc 4f7f c93d 30a4 60bd
000003b0: f329 953d 00fc c73d 7d38 e73c 6904 6ebe
000003c0: 0370 25bd f51b 563d 96e5 963d 7904 34be
000003d0: 5b47 3e3e 9e9e b3bc 166b fcbd 7749 e73d
000003e0: f369 cdbd 84e8 f93c b17f 9fbd 7cba 00be
000003f0: e061 afbd c702 92bd ffd5 f43d 7343 973c
