pol_models/aqi_last_7_model_state.pt (torch, 650495 bytes, 16 tensors)

conv1.weight f4 [64, 300, 3]
0	0xbcd47d7a	-0.025938738
1	0x3ba7cc7f	0.0051208134
2	0x3c1aadb6	0.00944083
3	0xbc0cb309	-0.008587607
4	0x3ba83718	0.005133521
5	0xbd1744c6	-0.03693082
6	0xbc405021	-0.011737854
7	0xbd066799	-0.032813642
8	0xbc2619be	-0.010137973
9	0xbcdbb37f	-0.026818989
10	0xbc973152	-0.018456135
11	0x3b19f7e9	0.0023493713
12	0xbbd065e7	-0.006359804
13	0xbc5880a8	-0.013214268
14	0xbbfd640e	-0.0077328747
15	0xbc012f9a	-0.007884884
16	0x3c9c13a8	0.019052342
17	0xbce105b1	-0.027468534
18	0xbc990857	-0.018680735
19	0x3bcbb023	0.0062160655
20	0x3c678937	0.014131836
21	0x3b91426e	0.004432968
22	0xbd1b1a63	-0.03786696
23	0x3cd59c01	0.026075365
24	0xbcdb18d5	-0.02674524
25	0xbb6062cc	-0.0034238575
26	0xbd037ecf	-0.032103356
27	0xbb94c1ed	-0.0045397193
28	0x3ca86954	0.020558037
29	0xbd0af92f	-0.033929046
30	0xb9fe435b	-0.0004849684
31	0x3b0a297b	0.0021081853
32	0x3989ab55	0.0002625833
33	0x3cca2e55	0.024680296
34	0xbcc0fd39	-0.023558246
35	0xbc069e62	-0.008216472
36	0x3c776dbf	0.015101849
37	0xbce0b809	-0.027431505
38	0xbcce2b25	-0.025167057
39	0x3c82e113	0.015976464
40	0xbc2da34f	-0.010598018
41	0x3c2fbaa7	0.010725654
42	0x3c564a30	0.013079211
43	0xbc14c9b8	-0.009081297
44	0x3b4a7d44	0.0030897418
45	0xbca45c6d	-0.020063603
46	0xbcba1d7b	-0.022719136
47	0xbc94e4ff	-0.0181756
48	0x3c794510	0.01521422
49	0xbc688970	-0.014192924
50	0x3cc65974	0.024212576
51	0x3c14d633	0.009084272
52	0x3c87bed7	0.016570492
53	0x3cb27dde	0.021788534
54	0xbd03f155	-0.032212574
55	0xbc832d29	-0.016012745
56	0xbcd549bc	-0.026036136
57	0xbc696931	-0.014246271
58	0x3cb167dc	0.02165597
59	0xbc30b8b5	-0.010786225
60	0x3cc1a84c	0.02363982
61	0xbc8aa95d	-0.016926462
62	0x3ba7f33b	0.005125431
63	0x3caf59bb	0.021405092
64	0xbd2114a2	-0.039326318
65	0xbcb5958c	-0.022166036
66	0x3c86935d	0.01642769
67	0xbc7336e9	-0.014844635
68	0xbc81b12a	-0.015831549
69	0xbcbe1e7c	-0.023207895
70	0x3bc2c552	0.0059439326
71	0xbd003e31	-0.03130931
72	0x3cd1f45e	0.025629219
73	0x3c851d07	0.016249193
74	0x3c802c77	0.015646202
75	0xbc85c12f	-0.016327469
76	0xbd02135e	-0.03175675
77	0x3ca5b77f	0.0202291
78	0x3c0e6960	0.008692116
79	0xbce15507	-0.027506365
80	0x3c4038ab	0.011732261
81	0xb991fcd5	-0.0002784493
82	0xbd00c486	-0.03143742
83	0x3cd4944d	0.025949622
84	0x3c013352	0.007885771
85	0x3c9257cb	0.017864129
86	0x3ca384cc	0.019960783
87	0xbd1176ef	-0.035513815
88	0xbc72265d	-0.014779654
89	0xbcdde4d8	-0.02708666
90	0x3bd3d125	0.006464141
91	0x3c9ba891	0.019001277
92	0x3c03d9ea	0.00804756
93	0xbc96799e	-0.018368538
94	0x3cdd282e	0.026996698
95	0x3cc1f311	0.023675473
96	0xbcb59f47	-0.022170676
97	0xbc79b034	-0.015239764
98	0x3cad6dd6	0.021170538
99	0xbcb9069b	-0.022586158
100	0x3c9141b5	0.017731527
101	0xbc16a8fe	-0.009195564
102	0xbb463dfe	-0.0030249353
103	0xbcc5db87	-0.02415253
104	0x3c9e6848	0.019336835
105	0xbcc86573	-0.024462437
106	0x3c60a8a5	0.013712083
107	0xbcf96b34	-0.030446626
108	0x3cb83211	0.022484811
109	0xbd0894f9	-0.033345196
110	0x3ccc1989	0.02491452
111	0xbccfdf0f	-0.025374917
112	0xbc941b31	-0.018079372
113	0xbbb2808b	-0.0054474524
114	0xbd0f2bc6	-0.034953855
115	0xbb9f83a8	-0.0048679896
116	0xbb157e9e	-0.0022811065
117	0xbcf9236e	-0.030412402
118	0xbc9c8ef3	-0.019111132
119	0x3cb98f7c	0.022651426
120	0x3c5bb559	0.013409936
121	0xbc5c2000	-0.013435364
122	0x3c0ae396	0.008477112
123	0xba8eeb3f	-0.0010903849
124	0xbcdf32a1	-0.027245821
125	0xbcd60fee	-0.026130643
126	0x3c49df1e	0.012321262
127	0xbca3bf78	-0.01998876
128	0x3b2fa8ca	0.0026803487
129	0x3cbd9d99	0.023146437
130	0x3c5addc3	0.013358536
131	0x3ca63612	0.020289455
132	0xbb66f3b9	-0.0035240485
133	0x3c0b0c49	0.008486816
134	0xbcc6f5ad	-0.02428707
135	0xbd1ab8bc	-0.037773833
136	0xbd04695c	-0.03232704
137	0x3b3f7f01	0.0029219987
138	0x3c0accd6	0.008471688
139	0xbc94c2f5	-0.018159369
140	0x3b9b8ebd	0.0047472403
141	0x3bf4eb75	0.0074743577
142	0x3cdee585	0.027209053
143	0x3c96a387	0.018388523
144	0xba530a26	-0.00080505235
145	0x3c321828	0.010870017
146	0x3bacad2a	0.005269666
147	0x3cba1905	0.022717008
148	0xbcd0e7d6	-0.025501173
149	0xbc91d72f	-0.017802803
150	0x3ad59c11	0.0016297122
151	0xbca9c43e	-0.020723458
152	0xbb153a6e	-0.0022770423
153	0xbd0de8be	-0.03464579
154	0xbb9d88d0	-0.004807569
155	0xbbc76042	-0.006084473
156	0xbc150c07	-0.009097106
157	0xbd169b45	-0.03676917
158	0xbb2ec351	-0.002666671
159	0xbc7de682	-0.015496852
160	0xbb882a0f	-0.0041554044
161	0xbab7d4ea	-0.0014025245
162	0xbd0b583f	-0.034019705
163	0xbbc9e36e	-0.006161145
164	0xbb9176e6	-0.0044392226
165	0xbc5021b0	-0.012703344
166	0x3c16a274	0.009194005
167	0xbacafc9c	-0.001548666
168	0xbb3be4fd	-0.0028670423
169	0x3c9fb6ff	0.019496439
170	0x3c772cc7	0.015086359
171	0xbc7e3d84	-0.015517596
172	0xbbbfa89a	-0.0058489563
173	0x3cb7f1ae	0.022454109
174	0x3baebb91	0.0053324183
175	0xbce3b75a	-0.02779739
176	0x3ca327b7	0.019916398
177	0x3c8f3703	0.017482286
178	0xbad09378	-0.001591309
179	0xbce079cd	-0.02740183
180	0xbbf00870	-0.0073252246
181	0xbc8594f2	-0.016306374
182	0xbd1f1f57	-0.038848247
183	0x3c4cb5d9	0.012494528
184	0x3c9d180f	0.019176511
185	0x3c92d251	0.017922552
186	0xbc210797	-0.00982847
187	0x3cce1e2d	0.025160873
188	0xbc8d4ca6	-0.017248463
189	0xbb464a96	-0.003025686
190	0x3c10f916	0.008848449
191	0xbd059abd	-0.032618273
192	0x3cb0b436	0.021570306
193	0xbce7c03c	-0.028289907
194	0xbcc27247	-0.023736132
195	0x3c6a7e7e	0.014312385
196	0xbd080932	-0.033211894
197	0xbcd7ce98	-0.026343629
198	0x3cb2157c	0.02173876
199	0x3c323df9	0.010879033
200	0x3cc1c6bc	0.023654334
201	0xbb23729a	-0.0024940134
202	0x3bdd1b1f	0.006747618
203	0xbc5ede52	-0.01360281
204	0xbbe29ae2	-0.006915436
205	0x3c009668	0.00784836
206	0xbd040cc8	-0.03223875
207	0x3cd66313	0.02617029
208	0x3c6b5111	0.014362589
209	0xbbbcb110	-0.005758412
210	0xbcd72e47	-0.026267184
211	0x3c992aa5	0.018697092
212	0x3c523660	0.012830347
213	0xbcdb473a	-0.026767362
214	0xbc2d7e10	-0.010589138
215	0x3a99d902	0.0011737647
216	0xbc704292	-0.014664309
217	0x3c9c42dd	0.019074852
218	0xbcb28a00	-0.02179432
219	0xbd1a1de7	-0.037626173
220	0xbc8c70df	-0.017143665
221	0x3bb9db08	0.0056718625
222	0xbc69e3d3	-0.014275509
223	0xbd14c2d3	-0.03631861
224	0xbc190031	-0.009338425
225	0x3cb19377	0.021676762
226	0xbca2b5df	-0.019862114
227	0x3a9e2804	0.0012066369
228	0xbcd5f14a	-0.026116032
229	0x3cdc2e6a	0.0268776
230	0xbb0eb4e0	-0.002177529
231	0x3b9cffc2	0.004791231
232	0x3a986fd5	0.0011630008
233	0x3cc93227	0.024560047
234	0xbcdd4937	-0.02701245
235	0xbd1fa7b4	-0.038978294
236	0xbc0bb688	-0.008527406
237	0xbc8daeb0	-0.017295212
238	0xbd058663	-0.032598864
239	0xbcaf9859	-0.02143495
240	0x3be67e59	0.007034105
241	0xbca75ced	-0.020430053
242	0x3c868f9f	0.016425906
243	0xbb96d7ce	-0.0046033626
244	0xbc47cbb3	-0.012194562
245	0xbc950410	-0.018190414
246	0xbd02ab5f	-0.031901713
247	0xbd15b287	-0.03654721
248	0x3c753eb6	0.014968565
249	0xbd10221e	-0.035188787
250	0x39316e0f	0.00016921035
251	0x3924a045	0.00015699964
252	0xbcf6dc10	-0.03013423
253	0xbc5b87b0	-0.01339905
254	0x3b96dd51	0.0046040197
255	0x3be018c3	0.0068388893

conv1.bias f4 [64]
0	0x3aa252fa	0.0012384348
1	0x3a0f9998	0.00054779043
2	0x3c9815ad	0.018565023
3	0xbd10b821	-0.03533185
4	0xbba9e6b1	-0.0051849713
5	0xb8d8abe4	-0.000103317
6	0xbd1139d4	-0.03545554
7	0xbd1e74d9	-0.038685653
8	0x3b8f9f1f	0.0043829824
9	0xbbbc6260	-0.005749032
10	0x3cade394	0.021226682
11	0xbcf8cabc	-0.030370109
12	0xbd161964	-0.036645308
13	0xbe6100cc	-0.2197296
14	0xbd182a93	-0.037149977
15	0xbcb67111	-0.022270711
16	0xbdb72ff8	-0.08944696
17	0xbd492b73	-0.049113702
18	0xbd053ef0	-0.032530725
19	0x3b800499	0.003906798
20	0x3cd1bae5	0.025601814
21	0xbcafbb94	-0.021451749
22	0xbc8dd05d	-0.01731127
23	0xbb8d351b	-0.004309309
24	0x3d08f0fe	0.033432953
25	0x3b15e577	0.0022872367
26	0xbcd951b4	-0.026528217
27	0x3caaeab8	0.020863876
28	0xbd094331	-0.033511344
29	0xbb941ae5	-0.0045198076
30	0xbc5edc57	-0.013602338
31	0xbd04f301	-0.03245831
32	0xbd4573e9	-0.048206244
33	0xbc5c2871	-0.013437376
34	0x3c9a8f57	0.018867178
35	0xbd4e983f	-0.050438162
36	0x3c9ca617	0.019122167
37	0x3c8cf0a4	0.01720459
38	0x3bfdbc27	0.007743377
39	0xbbbe370c	-0.005804902
40	0xbd19d64e	-0.037557893
41	0xbe4838c2	-0.19552901
42	0xbc9ceef9	-0.01915692
43	0xbac9df00	-0.0015401542
44	0xbd0c67c2	-0.03427864
45	0xbcbaa77e	-0.022784945
46	0xbc96f7e9	-0.01842876
47	0xbca0d2da	-0.019631792
48	0x3cbd67d0	0.02312079
49	0xbbcb9fea	-0.0062141316
50	0xbc3d275a	-0.011545027
51	0xbc814a54	-0.015782513
52	0xbdaa5838	-0.08317608
53	0x3b406f32	0.0029363153
54	0xbd04525a	-0.0323051
55	0xbcc044e5	-0.023470351
56	0xbca10a4e	-0.019658234
57	0xbcabd0ec	-0.020973645
58	0xbd0d31fd	-0.0344715
59	0xbb144cfa	-0.002262889
60	0xbe3781df	-0.17920636
61	0xbce77ba9	-0.028257208
62	0xbe2cfe06	-0.16893777
63	0x3d7741b5	0.060365397

conv2.weight f4 [128, 64, 3]
0	0xbd781513	-0.060566973
1	0x3d0b867e	0.03406381
2	0xbd84993d	-0.064745404
3	0xbc83516a	-0.016030032
4	0x3ca8b137	0.020592315
5	0x3bc0f99f	0.005889132
6	0x3ceb59a1	0.028729262
7	0xbd30f29b	-0.043200117
8	0xbd922523	-0.071359895
9	0xbd44d03a	-0.048050143
10	0x3d8507f4	0.064956576
11	0xbc48220f	-0.012215151
12	0x3cd8550e	0.026407745
13	0x3d7b288d	0.06131797
14	0x3d523fdb	0.05133043
15	0xbd28d568	-0.041219145
16	0x3d877b6e	0.06615339
17	0x3cdedf5a	0.027206112
18	0xbd3e981c	-0.04653178
19	0xbd1514bd	-0.03639673
20	0x3c8db801	0.017299654
21	0x3c39377b	0.0113047315
22	0xbd269c84	-0.04067661
23	0x3c8221ef	0.015885321
24	0x3d30991a	0.04311476
25	0xbd62ad1b	-0.055340867
26	0xbd5e4946	-0.054269098
27	0x3d7009c8	0.058603078
28	0xbc8a01dc	-0.01684659
29	0x3cce115c	0.025154762
30	0x3d1e5c99	0.038662527
31	0x3d283fbe	0.041076414
32	0xbd44cab6	-0.048044883
33	0x3d1584c8	0.036503583
34	0x3ccd9fb9	0.025100576
35	0x3cbdc92a	0.023167212
36	0xbcb0415a	-0.021515537
37	0x3cc0d87e	0.023540732
38	0x3d877df8	0.066158235
39	0xbdec857b	-0.11548897
40	0xbb9d51ce	-0.0048010116
41	0xbc948347	-0.018129004
42	0x3ceb9141	0.028755786
43	0x3d7ed6ec	0.062216684
44	0xbd953c7a	-0.072869256
45	0xbcebe44b	-0.028795382
46	0xbd652667	-0.055944826
47	0xbd239c69	-0.039944086
48	0x3c7609be	0.015016971
49	0x3c2d5cdf	0.010581224
50	0x3c030706	0.00799728
51	0xbbf9d61f	-0.007624402
52	0xbd169510	-0.03676325
53	0x3caa7057	0.020805521
54	0x3d703e7c	0.05865334
55	0x3d5eb4b6	0.054371558
56	0x3d8497c5	0.0647426
57	0xbd2dca82	-0.042429455
58	0xbd205b06	-0.039149307
59	0xbc0002a7	-0.007813132
60	0x3d9b7268	0.07590181
61	0x3d46fedc	0.048582897
62	0xbc07c993	-0.008287805
63	0xbd9d0ed8	-0.07668847
64	0x3c2e54ba	0.010640318
65	0xbcd12ba3	-0.025533503
66	0xbd17384f	-0.036918934
67	0xbce1bfe8	-0.027557328
68	0x3d7cb658	0.061697334
69	0x3d6bb04d	0.05754118
70	0x3c0c18fe	0.0085508805
71	0xbc90cfd5	-0.017677227
72	0xbd1baca5	-0.038006444
73	0x3d8e6934	0.0695366
74	0xbc549f6f	-0.012977465
75	0xbd6c7c1f	-0.05773556
76	0xbd62039f	-0.055179235
77	0x3d5a18f6	0.05324646
78	0x3d4a9433	0.04945774
79	0xbd4ac498	-0.049503893
80	0xbcdda7fb	-0.027057638
81	0xbb9144c7	-0.0044332477
82	0x3c36ecd1	0.01116486
83	0x3c8a9e4b	0.016921183
84	0xbb9f552e	-0.004862449
85	0xbce8f561	-0.028437318
86	0xbc9463b5	-0.01811395
87	0x3d2f810f	0.04284769
88	0xbd40c537	-0.04706308
89	0x3a13d92e	0.0005639967
90	0x3d0e4e9c	0.034742936
91	0x3d588054	0.05285676
92	0x3d19b694	0.037527636
93	0xbb9d5abb	-0.0048020757
94	0xbd647c24	-0.055782452
95	0xbc5ad48d	-0.01335634
96	0xbc312ecf	-0.010814383
97	0x3d815dff	0.063167565
98	0xbc1ca3f2	-0.009560572
99	0x3d1df24a	0.038561143
100	0x3c180426	0.009278333
101	0x3d696825	0.056984086
102	0x3d67dc1d	0.0566064
103	0x3d67435d	0.056460727
104	0xbd823dae	-0.06359421
105	0x3d45a6f6	0.04825493
106	0x3cc19ed6	0.02363531
107	0xbd036ff0	-0.032089174
108	0x3cdad499	0.026712703
109	0x3d863ebf	0.065549366
110	0xbb8653ff	-0.0040993686
111	0x3ccc5ab5	0.024945596
112	0x3cfc23c4	0.030778773
113	0x3d580910	0.052743018
114	0x3cb83bb2	0.022489402
115	0xbd8af098	-0.06784171
116	0x3d15db11	0.03658587
117	0xbd69f821	-0.0571214
118	0x3ae437c0	0.0017411634
119	0x3d45ee86	0.048323177
120	0x3d29a3e2	0.041416056
121	0x3cc78a50	0.024357945
122	0x3c9b90d8	0.018989965
123	0xbd516aad	-0.051127125
124	0xbda44733	-0.08021393
125	0xbde66f47	-0.11251693
126	0x3d325af5	0.043543775
127	0xbc209891	-0.009802
128	0xbd5879f1	-0.052850667
129	0x3d389e39	0.045072768
130	0x3d58ece4	0.05296029
131	0x3c66611a	0.014061237
132	0xbd7bd13f	-0.06147885
133	0xbc7bcd15	-0.01536872
134	0x3d86d23c	0.06583068
135	0x3d8ec5c7	0.06971317
136	0x3cc3c227	0.02389629
137	0xbd3175d9	-0.04332528
138	0xbd3ae094	-0.04562433
139	0xbd2e5a65	-0.042566676
140	0xbafe9bdb	-0.0019425111
141	0xbd5e8c70	-0.05433315
142	0xbc021059	-0.007938468
143	0x3d13a5e0	0.036046863
144	0xbcd4338d	-0.025903488
145	0x3d0a9039	0.033828948
146	0xbd910cfa	-0.07082553
147	0xbd027110	-0.031846106
148	0x3d29abcf	0.041423615
149	0xbc68b1c0	-0.014202535
150	0xbd891a02	-0.06694414
151	0x3d5a04ae	0.05322712
152	0xbc1dd47f	-0.009633183
153	0xbdabf767	-0.083967976
154	0xbd8c8bf8	-0.068626344
155	0x3bf9cf1d	0.007623567
156	0xbd14ae86	-0.03629925
157	0x3d294fc8	0.04133585
158	0xbd6e9be5	-0.05825414
159	0x3d18a82c	0.037269756
160	0xbbcbe555	-0.006222407
161	0x3d77a53e	0.06046032
162	0xbcebb77b	-0.028774014
163	0x3b8c485f	0.0042810882
164	0xbcfa07b9	-0.03052126
165	0xbcb0def5	-0.02159069
166	0xbd435fd2	-0.047698803
167	0x3d1e537c	0.038653836
168	0xbc51b632	-0.012799786
169	0xbdd301ea	-0.103030995
170	0xbdc82d78	-0.097742975
171	0x3ce23b65	0.027616212
172	0xbd8d8d83	-0.06911757
173	0x3d4cf1c3	0.05003525
174	0x3c84fe47	0.01623453
175	0xbd2551c2	-0.040361173
176	0x3d040dc3	0.032239687
177	0xbc214f64	-0.009845588
178	0x3c298b58	0.010348164
179	0xbd21498e	-0.039376788
180	0xbd326980	-0.043557644
181	0xbd8e5a18	-0.06950778
182	0xbd96361c	-0.07334539
183	0x3cf96efc	0.03044843
184	0x3d5a13d8	0.05324158
185	0xbd8df104	-0.06930736
186	0xbd1f068b	-0.0388246
187	0xbab7dec7	-0.0014028185
188	0xbcf6dce0	-0.030134618
189	0xbd950cb4	-0.072778136
190	0xbd893f06	-0.06701474
191	0x3d2083ec	0.03918831
192	0x3c6201b0	0.013794348
193	0xbc3bab28	-0.011454381
194	0xbd85a6cc	-0.065259546
195	0x3c764d80	0.015033126
196	0xbd81d590	-0.06339562
197	0xbd6ed8a1	-0.058312062
198	0x3d8fa100	0.0701313
199	0xbcef203c	-0.029190175
200	0x3cf7217c	0.030167334
201	0x3c0f9b88	0.008765109
202	0xbd2afcbd	-0.041744936
203	0xbcb46654	-0.02202145
204	0xbd7370a4	-0.059433594
205	0x3d8615dc	0.06547138
206	0xbc9a9940	-0.018871903
207	0xbd81b5cc	-0.06333503
208	0xbd3fde05	-0.046842594
209	0x3ca2c1f4	0.019867875
210	0xbc955536	-0.018229108
211	0xbd63badc	-0.055598125
212	0x3d572c3c	0.05253242
213	0xbc5bc7bd	-0.013414321
214	0xbc495215	-0.012287636
215	0xbcf45e2f	-0.029830066
216	0x3d505c3c	0.05086921
217	0x3bb74980	0.0055934787
218	0x3ce174bc	0.027521484
219	0xbbbce310	-0.0057643726
220	0xbbb16830	-0.0054140314
221	0xbd1ab48a	-0.03776983
222	0x3d3e5260	0.046465278
223	0xbd4c7a82	-0.04992152
224	0x3d1c8308	0.0382109
225	0x3c2b4d68	0.010455467
226	0xbd6124d7	-0.054966774
227	0xbd3ef514	-0.046620443
228	0xbd03b747	-0.03215721
229	0xbd88fe39	-0.06689114
230	0xbd0dc900	-0.034615517
231	0x39c48e5a	0.00037490093
232	0xbcf37638	-0.029719457
233	0x3c9fea25	0.019520829
234	0xbd4759e9	-0.04866973
235	0x3d73f414	0.059558943
236	0x3d41ff54	0.04736264
237	0xbd437092	-0.047714777
238	0x3d92030a	0.07129486
239	0xbd41dd0e	-0.047329955
240	0xbcf0d8b0	-0.0294002
241	0x3c469dec	0.012122612
242	0xbc8134da	-0.015772272
243	0xbcfd01d8	-0.030884668
244	0x3c98b1a8	0.0186394
245	0x3cb39ba7	0.021924807
246	0x3c81cfa0	0.015846074
247	0x3c153cef	0.009108766
248	0xbd30c7ab	-0.04315917
249	0xbd80a0b5	-0.062806524
250	0x3d0ab19a	0.03386078
251	0xbb28f3c2	-0.0025780057
252	0xbbb8ed70	-0.005643539
253	0x3cf67204	0.030083664
254	0xbc52a99c	-0.012857821
255	0xbd12a942	-0.035805948

conv2.bias f4 [128]
0	0xbdbc0a70	-0.09181678
1	0xbd9a42be	-0.07532261
2	0xbd7beb64	-0.061503783
3	0x3e2cdfa4	0.16882187
4	0xbd824fb8	-0.063628614
5	0xbe268d03	-0.16264729
6	0xbe32c630	-0.17458415
7	0xbbec411b	-0.0072099096
8	0xbe1c483c	-0.1526193
9	0xbe056253	-0.13025789
10	0xbe608784	-0.21926695
11	0xbdba5111	-0.090974934
12	0x3e303a3b	0.17209713
13	0xbe44565e	-0.19173571
14	0xbe20c7ce	-0.1570122
15	0x3d9a69ef	0.075397365
16	0xbe497cd7	-0.19676529
17	0xbd7a326c	-0.061083242
18	0x3cadb720	0.021205485
19	0xbdc5888a	-0.096451834
20	0xbd477486	-0.04869511
21	0xbdb27d5a	-0.08715315
22	0xbca16694	-0.019702233
23	0xbd3474dd	-0.044056762
24	0x3e2e3406	0.17012033
25	0xbe803916	-0.25043553
26	0xbd85dcbb	-0.065362416
27	0xbdae35b4	-0.08506337
28	0xbd198b5d	-0.037486423
29	0x3c80872c	0.015689455
30	0xbe551008	-0.20806897
31	0xbe7f73fd	-0.2494659
32	0xbe321c1e	-0.17393538
33	0xbd4c9c8f	-0.049953993
34	0x3908fdda	0.00013064538
35	0x3e3d7d1d	0.18504758
36	0xbe32fd27	-0.17479382
37	0xbca216bf	-0.019786237
38	0x3e051d50	0.12999463
39	0xbe7ba34a	-0.24574009
40	0xbc0e1946	-0.008673018
41	0xbe2308f7	-0.15921389
42	0xbe0d6d9e	-0.13811347
43	0x3e33c47f	0.17555426
44	0x3e5a9b21	0.2134824
45	0xbe547cd6	-0.20750746
46	0xbce3ea5f	-0.027821718
47	0xbd9b3813	-0.07579055
48	0xbd11a4e5	-0.035557646
49	0x3d265727	0.04061046
50	0xbdc234cf	-0.09482729
51	0xbd17833f	-0.0369904
52	0xbc853ad8	-0.01626341
53	0xbda7c6d4	-0.0819222
54	0x3dab2b7d	0.08357904
55	0xbddacf66	-0.10684089
56	0xbe2bea5b	-0.16788618
57	0xbdf23c84	-0.11827949
58	0xbe34299a	-0.17593995
59	0xbddf184f	-0.10893308
60	0xbdfff1ce	-0.124972925
61	0xbe178c04	-0.14799505
62	0xbe51c654	-0.20485812
63	0x3cb3c6ae	0.021945324
64	0xbe359676	-0.17733178
65	0xbe24aee4	-0.1608234
66	0x3ccad174	0.024758078
67	0xbd3bee65	-0.045881648
68	0xbe338947	-0.17532836
69	0xbd40eb46	-0.047099374
70	0xbca98b49	-0.0206963
71	0xbe2009ef	-0.1562879
72	0xbcd3cc61	-0.025854291
73	0xbe2525b1	-0.1612766
74	0xbd47b9ee	-0.0487613
75	0x3c166ced	0.009181243
76	0xbdd90b3a	-0.105978444
77	0xbdbafc0f	-0.091301076
78	0xbe30e101	-0.17273332
79	0xbd97b1fb	-0.07406994
80	0xbd29a651	-0.041418377
81	0xbde2dc3c	-0.110771626
82	0xbb872f21	-0.0041254913
83	0x3c9ac7fc	0.018894188
84	0xbd1d39cf	-0.03838521
85	0x3c197780	0.00936687
86	0xbe35b6e1	-0.17745544
87	0x3c99b502	0.018763069
88	0xbe54b1c1	-0.20770933
89	0xbdad55fd	-0.084636666
90	0xbd4ef5f5	-0.05052753
91	0x3e41f54b	0.18941228
92	0xbd9c1b9f	-0.07622456
93	0xbc806d1d	-0.01567703
94	0x3cef3421	0.029199662
95	0x3cfa5d40	0.030562043
96	0xbe248ad5	-0.16068585
97	0xbdc213d2	-0.09476437
98	0x3e493a37	0.19651113
99	0xbdf0aaa7	-0.11751299
100	0xbccbae8f	-0.02486351
101	0xbdf093b1	-0.1174692
102	0xbd687f47	-0.056762006
103	0xbd9075fb	-0.07053753
104	0xbcd8b848	-0.02645506
105	0xbc55b829	-0.0130443955
106	0xbc75bf98	-0.014999293
107	0xbc934fa5	-0.017982313
108	0xbe19aafb	-0.1500663
109	0xbe191107	-0.14947902
110	0xbdaf70a7	-0.085664086
111	0xbdb2dad6	-0.08733146
112	0xbda2f322	-0.0795653
113	0xbdcaacc7	-0.09896236
114	0xbde4aeb7	-0.11166137
115	0x3d858e7f	0.065213196
116	0xbdcebb43	-0.10094311
117	0xbe1a6164	-0.15076214
118	0xbdd71a76	-0.10503094
119	0x3d785ead	0.060637165
120	0xbe16809c	-0.14697498
121	0xbd4ff8a3	-0.050774228
122	0xbdfd37e2	-0.123641744
123	0xbd3e80f0	-0.046509683
124	0xbc7e4b64	-0.015520904
125	0xbdaa5af3	-0.083181284
126	0xbe056c73	-0.13029651
127	0xbe47aece	-0.19500276

lstm.weight_ih_l0 f4 [200, 128]
0	0x3e0c9083	0.13727002
1	0x3d33ec85	0.043926734
2	0xbd8b45d2	-0.068004265
3	0x3d901363	0.07034948
4	0xbd62bf0e	-0.055357985
5	0x3dfd9cf7	0.12383454
6	0xbde6a137	-0.11261218
7	0x3d5df7df	0.054191466
8	0xbc8a3055	-0.01686875
9	0x3dbad0b2	0.09121837
10	0x3e0f4e91	0.13994814
11	0x3c871feb	0.016494712
12	0x3d35008c	0.044189975
13	0xbdb7c947	-0.089739375
14	0xbe3e8898	-0.18606794
15	0x3dbb398d	0.09141836
16	0x3d5153b5	0.05110522
17	0x3c321172	0.010868417
18	0x3e68002c	0.22656316
19	0xbdd69a21	-0.104786165
20	0xbd265d45	-0.040616293
21	0x3e3aa4da	0.18226948
22	0x3d7eddef	0.06222337
23	0x3d4cd1b7	0.050004687
24	0x39bc6b2d	0.00035938006
25	0x3e0aee32	0.13567427
26	0x3ca96b28	0.020680979
27	0xbe4722f6	-0.1944693
28	0xbda908d6	-0.082536384
29	0x3a4c2888	0.0007788022
30	0xbda8e9a8	-0.082476914
31	0xbc0cbe7f	-0.00859034
32	0x3d7c5acf	0.06161004
33	0x3c3ea5c7	0.011636204
34	0x3da931b1	0.08261431
35	0xbdfa31f1	-0.12216557
36	0xbb6d29e4	-0.00361883
37	0xbd3374c1	-0.043812517
38	0x3d50d975	0.050988633
39	0xbde64f28	-0.112455666
40	0x3d7f9192	0.062394686
41	0x3d515757	0.051108684
42	0xbd828baf	-0.06374299
43	0x3c023942	0.007948222
44	0x3b5cb6bb	0.0033678252
45	0xbbe11a72	-0.0068696076
46	0x3d6fba64	0.058527365
47	0xbd9b8e3c	-0.075954884
48	0xbd710fcc	-0.058852956
49	0xba4fbb54	-0.00079243374
50	0x3e030910	0.12796426
51	0xbe093cdf	-0.13402127
52	0x3e149d86	0.14513215
53	0xbc8679f1	-0.016415568
54	0xbdff8e26	-0.124782845
55	0x3d5c05d1	0.053716484
56	0x3dbe1514	0.09281364
57	0xbdd34ecf	-0.10317766
58	0x3e19b6ed	0.15011187
59	0xbc0867ee	-0.00832556
60	0x3d8f5775	0.06999103
61	0xbd1cb307	-0.03825667
62	0x3c775a62	0.015097233
63	0xbceb1959	-0.02869861
64	0xbe2bfef8	-0.16796482
65	0xbd27ec88	-0.04099706
66	0x3d2513a1	0.040301923
67	0x3da2e7fd	0.079544045
68	0xbdeb3d9b	-0.1148636
69	0xbe88428e	-0.26613277
70	0xbd6274e4	-0.055287257
71	0x3e2e25b4	0.1700657
72	0xbd8b91b7	-0.06814902
73	0xbcb11bea	-0.021619756
74	0x3d5ed2d5	0.054400284
75	0xbd0d7269	-0.03453294
76	0x3d0270c0	0.031845808
77	0xbd0a5d9b	-0.033780675
78	0x3d93327b	0.07187363
79	0x3cd4648d	0.025926853
80	0xbda073a4	-0.07834557
81	0x3dd2d7c1	0.10295058
82	0xbe063954	-0.13107806
83	0x3d6c9d26	0.057767056
84	0xbdb6dbc6	-0.08928637
85	0x3cf9c4a4	0.030489273
86	0xbca3446e	-0.01993009
87	0x3e0b0fe9	0.13580288
88	0x3dad50cf	0.08462679
89	0x3b23ae4f	0.0024975722
90	0x3e479d95	0.19493707
91	0x3e65334a	0.22382846
92	0x3d3f504b	0.046707433
93	0xbd65fe6c	-0.05615084
94	0x3d888e64	0.06667784
95	0xbe019c06	-0.12657174
96	0xbd3ebc21	-0.046566132
97	0x3d55f3a2	0.0522343
98	0xbcc6da32	-0.024273966
99	0xbc82fcfd	-0.015989775
100	0xbe02c6d8	-0.12771165
101	0x3d64fa1d	0.05590259
102	0x3e563610	0.2091906
103	0xbd5b618c	-0.053559825
104	0x3d3e19b1	0.04641122
105	0x3e09770a	0.13424316
106	0x3be92691	0.007115193
107	0x3c8399ed	0.016064608
108	0x3da7a6e3	0.08186128
109	0xbdf41c54	-0.11919466
110	0x3e12008d	0.14258023
111	0x3d8c0d05	0.06838421
112	0x3d2280f5	0.039673764
113	0x3e12fee8	0.14355052
114	0xbdbcd463	-0.09220197
115	0x3dbb293e	0.09138726
116	0x3ba37a04	0.0049889106
117	0x3d20d645	0.039266843
118	0x3dd1ae32	0.10238303
119	0xbd1c53cb	-0.03816585
120	0xbde766f1	-0.112989314
121	0xbc8e4e84	-0.017371424
122	0x3cfc3c39	0.030790435
123	0x3db1d645	0.08683447
124	0xbdd8f64a	-0.10593851
125	0xbdd92729	-0.10603172
126	0xbdb421e6	-0.08795528
127	0xbd9744f7	-0.07386201
128	0x3c6f3029	0.014598885
129	0xbd04da3b	-0.032434683
130	0x3cb14760	0.02164048
131	0xbdbc0f2c	-0.09182581
132	0xbd958833	-0.073013686
133	0x3ddbdeb0	0.10735834
134	0x3c5a9fd6	0.013343772
135	0x3c05ae18	0.008159183
136	0xbd740584	-0.059575573
137	0x3cf2e8af	0.029651968
138	0x3d275ef2	0.04086203
139	0xbd015071	-0.031570856
140	0x3dc05afc	0.09392354
141	0xbd95df46	-0.07317977
142	0xbd5b76e8	-0.053580195
143	0xbdb0f94a	-0.08641298
144	0x3a83e686	0.0010063208
145	0x3de98000	0.11401367
146	0xbe221a94	-0.15830451
147	0x3cd9977f	0.026561497
148	0x3dcd8545	0.10035185
149	0xbe15553d	-0.14583297
150	0x3df6ea22	0.12056376
151	0xbd991915	-0.07475487
152	0xbe025da1	-0.12731029
153	0x3dcdd086	0.10049538
154	0xbb246e8d	-0.0025090307
155	0xbdb42bb9	-0.08797402
156	0xbd3db1e9	-0.046312246
157	0xbd1168bc	-0.035500273
158	0xbc26dc0e	-0.010184301
159	0x3d40b727	0.047049668
160	0x3cfe3dc4	0.031035312
161	0xbcf1a589	-0.029497879
162	0x3de6172c	0.112348884
163	0xbe2e6b5c	-0.17033142
164	0x3d3a49ec	0.045480654
165	0x3e8839a8	0.26606488
166	0x3ade24dd	0.0016948242
167	0x3d6dbec3	0.058043253
168	0x3dbb8cdc	0.09157726
169	0xbe6ace53	-0.22930269
170	0xba192b71	-0.000584296
171	0x3e45e571	0.19325806
172	0x3eae7ce5	0.34079662
173	0x3d2bc4ba	0.04193566
174	0x3db3894e	0.08766423
175	0x3c33b133	0.010967541
176	0x3d9c7fba	0.076415494
177	0xbcf25b07	-0.02958442
178	0xbd04a331	-0.032382194
179	0x3dc57810	0.09642041
180	0xbd90ebb6	-0.07076208
181	0xbdaed491	-0.085366376
182	0x3e0641d3	0.13111047
183	0x3d1a00a2	0.03759826
184	0x3c359c76	0.0110846665
185	0xbddee1e0	-0.10882926
186	0x3dbb7cb7	0.09154647
187	0xbda5854a	-0.080820635
188	0x3db2162a	0.08695634
189	0xbd8a86d3	-0.06763997
190	0x3cde9f38	0.02717553
191	0xbd1054f9	-0.035237286
192	0x3e003f4f	0.1252415
193	0xbda7f2a0	-0.08200574
194	0xbd138141	-0.036011938
195	0x3c5c0123	0.013428005
196	0x3d83afd6	0.064300224
197	0xbd1e72cf	-0.03868371
198	0x3dd4abbf	0.103843205
199	0xbc7d1ab3	-0.01544826
200	0x3e103167	0.14081345
201	0xbdd3cc79	-0.103417344
202	0x3da1ee42	0.07906772
203	0xbe2e58fc	-0.17026132
204	0xbc9682df	-0.018372951
205	0xbdb040e0	-0.08606124
206	0xbe1dbc7c	-0.15403932
207	0xbdfec4c8	-0.12439877
208	0xbe273a32	-0.16330793
209	0xbe58c9e1	-0.2117076
210	0x3e06d721	0.13168003
211	0xbd0c41cf	-0.034242447
212	0xbde2590c	-0.110521406
213	0xbc5d1324	-0.013493333
214	0xbe10336c	-0.14082116
215	0x3cb84d38	0.022497758
216	0x3db669a4	0.08906868
217	0xbcdde3df	-0.027086196
218	0x3e270d55	0.1631368
219	0xbdf77e59	-0.12084646
220	0xbe3d7422	-0.18501332
221	0xbd96bbce	-0.0736004
222	0xbe6535f1	-0.22383858
223	0x3dbc4e5b	0.091946326
224	0xbd8e4c82	-0.069481865
225	0xbd4be31d	-0.04977714
226	0x3e01c0bc	0.12671179
227	0xbdc30533	-0.09522476
228	0xbb26fbf1	-0.0025479759
229	0xbdee1b1b	-0.11626264
230	0x3c8685cd	0.016421223
231	0x3e15f164	0.14642864
232	0x3aa11655	0.0012289981
233	0x3d293301	0.041308407
234	0xbd9e44c2	-0.07727958
235	0x3cb9175e	0.02259415
236	0x3c047509	0.008084544
237	0xbda046fa	-0.07826038
238	0x3d51fe20	0.051267743
239	0xbdeacf46	-0.114653155
240	0x3d8795ad	0.06620345
241	0xbded6c7a	-0.11592956
242	0x3cb21752	0.021739636
243	0x3e4647fc	0.19363397
244	0x3d86e6c1	0.065869816
245	0xbe5b032f	-0.21387933
246	0xbdaab43a	-0.08335157
247	0x3b4a259c	0.003084517
248	0xbde1bf6a	-0.110228375
249	0xbdb4650a	-0.08808334
250	0xbe6ee307	-0.23328792
251	0x3dd71112	0.10501303
252	0x3dc5de8c	0.09661588
253	0xbdfa5bcf	-0.12224542
254	0xbdb3182a	-0.08744843
255	0x3e2dd4b4	0.16975671

lstm.weight_hh_l0 f4 [200, 50]
0	0x3d19b49e	0.037525766
1	0xbe4fc789	-0.2029096
2	0xbe1e6222	-0.15467122
3	0x3d37647d	0.044773567
4	0xbc22b2b7	-0.009930304
5	0xbd953506	-0.07285504
6	0xbe1932c0	-0.14960766
7	0x3c379c0c	0.011206638
8	0x3d878ae2	0.06618287
9	0xbd387d6b	-0.045041483
10	0x3daad3de	0.08341192
11	0xbe363b59	-0.17796077
12	0xbc88ce8f	-0.016700057
13	0xbce0ded4	-0.027450003
14	0x3e16ac6a	0.14714208
15	0xbddb2989	-0.107012816
16	0x3cd22966	0.025654506
17	0xbe5dcb29	-0.2165953
18	0x3d9947bb	0.074843846
19	0xbe859ce6	-0.26096267
20	0x3c306dd6	0.010768374
21	0x3e3523a2	0.17689374
22	0x3d2d77c0	0.04235053
23	0xbd585f31	-0.052825157
24	0xbc44c486	-0.012009745
25	0x3e366645	0.1781245
26	0x3e4d39b8	0.20041549
27	0xbe4deca7	-0.20109807
28	0xbd8eacc3	-0.069665454
29	0x3de3c5bb	0.111216985
30	0xbdc40ba7	-0.09572535
31	0x3e1c7baa	0.15281549
32	0x3c6cfc41	0.014464439
33	0xbcc0e90f	-0.023548631
34	0x3ceee4b1	0.029161783
35	0xbe3d292d	-0.18472739
36	0x3bd2919a	0.0064260485
37	0xbd3f01e5	-0.046632666
38	0xbdfba49f	-0.12287258
39	0x3d0e056a	0.034673132
40	0xbdb9d0db	-0.09073039
41	0xbbda4e45	-0.0066621625
42	0xbdf33193	-0.1187469
43	0x3c7fc2fd	0.015610454
44	0x3dcfe6f6	0.10151474
45	0x3d29c664	0.041448966
46	0x3dd4b9d8	0.103870094
47	0x3e288ab1	0.16459157
48	0x3d0e42ec	0.03473179
49	0x3e170163	0.14746623
50	0xbe4217ac	-0.18954343
51	0xbbd553eb	-0.006510248
52	0x3db1cbc4	0.08681443
53	0xbe800e28	-0.250108
54	0xbca24d23	-0.019812172
55	0xbd3d5c75	-0.046230752
56	0x3bc77eda	0.00608812
57	0xbd54df09	-0.051970515
58	0x3d6a7cd0	0.057247937
59	0xbd55a45a	-0.05215869
60	0x3da26ffe	0.07931517
61	0x3e2734d6	0.16328749
62	0x3e13d2b8	0.14435852
63	0x3de19553	0.110148095
64	0x3e1eb4ea	0.154987
65	0xbdcdc471	-0.10047234
66	0xbd408a39	-0.04700682
67	0xbcf07c97	-0.029356284
68	0xbe893bf7	-0.26803562
69	0x3d5569cd	0.052102853
70	0x3e316c86	0.17326555
71	0xbab642ae	-0.001390537
72	0x3e87315c	0.26404846
73	0x3ebe08bf	0.37116048
74	0x3d297e69	0.04138032
75	0x3daead78	0.0852918
76	0xbd63ff85	-0.055663604
77	0xbdfa753f	-0.12229394
78	0x3e79c40d	0.24391194
79	0xbe50b71b	-0.20382349
80	0xbdcf1063	-0.101105474
81	0xbe38bc18	-0.18040502
82	0x3d2a61cf	0.041597184
83	0xbe795ded	-0.24352236
84	0x3c2a62a9	0.010399499
85	0xbd5a7b56	-0.05334028
86	0xbcd45557	-0.0259196
87	0x3d0b0079	0.033935998
88	0x3dbef873	0.09324732
89	0xbe392b29	-0.1808287
90	0xbd1ffdbf	-0.03906035
91	0xbd374cb5	-0.044750888
92	0x3e4ec1b7	0.20191084
93	0x3ecc29fa	0.39875776
94	0x3e177619	0.14791144
95	0x3dfaf061	0.1225288
96	0xbdac080e	-0.08399974
97	0x3d58eee9	0.052962217
98	0x3d8fa48d	0.070138074
99	0xbd14d28d	-0.03633361
100	0xbca760b1	-0.020431848
101	0xbde61670	-0.11234748
102	0x3de6d6ac	0.11271414
103	0xbd8e3735	-0.06944124
104	0x3da2a0c6	0.07940821
105	0xbd8e6887	-0.06953531
106	0x3d352e0f	0.044233378
107	0x3e33d38f	0.17561172
108	0x3d984700	0.07435417
109	0x3de323cc	0.11090812
110	0xbdf4032e	-0.11914669
111	0x3d39f36e	0.04539817
112	0x3dfe5ae5	0.124196805
113	0xbc0d4b72	-0.008623945
114	0x3dbe855d	0.09302781
115	0xbe11a9f8	-0.14224994
116	0x3dfc3929	0.1231559
117	0x3da2dffa	0.079528764
118	0x3e79f1dc	0.24408668
119	0xbcd1d381	-0.025613548
120	0x3ac7ca69	0.0015242818
121	0x3cb61a92	0.022229467
122	0xbd8fc1cf	-0.07019388
123	0xbdba2f1a	-0.09091015
124	0x3e391c15	0.18077119
125	0x3c977b15	0.018491307
126	0x3e0f8d07	0.14018641
127	0x3d6b1786	0.05739548
128	0x3c2f6d99	0.010707282
129	0x3dccb534	0.09995499
130	0x3d575a40	0.052576303
131	0x3c943ab4	0.018094398
132	0xbd5037d2	-0.050834484
133	0x3d52b02b	0.051437538
134	0xbd3f49f3	-0.046701383
135	0x3ce09340	0.027413964
136	0x3d1034fe	0.035206787
137	0xbe2cf083	-0.16888623
138	0x3e03b5a4	0.12862259
139	0x3de32b02	0.110921875
140	0x3dd15e25	0.10223035
141	0xbdc47710	-0.09593022
142	0xbd8273cd	-0.063697435
143	0xbdeaee6f	-0.11471259
144	0xbe1c2d6b	-0.152517
145	0xbb8c67f4	-0.004284853
146	0xbc3d1c03	-0.011542323
147	0xbe283fdc	-0.1643061
148	0xbcc52224	-0.024064131
149	0x3d960571	0.073252566
150	0xbd411a9d	-0.04714452
151	0x3e20d6a6	0.15706882
152	0xbccb4655	-0.02481381
153	0x3d4eb76c	0.050467893
154	0x3c7aa685	0.01529849
155	0xbd0eaca0	-0.034832597
156	0xbde8a751	-0.11360038
157	0x3de4ada5	0.111659326
158	0x3d6287cc	0.055305287
159	0xbd6947a8	-0.056953102
160	0x3da8b2a6	0.082371995
161	0xbc26c3d5	-0.010178526
162	0x3e01fa9d	0.12693258
163	0xbe9a65f8	-0.3015592
164	0x3de27bb4	0.11058751
165	0x3dad95b1	0.08475817
166	0xbd8aa76e	-0.06770216
167	0x3d903c79	0.07042784
168	0x3d846b0f	0.06465732
169	0x3dc66969	0.09688074
170	0xbdb33529	-0.08750374
171	0x3cf44976	0.029820185
172	0x3e459ef5	0.19298919
173	0x3e04dbb4	0.12974435
174	0x3d024b9b	0.031810384
175	0x3ded9883	0.11601355
176	0xbccb733b	-0.02483522
177	0xbdc349a3	-0.095355295
178	0x3de41793	0.11137309
179	0x3d38bb3d	0.04510044
180	0xbd841a06	-0.06450276
181	0xbda5b62a	-0.08091386
182	0x3e0b9fbe	0.13635156
183	0x3d2dc755	0.042426426
184	0xbe16aec2	-0.14715102
185	0x3e08c90c	0.13357943
186	0x3d3d5297	0.046221342
187	0xbd6bbb40	-0.057551622
188	0x3e329c5d	0.1744246
189	0xbcf5679e	-0.029956635
190	0x3d3b3684	0.045706287
191	0x3e09b054	0.1344617
192	0x3d8d9adb	0.06914302
193	0x3cac5e9f	0.021041213
194	0x3d8d63d8	0.06903809
195	0xbda78556	-0.08179729
196	0xbd63715f	-0.05552804
197	0x3dca0836	0.09864847
198	0xbd6f1ecc	-0.05837898
199	0x3b8176bd	0.0039509223
200	0x3e35b581	0.1774502
201	0xbe18e9e4	-0.14932972
202	0xbdbfd808	-0.093673766
203	0x3c028db8	0.007968359
204	0xbcdbe193	-0.02684096
205	0xbe58cc9f	-0.21171807
206	0xbc84b8aa	-0.016201336
207	0x3e6ac6b8	0.22927368
208	0x3dc3af5e	0.09554933
209	0xbdee3383	-0.11630919
210	0x3d6d9a1f	0.05800831
211	0x3d0e7a62	0.034784682
212	0x3e337834	0.17526323
213	0x3e4e172c	0.20126027
214	0xbe255c4d	-0.16148491
215	0xbd271862	-0.040794738
216	0x3e2fff15	0.1718715
217	0x3de3213e	0.11090325
218	0x3db1e161	0.08685566
219	0x3d2f3f79	0.04278514
220	0x3c4e6d94	0.012599368
221	0xbda30da9	-0.0796159
222	0xbcd59faa	-0.02607711
223	0xbe3b9d2f	-0.1832168
224	0x3dc67a97	0.09691351
225	0xbec6addb	-0.38804516
226	0xbd6aa912	-0.057290144
227	0xbd50f6f5	-0.051016767
228	0x3cadf545	0.021235118
229	0x3d9a6ecc	0.07540664
230	0x3e2831d0	0.16425252
231	0x3dc74ceb	0.09731468
232	0xbd761b05	-0.06008436
233	0x3e8fdc08	0.28097558
234	0x3dd0c66d	0.10194097
235	0xbdd97c4a	-0.106194094
236	0xbd55bf24	-0.05218424
237	0x3b00d88e	0.0019660327
238	0x3d0ee754	0.03488858
239	0xbdb12c46	-0.086510226
240	0x3d198657	0.037481632
241	0xbd1ff008	-0.03904727
242	0xbe20b6d3	-0.15694742
243	0x3db44a5d	0.08803246
244	0x3d73dabe	0.05953478
245	0xbe5795bd	-0.21053214
246	0x3dbb4b81	0.091452606
247	0xbe54dbeb	-0.20787017
248	0x3d759f3a	0.059966303
249	0x3dda5322	0.106603876
250	0x3da03138	0.07821888
251	0x3aa5cff1	0.0012650472
252	0x3ddd19de	0.107959494
253	0x3c065b1b	0.008200432
254	0xbd1665ff	-0.036718365
255	0x3c6195bf	0.013768612

lstm.bias_ih_l0 f4 [200]
0	0xbe3fe57d	-0.18739887
1	0x3e9f217b	0.3108023
2	0xbe0401e9	-0.12891354
3	0xbd594a3c	-0.05304931
4	0xbdbceb41	-0.092245586
5	0xbd79d963	-0.06099833
6	0xbe226512	-0.15858868
7	0x3e1741f9	0.1477126
8	0x3e73035f	0.23731755
9	0x3e06ca83	0.1316319
10	0xbdaced7a	-0.084437326
11	0xbe180367	-0.14845048
12	0x3e61704c	0.22015494
13	0xbaf90222	-0.0018997828
14	0x3d858b67	0.065207295
15	0x3d93da5a	0.07219382
16	0x3e3d67c3	0.18496613
17	0xbcfd3900	-0.030910969
18	0x3e24a52f	0.16078638
19	0x3e1fa749	0.15591158
20	0xbddffca4	-0.10936859
21	0xbd9e34ee	-0.07724939
22	0x3e4b3a0c	0.19846362
23	0x3dd18ed5	0.10232321
24	0xbe1a45e6	-0.15065727
25	0x3e28b169	0.16473927
26	0x3e000a63	0.12503962
27	0x3c23b581	0.009992004
28	0xbcad4376	-0.021150332
29	0x3da9786f	0.08274924
30	0x3da96c79	0.08272643
31	0xbd4c3374	-0.049853757
32	0xbd1a25d1	-0.03763372
33	0x3e160058	0.14648569
34	0xbdc4a769	-0.096022435
35	0xbda77a5c	-0.08177635
36	0x3d6e8f01	0.058241848
37	0xbd937113	-0.071993016
38	0x3c88a963	0.016682332
39	0x3d9375f6	0.07200234
40	0x3eb4811b	0.3525475
41	0xbd517eca	-0.051146306
42	0x3d6065a0	0.054784417
43	0xbd9f212c	-0.07769999
44	0x3922af48	0.00015514821
45	0xbde9793d	-0.114000775
46	0xbdad696b	-0.084673725
47	0x3c724f11	0.014789359
48	0xbdb290e2	-0.087190405
49	0x3e2b93f6	0.16755661
50	0xbe10191b	-0.14072077
51	0x3d866c79	0.06563658
52	0x3da1f1b9	0.07907433
53	0x3bb53dd2	0.005531051
54	0x3e25f7e2	0.16207841
55	0x3db6a4d4	0.08918157
56	0xbd21b888	-0.039482623
57	0xbe8514b3	-0.25992355
58	0xbe1f369c	-0.15548176
59	0xbd9a5c06	-0.07537083
60	0xbd90689c	-0.07051203
61	0x3d673ee8	0.056456476
62	0xbd873d78	-0.06603521
63	0xbd5942b7	-0.05304214
64	0xbd7b02cd	-0.061281968
65	0xbd9e9504	-0.07743266
66	0x3d16a1b2	0.0367753
67	0xbd32517b	-0.043534737
68	0x3ddd8140	0.10815668
69	0x3e1fb9dc	0.15598243
70	0xbe3d3cab	-0.18480174
71	0xbe1e7e28	-0.15477812
72	0xbd6e4344	-0.05816962
73	0x3cf642ae	0.030061092
74	0xbe0d15f2	-0.13777903
75	0xbe87951e	-0.26480955
76	0xbd814b81	-0.06313229
77	0xbea4a88f	-0.3215985
78	0x3d9c7163	0.07638814
79	0xbce66fe3	-0.028129524
80	0xbdc23b4a	-0.09483965
81	0x3cec58ea	0.028850991
82	0x3cac750e	0.02105191
83	0xbc557ad9	-0.013029777
84	0xbdf7d9d7	-0.121020965
85	0xbdd9e5f3	-0.106395625
86	0xbe18d5d5	-0.1492532
87	0x3e7ccd20	0.24687624
88	0xbe3134a6	-0.1730524
89	0x3dab698b	0.0836974
90	0xbe2b09ac	-0.16702908
91	0x3da0ebe8	0.078574955
92	0xbd70f180	-0.058824062
93	0x3ddb59ba	0.10710473
94	0xbcaa634e	-0.020799305
95	0xbdb32e74	-0.087490946
96	0xbdd7deaf	-0.105405204
97	0x3db7bec9	0.08971936
98	0xbc1054aa	-0.008809248
99	0xbc962e20	-0.018332541
100	0xbd8b6f12	-0.06808294
101	0xbce10417	-0.02746777
102	0xbcc19503	-0.023630625
103	0xbca4f2a2	-0.020135228
104	0xbe29f0f6	-0.16595826
105	0xbd4a7c8d	-0.049435187
106	0xbc26cf79	-0.010181301
107	0xbc49c6d3	-0.01231547
108	0x3dc3354b	0.09531649
109	0xbdb0b3c0	-0.086280346
110	0xbdfb11f9	-0.122592874
111	0x3d526086	0.051361583
112	0x3d831d83	0.06402113
113	0xbdb3eb4a	-0.08785112
114	0x3d5db490	0.054127276
115	0xbdcf0f40	-0.101103306
116	0xbe113239	-0.14179315
117	0xbd39945c	-0.045307502
118	0xbd9edce4	-0.07756975
119	0xbdb9a323	-0.09064319
120	0x3da725a3	0.081614755
121	0x3e105f27	0.14098798
122	0x3de0b9c0	0.10972929
123	0x3d87a9fd	0.066242196
124	0xbc9557a3	-0.018230265
125	0x3c251cc3	0.010077658
126	0x3d97c3c0	0.07410383
127	0xbdc17207	-0.09445577
128	0x3e1a865c	0.15090317
129	0xbe048b7f	-0.12943839
130	0x3b993097	0.004674982
131	0x3d86855b	0.06568404
132	0x3d1f24a5	0.038853306
133	0x3c0951cf	0.008381321
134	0xbdd17275	-0.10226909
135	0x3d75fb62	0.06005419
136	0xbe095a28	-0.13413298
137	0xbc8e142b	-0.017343601
138	0x3d21f60b	0.039541285
139	0xbe153837	-0.14572226
140	0x3d16e04c	0.036835
141	0x3e10268b	0.14077203
142	0x3d8f3702	0.06992914
143	0x3d1a479f	0.03766596
144	0x3d8fbe64	0.07018736
145	0x3d96bcdf	0.07360243
146	0xbdb198b6	-0.086717054
147	0xbda42d1b	-0.08016416
148	0x3cbc7767	0.023006154
149	0x3c3e670c	0.011621248
150	0x3dbc4696	0.09193151
151	0x3e9477af	0.2899756
152	0xbcb6fcb7	-0.0223373
153	0x3bf3d437	0.0074410695
154	0xbddec925	-0.10878209
155	0xbd819c8d	-0.06328688
156	0x3dd3ae6b	0.10336002
157	0x3781cc15	1.5473031e-05
158	0x3d604a8e	0.0547586
159	0x3cd82588	0.026385084
160	0x3dabd4f1	0.08390225
161	0x3c7d4c9a	0.015460158
162	0x3e0e6460	0.13905478
163	0x3d3a2170	0.045442045
164	0xbd9076ec	-0.070539325
165	0x3e2df5ae	0.1698825
166	0xbd833317	-0.06406229
167	0xbdc878a7	-0.097886376
168	0x3dc1e1b5	0.09466878
169	0x3c919836	0.017772775
170	0xbe46a065	-0.19397123
171	0x3d963c64	0.07335737
172	0x3e13dc18	0.14439428
173	0xbd1c517f	-0.03816366
174	0x3e13df62	0.14440683
175	0x3e4d916f	0.2007501
176	0x3e2bcbe2	0.16776994
177	0x3e2764f0	0.16347098
178	0xbd9cec01	-0.07662202
179	0xbd0562ce	-0.03256493
180	0x3d772b81	0.060344223
181	0x3d94be25	0.0726283
182	0x3d176b3d	0.036967505
183	0x3e967c01	0.29391482
184	0x3ace53fb	0.0015741581
185	0xbe05b4b7	-0.13057218
186	0x3da3b486	0.079934165
187	0x3d475ec4	0.04867436
188	0x3d150198	0.036378473
189	0x3d252025	0.04031386
190	0x3e82c6b2	0.25542217
191	0x3c6b228e	0.0143515
192	0xbcb29d8d	-0.021803642
193	0xbcb02a60	-0.021504581
194	0xbd61c9b7	-0.05512401
195	0xbe02d684	-0.12777144
196	0x3d1f7b8f	0.038936194
197	0x3d889b50	0.066702485
198	0xbe358d82	-0.17729762
199	0x3e2b691d	0.16739316

lstm.bias_hh_l0 f4 [200]
0	0xbd89430f	-0.067022435
1	0x3ebaf584	0.3651544
2	0xbe26972e	-0.16268608
3	0xbb4e1818	-0.0031447466
4	0xbc8fcd9d	-0.017554099
5	0xbc386dd6	-0.011256656
6	0x3cecc6aa	0.028903324
7	0x3d9e7854	0.077377945
8	0x3de05818	0.109543025
9	0x3d3d529c	0.04622136
10	0x3dbb3b77	0.091422014
11	0xbe2f5f15	-0.17126115
12	0x3e58f177	0.21185862
13	0xbdb1665f	-0.08662104
14	0x3de3ed00	0.111291885
15	0x3da50587	0.08057695
16	0xbc3ed6a3	-0.011647853
17	0xbd3fcf56	-0.04682859
18	0xbb9c3c06	-0.0047678975
19	0x3e35a5e9	0.17739071
20	0xbe26c2f2	-0.16285303
21	0xbd5e1f59	-0.054229114
22	0x3e2a62db	0.16639273
23	0x3e5e0896	0.21682963
24	0x3cc35c51	0.02384773
25	0x3e9b5fec	0.3034662
26	0x3e2d5bc0	0.16929531
27	0x3c6f3689	0.014600405
28	0x3e3c76ce	0.18404695
29	0x3d297297	0.041369047
30	0x3e39ad44	0.18132502
31	0x3e5c8cb1	0.21538045
32	0x3cd55c7b	0.026045075
33	0x3e7455dd	0.23860879
34	0x3e064f1e	0.13116118
35	0xbe1b8b62	-0.15189889
36	0xbd8704dc	-0.06592724
37	0xbcb4866d	-0.022036755
38	0xbd8388b0	-0.064225554
39	0xbccd67f8	-0.02507399
40	0x3e9a60b2	0.30151898
41	0x3d927837	0.071518354
42	0xbe2951ea	-0.16535154
43	0xbc52a05f	-0.012855618
44	0x3cce91f9	0.02521609
45	0x3dbb6afc	0.09151265
46	0x3e05098b	0.12991922
47	0xbe2e6b53	-0.17033128
48	0xbdab7388	-0.08371645
49	0x3e0ba0f5	0.13635619
50	0x3cfe667d	0.03105473
51	0xbe2131b9	-0.15741624
52	0x3e0e6394	0.13905174
53	0x3dd5318e	0.104098424
54	0x3d00009c	0.03125058
55	0xbb5f49ee	-0.0034071165
56	0x3c6a0ff2	0.014286028
57	0xbe80f9df	-0.25190637
58	0xbe4ad03b	-0.19805996
59	0xbda833f2	-0.08213033
60	0x3c00f9f3	0.007872093
61	0x3d9d718a	0.076876715
62	0xbd072c18	-0.033001035
63	0x3c8e9bc0	0.017408252
64	0xbe012a04	-0.12613684
65	0xbcf157a9	-0.029460745
66	0x3db63a39	0.08897824
67	0xbe42e409	-0.19032301
68	0xbd38bf13	-0.045104098
69	0x3dfbcc0e	0.1229478
70	0xbd8abb4e	-0.06774007
71	0xbd60a172	-0.054841466
72	0xbe417213	-0.18891172
73	0xbe2ec812	-0.17068508
74	0xbe1cde65	-0.15319212
75	0xbe5d8c71	-0.21635605
76	0xbe83b493	-0.25723705
77	0xbd8df70c	-0.06931886
78	0x3da7663b	0.08173796
79	0xbe05e7a2	-0.13076642
80	0xbdc6c6d7	-0.097058944
81	0xbdaa083b	-0.08302351
82	0xbcaff78d	-0.021480346
83	0xbde6205d	-0.112366416
84	0xba9ae0dd	-0.0011816282
85	0x3ddba75d	0.107252814
86	0xbe3bb293	-0.1832984
87	0x3e78ffb0	0.24316287
88	0xbdb51b26	-0.08843069
89	0x3d7a2908	0.061074287
90	0xbc91561b	-0.017741254
91	0xbdf84793	-0.12123027
92	0xbd48b40d	-0.048999835
93	0xbda7a0c8	-0.081849635
94	0x3d727ba4	0.059199944
95	0xbda8c6af	-0.08241021
96	0x3bfc571c	0.007700814
97	0x3ddc9d63	0.10772207
98	0x3e08accf	0.13347171
99	0xbd85a0de	-0.065248236
100	0xbdb911cd	-0.09036598
101	0xbdce97e5	-0.10087565
102	0xbe182a1f	-0.14859818
103	0xbd18b134	-0.03727837
104	0xbd81bc20	-0.0633471
105	0xbd570501	-0.052495006
106	0x3db4c6f7	0.08827012
107	0xbdeccc9d	-0.115624644
108	0x3dac0ec3	0.08401253
109	0xbdd2462c	-0.102672905
110	0x3bc199cd	0.005908227
111	0x3cced87c	0.025249712
112	0x3d78abd3	0.06071074
113	0x3ded652c	0.11591563
114	0xbdd11a6a	-0.10210116
115	0xbd7cb0c2	-0.061692007
116	0xbde3e897	-0.11128347
117	0x3dc1ec39	0.09468884
118	0x3da33cfd	0.07970617
119	0xbb3741ab	-0.0027962725
120	0x3d1407d7	0.03614029
121	0xbddebe96	-0.10876195
122	0x3dc910c6	0.098176524
123	0xbe043943	-0.12912469
124	0x3d7b098c	0.0612884
125	0xbd407492	-0.04698617
126	0x3c617b1c	0.013762262
127	0xbd7045fe	-0.0586605
128	0x3dab6ac9	0.08369977
129	0xbe0459d1	-0.12924887
130	0xbd56efcb	-0.05247478
131	0x3dd3637d	0.1032171
132	0x3d76fa5b	0.06029735
133	0x3d9314a7	0.071816735
134	0xbd9ff9d0	-0.0781132
135	0xbdff4291	-0.124638684
136	0xbdfc98d4	-0.12333837
137	0x3e02b266	0.12763366
138	0xbe13e82a	-0.14444032
139	0x3be9a5dd	0.007130368
140	0xbd3a18a1	-0.045433644
141	0x3c12f401	0.008969308
142	0x3da1236c	0.07868084
143	0x3e0833b4	0.13300973
144	0xbd8be916	-0.06831567
145	0x3cc3ebba	0.023916114
146	0xbd7f4385	-0.06232025
147	0x3deec6c6	0.11659007
148	0x3da1d3c7	0.079017214
149	0x3e29a070	0.16565108
150	0x3cf52c82	0.02992845
151	0x3e06ccc9	0.13164057
152	0xbe0a6ded	-0.13518496
153	0x3debf6a9	0.11521656
154	0xbdb32e12	-0.087490216
155	0x3dc0bf5f	0.09411501
156	0xbdbfce68	-0.09365541
157	0xbc9c562c	-0.019084059
158	0x3e27bb27	0.16379987
159	0x3dd1d894	0.10246387
160	0x3c0a5f7e	0.008445619
161	0x3d6c5612	0.05769927
162	0xbceb684c	-0.028736256
163	0x3ca037ae	0.0195578
164	0x3df1df85	0.11810211
165	0x3d140b90	0.03614384
166	0x3e351002	0.17681888
167	0xbdc7a841	-0.09748889
168	0xbd3689f3	-0.044565152
169	0x3c608790	0.013704196
170	0xbce715c1	-0.028208615
171	0xbdc80429	-0.097664185
172	0x3d01bf87	0.031676795
173	0x3d9d2952	0.07673897
174	0xbd30347d	-0.043018807
175	0x3ea89aaa	0.329305
176	0x3c2f1cfe	0.010688065
177	0x3e3e1576	0.18562874
178	0xbe047165	-0.12933882
179	0xbd9d6788	-0.07685763
180	0x3e6a8fbf	0.22906397
181	0x3df65d1f	0.1202948
182	0xbdca9b62	-0.09892918
183	0x3e840684	0.2578622
184	0x3b54477c	0.003239124
185	0xbc954141	-0.018219592
186	0x3c48ed3f	0.012263595
187	0xbc204c5f	-0.009783833
188	0x3d0471b6	0.032335006
189	0x3e182a73	0.14859943
190	0x3eb9373f	0.36174962
191	0xbddcea5e	-0.107868895
192	0x3d84f731	0.064924605
193	0x3e05c7f9	0.13064565
194	0x3de39f43	0.11114361
195	0x3d9ff197	0.078097515
196	0x3dba755a	0.09104414
197	0xbd2497e8	-0.04018393
198	0xbd949e69	-0.07256777
199	0x3da092f5	0.0784053

lstm.weight_ih_l1 f4 [200, 50]
0	0xbce8d25d	-0.028420622
1	0xbdca2df5	-0.09872047
2	0xbc88df1e	-0.016707953
3	0x3d04ff87	0.032470252
4	0x3c1bee39	0.009517246
5	0x3e249184	0.16071135
6	0x3ddb4f20	0.10708451
7	0xbd751e83	-0.05984355
8	0x3d4e9679	0.05043647
9	0xbc900640	-0.017581105
10	0xbcc5049d	-0.024050051
11	0x3d05011b	0.032471757
12	0x3c89432c	0.016755663
13	0xbe42dad4	-0.19028789
14	0x3d9cbfb7	0.07653754
15	0x3e425630	0.1897819
16	0x3c088377	0.008332125
17	0x3cab2416	0.02089123
18	0x3d87e016	0.06634538
19	0x3dcc6f99	0.09982223
20	0x3e1100cf	0.14160465
21	0xbe82146e	-0.25406212
22	0x3c11a9c7	0.008890576
23	0xbe17f1d9	-0.14838351
24	0x3d0a0b11	0.03370196
25	0x3d0efd7e	0.034909718
26	0x3cc873e2	0.02446932
27	0x3e4ae886	0.19815263
28	0xbe573ed2	-0.21020058
29	0xbd7c42d1	-0.06158716
30	0xbe40eb71	-0.18839814
31	0x3e249563	0.16072612
32	0x3d34fab4	0.0441844
33	0x3e0cbeb8	0.13744628
34	0x3d823da4	0.06359413
35	0x3e57844a	0.21046558
36	0x3d7ec79a	0.062202074
37	0xbe9d80b9	-0.3076227
38	0x3e1bbda4	0.15209061
39	0xbe219b40	-0.1578188
40	0x3d52d235	0.05147
41	0xbe106af8	-0.14103305
42	0x3ddceb06	0.10787015
43	0xbe808ed3	-0.25108966
44	0x3dfe2259	0.12408895
45	0x3de4705b	0.111542426
46	0xbcf457a7	-0.029826952
47	0xbc48bf91	-0.012252704
48	0x3da4fa2e	0.080555305
49	0xbe121e81	-0.14269449
50	0x3c484ef6	0.012225857
51	0xbeae8a3a	-0.34089833
52	0xbd541ae9	-0.051783476
53	0xbe0b8bc9	-0.13627543
54	0x3dcd805b	0.100342475
55	0xbe0d2001	-0.1378174
56	0xbda55988	-0.08073717
57	0xbe155a0b	-0.1458513
58	0x3dbc4d7c	0.091944665
59	0xbd828a88	-0.06374079
60	0xbe043dfd	-0.12914272
61	0x3db54d39	0.0885262
62	0x3d8b0313	0.06787696
63	0xbc196fd2	-0.009365039
64	0xbdae4ccd	-0.08510742
65	0xbdeb9ea7	-0.1150487
66	0xbe4eea8f	-0.20206665
67	0xbdce12a5	-0.1006215
68	0xbcfad5c6	-0.030619513
69	0xbe82d297	-0.25551292
70	0x3e04c1e7	0.12964593
71	0xbe128162	-0.14307168
72	0x3e203d16	0.15648302
73	0xbdb243a1	-0.087043054
74	0x3de727b2	0.11286868
75	0x3caaed98	0.020865247
76	0x3d835f6b	0.06414684
77	0xbe7fa58e	-0.24965498
78	0xbcdb3e37	-0.026763065
79	0xbca961ea	-0.020676572
80	0xbe5b3a53	-0.21408968
81	0x3e0a89bf	0.13529108
82	0xbd47e9f7	-0.04880711
83	0xbda79e82	-0.0818453
84	0xbc6f18fe	-0.014593361
85	0xbe04c08e	-0.12964079
86	0xbe9c7f46	-0.30565852
87	0xbe16e1bd	-0.1473455
88	0x3dc0dde2	0.09417321
89	0xbe403e1b	-0.18773691
90	0x3e0f35f3	0.13985424
91	0x3cd71c9f	0.026258765
92	0x3c002f2a	0.007823745
93	0xbcbcba8b	-0.02303817
94	0xbd28a89b	-0.04117642
95	0x3dca76b9	0.09885926
96	0x3dabab49	0.083822794
97	0xbe3288c3	-0.17434983
98	0x3d7914a1	0.06081069
99	0xbdc3278c	-0.09529027
100	0xbd8fa27d	-0.07013414
101	0xbe4e0198	-0.20117795
102	0xbc8b7444	-0.017023213
103	0x3e023d52	0.12718704
104	0xbb9e895e	-0.004838153
105	0x3c06a4fd	0.008218047
106	0x3dc12398	0.09430617
107	0xbde8a8ea	-0.11360343
108	0xbdccc04e	-0.09997617
109	0xbe232e69	-0.15935673
110	0x3e202cd2	0.15642098
111	0x3e1ca1b3	0.15296058
112	0xbc670627	-0.014100588
113	0xbdbac119	-0.09118862
114	0x399cb650	0.00029890472
115	0xbe3e16a6	-0.18563327
116	0x3d431a8d	0.047632743
117	0xbd855f06	-0.06512265
118	0xbd7bd60a	-0.06148342
119	0xbde02e08	-0.1094628
120	0x3c4cca10	0.012499347
121	0x3c53e827	0.012933767
122	0xbdc07b6d	-0.093985416
123	0xbcdd3d55	-0.027006784
124	0x3e1147b4	0.14187509
125	0x3ebcdfb0	0.3688941
126	0x3d050e1d	0.032484163
127	0xbec6eaa5	-0.38850895
128	0x3cdb83e2	0.026796285
129	0x3ca0c57b	0.019625416
130	0xbd909c16	-0.07061021
131	0xbe1ac188	-0.15112889
132	0xbd8e02c2	-0.0693412
133	0xbe0e7a0c	-0.13913745
134	0x3e37ea7f	0.17960547
135	0xbc063ace	-0.008192731
136	0xbe9b0cb7	-0.30283138
137	0x3e8cda68	0.2751038
138	0xbe1af774	-0.15133458
139	0x3e4750ac	0.19464368
140	0xbd8c02c1	-0.06836463
141	0xbd410e4f	-0.047132786
142	0xbd2e2d86	-0.042523883
143	0xbd0956d6	-0.03353008
144	0xbe0a27ed	-0.13491793
145	0xbcdce151	-0.026962908
146	0xbdb0a522	-0.086252466
147	0x3e3d09ca	0.18460765
148	0xbdb02158	-0.0860011
149	0xbe84726d	-0.2586855
150	0x3ca3c2a8	0.01999028
151	0xbe402f29	-0.1876799
152	0x3d8119a5	0.063037194
153	0xbe00735b	-0.12544005
154	0x3deeb780	0.116560936
155	0x3d679a7a	0.056543805
156	0xbdf8c500	-0.1214695
157	0x3d9d789b	0.07689019
158	0x3db8c2d7	0.09021538
159	0xbc8c7caa	-0.017149288
160	0x3e1e481e	0.15457198
161	0x3da8cf31	0.082426436
162	0x3d704019	0.05865488
163	0xbe466fa8	-0.19378531
164	0xbcb15789	-0.021648185
165	0xbdfb2683	-0.12263205
166	0xbe463130	-0.19354701
167	0x3db3c240	0.087772846
168	0xb9feffbc	-0.00048637192
169	0xbddb0e6b	-0.106961094
170	0x3dd79393	0.105261944
171	0x3dae2680	0.08503437
172	0xbde10ec8	-0.109891474
173	0x3db6a95c	0.089190215
174	0x3e46e9b9	0.19425096
175	0x3dc91402	0.09818269
176	0x3e073a88	0.13205922
177	0xbe460ecf	-0.19341587
178	0x3e55869e	0.20852134
179	0x3dcb24f4	0.099191576
180	0x3cb5d9e9	0.022198634
181	0x3d835b3d	0.06413887
182	0x3ce62ed6	0.028098505
183	0xbe13718a	-0.1439878
184	0x3d9aabce	0.075523004
185	0x3c2f4ba6	0.010699188
186	0xbe9dd28d	-0.308247
187	0xbd7d5db9	-0.06185696
188	0xbcaed4fb	-0.021341791
189	0x3cb3aa2d	0.021931732
190	0x3e16dd3c	0.14732832
191	0xbcbe43a9	-0.023225622
192	0xbda9013b	-0.08252188
193	0x3e22c1ee	0.15894291
194	0x3d28613c	0.041108355
195	0xbd1b99c4	-0.03798844
196	0xbdc9cb68	-0.0985325
197	0x3e0f2551	0.13979079
198	0x3d90580e	0.07048045
199	0xbdaa8e17	-0.08327883
200	0x3b28d270	0.0025760196
201	0x3e0e8f50	0.13921857
202	0xbd0ee6a6	-0.034887932
203	0xbe288288	-0.16456044
204	0xbd3b4e44	-0.045728937
205	0x3dc3deff	0.095640175
206	0x3c66ad4b	0.014079402
207	0x3cbe16ec	0.02320429
208	0xbdbc8f42	-0.09207012
209	0xbdd9b70b	-0.10630616
210	0xbdabf720	-0.08396745
211	0x3e778611	0.24172236
212	0x3c50b711	0.012738959
213	0x3dfcefd0	0.12350428
214	0xbdc932c2	-0.098241344
215	0xbdab2fd9	-0.083587356
216	0xbd24816e	-0.040162496
217	0x3d360629	0.04443947
218	0x3a3d104c	0.0007212206
219	0x3d861342	0.06546642
220	0xbc92c9f4	-0.017918564
221	0xbe72ba7b	-0.23703949
222	0x3e47a018	0.19494665
223	0x3d6c55fe	0.057699196
224	0xbe9a6b3e	-0.30159944
225	0x3e36c9b2	0.17850378
226	0x38c7a344	9.51947e-05
227	0xbdea9385	-0.11453918
228	0xbcc7302d	-0.024314964
229	0x3c97b32e	0.018518057
230	0xbe76d33a	-0.24104014
231	0x3d98996e	0.074511394
232	0xbca6fd39	-0.020384418
233	0x3d03ce40	0.032179117
234	0xbc582934	-0.013193417
235	0x3e04a732	0.12954405
236	0x3e1cbb7c	0.15305895
237	0x3dc09c6e	0.094048366
238	0x3d55e19f	0.052217122
239	0xbe86e510	-0.26346636
240	0xbd14a2f9	-0.036288235
241	0x3e102a81	0.14078714
242	0x3e7f361b	0.24922983
243	0x3c1b2e94	0.009471554
244	0x3c011d18	0.007880472
245	0x3d880156	0.0664088
246	0x3e107c90	0.14110017
247	0xbbfb73ff	-0.00767374
248	0xbd1cca7e	-0.03827905
249	0xbde1a8e4	-0.110185415
250	0x3dc56223	0.09637859
251	0xbd2180eb	-0.039429586
252	0x3afb1dff	0.001915872
253	0xbe48344a	-0.19551197
254	0x3e52fe59	0.20604838
255	0x3d8b547f	0.06803226
