pol_models/aqi_last_14_model_state.pt (torch, 650572 bytes, 16 tensors)

conv1.weight f4 [64, 300, 3]
000000 6f 38 ca bc 77 0c a7 3c 08 ad 98 3c 2f d5 e7 3b
       -0.024685113 0.020391686 0.018637195 0.007074974
000010 d2 16 95 3c c4 60 9c 3c ea 58 8f bc 51 df 06 bd
       0.018199358 0.01908911 -0.017498452 -0.032927815
000020 da d6 8c bc 39 22 14 bc dd a0 b7 bb 1e a4 c1 bc
       -0.017192293 -0.009041362 -0.005603893 -0.023637827
000030 59 94 f9 bc 14 32 59 bc f0 a7 25 bc f0 06 e0 3b
       -0.030466245 -0.013256568 -0.01011084 0.0068367645
000040 af bc fa bc a3 ed f2 3b 27 c7 ca 3c 7d 42 a0 3c
       -0.03060755 0.0074135824 0.024753166 0.019562954
000050 d8 3f db 3c 89 56 b1 3a 03 3d ed bc 34 d1 98 bc
       0.026763842 0.0013529818 -0.028959757 -0.018654443
000060 20 2a 10 bd 1a 31 92 3c 1b 85 c0 bb 45 65 a4 bc
       -0.035196424 0.01784568 -0.0058752424 -0.02006782
000070 f5 d9 cf 3c 95 bc c3 bc 31 13 ad 3b dd 6e e1 bc
       0.025372485 -0.023893634 0.005281829 -0.027518684
000080 9c 57 8e 3b 17 ee a8 3c 75 55 2a bc 76 c0 2f 3c
       0.00434394 0.020621343 -0.010396351 0.010727039
000090 f0 be 2f ba 41 af aa bc 65 43 14 bd 3e 8d 81 3c
       -0.0006704172 -0.02083552 -0.036197085 0.01581442
0000a0 f5 cc 0f bc 92 e2 9c 3c c2 d9 47 3b e6 8c b9 bc
       -0.008776893 0.019151006 0.0030494784 -0.022650193
0000b0 fc b8 a8 3c ae b8 c2 3c 01 43 e2 bb 05 17 06 bd
       0.02059602 0.023769703 -0.00690496 -0.032736797
0000c0 0d f5 84 b7 81 50 14 bd 5f bf 19 3c d5 83 c7 bc
       -1.5849737e-05 -0.036209587 0.009384005 -0.024354855
0000d0 5a 3a d9 bc 99 6f 9c 3c 97 18 ef bb 69 39 1a bd
       -0.026517082 0.019096183 -0.0072966325 -0.037652407
0000e0 27 09 bb 3b ad 8f 01 bd e8 b9 e5 bc 35 6d 8e 3c
       0.005707878 -0.03163116 -0.028042749 0.017386058
0000f0 5d 9c 97 3c 90 81 be 3c 56 d8 93 3b 5c 6a 54 3c
       0.018507177 0.02325514 0.0045118732 0.012964811
000100 fd 31 12 bd 97 32 1a bd 55 89 ed bc 96 a3 b2 bb
       -0.035692204 -0.037645902 -0.02899615 -0.00545163
000110 b0 7b a6 3c ad bc dd 3c 7f fd c0 bc 3e bb 66 bc
       0.02032265 0.027067507 -0.023558376 -0.014082728
000120 11 2f ca 3c fb 7d 87 bc 16 97 b4 3b 5c a9 8e 3b
       0.024680646 -0.016539564 0.005511175 0.0043536853
000130 36 73 bf bb 99 2e 20 bb 4e be 20 bd 87 00 12 bc
       -0.0058425916 -0.0024441837 -0.03924399 -0.008911259
000140 ad 71 47 ba ed d9 b3 3c 60 7e 00 bc c9 93 c5 3c
       -0.00076081866 0.021954501 -0.00784263 0.024118321
000150 71 11 0c bd 9a 99 cf 3c ef fa 00 bb ae 83 03 bc
       -0.03419632 0.025341798 -0.0019680818 -0.008027
000160 a6 e8 fe bc 2c e3 08 bd 9b 1e 97 bc ad 53 13 bd
       -0.031116795 -0.033419773 -0.018447211 -0.03596847
000170 6b 55 14 bd 59 4d 0c bd f1 db 12 bc 86 72 83 ba
       -0.036214273 -0.034253452 -0.008963571 -0.0010028637
000180 ed cf 9b bc 98 20 fb bc 77 ce df 38 c2 5b 9a 3c
       -0.019020045 -0.03065519 0.00010671926 0.018842582
000190 4c dd cb 3c 4c 54 dd 3c 98 31 d9 bc b2 29 fc bc
       0.024885796 0.027017735 -0.026512906 -0.0307816
0001a0 ff 52 4d 3c 02 bc 57 3c 14 14 6d 3c 8d 6c b1 3c
       0.012531995 0.013167383 0.014470119 0.021658206
0001b0 e4 d8 25 3c 89 9f c1 3c d7 6a c5 3c a4 af 7b bc
       0.010122512 0.023635643 0.024098797 -0.0153617
0001c0 94 7a e4 bc b4 85 23 3c 76 52 e7 bb 74 12 8f 3c
       -0.027890481 0.009980608 -0.0070593907 0.017464854
0001d0 4d b8 0c 3c 4d f4 1e bc 4c b0 0f bd 35 13 09 bd
       0.008588863 -0.0097018005 -0.03508024 -0.033465583
0001e0 05 4d 9c b9 53 c2 7d 3c 92 26 67 3c 27 6f f0 bc
       -0.00029812023 0.015488225 0.014108317 -0.029349877
0001f0 a1 2f e7 bc c9 9e 0d bd 01 7b 87 3c 93 ea 92 bc
       -0.028220953 -0.034575257 0.016538145 -0.01793412
000200 85 a1 f3 bc d1 80 71 bb d8 dc b3 3c 71 84 15 bd
       -0.029740104 -0.0036850462 0.021955892 -0.03650326
000210 5e 24 e5 bc 46 e1 8b 3a 11 77 c0 b9 44 50 04 bb
       -0.027971443 0.0010671995 -0.00036709805 -0.0020189444
000220 b3 e3 db 3c a0 d8 bd bc 10 5a 44 3c 5d 8c 7e 3c
       0.026841974 -0.023174584 0.011984363 0.015536395
000230 30 7a a4 bb 66 32 2f 3c 2b 25 3e bc f6 5e 57 bc
       -0.0050194487 0.010693168 -0.011605541 -0.013145199
000240 7a 2c 36 3c 9d 5f 6e 3c f5 22 4a 3c 8c 73 1e bd
       0.0111190025 0.014549163 0.012337436 -0.038684413
000250 0a 7d 12 bd 40 1f db bc f0 86 f0 bc 5f ab 0f 3c
       -0.035763778 -0.0267483 -0.029361218 0.008768885
000260 15 0d 04 3c f8 4e 66 3c 30 1d 34 3c c8 00 04 3c
       0.00805976 0.014056914 0.010993287 0.008056827
000270 b5 a5 15 bd d0 64 04 bd ba 68 db 3b 67 ec dc 3c
       -0.036534984 -0.032322705 0.006695834 0.026968194
000280 e6 17 58 3c b1 38 9b bc 88 26 14 3c b8 89 ab 3c
       0.013189292 -0.018947931 0.00904239 0.020939693
000290 06 be 8c 3c ad 9b c6 3c 86 7b af 3c 94 b1 5e bc
       0.017180454 0.024244154 0.021421205 -0.013592143
0002a0 70 f9 91 3c 9d bd 46 3c 41 35 79 bc 7e 68 ca bc
       0.017819136 0.012130168 -0.015210451 -0.024708029
0002b0 5c 10 d6 3c 8e 33 b1 3c b8 0b 20 bd 1a 67 6c 3c
       0.026130848 0.021631029 -0.039073676 0.014428878
0002c0 89 49 a5 bb 46 54 40 bb de 74 b1 3c 2e 8d 5e 3c
       -0.0050441665 -0.0029347106 0.021662172 0.013583465
0002d0 60 96 b1 bc 4b cd dc bc 3b 6a a0 bc ed 42 9a bc
       -0.02167815 -0.02695336 -0.019581905 -0.01883074
0002e0 97 cb dc b9 24 18 10 bd a5 39 a3 3b 61 58 82 bc
       -0.00042113356 -0.035179272 0.004981237 -0.015911283
0002f0 aa 9c ef b8 a9 20 61 3c 4e a9 d7 3c f1 74 64 bb
       -0.00011425589 0.013740697 0.026325848 -0.0034859742
000300 57 5b c8 ba a1 eb 07 bd 8a 88 f1 bb fc d7 81 bc
       -0.001528601 -0.033183698 -0.007371013 -0.01585006
000310 eb ae 0e bd 15 51 d1 bc 18 a3 a6 bc c2 2d 0c bd
       -0.034834784 -0.025551358 -0.020341441 -0.034223326
000320 e2 58 c0 bc 8b 60 c6 bc 91 98 ec bc d8 78 0f bd
       -0.023479883 -0.024215957 -0.028881343 -0.035027355
000330 52 dc 28 bb 8c ca 7f bc 94 68 ff bc c2 ad c6 bc
       -0.0025766087 -0.015612256 -0.031177796 -0.024252776
000340 a3 00 f7 bc fb 84 98 3c 02 5d c0 bc 51 c6 5f 3c
       -0.03015167 0.018618098 -0.02348185 0.013658122
000350 0c 75 2c bc 9c 5a 8b bc e2 79 b4 bc 14 7d 4f 3c
       -0.010525953 -0.01701098 -0.022030775 0.012664098
000360 c4 1e 66 bc 5e 27 23 3b 74 58 ec bb 0e 2c da 3b
       -0.014045421 0.002489529 -0.007212693 0.0066580838
000370 c9 e2 7e bc 30 b0 f1 bc 2a a6 1d bc d2 40 a8 ba
       -0.0155569995 -0.029502958 -0.009622136 -0.0012836701
000380 24 ed fd bc e8 58 78 bc bc 5f c2 bc ef 8b 2e 3c
       -0.030996867 -0.015157916 -0.02372729 0.01065348
000390 b7 0c 24 3b e2 30 b2 3c 83 2f 8d bc f9 2f 79 3b
       0.0025031993 0.021751825 -0.01723457 0.0038022979
0003a0 28 4c ec bc 23 5f b9 bb 4c 85 89 bc 85 ae 1f bd
       -0.028844908 -0.005657093 -0.016787194 -0.038984794
0003b0 f5 a9 99 bb a6 c9 5c bc 16 6a f5 3b d5 26 2b bc
       -0.00468945 -0.013475811 0.007489453 -0.01044627
0003c0 6a c1 83 3c 6a 11 5c 3c 90 38 cb bc 45 31 b5 bc
       0.016083438 0.013431886 -0.024807245 -0.02211822
0003d0 3b a4 ee bc f0 39 84 3c f3 a9 a0 bc 75 d9 c0 bc
       -0.029131046 0.016140908 -0.019612288 -0.023541192
0003e0 c1 a4 77 3c 88 d5 72 bb bc ac be 3c 82 c7 1e bd
       0.015114964 -0.0037053544 0.023275726 -0.038764484
0003f0 82 b3 39 3a 42 e1 0b bd 50 2e 1b bc 28 33 f1 bc
       0.00070839387 -0.03415037 -0.009471491 -0.029443339

conv1.bias f4 [64]
000000 18 2b b0 bb 07 99 5c be 31 a8 00 bd 82 4a 5f 3d
       -0.005376231 -0.2154275 -0.0314104 0.054514416
000010 69 80 db bc 7a 97 af 3c ce 5f a3 3c 9a 26 0c bc
       -0.02679463 0.021434534 0.019943144 -0.008554125
000020 ed 09 39 be 49 5c 9a 3b 07 db 4c be a7 33 57 be
       -0.18070193 0.0047107083 -0.20005427 -0.21015798
000030 20 11 9a bc 6f 8e 8f 3c 6c 1b fb bd ff 5f 94 3c
       -0.018806994 0.017523972 -0.1226109 0.01811218
000040 56 f3 86 3c e3 87 ad 3c 5c b4 95 3c 8a b8 19 bb
       0.016473453 0.02118296 0.018274479 -0.002345594
000050 5f 8e be 3b 10 d7 9a b9 03 34 3e be 07 f1 1d bd
       0.005815312 -0.00029533403 -0.18574528 -0.03855994
000060 10 9c 62 bb bb c3 84 bc 7e 35 19 bd 83 18 0d bc
       -0.0034577884 -0.016206613 -0.03740453 -0.008611801
000070 5f 98 2d be 19 cc d5 bc 65 6c 71 be c3 6a 9f ba
       -0.16952656 -0.026098298 -0.23576505 -0.0012162555
000080 ad a0 3d be 98 e2 4b bc 6d 80 5b 3c b5 6e 8f bc
       -0.18518324 -0.012444161 0.013397318 -0.017508844
000090 4d 90 a4 3c d9 14 b4 bc 54 cb 0b bd 1c 40 06 3c
       0.02008834 -0.021982597 -0.034129456 0.008193996
0000a0 f5 c6 23 3b 17 21 84 3c c1 cc 42 bc 37 52 02 bd
       0.0024990414 0.01612906 -0.011889637 -0.031816687
0000b0 ce a3 83 3c 23 1a bd bb 5c e0 a9 bc 84 02 2d be
       0.01606932 -0.005770938 -0.020736866 -0.16895491
0000c0 d1 bf bd bc 6a be e4 bc b0 a6 4f be 00 6b 97 3d
       -0.023162754 -0.027922828 -0.2027843 0.073934555
0000d0 f1 48 92 3c b8 b9 cb 3c f5 f7 99 be 9d 3b ad bc
       0.017857047 0.024868831 -0.3007199 -0.02114659
0000e0 48 80 0e be de f2 00 3c a5 06 ce bc 25 b3 82 3b
       -0.13916123 0.007870404 -0.025149653 0.003988641
0000f0 43 c2 8e 3c c6 39 a4 bb 88 45 61 3c e6 10 14 bd
       0.017426616 -0.00501177 0.013749488 -0.036148928

conv2.weight f4 [128, 64, 3]
000000 7d c7 e8 3c 07 b8 73 bd 02 9f 08 3c 51 f2 31 bd
       0.028415436 -0.059501674 0.008338692 -0.04344398
000010 01 b1 1e be 86 0d 6b be d8 39 2f bd 5e 0c ae 3c
       -0.15497209 -0.22954378 -0.042779773 0.021246132
000020 26 d5 6e 3c bb a0 a8 3d aa b2 27 be 27 03 87 bc
       0.014577186 0.08233782 -0.16376749 -0.016480995
000030 6b 23 60 3b 45 1c bc 3c b8 96 64 bd a5 d0 81 bc
       0.0034200798 0.022962699 -0.0558078 -0.01584656
000040 49 e1 12 bd 98 6f 56 bd 81 69 7f bd 34 de 8a bc
       -0.03585938 -0.052352518 -0.062356476 -0.016951658
000050 48 97 29 bd c5 95 7d 3d 0b a2 45 3d 1a f0 50 bd
       -0.04140404 0.06191041 0.04825024 -0.05101023
000060 28 2d 28 bd ec 14 3e be 7e 92 2b be 08 7b e5 3c
       -0.04105869 -0.18562669 -0.16755101 0.028012767
000070 58 20 85 3c e4 4b b0 bc 66 43 cb bd 2c f1 a6 3c
       0.016250774 -0.021520562 -0.099249646 0.020378672
000080 b4 12 33 3c cd b4 c5 bd 65 c3 16 be 96 ed 16 be
       0.010929752 -0.09653626 -0.14722975 -0.1473907
000090 8b 1d 94 bd 6e 98 0b bc b3 0d 62 bd 50 f5 3f 3d
       -0.072321974 -0.008520229 -0.055188846 0.046864808
0000a0 3b 1f 13 3d f8 ad e4 3a 1a 09 95 bd d1 21 ba 3d
       0.035918456 0.0017446866 -0.072771266 0.09088481
0000b0 b1 7d 2e 3b fe d9 47 bd b8 b8 22 bd e7 31 36 bd
       0.002662521 -0.048791878 -0.039726943 -0.044481184
0000c0 87 a5 e5 bc 70 14 4c 3d be 8f de bc 7c 5a 0a 3d
       -0.028033031 0.04982418 -0.027168151 0.0337777
0000d0 27 2a a6 bc b7 d3 4a 3b bd 01 1e 3c 4e ae 56 bd
       -0.020283772 0.0030948946 0.009643969 -0.052412324
0000e0 1f f2 90 bd 61 15 17 3b a6 17 30 3d e5 e9 09 bc
       -0.07077431 0.0023053514 0.042991303 -0.008417581
0000f0 21 f0 5a 3d 6e e6 89 bd e7 ca 47 bc 1a 68 82 bd
       0.05345166 -0.06733404 -0.012194372 -0.06367512
000100 3b 91 f0 3c bb c0 8b bd 7b 7a 27 3d 95 7a 76 3d
       0.029366126 -0.0682387 0.04088829 0.060175497
000110 e2 d3 1b 3d 0e 3f 4c bd df c4 5e bd ef 11 21 bd
       0.038043864 -0.04986482 -0.05438697 -0.039323743
000120 40 7d 40 bd 00 f8 a1 3c f0 16 8d 3c a1 ae 2f 3d
       -0.046994448 0.019771576 0.017222852 0.04289115
000130 8e fa 63 3d b2 d9 2c bd 8d 1d 1b 3d c0 b9 ec 3c
       0.05565887 -0.042199798 0.03786998 0.028897166
000140 76 1e e7 bc a1 06 1f 3c f7 d4 90 bd 56 34 19 bd
       -0.028212767 0.00970617 -0.0707187 -0.037403427
000150 c2 58 27 3d f3 c2 ea 3d 62 b2 93 3c fc a3 1b 3d
       0.04085613 0.11462965 0.018029395 0.037998185
000160 5f ab ef bb ac 5b 93 3d d5 1c 78 3d 91 89 ee bc
       -0.00731413 0.071952194 0.06057437 -0.029118331
000170 41 48 82 3d fe 02 31 bd a9 b0 1f 3b 72 f5 9a 3d
       0.063614376 -0.043215744 0.0024366772 0.07566346
000180 9e e9 45 bc 4a 72 84 bd 13 14 12 be 6d 83 0d 3d
       -0.012079624 -0.064671114 -0.1426547 0.034549166
000190 06 1e 75 bc 04 f0 fc bc 60 43 e1 3c 55 2a a5 bb
       -0.014960771 -0.030876167 0.027497947 -0.0050404468
0001a0 55 d2 86 3d 2a 01 0b bd 17 15 8c bd 4a 02 77 3d
       0.065830864 -0.033936657 -0.0683996 0.060304917
0001b0 0e 2b 7a 3d 08 6e 73 3d e0 3d 55 bd 72 2d d9 3c
       0.061076216 0.059431106 -0.05206096 0.026510928
0001c0 0b 40 15 bc d3 a8 ae bb bf ce 20 bd a0 0d 2b 3d
       -0.009109507 -0.005330184 -0.03925967 0.04176104
0001d0 2e 68 86 bd e0 bb d3 3b 05 d4 0c bd 50 4d 8a bb
       -0.065628394 0.0064616054 -0.034381885 -0.004220642
0001e0 97 7a 5f bd 75 97 09 bd 98 2b 74 bc 1b bc e0 bc
       -0.05456027 -0.033591706 -0.014902972 -0.027433446
0001f0 f9 76 6c 3c ba 38 64 3d ae b3 15 3d 46 0b 9a bd
       0.014432662 0.05571816 0.03654831 -0.075216815
000200 5b f2 a1 3c 34 5d 6b bd bf bd d0 b9 81 1a 6e 3d
       0.019768884 -0.057461932 -0.00039814223 0.058130745
000210 ce fa e3 bc 4e c2 ca 3b 25 f2 e8 bc f9 02 87 bc
       -0.027829554 0.0061877137 -0.028435776 -0.01648091
000220 55 f0 a6 bc fd 21 4c 3b fa 20 4a bd 32 8f 54 3c
       -0.020378271 0.0031148188 -0.049347855 0.012973594
000230 b9 43 51 bd 68 25 19 3d 43 4c 84 3d 27 b7 1d 3d
       -0.051089976 0.03738919 0.06459858 0.038504746
000240 77 3a 9c bc b7 2d 6e 3d bd 01 0a 3d 85 91 4b bd
       -0.019070847 0.058149066 0.033693064 -0.049699325
000250 44 7c 90 ba dc 5c 8f 3c 45 cb f0 bb 16 4f 07 be
       -0.0011023362 0.017500333 -0.0073484504 -0.13213763
000260 40 0f 10 be 8d 87 34 bd 4f 34 64 3d 4f b4 2b 3d
       -0.14068317 -0.044074584 0.055713948 0.041920003
000270 54 20 3b 3d a1 8b 97 3d 51 16 85 3d b6 67 9d bd
       0.045685127 0.07399679 0.06498397 -0.07685797
000280 45 bc 1e bd 31 83 88 3c b9 3e d0 3d 7a 8e 7a bc
       -0.038753767 0.01666412 0.101682134 -0.015292758
000290 14 83 e2 3c 79 a6 8a bc 33 e6 78 bd cb fd 4f 3b
       0.027650394 -0.016925083 -0.06076641 0.0031736966
0002a0 62 e2 84 3d af ec b3 be 3d 8c e3 be 91 f2 0b bc
       0.064884916 -0.35141513 -0.4444293 -0.008541719
0002b0 e8 bb 59 3d 74 d3 02 3d c7 53 0f 3c 7d 1c 64 bc
       0.053157717 0.03193994 0.008748001 -0.013922808
0002c0 81 eb a3 3b a1 4b a1 3c 84 cc 5c 3d 08 1c 5e bc
       0.0050024395 0.019689383 0.05390598 -0.013556488
0002d0 1d 7d 0c 3c 47 c8 05 bc e6 66 39 bd a3 9c a0 bc
       0.008574751 -0.008165426 -0.045264147 -0.01960594
0002e0 12 d3 c1 3d 0a 1d eb 3d 63 ff bc bc da e9 2d bd
       0.094640866 0.11480148 -0.023070997 -0.042459346
0002f0 b9 5b 04 bc 5b 03 9c 3b 34 e4 75 3d 47 e5 1a bd
       -0.008078509 0.004761142 0.060032085 -0.037816312
000300 42 9c 05 3c 12 d7 39 3c 08 b8 4f bd 7d 3c e0 3c
       0.008154931 0.011342781 -0.050712615 0.027372593
000310 6e 26 03 3d 46 62 33 bd 1e 5c 23 3d 66 17 9a 3d
       0.03201907 -0.043794893 0.03988277 0.07523994
000320 df 9d dd bc ff 84 df bc 9d 66 b6 3d 18 77 ca 3d
       -0.027052818 -0.027285097 0.08906291 0.098859966
000330 57 b5 02 bd b8 c7 0b bc 94 45 91 bc 75 ae 1c 3d
       -0.03191122 -0.008531503 -0.017733373 0.038252313
000340 b7 2b 20 3d e9 82 2e 3d 52 b5 4d ba a3 98 69 bd
       0.03910419 0.042605314 -0.0007847148 -0.05703033
000350 bd 9b 4d bd a4 16 89 3d 6e 99 8c bc 87 42 0e bd
       -0.05019735 0.066937715 -0.017163005 -0.034731414
000360 3e 9b 4b bd 07 57 3c bd c5 93 71 3d d1 24 d3 3b
       -0.049708597 -0.045981433 0.058978815 0.006443598
000370 59 71 96 3d 65 97 a6 3d 76 f1 fd 3c 20 c9 38 bd
       0.07345838 0.08134345 0.030998927 -0.045113683
000380 a6 4b cb 3b 59 8b a4 bc 4e f6 76 bd 11 a8 1b 3d
       0.0062040864 -0.020085977 -0.06029349 0.038002077
000390 f8 c2 cc bb b1 7b 72 3c 36 6d f4 3b 52 d3 4d 3c
       -0.006248828 0.014799998 0.007459308 0.01256259
0003a0 c0 a4 19 3c ca 5a 45 3d 4b ff 05 bd 61 7c 78 3d
       0.009377658 0.048182286 -0.03271417 0.060665492
0003b0 a7 93 e0 3b e1 5a e4 ba 99 ed 97 bc 0a 64 eb 3c
       0.006853539 -0.0017422104 -0.018545913 0.028734226
0003c0 d0 42 87 bc ec 80 bd bc c4 20 3f 3d 95 2b be 3c
       -0.01651135 -0.023132764 0.046662107 0.02321414
0003d0 2d ca c0 3c 3f 13 68 3d 38 e0 9c 3d e0 9e 6d bc
       0.023533905 0.05665898 0.07659954 -0.014503211
0003e0 fb cd 9c 3d b6 61 58 3d 6f 21 4c bd 41 a3 3d bd
       0.07656475 0.05282756 -0.049836572 -0.04629827
0003f0 f9 f9 81 3d e3 33 2b bd f2 67 98 3d 8a a7 1d bd
       0.063465066 -0.04179753 0.07441701 -0.038489856

conv2.bias f4 [128]
000000 7f 58 8c 3d 00 e1 1d be 7d 49 a1 bd 9b cf 73 bd
       0.06852817 -0.15417862 -0.07875345 -0.05952416
000010 56 57 d1 bc d5 18 46 be 1c 7c 40 3e 48 e0 1f be
       -0.02555434 -0.1934541 0.18797344 -0.156129
000020 5f e6 16 be b2 49 dd bc f1 9b 0f be 76 17 4e bd
       -0.14736317 -0.02701268 -0.1402433 -0.050315343
000030 99 f8 0e be b8 bf c1 bd 6f ca 48 be b4 85 c1 bd
       -0.1396202 -0.094603956 -0.19608472 -0.0944933
000040 2e b6 c0 3d 2b 2a 4a 3c d0 ed 86 bd 79 1e b5 39
       0.09409748 0.012339155 -0.06588328 0.00034545714
000050 75 7b bb bd 1d 8f bf bd 21 10 55 bd 76 22 52 3d
       -0.09154407 -0.093534686 -0.052017335 0.051302396
000060 8a 9d d5 3d 82 9b 1a be 0c 90 26 bd 05 a1 48 3d
       0.10430439 -0.15098384 -0.040664718 0.048981685
000070 e0 01 74 bb 20 03 d8 3b e7 1f a5 bd f1 f3 c2 bd
       -0.0037232563 0.0065921694 -0.080627255 -0.095191844
000080 c6 16 10 be ed 61 e0 bd 33 34 36 be 1f 7d b0 3d
       -0.14071187 -0.10956178 -0.1779335 0.08617615
000090 36 c5 17 bd 62 b2 af bd c5 5c 1e be fe 99 96 bc
       -0.03705331 -0.08578946 -0.15465076 -0.018383976
0000a0 64 43 32 be ad 69 e5 bd 73 a1 1d 3c be d5 3d bd
       -0.1740852 -0.11201797 0.009621012 -0.04634642
0000b0 49 09 d8 bd f5 86 c0 bd 65 d0 28 be 63 cf 0b be
       -0.10548646 -0.09400741 -0.16485746 -0.1365333
0000c0 15 bf 3d 3e 83 e5 4a bb 93 fb 0b bd 4c 8c bd bd
       0.18529923 -0.0030959554 -0.034175467 -0.09255275
0000d0 57 63 85 be e3 29 3c 3e ff 93 16 be 7f f8 25 be
       -0.26052353 0.18375354 -0.14704894 -0.16208075
0000e0 31 cb 44 be 73 cb a8 bd c9 94 2f 3d 86 46 71 bc
       -0.19218136 -0.0824193 0.042866502 -0.014726287
0000f0 5c b5 a0 3e d0 13 30 be 6b c4 dc bd 25 f9 fa 3c
       0.31388366 -0.17195058 -0.10779651 0.03063638
000100 13 a9 99 bc c8 9a a6 bd 91 42 57 bd 6d f6 46 bc
       -0.018757379 -0.08134991 -0.052553717 -0.012143713
000110 4c fa c6 3d f2 75 37 bc 54 50 31 be 84 5e a4 3c
       0.09715709 -0.011197554 -0.17315799 0.0200646
000120 21 ca 85 3e f9 d3 2c be a0 30 c0 bc 4e 40 a5 bd
       0.26130775 -0.16877736 -0.023460686 -0.08068906
000130 60 d8 f6 bd 18 d5 19 bd 67 c3 83 bd d8 5e 4e bc
       -0.12052989 -0.037556738 -0.064337544 -0.012595855
000140 70 ad 80 bd 3a 18 89 bd eb 22 68 bc ba 2e 30 bd
       -0.062830806 -0.06694074 -0.014168481 -0.043013312
000150 be e5 01 be 56 49 a3 bd 22 6f f8 bc f7 e9 57 bd
       -0.12685296 -0.07972972 -0.03032643 -0.05271336
000160 dd 49 0d bc 58 70 c0 bd 10 dc 4a bd 06 83 4f bc
       -0.008623567 -0.09396428 -0.049526274 -0.012665516
000170 91 b9 c6 bd 46 3b 86 bc 4d 9a 47 3b ff 53 10 bc
       -0.09703363 -0.016385686 0.003045696 -0.008809089
000180 ad 9c 97 bd 05 82 a4 bd 83 6a 1c be dd c5 d7 bd
       -0.074029304 -0.08032612 -0.15275006 -0.10535786
000190 83 7d 60 be 79 cc f6 bc fc 22 94 3e 5a 69 31 3e
       -0.21922879 -0.030126797 0.2893294 0.17325345
0001a0 f0 fe c5 bd 44 a2 85 3e c7 c9 34 3e 0e e3 49 bd
       -0.09667766 0.2610036 0.17655097 -0.0492888
0001b0 22 9b 3f be 48 6f 76 be 04 38 34 3d e4 4c 85 3e
       -0.18711522 -0.24065888 0.043998733 0.26035225
0001c0 f5 54 19 bd 9c 39 3f bd 57 23 16 be b3 ca d8 bd
       -0.037434537 -0.0466858 -0.14661919 -0.10585537
0001d0 aa 52 9a bc 7e 2d 84 be 9f d7 40 bd d0 a9 22 be
       -0.018838245 -0.25815958 -0.047080632 -0.15885091
0001e0 fe fa 0f 3e 96 de fb 3d 96 a8 1d 3e 1f 08 01 be
       0.1406059 0.12298314 0.15396342 -0.12600754
0001f0 15 eb 8b bd 34 87 9a bd ed 96 76 3e ef ab 7e bd
       -0.06831948 -0.07545319 0.24081011 -0.062175687

lstm.weight_ih_l0 f4 [200, 128]
000000 3a 50 32 3e ed e7 3c 3e 66 77 1a 3c 81 54 13 3e
       0.17413417 0.18447848 0.009427881 0.14387704
000010 12 9a 3d bd c3 0b fb bd 29 45 12 be 8d c6 5f bd
       -0.04628951 -0.12258103 -0.14284195 -0.054632712
000020 32 c4 db bd 71 c9 a6 bd 81 d0 fc 3d e7 bf dd bb
       -0.10730781 -0.08143891 0.123444565 -0.0067672613
000030 09 df 15 3d 58 89 07 be 1c d1 a6 bd 4e 39 b2 bc
       0.036589656 -0.13235986 -0.08145353 -0.02175584
000040 dc e1 54 bd 97 27 20 bd b3 50 3b be 81 08 1b be
       -0.05197321 -0.039100256 -0.18292503 -0.15139963
000050 ed 43 e4 3d 5b 40 92 bd d7 ca 68 3d 3a d0 8c be
       0.11145768 -0.07141181 0.05683407 -0.27502614
000060 91 9e 14 3e d1 14 3e 3d 7c 91 7b 3d b5 0c 4d 3d
       0.14513613 0.04640657 0.06141804 0.050060946
000070 12 65 94 3d 63 56 ce bd c2 8e 91 bd d4 ce c3 bd
       0.0724584 -0.10075071 -0.07107307 -0.09560934
000080 4a 68 de 3d bd 4b 88 bd c2 36 82 3d 45 2c 87 be
       0.10859735 -0.06655071 0.063581005 -0.26400962
000090 03 37 63 3d be ff af bb d9 de 79 3e 0d 07 78 3d
       0.055472385 -0.005371063 0.24401416 0.0605536
0000a0 16 be b4 3d 8a 37 fb 3c 0e 4d 12 3d df 00 12 bd
       0.088253185 0.030666132 0.035718016 -0.035645362
0000b0 67 f1 b4 3d 52 89 b3 bd 2a 53 13 3c 68 ad 99 bd
       0.08835106 -0.08766426 0.008991996 -0.07503778
0000c0 17 a9 50 be a9 cd 24 3e f5 2f ea bd 88 34 db 3d
       -0.20377003 0.16094078 -0.11434928 0.10703379
0000d0 e3 09 1c bc 20 2e 33 bd 66 96 9b bd 03 d5 61 bd
       -0.009523842 -0.04374516 -0.075970456 -0.055134784
0000e0 22 64 ed 3d e0 e4 89 bd d4 f7 cb 3d db a1 83 3d
       0.115913644 -0.067331076 0.09959379 0.06427356
0000f0 3d d3 85 ba aa 57 12 bd 2c 37 62 bd ad a4 0c be
       -0.0010210049 -0.035728134 -0.055228397 -0.13734694
000100 34 b2 c8 3d 5d 98 e7 3c 4f 3b f3 3d 31 8b a2 bc
       0.097996145 0.028270895 0.118765466 -0.019841762
000110 ea 3a 28 bd de 9f 2c bb 50 10 49 3e fa 84 cb bd
       -0.04107181 -0.0026340405 0.19635129 -0.09937473
000120 47 2b 42 be f1 36 fb 3c b1 e8 0f 3e 46 5a 2a 3e
       -0.18961821 0.030665847 0.14053608 0.16635999
000130 c1 24 bd bd 26 35 76 bd 19 51 c2 3c 4e 61 22 bd
       -0.09235526 -0.06010928 0.023720311 -0.03964358
000140 0f 4d f7 3d a1 0b 74 3d 50 75 ae 3c 79 81 ab 3d
       0.12075245 0.059581403 0.021296173 0.08374304
000150 44 fa 54 3d 91 0e ed 3c 55 5d af 3c c4 37 a5 bd
       0.051996484 0.02893761 0.021406809 -0.08067277
000160 d7 40 f6 3c 10 04 cc bd a7 94 e4 3d 4f 42 80 3d
       0.030060215 -0.09961712 0.11161166 0.06262647
000170 d3 b1 b3 bd f6 a5 c1 3c ae 0c 7f 3d b2 70 cf 3d
       -0.08774152 0.023638707 0.06226795 0.10128917
000180 7e 7c ef 3d e3 84 28 bd f1 76 fb bd 19 5e 40 bc
       0.11693667 -0.041142356 -0.12278546 -0.011741185
000190 74 de 29 3e 76 e5 4d be d7 55 79 3e ac 66 82 bd
       0.16588765 -0.20107064 0.24349152 -0.06367239
0001a0 1b 94 13 3e b9 37 07 bd 90 26 28 3d 59 1a e5 bd
       0.14411967 -0.033012126 0.0410524 -0.11186666
0001b0 7b b8 11 bc c4 de 98 bd bd 2e 67 bd 07 1e 98 be
       -0.008894081 -0.07464364 -0.056441057 -0.2971041
0001c0 09 95 00 3e 81 1f 2d 3c 1c 0b 31 3e 5b 0b 3b 3d
       0.12556852 0.010566593 0.17289394 0.045665126
0001d0 59 a5 12 bc 59 49 30 3e 13 14 d7 3c fd 19 85 bc
       -0.008950555 0.1721548 0.02625469 -0.016247744
0001e0 61 80 a2 3d 34 7a c2 3d 07 4f 55 3e 5b 5f 55 3d
       0.079346426 0.09495965 0.20830928 0.05209289
0001f0 b8 45 d9 bd e1 b8 83 bd 7d 99 3c 3c fd 6c 02 3e
       -0.10609001 -0.06431747 0.011511204 0.12736888
000200 7b f3 8d 3e 12 a3 29 bd 2a 30 d9 bd a7 bf 90 bd
       0.27724823 -0.04141528 -0.1060489 -0.07067805
000210 56 f2 d4 bd 80 b9 0f be 89 f8 47 3e 70 8b 5f 3d
       -0.103977844 -0.14035606 0.19528402 0.054576337
000220 59 8c eb bc d5 fa a3 bd 98 b7 0f 3e 02 ae 01 bb
       -0.028753446 -0.08006827 0.14034879 -0.0019787555
000230 b1 5c 00 bd 4f 69 cc bd e4 57 1a 3d dc 18 0a be
       -0.031338397 -0.099810235 0.037681475 -0.13486046
000240 2d 3b 21 be 55 0f c1 3d 6a 13 eb bd 17 bc ac 3d
       -0.1574523 0.094267525 -0.11478312 0.08434313
000250 a7 16 96 bd 82 f2 bf bd f8 c8 70 3c d5 35 96 bd
       -0.07328539 -0.093724266 0.014696352 -0.073344864
000260 9f 2f 8a 3d c5 82 96 3c fb e1 e1 bd 5b 17 32 3e
       0.06747364 0.018372903 -0.110294305 0.17391722
000270 c1 5c ca 3d 16 a2 cd bd 55 fe 00 be 55 cb 08 be
       0.09880973 -0.10040681 -0.1259702 -0.13358815
000280 8c a5 86 bc 43 7b d7 3d 45 56 1f bd 47 71 9b 3e
       -0.01643636 0.10521557 -0.038900632 0.3035986
000290 5f 87 4c 3d db 2f b5 bd 93 21 48 3e ce 0a 1f be
       0.049933787 -0.08847018 0.19544058 -0.15531465
0002a0 4e 95 97 bd c0 ff f1 3b ae 3a 54 bd ca 95 24 be
       -0.074015245 0.007385224 -0.051813774 -0.16072765
0002b0 12 ab dc 3d a0 0b d6 3d 30 80 c5 bd 88 e0 92 bc
       0.107748166 0.10451436 -0.096435905 -0.01792933
0002c0 23 31 1c 3c ec 43 11 3e ac cc 00 bd 26 18 87 3e
       0.0095331995 0.14186066 -0.03144519 0.2638561
0002d0 78 19 0a bd b1 97 99 3e 20 2a f8 bc fe 61 35 bb
       -0.033715695 0.29998544 -0.030293524 -0.0027676816
0002e0 f5 02 94 bd be c4 e2 bd 95 41 7e bd dd bc fe 3b
       -0.072271265 -0.11072682 -0.062074263 0.007773979
0002f0 fa 42 00 be 86 24 dc bd 5a 3d 5f bd 3f 26 da 3c
       -0.1252555 -0.10749154 -0.05450187 0.026629565
000300 5a 61 e1 3d 6a 23 d1 3d de 34 a2 3d 01 1e 68 bd
       0.110048965 0.10211833 0.0792024 -0.05666924
000310 b3 20 e6 3d 87 e2 85 3c 10 7b 26 3e 67 e8 84 3c
       0.11236706 0.016343368 0.16257882 0.0162241
000320 26 8f 79 3e 05 f9 ba 3d a8 32 3b 3d a9 5e a9 3d
       0.24371013 0.09129528 0.045702606 0.08270008
000330 4a 3f 21 be 72 1d 82 3d 63 c9 1e 3d ee 35 83 bc
       -0.15746799 0.063532725 0.038766276 -0.016016927
000340 45 aa 67 3d 42 8d 31 3d 11 fe e7 3d 42 c2 ac 3d
       0.056558866 0.043347605 0.11327756 0.08435489
000350 bd 10 6f 3d 84 7c 8d 3d 85 dd 25 3d 5b cd 3a 3e
       0.058365572 0.06908515 0.04049446 0.182424
000360 d0 a7 4c be 8a f7 47 be 2a 5d d9 bd ab af 3d be
       -0.1998589 -0.19528022 -0.10613473 -0.18524043
000370 b3 4d 4e 3d 66 67 07 3e 5c cd c8 3d f8 6e 0a be
       0.05036707 0.13223037 0.09804794 -0.13518894
000380 35 4c 01 3e 5f e8 c4 3d 52 80 24 be 05 b0 a6 bc
       0.12626727 0.09614634 -0.16064575 -0.020347605
000390 3f 5f af 3d 88 e8 11 3c 06 c7 30 be 68 ff c3 bd
       0.085630886 0.008905537 -0.17263421 -0.09570199
0003a0 08 73 02 3e e8 c3 2c 3e 54 53 f0 3d 1f 98 cc bd
       0.12739193 0.16871607 0.117346436 -0.09989952
0003b0 d6 e3 6b 3d 7a db e9 3c 63 5a 12 38 6e 4d 8a 3e
       0.05759033 0.028547037 3.489329e-05 0.270122
0003c0 d9 fa ed 3d 63 74 1a bd 65 1a 98 3d ef 04 ff 3d
       0.11620111 -0.03770865 0.07426909 0.12452113
0003d0 ce 4e ba bd d9 bf c8 3d 6f 1b a3 3d 5c 3b 59 3d
       -0.09097062 0.09802217 0.07964217 0.053035125
0003e0 fa 6a b5 bc e1 b1 1c 3d 94 c1 01 3e 75 80 a6 bd
       -0.022145737 0.038255576 0.126715 -0.0812997
0003f0 41 ba e8 bc 59 34 b2 3d 26 69 8e bd 5d 55 7e bd
       -0.028409125 0.08701391 -0.06953649 -0.062093128

lstm.weight_hh_l0 f4 [200, 50]
000000 2b 35 0c 3e 35 42 1c be b8 e4 70 3d 69 71 27 bd
       0.13692157 -0.15259631 0.058811873 -0.04087964
000010 38 e1 6a bd b1 3b 6a 3d 70 e9 10 bc 9d db af 3d
       -0.05734369 0.057185832 -0.008844718 0.0858681
000020 c9 07 89 bd 12 6a 5b be dc 42 9f bc ea bf 64 bd
       -0.06690938 -0.21427181 -0.01944106 -0.055847086
000030 ef b8 e7 3d 56 58 58 be e3 3f 8a 3d 9c 98 ab bd
       0.1131457 -0.21127447 0.06750467 -0.08378717
000040 05 b0 0a 3e ef 07 eb bd 13 d7 21 3e a0 e5 18 bd
       0.13543709 -0.114761226 0.158047 -0.037328362
000050 c9 43 47 bd a1 f4 ef 3d b7 cd ab 3d 17 74 12 be
       -0.04864863 0.11716581 0.08388846 -0.14302097
000060 1e e6 fd 3b 5a 27 d1 3d 02 05 f4 bc 2c ac 3a 3e
       0.0077483794 0.10212584 -0.029787544 0.18229741
000070 f8 cd 27 3e cf 33 a6 3d 52 89 e6 3b 0e 8a 7c 3e
       0.16387165 0.081153505 0.007035413 0.24662039
000080 df 25 9d be ae 1d d3 bc 59 40 5d bd a9 41 a2 bd
       -0.30692956 -0.025770988 -0.054016445 -0.0792268
000090 f4 88 90 be 73 72 4d bd 58 08 86 3d 8a 34 67 3e
       -0.28229487 -0.050157975 0.0654456 0.22578636
0000a0 bf c1 d5 3d bf c2 8d bd 8d 04 16 be 08 11 43 3e
       0.10437345 -0.069219105 -0.14650173 0.19049466
0000b0 b9 46 04 3e 26 f1 2e be 05 51 24 bd 8c 06 9d 3c
       0.12917604 -0.17084178 -0.04011633 0.01916816
0000c0 77 a8 65 ba 14 16 dc 3d fa 03 4e 3d 98 c5 94 bd
       -0.000876076 0.107463986 0.05029676 -0.072642505
0000d0 05 e7 5b 3b 2c d2 6b bd 2f 9f 0e 3d a6 cc 4e be
       0.0033554446 -0.057573482 0.034819778 -0.20195255
0000e0 2a a5 66 3c 0f 88 e8 bc aa 87 f6 3d 4a 15 e1 3c
       0.014077464 -0.02838519 0.120375946 0.027475972
0000f0 3b df f8 bc 1b 61 9d bd e8 a7 81 3d 3e 6b 76 3d
       -0.030379882 -0.07684537 0.06330854 0.060160868
000100 17 8e 6b bd 10 fe 12 3e 00 b7 09 3e a7 f8 1d bb
       -0.057508554 0.1435473 0.13448715 -0.0024104507
000110 ce 0e a0 bc b7 b8 07 3c 47 4b 80 3b d7 bd 7f 3d
       -0.01953831 0.008283786 0.0039152238 0.062436905
000120 4f 2a 66 bd 91 8d 6e be 9f 07 4e bd a0 c7 39 bc
       -0.056192692 -0.23296191 -0.050300237 -0.011339098
000130 fe 29 9d bc b1 26 ed bd 76 76 ce bc 0f fd 9c bd
       -0.019185062 -0.115796454 -0.025202971 -0.076654546
000140 b3 00 1f 3e be e9 d4 bd 5f d1 34 be b8 14 9f 3c
       0.1552761 -0.10396145 -0.17657994 0.01941906
000150 07 48 1d 3d 0f 4b 5e 3d b4 2a dc bd 1b 2a b9 3c
       0.03839877 0.0542708 -0.107503325 0.022603085
000160 88 24 bf bd 96 5e 3a 3d b1 f5 19 3e a8 d4 0a 3d
       -0.0933314 0.04550036 0.1503513 0.03389421
000170 5a 9e b8 bd 7a f1 9d 3d 1e 90 3f 3b ff 49 14 3d
       -0.09014578 0.077120736 0.0029230188 0.03620338
000180 69 3e 87 bd a3 80 01 3d dd 30 51 3d b3 16 29 bd
       -0.06603701 0.03161682 0.05107199 -0.041281413
000190 4b 6b ef bc c3 9e 8a bc 3b 77 59 bd 55 05 18 3e
       -0.029225966 -0.016921407 -0.053092223 0.14845784
0001a0 83 c8 6a 3d d8 00 f1 3d cc 42 00 3e 01 dd fc 3d
       0.05732013 0.11767739 0.12525481 0.12346841
0001b0 ff f6 17 3d c9 61 17 3e 93 e4 8a bb e1 c7 23 3e
       0.03710079 0.14783396 -0.004238674 0.15994217
0001c0 48 cb 04 3e 6c 29 24 3e 8a c7 86 bb 14 16 e4 bd
       0.1296817 0.16031426 -0.0041131424 -0.111370236
0001d0 ee 20 d3 bd ac 49 15 bc b9 07 97 3d 76 cb 24 bd
       -0.10309015 -0.009111803 0.0737452 -0.040233098
0001e0 dc 78 b0 bd ee 71 ff bd fc 73 96 3c 59 0d f4 3d
       -0.08616802 -0.12472902 0.018365853 0.11916608
0001f0 f9 e2 07 be 5c 1a c2 bb f9 ed 3c 3e 13 68 fa bc
       -0.13270177 -0.0059235524 0.18450154 -0.030567205
000200 d7 68 8f 3d cc 83 a9 3d 1e 97 bd 3d 76 12 29 be
       0.070024185 0.082770914 0.09257339 -0.16510949
000210 70 99 7e 3d 5d 63 09 3d 49 ff d1 bc b4 1f b4 3d
       0.06215805 0.033542026 -0.025634425 0.087951094
000220 e4 b6 7f 3e 99 e4 77 bd 81 50 28 be 31 24 5f be
       0.24972111 -0.060520742 -0.1643696 -0.2179115
000230 db de 4a 3e 02 e6 56 bd c0 45 11 3d 40 6b c9 bd
       0.19811575 -0.052465446 0.03546691 -0.098349094
000240 8b c4 ca bc d9 79 ab 3c 13 0c 48 3e 84 b1 c9 3d
       -0.024751922 0.020932125 0.19535856 0.098483115
000250 5b 57 fc 3c 12 11 95 be 17 66 c8 3d 53 b4 18 be
       0.030803373 -0.29114586 0.09785097 -0.14912538
000260 53 c3 86 be 71 fd 27 3e c8 ef 99 bd e2 d2 62 bc
       -0.26320896 0.16405274 -0.07516438 -0.013844224
000270 67 96 2b be fc a1 fc bd f3 fe 0c be c1 01 9c 3e
       -0.16756593 -0.123355836 -0.1376913 0.30470088
000280 3c a1 01 3e d9 1a 83 3d 67 6d dc bd 0c 7a 82 3d
       0.12659162 0.06401605 -0.10763054 0.06370935
000290 f5 be 39 bc 73 4e f1 3d 4f 9c 0c 3d 51 0b 37 3d
       -0.011337032 0.11782541 0.034328755 0.044688527
0002a0 81 e3 05 3d 89 22 10 bd 90 24 52 bd fd 4f e8 bd
       0.032687668 -0.035189185 -0.0513044 -0.113433816
0002b0 f1 4d fe bd 2b 14 22 3d 61 0e 97 bc 15 be 4e 3d
       -0.1241721 0.039570015 -0.018439474 0.050474245
0002c0 35 52 c1 3d 8e 4e c5 bd 5a 94 03 3c 94 c7 d1 3d
       0.09439508 -0.09634124 0.008030975 0.10243145
0002d0 7a 95 fd 3d 4e 5f 69 3d cc 14 0b bd 74 e6 fd bc
       0.12382026 0.056975655 -0.03395538 -0.030993678
0002e0 ff 87 5d bb 1b 55 f1 3c 93 f3 2c 3e fb 86 56 3c
       -0.0033802984 0.029459527 0.16889791 0.013093705
0002f0 b1 7a 09 3e 2b 54 67 be 91 17 5c 3e 3b 6f b5 3d
       0.1342571 -0.22590701 0.21493365 0.08859106
000300 18 25 40 3d f6 b0 df 3d 64 93 40 3b b6 bf ad bc
       0.046910375 0.109224245 0.0029384727 -0.021209579
000310 f3 d6 d9 3d 41 98 93 3d 4d bc 8d b9 d7 f3 1d bc
       0.106367014 0.072067745 -0.0002703391 -0.0096406555
000320 54 0a d5 3b ff c9 ec bd aa c4 fb bd 5f c3 a0 3d
       0.0065014753 -0.11561965 -0.1229337 0.07849764
000330 76 5e f8 bd 40 19 c1 bd e1 b9 77 bd cd 3d 33 bd
       -0.12127392 -0.09428644 -0.060480002 -0.04376011
000340 03 66 87 bd 31 ef 63 3e 7f 62 25 3e f3 9c 4c 3e
       -0.06611254 0.22259213 0.16150855 0.19981746
000350 42 0f 5e 3e d2 a9 23 3e 0a bb de 3c 72 ca 0e bc
       0.21685508 0.1598275 0.027188797 -0.008715259
000360 49 eb 5d 3e 21 45 f6 bd c8 c7 7a 3e c7 bc d0 bd
       0.21671785 -0.12024904 0.24490273 -0.101922564
000370 b0 93 12 be ce df 1a 3c 58 a5 55 bc 42 f0 ef bd
       -0.14314151 0.009452773 -0.013039909 -0.117157474
000380 37 f4 50 bd fd 25 5f bd 3a 87 c5 bc ff ed 54 bc
       -0.05101415 -0.054479588 -0.024112333 -0.012996196
000390 92 66 40 be d4 e8 f9 bd 57 56 92 bc a5 73 07 be
       -0.18789127 -0.122026116 -0.017863436 -0.13227709
0003a0 df e3 8f 3e 9c bc cd 3d 3e 61 44 3d 80 42 e8 bd
       0.2810354 0.1004574 0.0479443 -0.11340809
0003b0 1c ad 4a 3e ed 34 00 be e3 01 19 be a8 31 bd 3c
       0.19792598 -0.1252019 -0.14942126 0.023094967
0003c0 75 25 2c 3e 3f 9a 14 3d ed 9a 20 bd 0e 6f b5 bd
       0.16811164 0.036279913 -0.03921025 -0.088590726
0003d0 b3 d9 76 3d 04 0a 6e be cc f2 62 bd 4c 28 0f bd
       0.060266208 -0.23246008 -0.05540733 -0.03495054
0003e0 3c da af 3d d1 53 40 bd b8 2c 27 3e fe 30 2c 3d
       0.08586547 -0.046954934 0.16325653 0.04203891
0003f0 7d 64 cc 3d 4d f9 02 be 69 2a 83 bd 1a b5 c7 3b
       0.09980104 -0.12790413 -0.064045735 0.006094587

lstm.bias_ih_l0 f4 [200]
000000 37 51 21 be 80 d6 dd 3d 4e 7f 1c 3e 75 a8 13 3e
       -0.15753637 0.10831928 0.15282938 0.1441973
000010 b1 e6 58 be a9 df 32 3e 4b 72 46 bc 02 9d 2e be
       -0.21181752 0.17468132 -0.0121122105 -0.17052081
000020 5f cb 00 3e ab 8c 27 3e 6d 82 c4 3c 45 f3 75 3d
       0.1257758 0.16362254 0.023987973 0.060046453
000030 9c d8 0c bc e7 34 f7 3b 58 ba 05 be 3e 92 d0 bd
       -0.008596566 0.0075441482 -0.13059366 -0.101841435
000040 29 07 8d bd 67 a2 63 3d 9d 94 14 be 33 69 9c 3d
       -0.06886131 0.0555748 -0.14509816 0.07637253
000050 a3 30 82 3e f8 3c 32 3e 44 ac 86 3c 61 e6 19 be
       0.25427732 0.1740607 0.016439565 -0.15029289
000060 e2 e1 16 3e 0b 9b 88 3d 2d bb 77 3e 4e 8c 40 3e
       0.14734605 0.06670197 0.24192496 0.18803522
000070 a2 0e c0 bc 5f 98 51 bb 3c a5 06 bc 38 4c db bd
       -0.023444477 -0.003198169 -0.008218106 -0.10707897
000080 d9 de 7c 3e 36 06 8d bd 38 ff 8f bc aa ec 26 be
       0.24694385 -0.0688595 -0.017577752 -0.16301218
000090 ec 8c d0 3e ba ab d0 bd a9 f1 91 bc e5 9f 33 bd
       0.40732515 -0.10189004 -0.017815428 -0.04385366
0000a0 d6 8c 98 3d 0a 7a df 3d fa c7 a1 bc e9 76 73 be
       0.07448737 0.10911949 -0.019748677 -0.2377583
0000b0 1a 9a 38 3d f1 44 37 bd ca 40 02 3e 61 f3 db 3d
       0.045068838 -0.044743482 0.12720028 0.1073978
0000c0 51 84 cb 3c e9 03 93 3e 11 84 a2 3b ad 35 9a bd
       0.024843367 0.2871392 0.004959591 -0.07529769
0000d0 b6 e8 52 be 99 17 df bd 48 51 af bd 08 17 b2 3d
       -0.20596585 -0.10893173 -0.08560425 0.08695799
0000e0 74 74 16 3e c9 9d dd bc 91 ec f2 3d 04 b9 47 bd
       0.14692861 -0.027052777 0.11861528 -0.04876043
0000f0 b2 33 2b 3d 36 eb 15 bd e9 4d f2 bd be 5a cb bd
       0.041797347 -0.036601268 -0.118312664 -0.09929417
000100 9b 2d 14 be dc 2c 02 3d a4 90 0a be a4 2c 3e 3e
       -0.14470522 0.031781062 -0.13531739 0.18571717
000110 85 0b 5d bd b8 0d 02 be fc 8d 83 bd 3f 8f af bd
       -0.053966064 -0.12700546 -0.06423566 -0.08572244
000120 c3 c4 05 bd 18 59 a7 bd 73 f3 db bd 5b 9e e7 3d
       -0.03265835 -0.0817129 -0.10739794 0.11309501
000130 bc 8a 11 ba 81 d8 9f 3d 12 06 2d be 5f dc fb 3d
       -0.0005551984 0.07804967 -0.16896847 0.12297892
000140 bf f9 37 3d 3d f5 53 3e 3d 16 c7 bd 46 9e 9d bd
       0.04491591 0.2069902 -0.097210385 -0.07696204
000150 a2 79 a6 3d d0 4e c6 bd e7 33 eb bd eb cc c1 3d
       0.08128668 -0.09683001 -0.11484509 0.09462913
000160 90 a3 75 3d d1 82 7d bd 23 7b 63 bd 7e 65 81 3d
       0.05997044 -0.061892334 -0.055537354 0.06318186
000170 76 18 98 be c7 63 23 3e bf 96 07 3e e5 ac 5f bc
       -0.29706162 0.15956031 0.13241099 -0.013652061
000180 02 89 3a 3d 2c 4a 1c be 9c 97 31 be 3a 21 2e be
       0.045540817 -0.1526267 -0.1734299 -0.17004862
000190 8e 68 b3 bd 19 9a b4 3d 52 14 9a 3d 00 8c 1d 3e
       -0.087601766 0.08818454 0.07523407 0.15385437
0001a0 be 36 30 bc 71 ae aa bd ed d2 92 3d 23 1b d8 bd
       -0.010755239 -0.08334053 0.07169137 -0.10552051
0001b0 83 1b 08 3c 4b 96 55 bd e6 86 0b be 94 0b 02 3e
       0.008307341 -0.052145284 -0.13625678 0.12699729
0001c0 f2 3c 8a bd 84 03 31 bd 1f e5 b4 3d 36 ca 0d be
       -0.06749906 -0.043216243 0.08832764 -0.13846669
0001d0 f3 55 2e 3d d4 fa 9e bd d0 6a d1 3d ba ea 85 bd
       0.042562436 -0.077626854 0.10225451 -0.06538911
0001e0 7d 9f cb bc ff f2 4f bb 39 69 08 be 40 59 70 bd
       -0.024856323 -0.003173053 -0.1332139 -0.058678865
0001f0 92 91 8b bc de 21 8a bc 7b b6 13 3d a2 3b 57 3d
       -0.017037187 -0.016861852 0.0360627 0.052547105
000200 9a 55 82 bd 45 5b b2 bd 4b 3d 08 3e 1f 84 93 bd
       -0.063639835 -0.087088145 0.13304631 -0.072029345
000210 67 4a a0 bb fd 4b 8e bd c2 73 44 3d e4 05 8a 3d
       -0.004891682 -0.06948087 0.047961958 0.06739405
000220 7b 3c 37 3d e7 96 b7 3d e1 1f 7f 3d a9 98 0f be
       0.044735413 0.08964329 0.06228626 -0.14023079
000230 f1 03 4f 3d 16 32 84 bd 1d e3 7b bc 26 5d 23 bb
       0.05054087 -0.06454866 -0.015373972 -0.0024927347
000240 dc bd 65 3d 79 a1 0a 3e ee 1e 0c 3d 16 f9 07 3d
       0.056089267 0.1353816 0.034209184 0.03319653
000250 72 23 57 3c d5 04 9a bc c7 4a 97 bc 70 81 ac bd
       0.013131009 -0.018801132 -0.018468274 -0.08423126
000260 b0 7e 71 3e 7c 79 8a 3d 71 f4 14 3d 5a 1e 02 3e
       0.23583484 0.067614526 0.03636593 0.1270689
000270 51 ec 2d bd 28 0c 89 bd 45 56 c7 3d 2c 41 37 3e
       -0.042461697 -0.06691772 0.097332515 0.17895955
000280 53 0f a4 3d ee b5 2e 3d 4a 99 be ba 74 12 28 3e
       0.08010735 0.04265397 -0.0014541533 0.1641329
000290 35 22 18 bd 63 35 a6 3d 06 8e 09 3c f8 13 18 bd
       -0.037141997 0.081156515 0.008395677 -0.03712842
0002a0 8d 68 f7 3c 0b 1d 52 3e 7b 5e b6 3e ff 9f 56 3d
       0.03020122 0.20518892 0.35618958 0.052398678
0002b0 48 14 99 bd bc 2e ad 3d d0 9b 92 bc e0 e3 09 be
       -0.074745715 0.084561795 -0.017896563 -0.13465834
0002c0 41 50 2a 3e 3d 29 52 3e 06 dc ae bd 79 c2 89 3c
       0.16632177 0.20523544 -0.0853806 0.016816365
0002d0 da 9a c1 3d f0 a7 c1 3d 14 3c 61 3d 4a d7 cc 3c
       0.09453364 0.0945586 0.054988936 0.025005002
0002e0 50 6c 9b bc e2 f2 19 3d 6e 5c 49 3e 98 fb e0 3d
       -0.018972546 0.037585147 0.19664165 0.10985488
0002f0 b1 a0 4b bc c3 b6 d1 3d e1 5c 9a 3e f8 b6 15 3d
       -0.012428449 0.10239937 0.30148986 0.036551446
000300 1d d3 27 3e 91 b9 78 3d a5 55 a2 bc 1d e7 79 3d
       0.16389127 0.060723845 -0.01981623 0.061011422
000310 de 5c 1b 3d f9 ca 9e 3e 4f 65 30 3d 5a e3 42 3e
       0.037930362 0.3101423 0.043065365 0.1903204

lstm.bias_hh_l0 f4 [200]
000000 e4 fd 5b 3d fb 93 8e 3d 21 ed 59 3e 14 ba 30 bd
       0.053708926 0.06961819 0.21281864 -0.043146208
000010 69 7e 13 be b7 82 b0 3c 80 c8 4d be c1 63 c1 3d
       -0.1440369 0.021546705 -0.20096016 0.09442855
000020 c9 e6 33 3b 0a 36 12 3d d8 a0 56 3d 6f b1 0b bc
       0.002745079 0.035696067 0.052399486 -0.00852619
000030 63 26 a4 3d 09 74 80 3d b3 3d 56 3b d4 ee 99 3d
       0.08015134 0.06272132 0.0032690584 0.07516256
000040 44 66 06 3d 4b 43 34 be 3e 2a 15 be 25 17 e2 3d
       0.03281237 -0.17603795 -0.14566895 0.11039571
000050 54 05 44 3e 1c 85 2d 3e fb 8c 24 bd 9b 02 25 be
       0.19142658 0.16945308 -0.040173512 -0.16114275
000060 9a e2 27 3d 7f 12 24 be 22 03 79 3e 57 0f e3 3e
       0.04098759 -0.1602268 0.24317601 0.4434764
000070 7a 18 a4 bc 38 c7 8d bd 7f a0 37 3e d2 c1 87 3d
       -0.020031203 -0.069227636 0.17932318 0.06628765
000080 bc 93 0b 3e d1 89 2a bd c1 c9 cb 3d 47 ce 19 be
       0.13630575 -0.04163534 0.09950591 -0.15020095
000090 ec 3e 9d 3e 06 cf 19 be 19 c9 00 be d6 1e 8a 3d
       0.30712068 -0.1502038 -0.12576713 0.06744163
0000a0 bd c8 4d 3e 78 15 58 3e 8d 46 1e 3e 83 fd 15 be
       0.20096107 0.2110194 0.154566 -0.14647488
0000b0 0b 7a 63 3d 02 11 02 3e d2 07 56 3d 4a 9f 54 3e
       0.05553631 0.127018 0.05225355 0.20763889
0000c0 1e a2 a7 3d 09 53 c1 3e 03 90 c8 3d d5 9a 0c 3d
       0.08185218 0.37758663 0.09793093 0.034327347
0000d0 46 42 a0 bd 73 3e eb 3d 51 a1 9d bd 45 06 fe bd
       -0.07825141 0.114865206 -0.07696784 -0.124035396
0000e0 56 a6 b6 bd 2e 05 42 3b 06 ad 96 3d 08 50 1c be
       -0.08918445 0.0029605138 0.0735722 -0.15264904
0000f0 86 70 fc 3d 2f ff 7b bb ed 69 09 bc bb 03 83 3b
       0.1232615 -0.0038451662 -0.008387071 0.0039982474
000100 4f d1 5e bc e9 4c c7 bd c5 92 de bd 96 44 17 3e
       -0.013599708 -0.09731466 -0.10867838 0.14772257
000110 a0 e7 f4 bd 16 95 c0 bd b9 0f 4a be 85 87 cf bd
       -0.119582415 -0.09403436 -0.1973256 -0.1013327
000120 28 a1 35 3d 94 e0 04 3e 7a 30 75 bd 42 7b 9c 3d
       0.044343144 0.12976295 -0.059860684 0.07640697
000130 e1 dd 26 bd e6 51 c5 bd 28 ca 0b be 14 8e 44 bd
       -0.040738944 -0.096347615 -0.13651335 -0.04798706
000140 f5 83 ad bd a7 7e 16 3e 00 05 30 bd 69 82 2e bd
       -0.084724344 0.14696752 -0.04297352 -0.042604838
000150 d2 4d c9 3c c1 14 e2 bd 4e 58 ac bd 52 39 ca bd
       0.02457324 -0.11039115 -0.0841528 -0.09874214
000160 ec dc 6e bd 13 67 80 3d ee 49 3d be b3 8f b0 3d
       -0.058316156 0.0626966 -0.18485233 0.086211585
000170 6f 5e a0 bd 0f 57 55 3d d5 86 74 3e 4a 8b 00 be
       -0.07830512 0.05208498 0.2387956 -0.12553135
000180 c1 cf 62 bd f1 71 16 be c9 b6 76 bc fc 8f b7 bc
       -0.05537391 -0.14691903 -0.015058228 -0.022407524
000190 da f8 8c 3c f2 68 46 3c 7c 36 01 be 25 f2 01 bd
       0.017208505 0.012109982 -0.1261844 -0.031725068
0001a0 98 e1 16 3c 9c bf 91 3c 6c e1 24 3e c6 c7 24 3d
       0.009209059 0.017791562 0.16101617 0.04022958
0001b0 a8 1e 88 3d 65 d0 d1 3c 0d 2e 84 bd fc ed 04 bd
       0.06646472 0.025612066 -0.06454096 -0.032453522
0001c0 52 ef 3f bd 6d fd ff bb 77 61 94 3d 88 8c 27 3d
       -0.046859093 -0.007812193 0.072451524 0.040905505
0001d0 71 1f 10 bd 96 2f 02 bb 92 49 76 bd be 79 df bd
       -0.035186235 -0.001986479 -0.060128756 -0.10911892
0001e0 13 7a da bd ed 42 26 3e da 89 fe bc 03 1b 8f 3b
       -0.10667815 0.16236468 -0.031071592 0.0043672337
0001f0 fd 1e d7 bd 07 6a 04 be 8a 14 9a 3d 65 38 82 3d
       -0.105039574 -0.12931071 0.07523449 0.06358413
000200 a9 a7 ba bd 4a ae 66 3d 44 be 05 3e 1e 2c b8 bc
       -0.0911401 0.05631856 0.13060862 -0.022481974
000210 cd c0 99 3d 60 70 03 bd 57 16 3b 3c 7c 31 c2 3d
       0.07507477 -0.03208959 0.0114189 0.09482095
000220 4c c6 90 bd ff a5 07 3e 80 dd 82 bc 1a 5c 36 be
       -0.07069072 0.13246916 -0.01597476 -0.17808571
000230 2f 0b 0a 3d 5e dc c4 bd 18 1c f9 bd 47 72 aa bd
       0.03370207 -0.09612344 -0.121635616 -0.08322578
000240 af 55 bb bc 75 32 b0 3d 22 a6 5a bb 6b c3 da 3d
       -0.022868006 0.08603374 -0.0033363183 0.10681804
000250 c6 c8 00 bd 4d 9d 80 bb dd 88 bd bd 30 0b 38 bc
       -0.031441472 -0.0039250017 -0.0925462 -0.011233136
000260 63 96 17 3e 16 0b b2 bd 2c ea 50 bd 3a d9 b7 3c
       0.14803462 -0.08693521 -0.051004574 0.022442449
000270 d1 73 b6 3d a0 bc 05 3d 39 a7 1e 3e 8f 9e 7a 3e
       0.08908809 0.03265059 0.15493478 0.24474548
000280 99 7b 93 3d 00 74 9d bd 52 5f 2b be d5 a9 80 bd
       0.07201309 -0.07688141 -0.1673558 -0.06282393
000290 40 21 15 be d1 0a 91 3d 6a 21 2b bd f6 da c4 3d
       -0.14563465 0.07082141 -0.041779913 0.09612076
0002a0 f3 6e af 3d 0e 20 80 3d ed 54 b6 3e cc f4 53 3d
       0.08566084 0.06256114 0.35611668 0.05174713
0002b0 6a b7 75 bd 4a 89 0d be 59 d3 71 bd 85 b1 9e 3c
       -0.05998937 -0.13821903 -0.059039447 0.019371757
0002c0 b5 68 96 bc 29 9d eb 3d b3 98 fd bd 59 12 f5 bd
       -0.018360475 0.11504585 -0.12382641 -0.1196639
0002d0 42 09 d8 3d e9 ef 29 3d e7 ed 9a 3d 11 d3 c2 3d
       0.10548641 0.04148856 0.075649075 0.09512914
0002e0 97 94 1b 3d 4f bc 8f 3d 0f a9 8c 3d 2e ea 15 bd
       0.037983503 0.07018339 0.06868183 -0.036600284
0002f0 20 91 88 3a 54 73 1f bd 32 79 3a 3d fa 65 4c bd
       0.0010419227 -0.038928345 0.045525737 -0.04990194
000300 d2 83 5f 3d 4f 9f bc bd d1 3a ac bd 21 95 d3 bb
       0.054569073 -0.09210073 -0.08409656 -0.0064569865
000310 12 2a 84 bd e9 48 8c 3e 4e a8 82 3e 07 b6 5a 3e
       -0.06453337 0.27399376 0.2551903 0.213585
