pol_models/aqi_last_30_model_state.pt (torch, 650572 bytes, 16 tensors)

conv1.weight f4 [64, 300, 3]
-0.0065267314 0.011605848 -0.033219382 -0.030877179 -0.01918038 0.0030430353 -0.0068806447 0.020210173
-0.008882071 0.0031166568 -0.015770543 -0.011842811 -0.036635093 -0.026797183 -0.017906455 -0.0023166856
0.009761981 0.017028661 -0.02899047 -0.020870417 0.0060737226 0.021729201 -0.012804105 0.019446762
-0.011714678 -0.0028216294 0.024223106 -0.037213832 -0.027295338 -0.014377794 -0.019420093 0.022408979
-0.027584938 -0.021812169 -0.029758908 -0.037252594 -0.023284841 0.024857732 0.011469146 0.010372889
-0.004018418 -0.022505943 -0.00016225736 -0.03685687 -0.029316144 -0.023563443 0.014659936 0.01358448
-0.021156805 -0.007581512 0.0153584 0.029144816 0.009262442 0.00095886335 0.016004967 -0.02592207
0.00033456253 -0.031930223 -0.029171495 -0.022959594 0.008740076 0.0070721246 -0.02559738 0.0036820683
0.011935129 -0.010253085 -0.0046915547 0.0017647167 0.015036965 0.025900926 -0.031779554 -0.01784362
0.0071817692 0.021759285 0.02361952 0.022978256 0.0002209281 -0.035019904 -0.0024808827 -0.026403029
-0.036184385 0.023518918 0.01921708 -0.03898027 -0.00010681107 -0.011957237 -0.011380918 -0.018004086
0.00991427 -0.02251641 0.007856939 0.0124883475 0.019810025 0.0070579713 -0.038332887 -0.02644333
0.010270201 0.0005979454 -0.031963058 -0.025511038 0.025038915 0.016607394 -0.020860715 -0.014671191
-0.037703123 -0.006654908 -0.031195046 -0.03142224 -0.008017217 -0.0011914528 -0.01934254 0.0136691285
-0.026399933 0.024487501 0.021235118 -0.030072182 -0.010243958 -0.0045127235 -0.0011543004 0.0022193564
0.0066322023 -0.0044401246 -0.022277825 0.009305222 -0.03844585 -0.025790788 -0.01479307 -0.022673916
-0.017674642 -0.033202093 -0.012972001 0.0015606196 -0.0276798 -0.00766942 0.018219428 -0.008359098
-0.0039274055 -0.007187103 0.0012764281 0.01570435 0.026441008 0.014627794 0.02509584 -0.008511178
-0.03415283 -0.020047517 0.018710019 -0.006449503 -0.022776453 -0.031424057 -0.037122317 -0.034068488
-0.012302312 0.011846559 0.011608487 -0.038181547 0.015477524 -0.031414516 -0.012076219 -0.019903928
-0.012784449 -0.012590596 -0.036244974 -0.035090495 -0.011026775 -0.005955523 -0.021508519 0.006632537
-0.036296688 -0.0085326675 0.023457956 -0.01991346 0.02378071 0.0062185843 -0.036315437 0.014881667
-0.009726827 -0.02115116 0.02037835 -0.032771543 -0.0027823863 -0.013309728 0.017953863 0.0030101035
0.00973715 0.005918463 -0.014438792 -0.013399543 -0.03343103 0.011938981 0.020342305 0.017053934
-0.029602911 -0.004616656 -0.029303893 -0.024820816 -0.025849193 0.0054217386 -0.025969315 -0.0068193465
-0.0042256988 0.014962523 -0.031730395 -0.028963754 -0.025635995 0.01708781 -0.017884469 0.022238716
0.0061857873 -0.0012206525 -0.006773053 -0.013122442 -0.001897805 -0.013158787 -0.005783732 -0.0008661268
-0.032460093 -0.023837067 0.020992322 -0.03345775 -0.008716495 0.027019417 0.0062097386 -0.0048287027
-0.03425719 0.010083557 -0.030181741 -0.015464963 -0.017529754 -0.01127815 -0.0055309343 0.02366676
0.000365751 0.02645163 0.014033944 -0.027420867 0.008908667 -0.029981278 -0.02047985 0.0038245677
0.0051151556 0.019133259 -0.016087085 -0.0062731733 0.010879089 -0.03818626 0.022104703 -0.029853113
-0.001836441 -0.011777352 -0.02367106 -0.0013524682 0.024324529 -0.013025661 -0.022824677 -0.018761596
00000000: 31de d5bb 7426 3e3c 0c11 08bd 23f2 fcbc
00000010: 2c20 9dbc a96d 473b 0877 e1bb ce8f a53c
00000020: 1b86 11bc d340 4c3b 3a31 81bc 5908 42bc
00000030: ae0e 16bd c485 dbbc 8fb0 92bc 89d3 17bb
00000040: b7f0 1f3c b17f 8b3c 6c7d edbc 70f8 aabc
00000050: 1406 c73b 7001 b23c 4fc8 51bc d14e 9f3c
00000060: ecee 3fbc 16eb 38bb 896f c63c 886d 18bd
00000070: 799a dfbc d790 6bbc e316 9fbc 0993 b73c
00000080: cff9 e1bc 6faf b2bc f4c8 f3bc 2d96 18bd
00000090: dabf bebc 71a2 cb3c 16e9 3b3c 0df3 293c
000000a0: efac 83bb 625e b8bc a123 2ab9 3bf7 16bd
000000b0: 6928 f0bc 1f08 c1bc 3a30 703c 7091 5e3c
000000c0: 0951 adbc 556e f8bb cca1 7b3c 1cc1 ee3c
000000d0: 7fc1 173c 3b5c 7b3a d91c 833c 855a d4bc
000000e0: 3968 af39 44c9 02bd 0ff9 eebc c215 bcbc
000000f0: 8932 0f3c 48bd e73b 99b1 d1bc db4e 713b
00000100: 8f8b 433c 8efc 27bc 9dbb 99bb 114e e73a
00000110: 9a5d 763c 2e2e d43c 472b 02bd c92c 92bc
00000120: 0c55 eb3b 8740 b23c b97d c13c e53c bc3c
00000130: efa8 6739 0871 0fbd 4e96 22bb 2a4b d8bc
00000140: 1436 14bd bfaa c03c 236d 9d3c c7a9 1fbd
00000150: c2ff dfb8 49e8 43bc 0877 3abc 4e7d 93bc
00000160: 766f 223c 5674 b8bc 64ba 003c ed9b 4c3c
00000170: a248 a23c 8e46 e73b f202 1dbd af9f d8bc
00000180: 5844 283c 70bf 1c3a b2eb 02bd 86fc d0bc
00000190: 691e cd3c 3b0c 883c 17e4 aabc 6f5f 70bc
000001a0: 976e 1abd 6a11 dabb c18c ffbc 9bb4 00bd
000001b0: a55a 03bc 862a 9cba 3f74 9ebc 7bf4 5f3c
000001c0: ac44 d8bc 039a c83c 45f5 ad3c f059 f6bc
000001d0: 46d6 27bc 78df 93bb e54b 97ba 9f72 113b
000001e0: f252 d93b 777e 91bb fc7f b6bc ee74 183c
000001f0: 6579 1dbd 3447 d3bc a25e 72bc a6be b9bc
00000200: 69ca 90bc ebfe 07bd 8488 54bc b48d cc3a
00000210: bfc0 e2bc c24f fbbb e940 953c 99f4 08bc
00000220: 77b1 80bb ca81 ebbb d24d a73a 69a6 803c
00000230: d09a d83c 6aa9 6f3c cb95 cd3c 7872 0bbc
00000240: d6e3 0bbd b13a a4bc c145 993c 5a56 d3bb
00000250: af95 babc 83b6 00bd 920d 18bd 668b 0bbd
00000260: a38f 49bc 1218 423c 8631 3e3c 4164 1cbd
00000270: 7195 7d3c 82ac 00bd 55db 45bc 900d a3bc
00000280: de75 51bc ca48 4ebc 9c75 14bd 0dbb 0fbd
00000290: a6a9 34bc 8c26 c3bb a232 b0bc c155 d93b
000002a0: d6ab 14bd 9acc 0bbc e62a c03c 8d21 a3bc
000002b0: c3cf c23c 44c5 cb3b 7fbf 14bd 3cd2 733c
000002c0: 455d 1fbc 3345 adbc 7ff0 a63c 743b 06bd
000002d0: b258 36bb 0c11 5abc fb13 933c 2845 453b
000002e0: 9188 1f3c abef c13b af90 6cbc c289 5bbc
000002f0: faee 08bd b79b 433c e8a4 a63c b1b4 8b3c
00000300: ce81 f2bc 5147 97bb b80e f0bc 0655 cbbc
00000310: b0c1 d3bc d7a8 b13b 9abd d4bc d374 dfbb
00000320: bb77 8abb 5f25 753c bbf7 01bd 6545 edbc
00000330: 9402 d2bc bcfb 8b3c 7382 92bc f82d b63c
00000340: 25b2 ca3b 4dfe 9fba 7df0 ddbb 83ff 56bc
00000350: c5bf f8ba f497 57bc 7685 bdbb c90c 63ba
00000360: e0f4 04bd f445 c3bc 17f8 ab3c fe0a 09bd
00000370: a1cf 0ebc d357 dd3c 107b cb3b 183a 9ebb
00000380: 4451 0cbd 8135 253c b33f f7bc c260 7dbc
00000390: 8f9a 8fbc fdc7 38bc d73c b5bb cbe0 c13c
000003a0: 45c2 bf39 17b1 d83c a1ee 653c baa1 e0bc
000003b0: a8f5 113c 4c9b f5bc 5cc5 a7bc 99a5 7a3b
000003c0: 099d a73b 5abd 9c3c 10c9 83bc 318f cdbb
000003d0: 353e 323c 3269 1cbd ec14 b53c 848e f4bc
000003e0: bcb4 f0ba cbf5 40bc d0e9 c1bc 4d45 b1ba
000003f0: 3c44 c73c 9569 55bc d1fa babc ebb1 99bc

conv1.bias f4 [64]
0.0040500117 -0.2066796 -0.021151207 0.0034440756 -0.03993599 0.007842441 -0.013378763 0.007647146
-0.042600486 -0.008653482 0.02653025 -0.10653818 -0.19999434 -0.23315428 -0.03855192 0.012311055
-0.0013087392 -0.02418671 -0.12485071 -0.008015171 -0.0022685204 -0.15146402 -0.028182523 -0.008792583
-0.00546239 -0.029196424 -0.16173369 -0.00042491697 -0.03504134 0.012769937 -0.2579645 -0.09714943
0.013275839 -0.029728249 0.0023355163 -0.028527122 -0.06662704 0.023374207 0.011942488 -0.03629764
0.009015059 -0.049044684 0.009408036 -0.18656908 0.027211858 -0.017728148 0.009115485 -0.026487382
-0.035094637 -0.15946655 -0.023031592 -0.02276526 0.012971377 -0.017266268 0.096057475 -0.03322468
-0.0064306282 0.02303053 0.008091455 -0.013272396 0.021195134 -0.11813291 -0.026173782 -0.019853065
00000000: f6b5 843b d1a3 53be 4c45 adbc 00b6 613b
00000010: ec93 23bd 957d 003c 9932 5bbc e994 fa3b
00000020: d97d 2ebd 56c7 0dbc f855 d93c b030 dabd
00000030: 51cb 4cbe ffbf 6ebe 9ee8 1dbd 4fb4 493c
00000040: 008a abba 3523 c6bc bbb1 ffbd 1052 03bc
00000050: 75ab 14bb 6219 1bbe 09df e6bc c40e 10bc
00000060: d9fd b2bb 572d efbc 849d 25be 64c7 deb9
00000070: 8287 0fbd ff38 513c ec13 84be 48f6 c6bd
00000080: e882 593c a888 f3bc 760f 193b b6b1 e9bc
00000090: c273 88bd 447b bf3c 6daa 433c d6ac 14bd
000000a0: e6b3 133c 14e3 48bd 2a24 1a3c f70b 3fbe
000000b0: 67eb de3c 9f3a 91bc 1d59 153c 11fc d8bc
000000c0: 65bf 0fbd 334b 23be c0ac bcbc 367e babc
000000d0: e685 543c fd71 8dbc c8b9 c43d 9a16 08bd
000000e0: 05b8 d2bb 86aa bc3c 0692 043c 7774 59bc
000000f0: 6ba1 ad3c abef f1bd 666a d6bc e5a2 a2bc

conv2.weight f4 [128, 64, 3]
-0.063850135 0.013828799 -0.026030395 -0.0102697145 -0.0020934148 -0.062145248 0.05131115 -0.07504218
-0.05269268 -0.04931404 -0.015352324 0.015464261 -0.057644513 -0.04334457 -0.043619238 0.01291603
-0.021687128 -0.031748246 -0.047637057 0.032363273 -0.0030087375 -0.02410951 -0.01900567 0.015026566
0.008008582 0.039640915 0.031396903 -0.024538621 0.010966864 0.002061566 -0.024194725 0.04674895
0.023883311 0.05786832 -0.046928927 0.007984424 0.021736927 -0.067561276 0.01859133 -0.03793177
-0.027172787 -0.050501693 -0.008372095 -0.07731996 -0.03285185 0.06574014 -0.07081327 0.0189413
-0.045193773 0.027207635 0.06785075 -0.043502327 -0.071429506 0.0039751693 0.042436432 0.041827764
-0.008565064 -0.014364588 -0.08168382 -0.06285239 0.038660835 0.062344678 -0.056261048 0.030969212
0.0049635507 -0.061680153 0.026221542 0.016646331 0.029537335 -0.010468912 -0.01552817 0.060016632
-0.019330012 -0.08129478 -0.05495313 0.00308543 -0.042763848 -0.064956926 -0.055361923 -0.06331056
-0.06296595 0.007891906 -0.049177963 -0.020658014 -0.037846602 0.061684348 0.05578068 -0.06235084
-0.06807464 -0.057076458 -0.05348621 -0.022412274 0.0126984855 -0.056933448 -0.07860703 -0.0077221305
0.00882915 -0.060072437 -0.029546952 -0.0839845 -0.050302003 -0.039494723 0.025939059 0.020574652
-0.011612767 -0.054315068 0.0101352185 0.051517256 -0.010224215 0.046412162 0.058136646 -0.06753522
0.042045362 -0.07565509 0.072111994 0.008558407 -0.04434026 0.03907403 0.03978474 -0.06768675
-0.0058258697 0.031423125 -0.0287753 0.018261848 0.029759841 0.03593706 0.058640808 -0.065462366
-0.031091891 -0.005115728 -0.0032272465 -0.052972365 0.041202087 0.03464799 -0.05971676 0.006434962
-0.06728023 0.061028868 0.014107925 0.05348413 -0.03409652 -0.05547319 0.013476587 0.040033218
-0.067517065 -0.04905429 -0.044117026 -0.0793047 -0.055692337 -0.022832604 -0.036040135 -0.02785445
-0.043882433 0.01572019 -0.072585925 0.0155050475 -0.012520988 0.009962827 0.05001627 -0.019086532
-0.058889464 -0.02958092 0.018111678 0.022035867 0.03409692 -0.020784821 -0.011872256 0.040629663
0.05486578 -0.002001985 0.009980781 -0.074049614 1.3776388e-06 -0.0076242574 -0.010415631 0.048049856
-0.0023263823 -0.038066823 -0.023667594 0.04828081 -0.0010304282 -0.06817898 0.039778996 -0.058860928
0.009210729 -0.00884821 -0.07440561 -0.029301774 0.037842557 -0.022800215 -0.06605134 -0.056371167
0.05902887 0.050855104 -0.025513414 -0.026246525 -0.008293617 -0.025590522 -0.0030911323 0.033797488
-0.04292783 -0.0073827133 -0.03325994 -0.037352733 -0.02978828 -0.00026837437 0.029895568 -0.02489763
-0.016988445 0.022198696 -0.0007312093 0.0028469835 -0.01980001 0.0063315844 -0.07707729 0.04461084
-0.021964967 0.016679382 -0.068049885 -0.025972243 0.014165996 -0.043932322 0.023527121 -0.06110938
0.0059085097 -0.001726553 0.08405917 -0.05623502 -0.037007276 -0.08437504 -0.08106421 -0.013501756
0.06959322 -0.014686619 -0.013349321 -0.055986993 0.018288983 0.05890423 0.029652158 0.03784413
0.041264232 -0.021880161 0.013726808 -0.020445954 0.059076224 -0.045836817 0.0043344446 0.05393397
-0.026540719 0.065438494 -0.041458324 0.035546266 0.0030677358 -0.021782456 -0.05655484 0.04648404
00000000: dcc3 82bd 3092 623c b23d d5bc 4e42 28bc
00000010: ac31 09bb 048c 7ebd a42b 523d b7af 99bd
00000020: 48d4 57bd 85fd 49bd 5088 7bbc d05d 7d3c
00000030: a71c 6cbd 138a 31bd 16aa 32bd c29d 533c
00000040: 34a9 b1bc 730a 02bd 131f 43bd 5a8f 043d
00000050: 3d2e 45bb 4f81 c5bc c7b1 9bbc fc31 763c
00000060: 6d36 033c 835e 223d 0a9a 003d 3805 c9bc
00000070: 5dae 333c 571b 073b 0434 c6bc d47b 3f3d
00000080: efa6 c33c 5507 6d3d 8c38 40bd 1ad1 023c
00000090: a411 b23c 915d 8abd d84c 983c 585e 1bbd
000000a0: 7799 debc ddda 4ebd 1d2b 09bc ed59 9ebd
000000b0: a98f 06bd c4a2 863d 8c06 91bd c92a 9b3c
000000c0: 1b1d 39bd 8ce2 de3c 56f5 8a3d 7f2f 32bd
000000d0: a249 92bd 2342 823b d3d1 2d3d 9753 2b3d
000000e0: 7b54 0cbc 7359 6bbc d949 a7bd c1b8 80bd
000000f0: d35a 1e3d 225d 7f3d fc71 66bd 25b3 fd3c
00000100: 48a5 a23b 54a4 7cbd 8fce d63c e35d 883c
00000110: 48f8 f13c cd85 2bbc de69 7ebc 00d4 753d
00000120: f959 9ebc e17d a6bd 8916 61bd ed34 4a3b
00000130: 2529 2fbd 2308 85bd 2fc3 62bd f8a8 81bd
00000140: 4bf4 80bd 0e4d 013c d56e 49bd ff3a a9bc
00000150: 0a05 1bbd baa8 7c3d 487a 643d 9863 7fbd
00000160: b86a 8bbd 01c9 69bd 5b14 5bbd f299 b7bc
00000170: 4f0d 503c 0c33 69bd b9fc a0bd ed09 fdbb
00000180: 24a8 103c 840e 76bd 730c f2bc 1100 acbd
00000190: 7909 4ebd 38c5 21bd 267e d43c 2c8c a83c
000001a0: 7a43 3ebc 7a79 5ebd 300e 263c c203 533d
000001b0: 7783 27bc ae1a 3e3d b120 6e3d e84f 8abd
000001c0: c237 2c3d 0ef1 9abd 74af 933d 9038 0c3c
000001d0: 229e 35bd 170c 203d 53f5 223d 5a9f 8abd
000001e0: f0e6 bebb 89b5 003d 2eba ebbc df99 953c
000001f0: e9ca f33c bd32 133d 5831 703d 2211 86bd
00000200: 6cb4 febc d6a1 a7bb 3680 53bb 8df9 58bd
00000210: 85c3 283d 0deb 0d3d 9099 74bd 60dc d23b
00000220: 38ca 89bd 68f9 793d ed24 673c 2d12 5b3d
00000230: cba8 0bbd db37 63bd e7cc 5c3c dff9 233d
00000240: 6346 8abd 27ed 48bd 0eb4 34bd 816a a2bd
00000250: a61d 64bd 710b bbbc d29e 13bd 042f e4bc
00000260: 11be 33bd a1c7 803c eea7 94bd e208 7e3c
00000270: d424 4dbc 203b 233c dcdd 4c3d 5c5b 9cbc
00000280: 1436 71bd af53 f2bc f15e 943c 9084 b43c
00000290: 36a9 0b3d ee44 aabc da83 42bc 4a6b 263d
000002a0: f1ba 603d bc33 03bb 6e86 233c 53a7 97bd
000002b0: 4fe7 b835 e8d4 f9bb 53a6 2abc edcf 443d
000002c0: 3876 18bb f5eb 1bbd 8be2 c1bc 19c2 453d
000002d0: 6f0f 87ba 6ca1 8bbd 4def 223d 2818 71bd
000002e0: 99e8 163c 15f8 10bc f861 98bd 460a f0bc
000002f0: cc00 1b3d 84c7 babc ed45 87bd 74e5 66bd
00000300: 42c8 713d 714d 503d 8201 d1bc f402 d7bc
00000310: f3e1 07bc 37a3 d1bc 9894 4abb 3c6f 0a3d
00000320: 18d5 2fbd b0ea f1bb 933b 08bd 2eff 18bd
00000330: 8d06 f4bc 99b4 8cb9 8de7 f43c 1df6 cbbc
00000340: 5a2b 8bbc 0ada b53c a0ae 3fba 7594 3a3b
00000350: a133 a2bc 2e79 cf3b b3da 9dbd dbb9 363d
00000360: e0ef b3bc 33a3 883c bd5d 8bbd bec3 d4bc
00000370: 7e18 683c 61f2 33bd f3bb c03c d44d 7abd
00000380: 2c9c c13b 814d e2ba 3727 ac3d b156 66bd
00000390: f194 17bd d2cc acbd fe04 a6bd 7836 5dbc
000003a0: e486 8e3d 25a0 70bc 1cb7 5abc 9e52 65bd
000003b0: c7d2 953c 9045 713d 15e9 f23c 7202 1b3d
000003c0: af04 293d 063e b3bc 68e6 603c 467e a7bc
000003d0: e9f9 713d 63bf 3bbd f507 8e3b dee9 5c3d
000003e0: ec6b d9bc 9e04 863d 34d0 29bd f698 113d
000003f0: 110c 493b 1f71 b2bc 0ca6 67bd 0c66 3e3d

conv2.bias f4 [128]
-0.059532214 0.03886696 -0.15588363 -0.15175362 -0.079203986 -0.22021839 -0.1850753 -0.03811406
-0.1828943 -0.15411538 -0.09300278 0.09418073 -0.05904797 0.029495252 -0.082347184 -0.1992678
0.113618165 -0.05816598 -0.19398382 -0.125017 -0.05033645 -0.08050995 -0.12783228 -0.08993411
-0.011184059 -0.13299195 0.07226558 -0.07350664 -0.070120156 -0.17073897 -0.1403565 -0.14360103
-0.07617891 -0.03154667 0.016556019 -0.052554045 -0.0014842045 -0.031475082 -0.09971492 -0.10373901
0.20294286 -0.08668751 -0.104430415 -0.2064872 -0.14077769 -0.11621719 -0.09585683 0.009591418
-0.111110225 -0.1061514 0.22950014 -0.035233002 -0.09665116 0.18673493 -0.11986468 -0.12605627
-0.03485342 -0.100015186 -0.089330286 -0.08015468 -0.06769883 -0.04807998 0.12220412 -0.070904195
-0.056079943 -0.14795011 -0.0040812604 -0.056305315 -0.061643247 -0.04110354 0.16264275 -0.077444516
-0.13114394 0.047956552 -0.14820293 -0.037314482 -0.01997474 -0.07814637 0.13760267 -0.02103996
-0.051529482 -0.14162757 -0.17842129 -0.19397828 -0.12582919 -0.123956375 -0.07996467 -0.15345083
-0.06660988 -0.09273437 -0.17387222 0.07873444 -0.13350695 -0.09276518 0.011100856 -0.008502647
-0.10286282 0.10129791 -0.21206011 -0.105693065 0.12985423 -0.03180619 -0.055438187 -0.03856724
-0.070043355 -0.12867033 -0.18828115 -0.053860977 -0.08764688 -0.08281444 -0.11001727 -0.1440242
0.08565827 0.17757541 -0.16941981 -0.067690715 0.16595484 -0.066971615 -0.04544139 0.00242006
-0.0795615 -0.16404796 -0.048607886 -0.07710372 -0.18175042 0.2098702 0.07514778 -0.048418798
00000000: 0dd8 73bd f632 1f3d f59f 1fbe 4d65 1bbe
00000010: b335 a2bd ee80 61be 6184 3dbe 7d1d 1cbd
00000020: a548 3bbe 6cd0 1dbe 3e78 bebd d4e1 c03d
00000030: 49dc 71bd 07a0 f13c a4a5 a8bd dc0c 4cbe
00000040: a4b0 e83d 733f 6ebd b2a3 46be 7504 00be
00000050: 982d 4ebd 67e2 a4bd 77e6 02be 602f b8bd
00000060: 583d 37bc 0b2f 08be faff 933d a68a 96bd
00000070: 289b 8fbd 32d6 2ebe 9db9 0fbe 260c 13be
00000080: b003 9cbd 1537 01bd 7da0 873c e942 57bd
00000090: a489 c2ba 04ec 00bd 5637 ccbd 1e75 d4bd
000000a0: 41d0 4f3e 3989 b1bd 9ddf d5bd 6171 53be
000000b0: 0728 10be 4703 eebd 9650 c4bd 5325 1d3c
000000c0: c28d e3bd e865 d9bd 1602 6b3e 7b50 10bd
000000d0: 0bf1 c5bd 7137 3f3e 9d7b f5bd e514 01be
000000e0: 76c2 0ebd c3d4 ccbd ccf2 b6bd 2328 a4bd
000000f0: afa5 8abd 83ef 44bd 2746 fa3d 3836 91bd
00000100: 15b4 65bd 3c80 17be 18bc 85bb 67a0 66bd
00000110: a17d 7cbd 305c 28bd d28b 263e 3b9b 9ebd
00000120: 994a 06be 176e 443d 82c2 17be 12d7 18bd
00000130: 11a2 a3bc 340b a0bd b7e7 0c3e ff5b acbc
00000140: 9410 53bd d106 11be 12b4 36be 3ea2 46be
00000150: 5ed9 00be d7dc fdbd 84c4 a3bd 3722 1dbe
00000160: c36a 88bd 84eb bdbd 8f0b 32be 863f a13d
00000170: 0cb6 08be acfb bdbd 5de0 353c b04e 0bbc
00000180: bea9 d2bd 4775 cf3d 4926 59be 9b75 d8bd
00000190: 82f8 043e 3547 02bd 2713 63bd aff8 1dbd
000001a0: e472 8fbd 28c2 03be c6cc 40be 549d 5cbd
000001b0: 3580 b3bd 9e9a a9bd bc50 e1bd 147b 13be
000001c0: 9a6d af3d 54d6 353e 637c 2dbe 6ea1 8abd
000001d0: 11f0 293e 6a28 89bd c020 3abd df99 1e3b
000001e0: 24f1 a2bd 30fc 27be 1019 47bd 8ee8 9dbd
000001f0: c81c 3abe 37e8 563e 14e7 993d ca52 46bd

lstm.weight_ih_l0 f4 [200, 128]
0.08422999 0.0068807416 0.01355917 0.04607202 0.07486879 0.14062043 0.13839062 -0.122591995
0.10837098 0.13383135 0.13002308 0.16067459 0.004962672 0.088634536 0.10702848 0.0012519195
-0.11090555 -0.03611012 -0.07846508 -0.12281347 0.04739553 -0.10314709 -0.13861243 0.059700508
-0.077767946 -0.020078348 0.22254938 -0.06762837 -0.013486687 -0.004733441 0.0056877374 -0.029687405
-0.05091315 -0.020706877 0.14496501 0.048331447 0.048525564 -0.0989095 0.091485985 -0.10672173
0.07063395 -0.031540506 -0.0894615 -0.15616776 -0.08353717 -0.008816687 0.116789475 0.123915374
0.041808464 -0.017777195 -0.008221497 0.088856384 0.09364809 -0.107737295 -0.017753227 0.09136054
0.015300217 0.036807813 -0.053061876 0.016226849 0.044342175 -0.13049045 0.07791876 -0.12036111
0.05702378 0.10652954 0.01840329 0.14257258 0.021391358 0.08287796 -0.37220702 0.016970018
-0.025654092 -0.033296052 -0.0679336 0.013889936 0.04732439 -0.06359518 0.009357367 -0.08202957
0.04848769 0.016816357 -0.14659768 0.014941348 -0.08658917 -0.12520514 0.09665128 -0.010419378
0.06522308 0.043841243 -0.06450163 -0.029178817 0.14926727 0.07677225 -0.012443411 0.016736727
-0.111244336 -0.14669661 0.11724009 0.08325117 -0.34476835 0.09418155 0.06451985 -0.015833989
-0.016449507 -0.053654704 -0.12701364 -0.07605587 0.120917514 -0.009097702 0.05716698 -0.04622545
-0.044483043 -0.16783091 0.021208372 0.015808394 -0.093132004 0.035976067 -0.03620818 0.08899559
-0.0054573053 0.057544 0.0916938 -0.036258712 0.10772584 0.1142502 0.022836156 -0.028512474
-0.06411314 -0.09143268 -0.18813652 -0.014170101 -0.059314027 0.030443974 -0.081278324 -0.062410202
-0.13858664 -0.050466493 -0.119056 0.046697658 0.13107556 -0.08936682 -0.05544167 0.19748266
-0.040118754 0.10054235 -0.16943048 0.010328042 0.07545791 0.13718016 -0.098060705 0.047869027
0.07065086 -0.03133409 0.08584893 -0.13706398 0.056382924 -0.024703037 -0.0075039887 -0.12715438
0.014324817 0.07158856 0.16928235 0.063076824 -0.21883708 0.13814484 0.050551545 0.08332176
-0.09079266 0.03464192 0.059045177 -0.16044712 -0.108074136 -0.14444862 0.08767248 -0.030797912
0.03250072 -0.1015826 -0.06076124 -0.21807793 -0.066309 0.16259407 0.036491733 -0.009251445
-0.1883688 -0.16311741 0.022530284 -0.07793834 0.019660246 -0.055596232 0.027235348 -0.0480578
-0.05328942 -0.11666304 -0.1160206 0.07852564 -0.13181467 -0.012737319 0.03959281 0.04214469
-0.061967675 0.011646832 -0.18838398 -0.084900424 -0.037345424 -0.04807876 0.029902179 -0.011679949
-0.067113824 -0.0055047655 -0.13548756 -0.058107704 -0.21917088 0.045156334 0.11652463 0.1414888
0.08222378 -0.12284207 0.20334493 -0.10498494 -0.11021519 -0.2144225 0.05935172 0.12747528
0.07873567 0.09842202 -0.15496293 -0.09550341 0.06969115 -0.13497987 0.10442959 -0.17605935
-0.18141505 0.0044716685 -0.022664964 -0.045599774 0.12479931 -0.072123565 0.07613893 -0.1209538
0.056954145 0.13322268 -0.11335906 -0.016554326 -0.013805548 -0.12745331 -0.09022105 -0.17363125
-0.06711338 -0.10542151 -0.035159945 0.032143295 -0.009824768 0.0370319 -0.051206205 0.09726051
00000000: c680 ac3d d877 e13b 4827 5e3c 04b6 3c3d
00000010: cf54 993d cdfe 0f3e 45b6 0d3e 8311 fbbd
00000020: 9bf1 dd3d 160b 093e c524 053e e187 243e
00000030: e99d a23b 0686 b53d bf31 db3d 7317 a43a
00000040: 7322 e3bd 35e8 13bd 4db2 a0bd a185 fbbd
00000050: d121 423d c83e d3bd 6bf0 0dbe 8588 743d
00000060: cd44 9fbd 597b a4bc fce3 633e be80 8abd
00000070: 44f7 5cbc fb1a 9bbb 3360 ba3b 0033 f3bc
00000080: 4f8a 50bd 78a1 a9bc b571 143e 32f7 453d
00000090: bec2 463d 1091 cabd 015d bb3d ec90 dabd
000000a0: 88a8 903d 9e30 01bd 9737 b7bd 71ea 1fbe
000000b0: 8915 abbd de73 10bc 522f ef3d 58c7 fd3d
000000c0: 5a3f 2b3d 7ba1 91bc 75b3 06bc 56fa b53d
000000d0: 92ca bf3d 5fa5 dcbd 376f 91bc 3c1b bb3d
000000e0: c3ad 7a3c cac3 163d 6957 59bd 2bee 843c
000000f0: 24a0 353d 4a9f 05be df93 9f3d e37f f6bd
00000100: c491 693d 292c da3d 7fc2 963c 8cfe 113e
00000110: ee3c af3c ebbb a93d eb91 bebe b504 8b3c
00000120: 8828 d2bc 7161 08bd c520 8bbd 9d92 633c
00000130: 38d7 413d 313e 82bd a44f 193c 1fff a7bd
00000140: 079b 463d 75c2 893c b41d 16be 8ecc 743c
00000150: aa55 b1bd c735 00be 1bf1 c53d 0ab6 2abc
00000160: ae93 853d e092 333d 6e19 84bd 6a08 efbc
00000170: 85d9 183e c53a 9d3d 73df 4bbc 761b 893c
00000180: 12d4 e3bd a337 16be 931b f03d 977f aa3d
00000190: 7a85 b0be 42e2 c03d fc22 843d 48b6 81bc
000001a0: 1ec1 86bc 09c5 5bbd dd0f 02be 2ec3 9bbd
000001b0: 9aa3 f73d 870e 15bc ec27 6a3d e656 3dbd
000001c0: da33 36bd dedb 2bbe 2ebd ad3c 9b80 813c
000001d0: febb bebd a45b 133d 074f 14bd 5243 b63d
000001e0: 32d3 b2bb 42b3 6b3d f6c9 bb3d 0484 14bd
000001f0: 5d9f dc3d 02fc e93d e412 bb3c fe92 e9bc
00000200: c04d 83bd 0f41 bbbd dca6 40be b629 68bc
00000210: 44f3 72bd a465 f93c 4075 a6bd d7a1 7fbd
00000220: a8e9 0dbe f4b5 4ebd a2d3 f3bd 0b46 3f3d
00000230: ac38 063e f405 b7bd ce16 63bd e538 4a3e
00000240: 9053 24bd 26e9 cd3d 2f7f 2dbe f336 293c
00000250: ad89 9a3d f578 0c3e 0dd4 c8bd 5012 443d
00000260: 66b1 903d 2d58 00bd 90d1 af3d 805a 0cbe
00000270: c8f1 663d 065e cabc 05e4 f5bb c234 02be
00000280: a3b2 6a3c 069d 923d 5a58 2d3e 6c2e 813d
00000290: d416 60be d775 0d3e 230f 4f3d 99a4 aa3d
000002a0: 81f1 b9bd b0e4 0d3d 5bd9 713d 404c 24be
000002b0: f955 ddbd 57ea 13be a18d b33d e74b fcbc
000002c0: 7a1f 053d 8a0a d0bd c7e0 78bd d24f 5fbe
000002d0: 03cd 87bd 0f7f 263e 5b78 153d 5f93 17bc
000002e0: c0e3 40be 4008 27be 6e91 b83c 239e 9fbd
000002f0: 860e a13c e0b8 63bd aa1c df3c 41d8 44bd
00000300: 0246 5abd 08ed eebd 359c edbd 0dd2 a03d
00000310: 6dfa 06be 30b0 50bc 122c 223d e99f 2c3d
00000320: d1d1 7dbd 5bd2 3e3c bbe7 40be 46e0 adbd
00000330: 84f7 18bd 3cee 44bd 6af5 f43c 425d 3fbc
00000340: f972 89bd 5261 b4bb 40bd 0abe 5802 6ebd
00000350: 556e 60be d9f5 383d 77a4 ee3d 71e2 103e
00000360: f164 a83d a094 fbbd a739 503e 5802 d7bd
00000370: 80b8 e1bd 9291 5bbe ca1a 733d e188 023e
00000380: 2b40 a13d 7c91 c93d 9aae 1ebe 4b97 c3bd
00000390: 3cba 8e3d 2a38 0abe 2edf d53d e748 34be
000003a0: dec4 39be 1387 923b e0ab b9bc d4c6 3abd
000003b0: c896 ff3d 85b5 93bd baee 9b3d a0b6 f7bd
000003c0: c048 693d 876b 083e cb28 e8bd f09c 87bc
000003d0: aa30 62bc 1f83 02be d0c5 b8bd 64cc 31be
000003e0: bd72 89bd 3ce7 d7bd e003 10bd b0a8 033d
000003f0: 10f8 20bc c3ae 173d 99bd 51bd 8530 c73d

lstm.weight_hh_l0 f4 [200, 50]
-0.099305086 0.090849295 0.07674217 -0.03509476 -0.005782484 0.06011361 -0.05263574 -0.0694546
0.14987828 -0.001311626 -0.121409714 0.15389037 -0.054687798 0.0013662429 -0.05267405 -0.018775294
0.01809169 -0.012176642 0.08831746 -0.08818808 -0.12428316 0.06937063 0.122728296 0.09516948
-0.05404468 -0.05237912 0.116285905 -0.040643882 0.15539801 -0.18994986 -0.20883626 0.014693266
-0.101207666 0.06796095 0.09963503 0.1959276 0.0478647 -0.039639074 -0.09499734 -0.0571955
-0.1890394 0.083164245 -0.17577915 0.09740716 -0.14004123 0.044298127 -0.027024793 0.056449905
0.12647882 0.050012767 0.058167316 -0.030542247 0.18042111 -0.03684702 -0.02708037 -0.06110073
0.11800779 -0.005420028 0.036126655 -0.045743715 0.011016288 -0.08712921 -0.063594066 -0.1254813
-0.015788985 0.08021397 -0.022383131 -0.17823367 -0.05104932 -0.090610065 -0.03944493 -0.13196133
0.06442192 0.12128671 -0.03261109 -0.014675247 0.06816387 0.016629908 -0.12365704 -0.012892163
-0.060214624 0.09975726 -0.07380691 0.07988635 0.13736889 0.061332814 0.15834343 0.0269714
0.007413483 0.048047785 0.11224992 0.14753065 0.11243495 -0.118417785 -0.06883207 0.057229307
0.065805644 0.0003437699 0.22472616 -0.13045737 0.10941876 0.03855998 0.08710797 0.14304285
0.05918398 0.13932213 0.14597128 0.14770636 -0.06251575 0.1176709 -0.0053372025 -0.036041833
0.10335817 0.12309452 -0.013857217 -0.04799747 0.09862946 -0.07028366 0.12571104 -0.091341816
0.039489057 0.10506469 0.13147931 0.007375072 0.12701169 -0.09590253 -0.1118815 0.033315387
-0.074965715 0.028131774 -0.0922066 -0.0024754368 -0.21500722 -0.06332793 0.13407822 0.0688855
0.18858278 -0.20655489 -0.06912755 -0.1203163 -0.43473363 -0.21293654 0.045652207 0.09303388
0.16562645 0.08410361 0.013575082 0.07262163 0.19061665 -0.10658895 0.11148571 0.07444704
-0.18969528 0.1058337 0.075512156 -0.02319646 0.12727623 0.1071301 0.061828773 0.10207598
-0.115093656 0.053768143 0.15674376 0.089182176 0.0021637313 -0.06214412 -0.12074566 0.09959219
-0.03774806 -0.19160795 0.13261613 0.020033577 0.089136645 -0.0561677 0.116850995 0.22920433
-0.09395336 0.14008632 0.0709625 0.09315791 -0.06858806 0.007610378 0.07076148 0.009393022
-0.020130396 -0.090526454 0.012462756 -0.082651705 -0.036909446 0.083351836 0.03797415 -0.099871635
-0.13453789 -0.012083638 -0.05624786 -0.08670322 0.030371726 -0.15843245 0.035961933 -0.045377057
0.087010525 0.20320067 0.025030442 -0.108202994 0.14832604 0.19587457 0.019941214 -0.09309104
-0.084408835 -0.05418477 -0.053080525 0.023054183 -0.14853571 -0.07329173 0.008889341 0.14677382
-0.070519134 0.4227631 -0.085235216 -0.15334523 0.027511688 0.029177764 -0.08478442 0.06404506
-0.27376977 -0.04193673 -0.08023974 0.17010985 -0.04707537 0.182162 0.054852586 0.03371959
-0.051477797 -0.030643634 0.06259785 -0.13423198 0.19524698 -0.06669125 -0.070336916 0.11589168
0.09734112 -0.1903771 0.14776033 0.1426944 -0.06105787 0.089115135 -0.08929906 0.00704898
0.11037104 0.07940229 -0.1646902 0.1746074 -0.20648241 -0.050335906 0.1466776 0.05137789
00000000: 7760 cbbd 320f ba3d 002b 9d3d 86bf 0fbd
00000010: fe7a bdbb b039 763d 9398 57bd 373e 8ebd
00000020: b179 193e deea abba a8a5 f8bd 7095 1d3e
00000030: 5000 60bd 8113 b33a bfc0 57bd a5ce 99bc
00000040: 0635 943c 8a80 47bc c9df b43d f49b b4bd
00000050: 2b88 febd 3012 8e3d f958 fb3d 37e8 c23d
00000060: f45d 5dbd 7d8b 56bd 4e27 ee3d 337a 26bd
00000070: a820 1f3e 3782 42be 2cd9 55be 06bc 703c
00000080: f745 cfbd 1c2f 8b3d 730d cc3d 3fa1 483e
00000090: c70d 443d 955c 22bd f78d c2bd d445 6abd
000000a0: 8b93 41be 0452 aa3d 73ff 33be 687d c73d
000000b0: f866 0fbe f471 353d 1963 ddbc 0438 673d
000000c0: aa83 013e 30da 4c3d da40 6e3d bc33 fabc
000000d0: 50c0 383e e7ec 16bd a7d7 ddbc c244 7abd
000000e0: 11ae f13d 7e9a b1bb 8bf9 133d c35d 3bbd
000000f0: a97d 343c cd70 b2bd 9b3d 82bd 2b7e 00be
00000100: e757 81bc 3947 a43d d45c b7bc e382 36be
00000110: 1719 51bd c591 b9bd 0291 21bd df20 07be
00000120: a4ef 833d 2b65 f83d 3593 05bd 7270 70bc
00000130: 8099 8b3d 723b 883c e73f fdbd a739 53bc
00000140: 9ca3 76bd 894d cc3d 1428 97bd 749b a33d
00000150: 6eaa 0c3e 1e38 7b3d c824 223e 20f3 dc3c
00000160: ceec f23b c1cd 443d 49e3 e53d 4612 173e
00000170: 4c44 e63d 0685 f2bd d4f7 8cbd 4769 6a3d
00000180: 1cc5 863d 043c b439 9d1e 663e 9e96 05be
00000190: f116 e03d 12f1 1d3d aa65 b23d d379 123e
000001a0: e76a 723d 76aa 0e3e 7f79 153e 5640 173e
000001b0: 4208 80bd 71fd f03d b3e3 aebb 9aa0 13bd
000001c0: 73ad d33d fb18 fc3d 6109 63bc ff98 44bd
000001d0: 3efe c93d e1f0 8fbd 65ba 003e 6b11 bbbd
000001e0: 47bf 213d 282c d73d 83a2 063e 97aa f13b
000001f0: 5a0f 023e 8c68 c4bd 2122 e5bd b775 083d
00000200: a087 99bd 9b74 e63c d0d6 bcbd f03a 22bb
00000210: da2a 5cbe 13b2 81bd cd4b 093e d713 8d3d
00000220: d81b 413e 2083 53be bf92 8dbd 6468 f6bd
00000230: 6895 debe 090c 5abe cffd 3a3d 8c88 be3d
00000240: fb99 293e 833e ac3d 056a 5e3c a6ba 943d
00000250: 0331 433e 4f4b dabd 9f52 e43d b177 983d
00000260: 7b3f 42be 57bf d83d 1ea6 9a3d 8106 bebc
00000270: b354 023e 0767 db3d 2b40 7d3d 360d d13d
00000280: 39b6 ebbd fc3b 5c3d 7081 203e 25a5 b63d
00000290: 63cd 0d3b d58a 7ebd 8049 f7bd fdf6 cb3d
000002a0: b69d 1abd e034 44be 86cc 073e 751d a43c
000002b0: 468d b63d 1a10 66bd 934f ef3d 8ab4 6a3e
000002c0: 9f6a c0bd ca72 0f3e ca54 913d 93c9 be3d
000002d0: e677 8cbd 7a60 f93b 65eb 903d 31e5 193c
000002e0: 80e8 a4bc ef65 b9bd 9630 4c3c 4c45 a9bd
000002f0: 5c2e 17bd 5eb4 aa3d c88a 1b3d 8089 ccbd
00000300: 4dc4 09be 74fa 45bc 2864 66bd 7591 b1bd
00000310: 20ce f83c 1e3c 22be d24c 133d 4bdd 39bd
00000320: 9332 b23d d613 503e a40c cd3c 8899 ddbd
00000330: c8e2 173e 5893 483e c25b a33c 84a6 bebd
00000340: 8ade acbd d9f0 5dbd f76a 59bd 20dc bc3c
00000350: bf19 18be f919 96bd 99a4 113c e04b 163e
00000360: 566c 90bd 6874 d83e cd8f aebd 8806 1dbe
00000370: 3160 e13c 3506 ef3c 74a3 adbd 0e2a 833d
00000380: 8d2b 8cbe d9c5 2bbd bc54 a4bd 4731 2e3e
00000390: 1ad2 40bd ad88 3a3e 1bad 603d 8e1d 0a3d
000003a0: 62da 52bd 5c08 fbbc 4d33 803d 1c74 09be
000003b0: d3ee 473e 6c95 88bd cd0c 90bd 9e58 ed3d
000003c0: c85a c73d 37f2 42be 7c4e 173e 7b1e 123e
000003d0: d117 7abd ff81 b63d 6de2 b6bd 21fb e63b
000003e0: 360a e23d ab9d a23d 8ca4 28be 48cc 323e
000003f0: 2070 53be 062d 4ebd a732 163e 9f71 523d

lstm.bias_ih_l0 f4 [200]
0.012621875 0.013189697 0.20450385 -0.15321217 0.3167243 0.17190178 -0.11817958 -0.104139335
0.23177803 0.10999327 0.03959589 0.2215265 -0.106449984 -0.0033053309 0.104131 0.3404056
-0.11870154 0.08501734 0.20328009 0.047153875 -0.12126167 -0.08996196 0.09664589 -0.017258741
-0.15592991 0.15228456 0.037072763 -0.13758063 -0.124559574 -0.03148519 0.28679127 0.12504016
-0.03029728 -0.085400864 0.22405453 0.23196022 0.102348536 -0.07900961 0.020866534 -0.0058666877
0.14372756 -0.05746836 0.09772156 -0.14913455 -0.013515978 0.25394848 0.24344808 -0.10862591
0.07945782 0.1695115 -0.06544776 -0.10037714 -0.0059740213 -0.13064684 -0.18658225 -0.027193794
-0.06309958 -0.0040724208 -0.24985121 -0.21568762 -0.034777433 -0.022188596 0.00036298894 0.0033974673
-0.046030734 -0.0558293 -0.085503384 -0.058242735 -0.041461498 0.13332641 0.030542621 -0.13227814
0.018778741 0.109792955 0.17796785 0.108490154 -0.12748598 0.13304757 0.020793242 -0.040648688
-0.061450895 0.10112985 -0.050359666 0.16322903 -0.14793515 0.03395266 -0.14864224 -0.05848111
0.083344966 -0.055075068 -0.19395082 0.047064986 0.0050167665 -0.093511544 0.015151117 -0.09585253
-0.05659751 -0.11348907 -0.17334135 0.10917808 -0.1100701 0.09100479 0.088496074 -0.0013194936
0.06345275 0.0064008976 0.03027889 -0.06606565 -0.010850632 -0.11363488 0.07480125 -0.05613953
-0.0735172 -0.07310022 -0.08929947 -0.09796272 -0.044012062 0.09437271 0.08048202 -0.05023352
-0.026636261 -0.068516746 0.06589979 0.12298171 -0.10279358 -0.15457605 -0.070602484 -0.0824315
-0.072258115 0.0445818 0.07608042 -0.077027865 0.09270061 -0.029029323 0.040899456 0.08512673
0.1342733 0.08166435 -0.14719765 0.04675281 -0.06657314 -0.09065628 0.07898608 0.06490596
-0.01567459 0.12655674 -0.03937125 -0.1304616 0.07165695 -0.066326536 -0.002049676 0.044323333
0.08967147 -0.061360065 0.22764108 0.11389768 -0.045587108 -0.13896795 0.3811925 0.18035449
-0.15705173 0.15493739 0.09050036 0.04849866 -0.08125161 0.19284132 -0.104766294 0.07609637
-0.016579075 0.0014293939 0.030284438 -0.045619138 0.02932131 -0.13322693 -0.068084314 0.04797297
0.013540854 0.068701595 -0.19909838 0.12635152 0.2291336 -0.09782966 0.14140126 -0.15136714
0.123199634 0.12826315 0.12052855 9.532851e-05 0.080393255 0.17538475 0.19163729 0.054849725
0.12910461 0.061050043 0.116291575 0.039211888 0.07821994 0.0655927 -0.021130253 -0.07134115
00000000: fbcb 4e3c 9919 583c 7569 513e a7e3 1cbe
00000010: b029 a23e 0507 303e 2308 f2bd 0147 d5bd
00000020: 3857 6d3e 2744 e13d 4d2f 223d d8d7 623e
00000030: 7302 dabd 409e 58bb a242 d53d a549 ae3e
00000040: cb19 f3bd 921d ae3d a828 503e 6c24 413d
00000050: 0a58 f8bd fa3d b8bd 48ee c53d 3462 8dbc
00000060: 17ac 1fbe 7cf0 1b3e 9cd9 173d f0e1 0cbe
00000070: 1719 ffbd 9df6 00bd 4ed6 923e 870a 003e
00000080: 0032 f8bc a6e6 aebd 8d6e 653e fb86 6d3e
00000090: 1c9c d13d cacf a1bd 4bf0 aa3c 583d c0bb
000000a0: 512d 133e f163 6bbd 3e22 c83d bab6 18be
000000b0: 1f72 5dbc 8905 823e 744a 793e 4377 debd
000000c0: c8ba a23d 6c94 2d3e 7a09 86bd 8892 cdbd
000000d0: b9c1 c3bb 49c8 05be 6b0f 3fbe 85c5 debc
000000e0: 5a3a 81bd f171 85bb ffd8 7fbe 37dd 5cbe
000000f0: c872 0ebd dcc4 b5bc 8d4f be39 0ba8 5e3b
00000100: b98a 3cbd 44ad 64bd 661c afbd ef8f 6ebd
00000110: 88d3 29bd b886 083e 8534 fa3c ec73 07be
00000120: e0d5 993c 21db e03d 343d 363e 1630 de3d
00000130: af8b 02be 9f3d 083e 9756 aa3c 3d7f 26bd
00000140: efb3 7bbd 2b1d cf3d f045 4ebd 8325 273e
00000150: 507c 17be f211 0b3d ac35 18be e389 6fbd
00000160: c4b0 aa3d 6596 61bd 0b9b 46be 37c7 403d
00000170: b063 a43b fb82 bfbd 643c 783c 554e c4bd
00000180: cad2 67bd f56c e8bd 6580 31be c298 df3d
00000190: 6f6c e1bd b860 ba3d 6e3d b53d dcf2 acba
000001a0: 84f3 813d 9fbe d13b 6f0b f83c 6d4d 87bd
000001b0: d9c6 31bc 67b9 e8bd 6631 993d 90f2 65bd
000001c0: 3090 96bd 91b5 95bd a4e2 b6bd aea0 c8bd
000001d0: fe45 34bd 7b46 c13d c2d3 a43d aac1 4dbd
000001e0: 4a34 dabc 8252 8cbd 78f6 863d d6dd fb3d
000001f0: 7185 d2bd 2f49 1ebe 0998 90bd d9d1 a8bd
00000200: 10fc 93bd 689b 363d 0dd0 9b3d c9c0 9dbd
00000210: d1d9 bd3d e7ce edbc 3086 273d ec56 ae3d
00000220: f17e 093e a43f a73d fbba 16be e07f 3f3d
00000230: 8057 88bd 00aa b9bd 74c3 a13d 6aed 843d
00000240: ff67 80bc 1798 013e bf43 21bd ba97 05be
00000250: e1c0 923d 35d6 87bd db53 06bb 628c 353d
00000260: ada5 b73d b154 7bbd be1a 693e 3043 e93d
00000270: 8cb9 3abd 9d4d 0ebe aa2b c33e d9ae 383e
00000280: 2bd2 20be e8a7 1e3e 4158 b93d 88a6 463d
00000290: 3e67 a6bd 3278 453e b68f d6bd 6ad8 9b3d
000002a0: d7d0 87bc 805a bb3a 1217 f83c 22db 3abd
000002b0: 3e33 f03c a46c 08be ca6f 8bbd 4e7f 443d
000002c0: 75da 5d3c 6cb3 8c3d 72e0 4bbe 4b62 013e
000002d0: 00a2 6a3e eb5a c8bd 7ecb 103e fdff 1abe
000002e0: 1750 fc3d 6a57 033e acd7 f63d 1beb c738
000002f0: 38a5 a43d 0f98 333e 913c 443e 1baa 603d
00000300: 0034 043e 9c0f 7a3d 472a ee3d a59c 203d
00000310: c731 a03d 7755 863d 5a19 adbc 4f1b 92bd

lstm.bias_hh_l0 f4 [200]
-0.08193174 0.17800695 0.20286708 -0.014313488 0.13644624 0.18384224 -0.15403149 0.0075550447
0.2196147 0.17790349 -0.049365036 0.08183245 0.06674817 0.06786703 -0.09535981 0.13574767
0.07659894 0.2645423 0.21858071 -0.07999845 0.003378339 0.12605096 -0.053977396 -0.011856051
-0.09760836 0.21894109 -0.08659307 -0.111850016 -0.12518868 -0.13451965 0.10684519 0.08853883
0.058206595 0.075606324 0.26178205 0.117388934 -0.048023175 0.039765105 -0.12059294 0.11445622
0.17666921 -0.038208693 0.05996024 -0.07356357 -0.026956474 0.059948802 0.05970325 -0.006011635
-0.11072339 0.13898598 -0.092250034 -0.08971899 -0.22302681 0.11541495 -0.19253735 -0.14231296
-0.01704753 0.046620302 -0.23262481 -0.14267293 -0.015281506 0.0052813804 -0.029721824 0.19366883
-0.009208868 -0.07405877 -0.046194613 -0.071067765 -0.17357482 0.080601804 0.007943886 0.09165187
0.020885134 0.07780488 0.071024984 -0.0073926277 -0.16988873 0.015349442 -0.0020679163 -0.19566697
-0.23301157 -0.07523277 0.06572605 0.07672937 0.091896646 0.012561886 -0.030678134 -0.08028291
-0.027689556 0.053499676 -0.06579312 -0.049951527 -0.12750398 0.05683915 -0.11860683 0.03257549
-0.06664118 0.016529374 -0.21339038 0.0060142465 0.024989495 -0.028547531 0.002576054 0.094652265
-0.14633927 -0.030913396 -0.026093278 -0.003009295 -0.072295636 0.109070495 0.03602114 -0.069615476
-0.05050715 0.1007107 0.051324077 -0.105405696 0.02725708 0.17452584 -0.00592609 0.07131839
-0.07799128 0.023953928 0.0638657 0.12849529 -0.14527403 -0.13876736 -0.074757 0.08736925
0.014906196 -0.035746634 -0.112237595 -0.09664791 0.1687025 0.010735822 -0.13441828 -0.03892723
0.14835358 0.11166163 0.008173827 0.01320474 -0.12867919 0.026087528 -0.048232734 0.08360036
0.11995774 0.07228297 0.06871487 0.065464616 0.11957618 0.02926954 0.10267245 -0.014315297
0.064876005 -0.1780763 0.17881174 0.12894349 -0.14463283 0.0069847186 0.2308881 0.24653526
0.011426798 0.1048664 0.051189207 -0.016118446 -0.09921069 0.2552363 -0.16420239 0.080572836
0.097460836 0.022421606 0.08899701 0.10489614 -0.02656095 0.0443407 -0.052437484 0.08238428
-0.05564169 -0.05965036 -0.042421438 0.04842003 0.23843977 -0.099008694 0.09665403 -0.1106003
0.10781225 0.11969139 0.092134066 -0.013994187 0.033320837 0.11328143 0.07942318 0.111838885
0.0028951385 0.077609554 0.0772986 0.068248086 0.17026576 -0.0855544 0.041030273 -0.056940675
00000000: d4cb a7bd 7447 363e 63bc 4f3e 1f83 6abc
00000010: 90b8 0b3e 2441 3c3e 6eba 1dbe 4f90 f73b
00000020: ade2 603e 552c 363e fe32 4abd c697 a73d
00000030: 44b3 883d dffd 8a3d 014c c3bd 7001 0b3e
00000040: e8df 9c3d 1772 873e 9fd3 5f3e 3ad6 a3bd
00000050: 2067 5d3b 8113 013e 6717 5dbd e23f 42bc
00000060: e4e6 c7bd 1832 603e b557 b1bd 9f11 e5bd
00000070: 7631 00be 85bf 09be a7d1 da3d d953 b53d
00000080: 0a6a 6e3d 7dd7 9a3d 4c08 863e 9c69 f03d
00000090: f3b3 44bd bce0 223d 6ef9 f6bd 0668 ea3d
000000a0: c6e8 343e b880 1cbd de98 753d 7fa8 96bd
000000b0: d3d3 dcbc e08c 753d 658b 743d 40fd c4bb
000000c0: f2c2 e2bd 5752 0e3e 96ed bcbd 97be b7bd
000000d0: 2461 64be ac5e ec3d 8328 45be 7dba 11be
000000e0: 43a7 8bbc eef4 3e3d 3335 6ebe da18 12be
000000f0: 485f 7abc 6e0f ad3b 2f7b f3bc 1f51 463e
00000100: cbe0 16bc 20ac 97bd 9036 3dbd fa8b 91bd
00000110: 99bd 31be 8f12 a53d 1327 023c fab3 bb3d
00000120: 4d17 ab3c 2a58 9f3d 8c75 913d db3d f2bb
00000130: 50f7 2dbe 3a7c 7b3c e185 07bb ec5c 48be
00000140: 969a 6ebe a313 9abd 619b 863d 4a24 9d3d
00000150: 4f34 bc3d 5ed0 4d3c b650 fbbc 5e6b a4bd
00000160: 35d5 e2bc 7a22 5b3d 8bbe 86bd f999 4cbd
00000170: 6790 02be 2bd0 683d 23e8 f2bd e16d 053d
00000180: 2c7b 88bd 9c68 873c 0283 5abe 2813 c53b
00000190: c5b6 cc3c 83dc e9bc 04d3 283b 0cd9 c13d
000001a0: f6d9 15be 173e fdbc 92c1 d5bc 9837 45bb
000001b0: bc0f 94bd 5a60 df3d e78a 133d 8f92 8ebd
000001c0: 96e0 4ebd 6941 ce3d 3239 523d f1de d7bd
000001d0: 3d4a df3c e7b6 323e a52f c2bb 600f 923d
000001e0: e4b9 9fbd 073b c43c 05cc 823d 4594 033e
000001f0: b7c2 14be 0819 0ebe 331a 99bd a6ee b23d
00000200: 1e39 743c 106b 12bd d3dc e5bd 57ef c5bd
00000210: 59c0 2c3e 4de5 2f3c f2a4 09be 2972 1fbd
00000220: 00ea 173e daae e43d 84eb 053c b258 583c
00000230: 7ac4 03be 83b5 d53c b08f 45bd aa36 ab3d
00000240: 67ac f53d 1809 943d 62ba 8c3d 5012 863d
00000250: 5be4 f43d adc6 ef3c ef45 d23d b58a 6abc
00000260: b6dd 843d a259 36be 6d1a 373e c309 043e
00000270: a11a 14be 11e0 e43b ee6d 6c3e bd73 7c3e
00000280: 7737 3b3c 32c4 d63d c6ab 513d d50a 84bc
00000290: f92e cbbd 55ae 823e ac24 28be 5f03 a53d
000002a0: 8c99 c73d 84ad b73c 1044 b63d cad3 d63d
000002b0: 5996 d9bc 989e 353d b0c8 56bd 17b9 a83d
000002c0: 8ae8 63bd f053 74bd 1ac2 2dbd 1554 463d
000002d0: 8e29 743e 12c5 cabd 8cf2 c53d 6982 e2bd
000002e0: abcc dc3d c220 f53d c9b0 bc3d e047 65bc
000002f0: 6e7b 083d 1800 e83d 9fa8 a23d c90b e53d
00000300: 5dbc 3d3b c2f1 9e3d ba4e 9e3d a7c5 8b3d
00000310: 265a 2e3e 2537 afbd 5c0f 283d a03a 69bd

lstm.weight_ih_l1 f4 [200, 50]
-0.15550484 -0.05724869 0.1388999 0.07388964 0.21192455 0.12948646 0.11699019 0.051502854
0.14743443 0.04311643 0.035345394 -0.0012658045 -0.03650267 0.016577236 0.15568954 -0.10091422
0.112274855 -0.21662368 0.04023485 -0.17907964 0.0484194 0.15357827 -0.15951069 -0.10307245
-0.011944344 0.23642263 -0.05075734 0.14608224 0.08462522 -0.12173865 -0.033799794 0.009102256
0.098588794 -0.06839601 0.06291245 0.0130006885 -0.19395135 0.05325564 0.12129889 0.10849687
0.14042279 -0.005476182 -0.017282004 0.15500803 0.1491452 -0.17096424 0.016635066 0.055620473
-0.08552332 0.13060106 -0.18167299 -0.09228327 0.04926493 0.06919463 -0.043963436 -0.0137818
0.034592256 -0.13748124 0.14291985 0.07167597 -0.037125316 0.044996507 0.15784514 0.15760382
0.0918042 0.16842622 0.19862072 0.059833847 0.21686205 -0.19098748 0.00053259294 0.15292051
-0.20105915 -0.041369926 -0.12136584 -0.18567581 -0.005519045 0.21404643 -0.14236794 -0.009201896
-0.01783124 -0.11489813 0.06533774 0.0033034883 0.052356225 -0.009130564 0.04461817 -0.17383085
0.07278492 0.16279255 -0.020447109 -0.11983416 0.055463906 0.011596695 0.110254705 0.06359005
0.032379 -0.040091556 -0.02431536 0.18237738 0.1676434 0.25922105 0.026721105 -0.16701901
-0.02342774 -0.18343693 -0.107054725 -0.12979725 0.071728416 0.010720823 -0.010868035 -0.11329915
-0.06661973 -0.07690038 0.06390876 -0.11307579 -0.0015711233 0.009995557 -0.166926 0.095504954
-0.1287217 0.2366627 -0.0656724 0.06305171 0.104797 -0.15246187 0.121575065 -0.083849534
0.068650186 0.0015018733 -0.33495113 0.0136316195 0.10579006 0.019556047 -0.0054553887 0.016170885
0.2645873 0.046044834 -0.08046023 0.13307226 0.13052736 0.20168786 -0.096290454 -0.042871367
-0.12047828 -0.12248589 -0.19783631 -0.041107938 -0.02773982 -0.071906105 0.1667924 -0.085364655
0.026261218 0.08482998 -0.12540974 0.052180514 -0.0052101123 0.047490355 -0.064180255 -0.05058094
-0.13023432 -0.022180188 0.09165136 -0.03590028 -0.12414332 -0.17170241 0.12760775 -0.09768295
0.042534385 0.026419893 0.0034492477 0.032328766 -0.053274296 -0.03385948 0.08496424 -0.00801963
-0.007020964 -0.1440752 -0.12175202 -0.04897552 -0.04716979 -0.069675565 -0.12044942 0.041631147
-0.21300094 -0.13307182 0.0038799034 -0.022298587 -0.049793303 -0.13610217 0.07383954 -0.17441426
-0.02872027 -0.051527146 -0.09220455 -0.060889076 -0.052993126 0.06366064 -0.04511144 -0.21093301
0.021099158 0.16511352 -0.2780498 -0.08217848 0.23654261 0.007593015 0.23294275 0.09802024
0.014264246 0.06035149 0.075529076 -0.16331898 -0.04728021 0.02224242 -0.051231645 -0.08486475
-0.12251504 0.2837069 0.10535374 0.11712857 -0.033047076 0.0017436258 0.032851554 0.05284416
0.10473912 -0.28616714 -0.020174319 -0.1273321 0.0076157777 -0.069508255 -0.0006744014 -0.10643064
0.03102682 0.020008273 0.058476586 -0.050600857 0.07849212 -0.011486849 -0.18922767 0.116690055
0.047399644 -0.12091558 -0.093896285 0.011372499 0.0853823 0.2295693 -0.021690924 0.15124682
0.10687788 -0.024587424 -0.11337238 0.022004128 -0.03515805 -0.01068705 -0.025549462 0.057581227
00000000: a93c 1fbe 9a7d 6abd c63b 0e3e 7453 973d
00000010: c002 593e 1998 043e 8e98 ef3d a8f4 523d
00000020: 0df9 163e db9a 303d 55c6 103d 5ae9 a5ba
00000030: d383 15bd fccc 873c 146d 1f3e 1dac cebd
00000040: 5cf0 e53d 99d2 5dbe 4ccd 243d a760 37be
00000050: 6c53 463d 9f43 1d3e c556 23be a617 d3bd
00000060: 36b2 43bc c618 723e eee6 4fbd 9596 153e
00000070: fd4f ad3d 1d52 f9bd a771 0abd a121 153c
00000080: ece8 c93d 3513 8cbd 3ed8 803d d700 553c
00000090: 2f9b 46be 9622 5a3d 8d6b f83d 9b33 de3d
000000a0: feca 0f3e 8b71 b3bb fd92 8dbc 6dba 1e3e
000000b0: 85b9 183e 4011 2fbe 4346 883c 4bd2 633d
000000c0: da26 afbd 49bc 053e 7c08 3abe 03ff bcbd
000000d0: 06ca 493d eab5 8d3d 0113 34bd 0fcd 61bc
000000e0: 9cb0 0d3d e2c7 0cbe 9559 123e daca 923d
000000f0: b710 18bd 424e 383d 28a2 213e e562 213e
00000100: d703 bc3d ec77 2c3e 3b63 4b3e 5614 753d
00000110: 1611 5e3e 3992 43be b59d 0b3a 3297 1c3e
00000120: 73e2 4dbe 8373 29bd a78e f8bd cd21 3ebe
00000130: 1bd9 b4bb fd2e 5b3e e7c8 11be 8dc3 16bc
00000140: d212 92bc b64f ebbd cbcf 853d 567f 583b
00000150: 7b73 563d 5c98 15bc 8bc1 363d b700 32be
00000160: 4310 953d 17b3 263e b280 a7bc 9d6b f5bd
00000170: 1f2e 633d 1000 3e3c 38cd e13d 803b 823d
00000180: d89f 043d 0b37 24bd 0131 c7bc 23c1 3a3e
00000190: b6aa 2b3e 9fb8 843e 38e6 da3c 0807 2bbe
000001a0: 88eb bfbc e4d6 3bbe 823f dbbd 92e9 04be
000001b0: 59e6 923d 64a6 2f3c d80f 32bc 6209 e8bd
000001c0: ed6f 88bd f27d 9dbd 99e2 823d 4894 e7bd
000001d0: 26ee cdba 68c4 233c a6ee 2abe 1a98 c33d
000001e0: 9fcf 03be b557 723e 407f 86bd 4121 813d
000001f0: cf9f d63d f71e 1cbe 59fc f83d 4eb9 abbd
00000200: 7898 8c3d 81da c43a b77e abbe 2857 5f3c
00000210: 75a8 d83d 0134 a03c 1ec3 b2bb ce78 843c
00000220: fd77 873e 8299 3c3d 55c8 a4bd 1844 083e
00000230: f7a8 053e 4387 4e3e ee33 c5bd e399 2fbd
00000240: 51bd f6bd e2d9 fabd 9a95 4abe cc60 28bd
00000250: 9e3e e3bc 8243 93bd a0cb 2a3e aad3 aebd
00000260: c421 d73c 57bb ad3d 696b 00be 3cbb 553d
00000270: 97b9 aabb 3f85 423d f070 83bd f62d 4fbd
00000280: 255c 05be 3ab3 b5bc b5b3 bb3d 2c0c 13bd
00000290: da3e febd c2d2 2fbe 9bab 023e 000e c8bd
000002a0: 8938 2e3d 886e d83c c60c 623b 2b6b 043d
000002b0: 2636 5abd 3db0 0abd bb01 ae3d c464 03bc
000002c0: 1d10 e6bb 7388 13be 2059 f9bd 8e9a 48bd
000002d0: 1c35 41bd 10b2 8ebd 2fae f6bd 6c85 2a3d
000002e0: eb1c 5abe fb43 08be fa45 7e3b 87ab b6bc
000002f0: 10f4 4bbd 5e5e 0bbe 2f39 973d a799 32be
00000300: c646 ebbc 210e 53bd bdd5 bcbd d366 79bd
00000310: 520f 59bd 8260 823d c6c6 38bd d3fe 57be
00000320: 24d8 ac3c 8513 293e 8b5c 8ebe 314d a8bd
00000330: 3a38 723e d4ce f83b 8b88 6e3e d6be c83d
00000340: 96b4 693c 2033 773d fdae 9a3d 173d 27be
00000350: e5a8 41bd bc35 b63c 46d8 51bd 92cd adbd
00000360: 2ae9 fabd 0842 913e b4c3 d73d 1be1 ef3d
00000370: 5f5c 07bd 608a e43a 5a8f 063d 1e73 583d
00000380: 7781 d63d 8084 92be 9d44 a5bc 5963 02be
00000390: c68d f93b 585a 8ebd 50ca 30ba 4ff8 d9bd
000003a0: f52b fe3c 64e8 a33c 2585 6f3d d842 4fbd
000003b0: 7ac0 a03d 5633 3cbc e6c4 41be 32fb ee3d
000003c0: 2126 423d 96a2 f7bd b24c c0bd b853 3a3c
000003d0: eadc ae3d 3714 6b3e 2ab1 b1bc 72e0 1a3e
000003e0: cae2 da3d 916b c9bc c72f e8bd 0042 b43c
000003f0: e301 10bd bd18 2fbc 1b4d d1bc 4bda 6b3d
