pol_models/aqi_model_state.pt (torch, 650340 bytes, 16 tensors)

conv1.weight f4 [64, 300, 3]
-0.028075704 -0.023267396 -0.014613943 -0.023940677 -0.012942392 -9.845028e-05 0.025501894 0.02565363
-0.035897806 -0.011189968 -0.019698132 -0.03339566 -0.02376941 0.028577153 -0.030462904 0.008573545
0.008204143 -0.028152483 -0.024910362 0.0015423048 0.016421061 0.0044028503 -0.0018014312 -0.011129391
-0.013924801 -0.03267867 -0.025030876 -0.040492617 -0.04091489 -0.0021696768 -0.00602114 0.0006229686
-0.00267434 -0.008016425 0.012457444 0.021549249 -0.015669264 -0.007980982 -0.035999097 0.012042355
-0.026589261 -0.027872737 -0.009077815 0.01790994 -0.015222002 0.006365146 0.0027908753 -0.00067190634
-0.0023077906 -0.02190504 -0.021505253 -0.023014765 0.014165925 0.0130138155 0.0082754595 0.022843193
0.022630295 -0.026315344 0.023427447 -0.016374825 0.0111809755 -0.03659495 -0.012894855 0.015616787
-0.032539263 0.0055294624 0.010208875 0.0150356805 -0.041231886 0.0099042645 -0.0055991295 0.0051130694
0.026302919 0.011381106 0.0156083135 -0.026131505 -0.028353035 -0.008680882 -0.008929652 0.023749553
-0.009265328 0.0059875795 0.012490443 -0.015733909 0.0134791415 0.0073349643 0.017800326 -0.03322098
-0.03532418 0.003780397 -0.0328559 -0.015852736 -0.01868197 0.014288044 -0.017579878 -0.00872278
0.015902823 0.008662005 0.0066572726 0.009276462 -0.02784298 0.017361902 0.0043706014 -0.0020746375
-0.0019582338 -0.018709444 0.003625139 -0.04167817 -0.009144858 -0.02311817 -0.03731916 -0.009545619
0.000815902 -0.03322472 -0.0055504236 -0.00033446486 -0.02656859 0.027223399 0.005747498 -0.01513348
-0.034441173 -0.011068118 0.011414866 0.011215562 -0.022087112 -0.038047843 -0.006920479 -0.040209703
0.0044550034 0.026045946 -0.0020439879 -0.030174525 -0.010064083 -0.021551315 0.02166001 -0.0062672067
-0.011313536 -0.0092057 -0.036095113 -0.022511829 -0.036552705 0.025572425 -0.036615007 -0.023984762
-0.011829812 -0.02851292 -0.014799501 0.025432428 -0.019651227 0.002612781 0.028182719 0.018099051
0.0035812997 0.013896191 0.0040406077 -0.002683754 -0.017483199 -0.015747415 0.00010136565 0.012630628
-0.01943301 -0.041776013 -0.010431003 -0.024613217 -0.0354329 -0.038187888 0.011223849 0.020542165
-0.012830642 -0.03850597 0.019757682 -0.0013731754 -0.038060024 0.02098127 -0.037913717 0.0023627414
-0.017301373 -0.0032321552 0.014957245 -0.039758842 -0.0078369845 0.0023963067 -0.033900656 -0.030704832
-0.016120104 0.010465015 -0.002562914 0.027279181 -0.01399111 -0.01569693 -0.015519985 -0.027068904
-0.008993511 -0.001468096 -0.012717403 -0.01892404 -0.0375321 -0.0270012 0.01174305 0.016072992
-0.014643563 0.0045053316 -0.02790953 0.016671946 0.016208677 -0.013308403 -0.029054187 0.010259388
0.01732087 -0.000109788554 -0.038360927 -0.02677355 -0.0061626732 -0.026486894 0.025086347 -0.04110586
-0.038288567 -0.03151239 -0.01180844 -0.037625033 -0.00012497013 -0.022691352 -0.01301905 -0.028597046
0.007776313 -0.03824915 -0.029145265 0.0063910093 -0.010892012 -0.039914865 -0.03139518 0.005317074
0.009523228 0.012261744 -0.002428328 -0.0020942653 0.007596312 -5.6077824e-05 -0.0042053754 0.0062453
-0.023355741 -0.0012369585 -0.037123077 -0.029829267 -0.00051222835 -0.01035776 -0.01565765 -0.0024814198
-0.013621355 -0.028061347 0.016997695 0.01969793 -0.0275834 -0.021113336 -0.023499446 0.019900503
00000000: 05ff e5bc 449b bebc 526f 6fbc 3d1f c4bc
00000010: 540c 54bc 1777 ceb8 59e9 d03c 9027 d23c
00000020: 9409 13bd 2156 37bc fa5d a1bc e3c9 08bd
00000030: 11b8 c2bc a21a ea3c 578d f9bc 0e78 0c3c
00000040: ab6a 063c 09a0 e6bc d110 ccbc 2927 ca3a
00000050: 7685 863c c945 903b 001e ecba 0d58 36bc
00000060: d924 64bc 12da 05bd 8d0d cdbc 96db 25bd
00000070: 5f96 27bd 2331 0ebb fc4c c5bb b74e 233a
00000080: fb43 2fbb 5357 03bc 4f1a 4c3c 0d88 b03c
00000090: d45c 80bc aac2 02bc ca73 13bd 4c4d 453c
000000a0: b9d1 d9bc 5e55 e4bc 1ebb 14bc deb7 923c
000000b0: b465 79bc b792 d03b 1ee7 363b df22 30ba
000000c0: 4d3e 17bb 3372 b3bc c92b b0bc 7689 bcbc
000000d0: 3218 683c e637 553c cb95 073c a621 bb3c
000000e0: 2b63 b93c 4793 d7bc ebea bf3c 7f24 86bc
000000f0: 6930 373c 96e4 15bd f144 53bc 8ddd 7f3c
00000100: e447 05bd 7e30 b53b 2043 273c 3758 763c
00000110: c4e2 28bd 7f45 223c e778 b7bb 898b a73b
00000120: 3879 d73c d277 3a3c 03ba 7f3c bd11 d6bc
00000130: a044 e8bc 423a 0ebc ad4d 12bc 6c8e c23c
00000140: 9acd 17bc 7533 c43b b7a4 4c3c 66e4 80bc
00000150: 9ed7 5c3c 245a f03b fdd1 913c b912 08bd
00000160: 16b0 10bd 89c0 773b e893 06bd 99dd 81bc
00000170: ee0a 99bc 6618 6a3c ad03 90bc fee9 0ebc
00000180: a346 823c 15eb 0d3c 4025 da3b 4dfc 173c
00000190: f616 e4bc 8c3a 8e3c 4337 8f3b a4f6 07bb
000001a0: b655 00bb 8c44 99bc bd93 6d3b bbb6 2abd
000001b0: 51d4 15bc 5162 bdbc fadb 18bd 3a65 1cbc
000001c0: 42e2 553a a516 08bd 54e0 b5bb 1d5b afb9
000001d0: 5fa6 d9bc 9b03 df3c 8255 bc3b 6af2 77bc
000001e0: 3012 0dbd 0d57 35bc 6b05 3b3c 7ac1 373c
000001f0: 08f0 b4bc 0ed8 1bbd 2fc5 e2bb eeb2 24bd
00000200: 47fb 913b 4f5e d53c 6df4 05bb 9130 f7bc
00000210: d3e3 24bc 628c b0bc 5570 b13c 245d cdbb
00000220: 695c 39bc 81d3 16bc 78d8 13bd ba6a b8bc
00000230: 4ab8 15bd 437d d13c 9ef9 15bd b17b c4bc
00000240: d4d1 41bc ed93 e9bc 9b79 72bc ab57 d03c
00000250: 9cfb a0bc 313b 2b3b 72df e63c 7644 943c
00000260: 3db4 6a3b d9ac 633c 1367 843b ece1 2fbb
00000270: ed38 8fbc b900 81bc 4594 d438 b2f0 4e3c
00000280: fa31 9fbc 531d 2bbd cce6 2abc a8a1 c9bc
00000290: 1722 11bd e76a 1cbd 3ce4 373c 0b48 a83c
000002a0: 9d37 52bc 70b8 1dbd ddda a13c 1ffc b3ba
000002b0: d4e4 1bbd eae0 ab3c 6a4b 1bbd 39d8 1a3b
000002c0: 9cbb 8dbc 91d2 53bb 3c0f 753c 2bda 22bd
000002d0: b266 00bc 5b0b 1d3b 6adb 0abd b388 fbbc
000002e0: 4f0e 84bc 7475 2b3c 90f6 27bb 9778 df3c
000002f0: f83a 65bc d996 80bc 8947 7ebc 9bbf ddbc
00000300: 8559 13bc 216d c0ba a75c 50bc 9706 9bbc
00000310: 42bb 19bd 9f31 ddbc ec65 403c 82ab 833c
00000320: 8eeb 6fbc 76a1 933b 87a2 e4bc 9b93 883c
00000330: 0fc8 843c 7d0b 5abc 0c03 eebc fe16 283c
00000340: 7fe4 8d3c 483e e6b8 5920 1dbd 3454 dbbc
00000350: 40f0 c9bb 0bfb d8bc e281 cd3c 9e5e 28bd
00000360: 79d4 1cbd 2313 01bd 3078 41bc b51c 1abd
00000370: 6a0a 03b9 37e3 b9bc da4d 55bc 5a44 eabc
00000380: 71d0 fe3b 24ab 1cbd 0dc2 eebc ac6b d13b
00000390: 6974 32bc c57d 23bd 3b98 00bd d93a ae3b
000003a0: 5007 1c3c 7be5 483c 9524 1fbb f13f 09bb
000003b0: 7cea f83b 1b35 6bb8 3fcd 89bb 60a5 cc3b
000003c0: 8a54 bfbc 7121 a2ba 5e0e 18bd 825c f4bc
000003d0: 1047 06ba 98b3 29bc 7944 80bc 519f 22bb
000003e0: 1b2c 5fbc e9e0 e5bc c03e 8b3c 8e5d a13c
000003f0: 95f6 e1bc e0f5 acbc e981 c0bc 6106 a33c

conv1.bias f4 [64]
0.028070899 0.020519055 0.01869477 -0.032474898 -0.02045362 -0.14141327 -0.06847674 0.011830132
0.012448416 -0.0046240273 -0.00513944 0.11221771 0.006973824 -0.006295659 0.014893978 -0.016969733
-0.012803554 -0.00926626 0.028329281 -0.03228615 0.012917191 -0.0055010496 0.005644997 -0.0057847784
0.013460688 -0.122367285 -0.029888941 -0.0012460572 -0.025165899 -0.035354137 -0.007932289 0.01368443
0.0067029404 0.002566781 -0.20184356 -0.020315174 -0.22888425 -0.035039987 -0.22646892 -0.013857988
-0.022109624 -0.016285434 -0.006066891 0.017924823 -0.22696754 0.009689457 -0.13077848 0.021763982
0.008524578 -0.0229662 0.020854123 -0.016452841 -0.1050415 0.0010103523 -0.00016835652 0.04675432
-0.015071574 0.022620033 -0.03753585 -0.006901452 0.022582231 0.13568458 -0.020103218 0.0014871801
00000000: f1f4 e53c 9417 a83c c625 993c 6604 05bd
00000010: 5a8e a7bc a4ce 10be 883d 8cbd 2cd3 413c
00000020: 71f4 4b3c 2785 97bb bf68 a8bb 66d2 e53d
00000030: ad84 e43b d14b cebb df05 743c 1c04 8bbc
00000040: ffc5 51bc 83d1 17bc cf12 e83c 7b3e 04bd
00000050: a0a2 533c 2642 b4bb abf9 b83b 3d8e bdbb
00000060: 388a 5c3c b39b fabd a7d9 f4bc be52 a3ba
00000070: b728 cebc 80cf 10bd 6ef6 01bc a934 603c
00000080: 57a4 db3b 7037 283b 14b0 4ebe 026c a6bc
00000090: a260 6abe 1786 0fbd 78e7 67be 9d0c 63bc
000000a0: 3e1f b5bc 0869 85bc c5cc c6bb 14d7 923c
000000b0: 2e6a 68be 87c0 1e3c cbea 05be 614a b23c
000000c0: acaa 0b3c 9d23 bcbc 44d6 aa3c 1cc8 86bc
000000d0: ff1f d7bd cc6d 843a dc88 30b9 7581 3f3d
000000e0: c3ee 76bc a64d b93c 31bf 19bd 9325 e2bb
000000f0: 5ffe b83c e6f0 0a3e 81af a4bc 7ced c23a

conv2.weight f4 [128, 64, 3]
-0.047913667 0.027374968 0.06207365 0.059563868 0.04557012 0.040820092 0.03332215 0.001889856
-0.021087924 0.04511667 0.032130897 -0.03573068 0.080095686 -0.029832607 0.056657985 0.049280044
0.00937047 0.06412208 0.04821947 -0.025187789 0.023399921 -0.023719788 0.040191684 -0.034441624
-0.029020268 -0.057765786 0.015781917 -0.036938217 -0.021239948 0.055794667 0.04865661 0.010716648
-0.007481214 0.013541929 -0.004172898 0.030196525 0.051145308 0.07518722 0.012799301 -0.06198547
-0.0005851973 -0.022985786 -0.06423724 -0.003876306 -0.014436128 -0.061893083 -0.026455194 -0.018079424
-0.02019273 0.030793007 -0.07866634 -0.004063479 -0.065495074 -0.043165132 0.020210633 -0.049859483
-0.052557677 -6.732258e-05 -0.015945518 -0.025438994 0.0042012692 -0.03061187 0.05655441 0.015182641
0.033844505 -0.049076896 -0.029456656 0.08034222 0.0053888685 0.024005333 -0.027507897 0.027856234
0.00761659 -0.04858151 0.061226442 -0.0060183816 -0.02175841 -0.0021343874 0.05727908 0.034765992
-0.017093575 0.040071856 0.044848844 -0.026374664 0.014938546 -0.054910205 -0.034823608 0.0033270011
0.026705546 0.018298442 -0.012573183 0.02457033 -0.056181453 -0.065003134 0.06471262 -0.050071906
-0.0063069956 0.05434393 -0.043470558 0.041315917 0.03783445 0.0169224 -0.03914419 0.015424899
-0.04482355 -0.029742755 -0.043038428 -0.066138186 0.00597658 -0.050697513 0.06484208 0.04291075
-0.012176597 0.021176679 -0.028176306 -0.027671162 -0.07202088 0.053874325 -0.050241925 -0.011154105
0.06673102 -0.045652233 -0.04293418 0.06671659 0.037207022 0.08103867 0.037549805 0.0056706946
-0.011494922 0.030143877 -0.06461642 -0.020058693 -0.007287777 0.020161238 -0.052017365 -0.04821267
-0.014086756 0.04724775 -0.046050623 -0.033782028 -0.055042345 0.012893689 -0.062792845 -0.06501111
0.022691727 -0.034727685 0.06891358 0.0131956935 -0.0485429 -0.0028953336 -0.034178372 0.072537705
-0.02698549 -0.06930981 0.020225855 -0.0038779643 -0.010478615 -0.059177086 0.00023616878 0.055549026
0.033932406 0.056161158 -0.0622686 0.010416483 -0.015266416 0.055913962 0.0001230199 -0.015280623
0.06091595 0.023491913 0.07009484 0.07313901 -0.057368763 0.06814845 0.031574108 -0.017048668
0.023273777 0.036719695 0.024886101 -0.044523235 7.967992e-05 0.031564202 -0.056620553 -0.010476422
-0.049122166 -0.00070751057 0.06920052 0.031110927 0.069050156 0.025705323 0.04348861 0.048101407
0.0591561 0.0059870137 -0.022432635 0.037299678 -0.040090796 -0.01267345 -0.029160798 -0.066169195
0.06292096 -0.02492563 0.04642864 0.037206016 -0.0058734813 0.024461975 -0.014171464 -0.08763931
-0.015174308 -0.005738562 -0.048380215 0.09973336 0.16488032 -0.06328205 0.06257576 0.021316258
0.045012712 0.0017166885 0.050575793 -0.059810698 0.019135384 -0.05202058 0.03184552 0.05277601
0.012568272 0.021921333 0.010411195 0.22065984 -0.017646682 -0.0104536945 0.02518094 0.022511732
0.028673543 0.0036209049 0.089115046 0.0755804 -0.014586906 -0.06452641 -0.041924044 -0.038446106
0.014538007 0.009370378 0.02141689 -0.015695915 0.03588001 -0.055039328 0.005459031 0.05075073
-0.030392164 0.03212546 -0.029696727 -0.04358682 0.03158776 -0.015918327 0.010488329 -0.022037825
00000000: 1f41 44bd 7841 e03c f140 7e3d 3ef9 733d
00000010: bca7 3a3d f832 273d cf7c 083d 0bb5 f73a
00000020: 95c0 acbc 42cc 383d b09b 033d 555a 12bd
00000030: 3509 a43d 8363 f4bc 3412 683d dfd9 493d
00000040: 9a86 193c 7052 833d c781 453d 9f56 cebc
00000050: 31b1 bf3c 0050 c2bc 09a0 243d a912 0dbd
00000060: eabb edbc d19b 6cbd 1449 813c 874c 17bd
00000070: 66ff adbc f388 643d 274c 473d e194 2f3c
00000080: f924 f5bb f8de 5d3c cebc 88bb b45e f73c
00000090: be7d 513d c2fb 993d 29b4 513c 7ae4 7dbd
000000a0: ed67 19ba b04c bcbc d08e 83bd 9f09 7ebb
000000b0: 8285 6cbc 9a83 7dbd 90b8 d8bc 4d1b 94bc
000000c0: 396b a5bc 9e41 fc3c d11b a1bd ef26 85bb
000000d0: 4822 86bd eccd 30bd c590 a53c 7539 4cbd
000000e0: b846 57bd 892f 8db8 2da0 82bc 7065 d0bc
000000f0: cdaa 893b bfc5 fabc 99a5 673d 9dc0 783c
00000100: 89a0 0a3d db04 49bd 164f f1bc 768a a43d
00000110: 1b95 b03b d5a6 c43c 3e58 e1bc c232 e43c
00000120: 9694 f93b 68fd 46bd 94c8 7a3d d835 c5bb
00000130: b13e b2bc 14e1 0bbb 789d 6a3d c966 0e3d
00000140: d307 8cbc 6322 243d 6cb3 373d ae0f d8bc
00000150: cec0 743c 86e9 60bd 33a3 0ebd d109 5a3b
00000160: 97c5 da3c 9de6 953c c0ff 4dbc b747 c93c
00000170: 861e 66bd 5d20 85bd 0d88 843d 3318 4dbd
00000180: eaaa cebb be97 5e3d 2f0e 32bd e13a 293d
00000190: 4cf8 1a3d d8a0 8a3c a855 20bd b7b8 7c3c
000001a0: e698 37bd 14a7 f3bc 1049 30bd 7573 87bd
000001b0: 30d7 c33b 32a8 4fbd edcb 843d 2fc3 2f3d
000001c0: 5980 47bc b77a ad3c ffd1 e6bc a2ae e2bc
000001d0: af7f 93bd 53ab 5c3d 7aca 4dbd b5bf 36bc
000001e0: 46aa 883d d6fd 3abd c0db 2fbd b5a2 883d
000001f0: 6466 183d 9af7 a53d d3cd 193d 3cd1 b93b
00000200: 3355 3cbc 4bf0 f63c 9d55 84bd 2152 a4bc
00000210: 4ece eebb 2e29 a53c 2910 55bd a67a 45bd
00000220: 23cc 66bc db86 413d 949f 3cbd 065f 0abd
00000230: 1574 61bd 0d40 533c 8999 80bd 8b24 85bd
00000240: 00e4 b93c 9e3e 0ebd 9022 8d3d c032 583c
00000250: ebd4 46bd a3bf 3dbb 9ffe 0bbd a68e 943d
00000260: ad10 ddbc 4df2 8dbd b1b0 a53c 7225 7ebb
00000270: 7fae 2bbc ac63 72bd 13a4 7739 6087 633d
00000280: b5fc 0a3d 3e09 663d 5c0d 7fbd e5a9 2a3c
00000290: fd1f 7abc 0a06 653d e7fe 0039 945b 7abc
000002a0: 0183 793d 1d72 c03c e28d 8f3d e8c9 953d
000002b0: 82fb 6abd 6a91 8b3d da53 013d a6a9 8bbc
000002c0: a6a8 be3c 6467 163d f0dd cb3c ff5d 36bd
000002d0: d519 a738 7749 013d f4ea 67bd 4ca5 2bbc
000002e0: 5334 49bd 3b78 39ba 01b9 8d3d 58dc fe3c
000002f0: 2b6a 8d3d f893 d23c 1d21 323d fb05 453d
00000300: ab4d 723d b62e c43b a5c4 b7bc 8cc7 183d
00000310: 3f36 24bd 4da4 4fbc a0e2 eebc b783 87bd
00000320: b4dc 803d d630 ccbc f52b 3e3d 5665 183d
00000330: 5576 c0bb 7b64 c83c 6e2f 68bc 3d7c b3bd
00000340: a99d 78bc 8c0a bcbb 552a 46bd 0141 cc3d
00000350: 63d6 283e 059a 81bd b827 803d 6f9f ae3c
00000360: 405f 383d 8202 e13a 9028 4f3d 10fc 74bd
00000370: cfc1 9c3c 8813 55bd 7370 023d a82b 583d
00000380: 27eb 4d3c 5e94 b33c b893 2a3c a7f4 613e
00000390: c68f 90bc f945 2bbc 4248 ce3c 866a b83c
000003a0: c7e4 ea3c b44c 6d3b f381 b63d e6c9 9a3d
000003b0: ebfd 6ebc 6c26 84bd 8cb8 2bbd aa79 1dbd
000003c0: d230 6e3c 3786 193c 7972 af3c b894 80bc
000003d0: ebf6 123d eb70 61bd ace1 b23b ffdf 4f3d
000003e0: fdf8 f8bc fd95 033d 8d46 f3bc 1888 32bd
000003f0: 2b62 013d 2767 82bc 3ed7 2b3c ab88 b4bc

conv2.bias f4 [128]
-0.06753657 -0.06729806 -0.04560325 -0.16972646 -0.08867508 -0.0584398 -0.08281938 -0.11692547
-0.0010413338 -0.11940962 -0.07350826 -0.118398435 -0.1774449 -0.0045617786 -0.047356803 0.017037265
0.012611858 -0.05159031 0.20707485 -0.17423074 -0.19401588 0.08249517 -0.085209854 -0.15680365
-0.05605082 -0.097894095 -0.18187124 0.014254574 -0.063434616 -0.111164436 0.05654172 0.013741823
-0.15326473 -0.14572012 -0.054652397 -0.27381778 -0.21923353 -0.03276309 -0.15962647 0.15014324
-0.25917098 -0.124408446 -0.17903468 -0.033462193 -0.2091066 -0.08745187 -0.12670927 0.1379832
-0.071616456 -0.09734252 -0.177794 -0.0623083 -0.12417832 0.120006435 -0.14948869 0.11275981
0.042854883 0.08391235 -0.040726084 -0.12608321 -0.016385116 -0.21090923 -0.17798339 -0.00797206
-0.14541356 0.12838438 -0.074439265 0.033177644 -0.0925233 0.027537813 -0.09948726 -0.16348583
-0.11178091 -0.13298814 -0.18809043 -0.0548867 -0.09912614 -0.04531262 -0.110742904 -0.052740358
-0.09690941 0.14527921 0.052359723 0.2128639 -0.13271125 -0.05689383 -0.16370784 -0.05854383
0.26735303 -0.11999547 0.16705075 -0.080331564 -0.12665655 -0.03289757 0.26259226 -0.12393427
0.016934687 -0.01786053 -0.0789756 -0.07877294 -0.19247344 -0.19597508 0.019799097 -0.21863697
-0.18460207 0.0033508968 -0.1569612 -0.2057812 -0.08791834 -0.04838598 0.26436958 0.16088292
-0.07128734 0.06562316 -0.2421716 -0.032128908 -0.048958573 -0.12739891 -0.051637325 0.081977345
0.100737564 -0.12273889 -0.17928028 -0.045157474 -0.20558001 -0.06610297 0.14189151 -0.120026626
00000000: 9d50 8abd 91d3 89bd 79ca 3abd c6cc 2dbe
00000010: 489b b5bd 925e 6fbd 359d a9bd 9f76 efbd
00000020: 5d7d 88ba 088d f4bd 808b 96bd e17a f2bd
00000030: 1eb4 35be f97a 95bb 35f9 41bd bc91 8b3c
00000040: f7a1 4e3c 5c50 53bd 6e0b 543e 8b69 32be
00000050: 19ac 46be 3af3 a83d 8182 aebd 2391 20be
00000060: 8b95 65bd b37c c8bd 743c 3abe 048c 693c
00000070: 02ea 81bd 2eaa e3bd 4a98 673d 6225 613c
00000080: 6ef1 1cbe a837 15be 31db 5fbd d831 8cbe
00000090: c17e 60be 9732 06bd 1f75 23be 26bf 193e
000000a0: 0fb2 84be dbc9 febd de54 37be a70f 09bd
000000b0: 0a20 56be f719 b3bd 13c0 01be 784b 0d3e
000000c0: a6ab 92bd 845b c7bd a10f 36be fd36 7fbd
000000d0: 3451 febd efc5 f53d 9013 19be 9eee e63d
000000e0: 9a88 2f3d 3dda ab3d 65d0 26bd f51b 01be
000000f0: 143a 86bc 97f8 57be 4741 36be 3e9d 02bc
00000100: 4be7 14be 3277 033e 9d73 98bd 48e5 073d
00000110: db7c bdbd fb96 e13c fabf cbbd d468 27be
00000120: 64ed e4bd 0b2e 08be c79a 40be e0d0 60bd
00000130: a502 cbbd ba99 39bd 2dcd e2bd 4606 58bd
00000140: 7178 c6bd 13c4 143e 2677 563d fff8 593e
00000150: 75e5 07be 8109 69bd 07a3 27be a8cb 6fbd
00000160: 7fe2 883e 2fc0 f5bd 5a0f 2b3e e084 a4bd
00000170: 41b2 01be 9abf 06bd 7e72 863e 40d1 fdbd
00000180: 9dba 8a3c 3f50 92bc f6bd a1bd b553 a1bd
00000190: c217 45be b1ad 48be b731 a23c 5fe2 5fbe
000001a0: 5308 3dbe b89a 5b3b 70ba 20be 4fb8 52be
000001b0: 880e b4bd 6130 46bd 735b 873e 7ebe 243e
000001c0: 19ff 91bd 6f65 863d d5fb 77be 9a99 03bd
000001d0: c988 48bd dc74 02be a981 53bd bde3 a73d
000001e0: 7f4f ce3d 875e fbbd 4095 37be 0bf7 38bd
000001f0: 9183 52be fe60 87bd 024c 113e 85d0 f5bd

lstm.weight_ih_l0 f4 [200, 128]
0.08309532 -0.020650104 0.07502626 0.06292387 -0.107411936 -0.107002065 0.0779019 -0.09990046
-0.11158262 -0.10536563 0.098532066 0.027417002 0.054359715 0.07118772 0.07471915 0.039539564
0.064307496 -0.06854437 0.10746898 -0.08760779 -0.017171783 -0.039472796 -0.05020989 -0.032157924
0.11141071 0.036386155 0.12167091 -0.034544945 0.07816902 0.056885257 0.077568494 0.13106334
-0.09246585 0.16029476 -0.09206896 0.008145975 0.057849523 0.105806045 0.025765697 -0.18640132
-0.040818963 0.11604528 -0.0016038625 0.037230738 0.1356293 -0.092146836 0.08692116 -0.16093075
-0.094793685 0.0733621 0.008909273 -0.04554462 -0.006803963 0.006650951 0.1501796 0.10984233
0.14349711 -0.11745518 -0.11237182 0.036576502 0.1127697 0.09328307 0.08221828 0.0029708024
0.032946955 0.19462523 -0.016113777 0.16058274 0.13195442 -0.014676139 0.07065714 0.114539504
-0.04338875 -0.026197275 -0.029707583 -0.11473171 -0.023040423 -0.13479935 -0.034305096 -0.060801104
-0.124847025 0.029354043 -0.0572355 -0.09880643 -0.05833752 -0.057690933 -0.066428125 -0.12779005
0.06494199 0.13296425 -0.21343286 0.043078713 0.14924818 0.079832524 0.082503185 -0.0252907
0.012729776 -0.03148556 0.10875808 0.11709275 -0.01589542 0.043446656 -0.16118602 0.008892673
0.16155177 0.041952312 -0.0349198 -0.014233585 -0.077469 -0.06420554 0.09687355 -0.027687594
-0.07074535 0.05552285 -0.03780396 0.05155138 -0.106582865 0.14235286 -0.032655437 -0.1611809
0.078219 0.09183418 0.030954622 0.036392685 0.10837772 0.0030812416 0.0882209 -0.116477594
-0.10047604 0.10893346 -0.124709174 0.001027179 -0.10969497 -0.028425597 -0.00066293596 0.0964269
0.044098698 0.0730597 0.057394512 0.008962374 0.028551392 0.013987799 -0.07140688 0.11423972
-0.03946386 0.08767382 0.21800406 0.055602193 -0.044604573 0.089180246 0.10718071 -0.1347241
-0.0051344037 -0.021559445 -0.025798842 0.10014744 0.07337399 -0.0052871574 0.11164072 0.085206635
0.083739996 0.15712668 -0.09258987 0.015401291 0.082144625 -0.035392955 -0.13578911 -0.11304847
-0.02568745 -0.019114206 0.016019704 0.01609192 0.10952316 -0.08667998 0.0118115945 -0.08294931
-0.08870601 0.037482906 0.110238485 -0.05117383 -0.0199976 -0.099143334 0.026421858 -0.071628965
-0.18148609 0.065716356 -0.034528997 -0.049955692 0.07801923 0.14005455 0.029879771 0.1289383
-0.079427615 -0.15716551 -0.075495325 0.2080218 -0.02229686 0.120157436 0.083501846 0.027450295
-0.08224794 0.078363754 0.044374835 -0.051449206 -0.049372498 -0.011500724 -0.12581623 -0.035182394
0.009751323 -0.079067245 0.12802322 -0.089098044 -0.05154311 0.07391902 0.025026357 -0.021094792
0.07994736 0.123288296 0.18400618 -0.06052985 0.0021334803 -0.044667214 0.07289842 0.12417126
0.14171846 0.036265686 0.028056629 -0.032907795 -0.05338411 -0.008903379 -0.17698859 -0.049301237
0.14287125 -0.095097266 -0.12656923 -0.10559175 -0.07474096 0.038434595 -0.027150752 0.20025043
-0.056075446 -0.04578996 -0.09025493 -0.028515963 0.0008188564 -0.009918141 -0.030510997 -0.1315761
0.063452646 -0.07687821 -0.039212633 -0.011249777 -0.07173802 0.0036549687 0.02631748 0.02919351
00000000: e12d aa3d 682a a9bc 5ea7 993d 3bde 803d
00000010: cafa dbbd e623 dbbd 088b 9f3d 9d98 ccbd
00000020: 6e85 e4bd efc9 d7bd 2ecb c93d 9f99 e03c
00000030: 4ba8 5e3d deca 913d 5b06 993d 3df4 213d
00000040: a6b3 833d fe60 8cbd b218 dc3d b76b b3bd
00000050: d7ab 8cbc 3aae 21bd e3a8 4dbd 07b8 03bd
00000060: 4c2b e43d a609 153d 992e f93d 007f 0dbd
00000070: 1417 a03d 8400 693d 3bdc 9e3d 7835 063e
00000080: bc5e bdbd 4f24 243e a78e bcbd b276 053c
00000090: 9ff3 6c3d d7b0 d83d 9512 d33c fddf 3ebe
000000a0: c931 27bd 26a9 ed3d b238 d2ba 427f 183d
000000b0: 68e2 0a3e 7bb7 bcbd b903 b23d 08cb 24be
000000c0: 3123 c2bd de3e 963d 33f8 113c ff8c 3abd
000000d0: c7f3 debb 39f0 d93b aec8 193e 04f5 e03d
000000e0: e8f0 123e 578c f0bd 3223 e6bd 3ed1 153d
000000f0: cdf3 e63d 320b bf3d 0f62 a83d cbb1 423b
00000100: 63f3 063d d64b 473e 0a01 84bc cd6f 243e
00000110: 0f1f 073e 3074 70bc b1b4 903d b093 ea3d
00000120: 67b8 31bd ab9b d6bc 515d f3bc 75f8 eabd
00000130: 45bf bcbc d708 0abe 8083 0cbd 940a 79bd
00000140: ccaf ffbd e477 f03c c66f 6abd 075b cabd
00000150: 53f3 6ebd 544d 6cbd 780b 88bd 65db 02be
00000160: 4e00 853d c827 083e 258e 5abe 4e73 303d
00000170: 84d4 183e 3c7f a33d 6ef7 a83d 712e cfbc
00000180: 8d90 503c 01f7 00bd 8ebc de3d 53ce ef3d
00000190: 1d37 82bc 1ff5 313d f30d 25be 93b2 113c
000001a0: d46d 253e 30d6 2b3d 1008 0fbd fc33 69bc
000001b0: 11a8 9ebd 327e 83bd a465 c63d 18d1 e2bc
000001c0: f0e2 90bd ee6b 633d 53d8 1abd 8a27 533d
000001d0: 1e48 dabd f3c4 113e b5c1 05bd 9b0c 25be
000001e0: 4831 a03d 8f13 bc3d 8c94 fd3c 7f10 153d
000001f0: 23f5 dd3d a8ee 493b 29ad b43d ce8b eebd
00000200: 62c6 cdbd 8218 df3d 8667 ffbd 68a2 863a
00000210: c2a7 e0bd ccdc e8bc e1c8 2dba 777b c53d
00000220: d6a0 343d 53a0 953d 8216 6b3d ecd6 123c
00000230: 9ce4 e93c 152d 653c c53d 92bd 84f6 e93d
00000240: dba4 21bd 558e b33d 753c 5f3e 20bf 633d
00000250: 49b3 36bd 22a4 b63d 8f81 db3d 1df5 09be
00000260: 803e a8bb 6f9d b0bc 1858 d3bc 1a1a cd3d
00000270: 1a45 963d e43f adbb e4a3 e43d d180 ae3d
00000280: e07f ab3d d1e5 203e c29f bdbd b255 7c3c
00000290: 713b a83d 34f8 10bd 4d0c 0bbe f585 e7bd
000002a0: 7d6e d2bc 6595 9cbc c13b 833c 34d3 833c
000002b0: ae4d e03d 4685 b1bd 6b85 413c 54e1 a9bd
000002c0: 7fab b5bd ad87 193d b7c4 e13d a69b 51bd
000002d0: 02d2 a3bc a90b cbbd a772 d83c 35b2 92bd
000002e0: 7dd7 39be 4c96 863d 476e 0dbd 579e 4cbd
000002f0: 8cc8 9f3d 766a 0f3e 6cc6 f43c 6708 043e
00000300: f2aa a2bd ffef 20be 4b9d 9abd ab03 553e
00000310: e8a7 b6bc 1a15 f63d 0403 ab3d 71df e03c
00000320: 9c71 a8bd 2d7d a03d 63c2 353d 67bc 52bd
00000330: d13a 4abd 886d 3cbc f8d5 00be 6a1b 10bd
00000340: 03c4 1f3c 02ee a1bd 8518 033e 0979 b6bd
00000350: de1e 53bd db62 973d 1304 cd3c fcce acbc
00000360: 71bb a33d 937e fc3d 1e6c 3c3e 26ee 77bd
00000370: dcd1 0b3b f8f4 36bd c44b 953d 804d fe3d
00000380: a51e 113e 548b 143d 04d7 e53c 53ca 06bd
00000390: 4ca9 5abd 7adf 11bc 7f3c 35be 18f0 49bd
000003a0: d74c 123e 5bc2 c2bd 5d9b 01be 7d40 d8bd
000003b0: ca11 99bd 986d 1d3d 416b debc 730e 4d3e
000003c0: 5eaf 65bd 418e 3bbd 94d7 b8bd 4f9a e9bc
000003d0: 86a8 563a b37f 22bc 33f2 f9bc e3bb 06be
000003e0: 76f3 813d 5372 9dbd 6d9d 20bd fc50 38bc
000003f0: 62eb 92bd 3388 6f3b c197 d73c 3a27 ef3c

lstm.weight_hh_l0 f4 [200, 50]
0.078282125 -0.092040226 -0.14466146 -0.043629542 -0.013920234 0.05181519 0.15161121 -0.070129044
0.06024339 -0.06756761 -0.053051252 -0.19669053 0.01637307 0.088218205 0.078780696 0.06839575
-0.13145508 -0.13524352 0.2684442 -0.048421185 -0.032525703 -0.11504427 -0.07922149 0.01171932
-0.07993224 0.06285351 0.12661898 -0.117872275 0.115219496 -0.015674338 0.09330272 -0.08412893
0.0849838 0.119995244 -0.13304074 -0.08398711 0.081892475 -0.012919342 -0.07237773 0.017172854
0.089344546 -0.05084101 -0.060823366 -0.005509417 -0.01331902 0.06297088 -0.045478914 0.16497834
-0.08169607 -0.05099134 0.07183722 0.06027405 -0.09820079 -0.088762276 0.06631095 -0.038183294
-0.040937256 0.24386469 0.12700091 -0.04940283 -0.07618098 0.3944797 -0.07375507 0.009938214
0.033785593 0.2225028 0.1564662 0.07540648 -0.036388993 0.04907892 -0.09836689 -0.04544055
0.17122574 0.16768466 -0.038553447 0.066200554 0.0270731 0.06896356 0.100722946 0.024101889
-0.04655704 0.009025685 -0.15118667 -0.052814055 0.1487201 0.049885444 0.042130224 -0.27072936
0.2088447 0.463434 0.013039458 0.03804065 -0.04937291 0.0154814115 -0.12313448 -0.19578043
-0.0010874837 0.16071475 0.074931845 0.15626445 0.15108605 -0.023611039 0.038404804 0.100479074
-0.10671675 0.06039038 0.14819384 -0.12562591 0.14356443 0.056332015 0.20196274 -0.011214227
0.047448926 0.020287396 -0.08834153 0.13736673 -0.26727015 0.071441315 0.050098848 0.07280479
0.093635716 0.0168637 -0.09627503 0.044251844 0.10899749 -0.11427566 0.05761674 -0.029347565
-0.0989555 -0.025676979 0.025924085 0.17416735 0.08149455 -0.0011430337 0.143644 -0.06092594
0.046262387 0.09248638 0.02747631 0.016342532 -0.004034999 -0.039936244 0.044949908 0.098203495
0.102507055 -0.0006173445 -0.059324484 -0.10915531 0.0010352159 -0.14578113 0.113563895 0.19730397
-0.010532309 -0.092656136 -0.03041497 -0.02717758 0.11399746 0.2878114 -0.0815592 -0.016143361
-0.13557293 0.06093435 0.11528236 -0.080801405 0.14356646 0.011960122 -0.049058642 0.05997078
0.02154029 0.10389667 0.055590928 0.12948282 0.26029894 -0.17650893 0.26140842 0.19161059
-0.12729132 -0.01262617 0.08568903 -0.18946056 -0.069428466 -0.10879557 -0.04596596 0.037015274
0.082015626 0.1637763 -0.16825156 -0.059523765 0.13038799 0.22412363 -0.07474285 -0.0473235
0.069015756 -0.017714433 0.09451409 -0.06285225 -0.091371365 0.017186077 0.104612105 0.0038861674
0.10742263 0.35638863 -0.36925584 -0.3231773 -0.120135926 0.16734359 0.5744531 -0.043114778
-0.013621851 -0.04385839 0.029415997 -0.32634792 0.14703286 -0.18374509 -0.014177624 -0.17708477
-0.10932756 -0.19018745 -0.27919862 -0.35608858 0.19772421 -0.05238397 0.2206093 -0.06968154
0.036743056 -0.14851259 0.049486324 -0.14753704 -0.21897206 0.22439362 -0.018341003 -0.38070643
-0.07934001 -0.00392045 0.118591495 0.050128568 0.15388976 0.18530604 0.030410685 0.06421111
-0.011694284 -0.18006344 0.11030877 -0.090727344 -0.24220389 -0.19090405 0.08216855 0.09844675
0.088786386 -0.07493974 -0.031822383 -0.15043767 -0.107055485 -0.111428425 0.09575494 0.0092126345
00000000: 6152 a03d 967f bcbd 2222 14be e4b4 32bd
00000010: b111 64bc 2a3c 543d f83f 1b3e d19f 8fbd
00000020: c6c1 763d e360 8abd 454c 59bd 3e69 49be
00000030: d120 863c bfab b43d c657 a13d 1213 8c3d
00000040: 299c 06be 477d 0abe 8571 893e 4b55 46bd
00000050: ac39 05bd 559c ebbd e03e a2bd 6402 403c
00000060: 84b3 a3bd 57b9 803d 68a8 013e 0567 f1bd
00000070: 33f8 eb3d 7867 80bc 7f15 bf3d ca4b acbd
00000080: fd0b ae3d 11c0 f53d d53b 08be 6f01 acbd
00000090: 3eb7 a73d a6ab 53bc c63a 94bd 16ae 8c3c
000000a0: 46fa b63d aa3e 50bd ec21 79bd 5788 b4bb
000000b0: 0538 5abc e0f6 803d 1948 3abd 15f0 283e
000000c0: 4550 a7bd 4cdc 50bd 641f 933d ece1 763d
000000d0: 7f1d c9bd ffc8 b5bd 09ce 873d 1666 1cbd
000000e0: d3ad 27bd aab7 793e 870c 023e 9f5a 4abd
000000f0: c604 9cbd 3ef9 c93e e60c 97bd e4d3 223c
00000100: c362 0a3d c6d7 633e ad38 203e b66e 9a3d
00000110: a00c 15bd fa06 493d 9474 c9bd df1f 3abd
00000120: cd55 2f3e 87b5 2b3e 38ea 1dbd 2894 873d
00000130: 68c8 dd3c c43c 8d3d d547 ce3d 5371 c53c
00000140: 98b2 3ebd 77e0 133c aed0 1abe 8d53 58bd
00000150: 154a 183e ae54 4c3d be90 2c3d 0a9d 8abe
00000160: 63db 553e 3947 ed3e 73a3 553c 83d0 1b3d
00000170: 403b 4abd bfa5 7d3c ee2d fcbd aa7a 48be
00000180: e689 8eba 6892 243e de75 993d ca03 203e
00000190: 4db6 1a3e f06b c1bc 5b4e 1d3d f9c7 cd3d
000001a0: 508e dabd e75b 773d 20c0 173e 14a4 00be
000001b0: 8e02 133e 66bc 663d 52cf 4e3e e1bb 37bc
000001c0: ce59 423d c131 a63c 67ec b4bd dda9 0c3e
000001d0: a2d7 88be d34f 923d 7334 4d3d ae1a 953d
000001e0: 15c4 bf3d be25 8a3c d82b c5bd 6c41 353d
000001f0: 133a df3d 5b09 eabd 88ff 6b3d 4e6a f0bc
00000200: 2ea9 cabd 8758 d2bc bf5e d43c ed58 323e
00000210: 9de6 a63d d9d1 95ba 6a17 133e 7a8d 79bd
00000220: a17d 3d3d 8069 bd3d 0016 e13c c6e0 853c
00000230: 0638 84bb 3094 23bd 651d 383d ea1e c93d
00000240: 38ef d13d 4ad5 21ba 3bfe 72bd d28c dfbd
00000250: 15b0 873a a647 15be 3094 e83d 0d0a 4a3e
00000260: b58f 2cbc 80c2 bdbd d128 f9bc 84a3 debc
00000270: 8077 e93d 045c 933e 8308 a7bd 153f 84bc
00000280: a1d3 0abe 4c96 793d 2819 ec3d 357b a5bd
00000290: 1603 133e 63f4 433c b7f1 48bd eca3 753d
000002a0: 4375 b03c c7c7 d43d 50b3 633d 2597 043e
000002b0: e745 853e c2be 34be 53d7 853e 9135 443e
000002c0: a858 02be ffdd 4ebc bb7d af3d f301 42be
000002d0: 8330 8ebd 36d0 debd cd46 3cbd 549d 173d
000002e0: cff7 a73d f9b4 273e 234a 2cbe 31cf 73bd
000002f0: 6e84 053e aa80 653e c812 99bd 49d6 41bd
00000300: 2258 8d3d dc1d 91bc 9a90 c13d aeb8 80bd
00000310: e920 bbbd d1c9 8c3c df3e d63d 12af 7e3b
00000320: 6500 dc3d 9278 b63e 1a0f bdbe 7f77 a5be
00000330: d309 f6bd 1e5c 2b3e 5c0f 133f 1f99 30bd
00000340: 2f2e 5fbc dba4 33bd d1f9 f03c 1317 a7be
00000350: c88f 163e ac27 3cbe 4449 68bc b655 35be
00000360: 21e7 dfbd 80c0 42be 1ff3 8ebe 3e51 b6be
00000370: 3778 4a3e 9390 56bd 68e7 613e 32b5 8ebd
00000380: e37f 163d af13 18be 2cb2 4a3d f313 17be
00000390: 363a 60be 71c7 653e df3f 96bc f4eb c2be
000003a0: 047d a2bd 1e77 80bb 19e0 f23d 9d53 4d3d
000003b0: 4795 1d3e dec0 3d3e d41f f93c 1d81 833d
000003c0: 6299 3fbc 8d62 38be 90e9 e13d 42cf b9bd
000003d0: 4c04 78be 5a7c 43be fc47 a83d 739e c93d
000003e0: a3d5 b53d 027a 99bd 3058 02bd 550c 1abe
000003f0: e83f dbbd 9634 e4bd 2a1b c43d 97f0 163c

lstm.bias_ih_l0 f4 [200]
-0.12553708 0.23552647 0.042523734 0.071718626 -0.034835804 -0.0888286 0.3670367 0.0019308235
0.1710652 -0.055317234 0.051273085 0.1773856 -0.06979988 -0.109920025 -0.011911841 0.011692015
0.17544325 -0.14547855 0.23299126 0.36196774 -0.17937914 0.046923347 -0.09814546 -0.13733643
0.14472778 0.052749667 -0.15404572 -0.020174641 0.054685045 -0.047205824 -0.0286927 0.12911913
0.12273475 0.14744964 -0.009722971 0.0669828 0.0132031115 0.1823419 0.14853404 0.21161896
-0.05806829 0.17808443 -0.19516067 -0.0057189027 -0.0055847936 -0.024982117 -0.087278634 -0.040396426
0.08444813 0.037208058 -0.105806984 0.05419274 -0.13622257 -0.079371154 0.05946726 0.10291576
-0.10218198 -0.058418956 -0.16158862 0.003498975 0.062115237 -0.03371893 0.13525365 -0.08174402
-0.057906594 0.08533979 0.06483836 0.044804625 -0.19047338 -0.11022048 0.075835496 -0.060130965
-0.14328507 -0.020394798 -0.12172915 0.032813743 -0.076942846 0.09217365 -0.07972629 0.052200004
0.096818484 -0.15683796 -0.16935036 0.10304692 -0.17591311 -0.085233085 -0.1654827 0.025888514
-0.13296291 -0.044993877 -0.09651812 -0.019810114 -0.12707977 0.002608452 0.0024247905 -0.20387067
0.0016773111 -0.07812534 -0.0053895186 0.0182052 -0.10872329 0.036040667 0.04692281 0.023825463
0.013232682 -0.09617812 0.082351275 -0.09530396 -0.12717725 -0.12014413 0.07830668 -0.06340811
0.12412942 0.027863123 0.15933394 -0.03865781 0.0074616238 -0.079135545 0.058594197 0.027995894
-0.07239115 -0.03505629 0.14858504 0.1778092 0.059349492 -0.06606825 -0.06965948 0.028056346
0.033950225 -0.052487697 -0.039021388 -0.11238041 -0.004758312 -0.10930765 0.1494309 -0.032896627
0.037453484 0.029441461 0.030618373 0.114012375 0.0793044 0.034145284 0.17019181 -0.017090723
-0.048639074 -0.014217352 -0.07674723 -0.05318819 0.11400072 0.10109612 -0.093088515 0.1848852
0.10702746 0.15441583 -0.1254315 0.085898735 0.32022 0.08969343 0.17985831 0.032054327
0.04568801 0.2500992 -0.1359188 -0.14232753 -0.06265683 -0.12875895 0.08730755 -0.13667431
0.3110979 0.27446908 0.112345606 0.038415574 -0.17325172 -0.079562105 0.11719947 0.017729739
-0.13637309 0.051513724 -0.00874635 0.04774757 0.0494645 -0.05291306 -0.01078001 0.107292645
-0.09448107 0.025700256 -0.014037612 0.10921458 -0.0270769 0.08024553 0.08945326 0.058078077
-0.11395278 0.1636156 -0.14713478 0.107377365 -0.05117099 -0.09666574 -0.019309545 0.08551903
00000000: cb8c 00be da2d 713e 5e2d 2e3d 37e1 923d
00000010: fdaf 0ebd c5eb b5bd 3cec bb3e b013 fd3a
00000020: b72b 2f3e 5394 62bd ba03 523d 92a4 353e
00000030: 3df3 8ebd c01d e1bd e229 43bc de8f 3f3c
00000040: 65a7 333e 54f8 14be 4395 6e3e d653 b93e
00000050: 2aaf 37be b232 403d 7d00 c9bd eca1 0cbe
00000060: 8533 143e 0910 583d 29be 1dbe 4a45 a5bc
00000070: 6dfd 5f3d e55a 41bd f40c ebbc ce37 043e
00000080: 5b5c fb3d 0afd 163e 194d 1fbc 472e 893d
00000090: dd51 583c d6b7 3a3e 4f19 183e a4b2 583e
000000a0: 04d9 6dbd c45b 363e 33d8 47be a265 bbbb
000000b0: a500 b7bb 4ca7 ccbc 24bf b2bd b976 25bd
000000c0: 24f3 ac3d 7a67 183d 55b1 d8bd 35f9 5d3d
000000d0: ee7d 0bbe 588d a2bd f193 733d 7fc5 d23d
000000e0: c944 d1bd b748 6fbd 7d77 25be 0f4f 653b
000000f0: 8c6c 7e3d dc1c 0abd ef7f 0a3e 6969 a7bd
00000100: 772f 6dbd a1c6 ae3d f9c9 843d 0e85 373d
00000110: 740b 43be 46bb e1bd a44f 9b3d e34b 76bd
00000120: 52b9 12be fe12 a7bc 224d f9bd b467 063d
00000130: 3694 9dbd 8ac5 bc3d 8a47 a3bd accf 553d
00000140: c548 c63d 219a 20be 2e6a 2dbe 430a d33d
00000150: 9122 34be af8e aebd 4c74 29be 2614 d43c
00000160: 6e27 08be 804b 38bd 4bab c5bd d248 a2bc
00000170: 3321 02be 90f2 2a3b 3ce9 1e3b 79c3 50be
00000180: 39d9 db3a 2e00 a0bd 8f9a b0bb 1223 953c
00000190: 51aa debd 619f 133d 2232 403d 9e2d c33c
000001a0: e4cd 583c 09f9 c4bd c9a7 a83d b92e c3bd
000001b0: c13a 02be 200e f6bd 415f a03d 1cdc 81bd
000001c0: 9137 fe3d 3441 e43c 7028 233e a757 1ebd
000001d0: a380 f43b d111 a2bd 7800 703d a557 e53c
000001e0: d041 94bd 2f97 0fbd ad26 183e 9d13 363e
000001f0: 7418 733d ca4e 87bd a1a9 8ebd 6cd6 e53c
00000200: 640f 0b3d 57fd 56bd e4d4 1fbd b327 e6bd
00000210: 9deb 9bbb b0dc dfbd 6a04 193e 9dbe 06bd
00000220: d368 193d 382f f13c 62d3 fa3c 527f e93d
00000230: 586a a23d eddb 0b3d c346 2e3e d801 8cbc
00000240: c439 47bd e5ef 68bc a72d 9dbd dcdb 59bd
00000250: 3679 e93d 7c0b cf3d 31a5 bebd 8c52 3d3e
00000260: 3731 db3d 2f1f 1e3e 1d71 00be adeb af3d
00000270: e0f3 a33e 30b1 b73d c72c 383e 664b 033d
00000280: 5a23 3b3d 010d 803e 4c2e 0bbe 4fbe 11be
00000290: 3952 80bd 63d9 03be 4dce b23d 5af4 0bbe
000002a0: 3948 9f3e 3687 8c3e 7415 e63d a659 1d3d
000002b0: e668 31be 75f1 a2bd 4706 f03d f53d 913c
000002c0: 63a5 0bbe 0e00 533d da4c 0fbc f592 433d
000002d0: 4a9b 4a3d 5dbb 58bd a49e 30bc 3fbc db3d
000002e0: 4b7f c1bd 5889 d23c 03fe 65bc e5ab df3d
000002f0: 60d0 ddbc c557 a43d 4533 b73d 47e3 6d3d
00000300: 1360 e9bd d98a 273e 80aa 16be aae8 db3d
00000310: ac98 51bd b0f8 c5bd 0d2f 9ebc 9a24 af3d

lstm.bias_hh_l0 f4 [200]
-0.19044778 0.2988355 0.032594938 0.06953261 -0.04083645 -0.013159096 0.39650506 -0.0662751
0.13620399 -0.050905645 0.084300555 0.20392263 -0.12032172 0.02328532 -0.082112394 0.08104456
0.14421171 -0.04049197 0.37695614 0.28205353 -0.056054045 0.04442321 -0.18092854 -0.16145653
0.16652991 0.025099758 -0.090060815 0.03749415 -0.09998127 0.025096714 0.0201588 0.10777178
0.05696002 -0.07464667 0.055321265 -0.06917998 -0.00076159736 0.06400805 0.106965624 0.22893631
-0.050500408 0.14175856 0.06357921 0.063287385 -0.049600728 0.19681236 0.0108610885 -0.010901778
0.12261995 0.21060464 0.036810547 -0.1307651 -0.110628195 -0.12246974 0.08508572 0.014029799
-0.070529684 0.11743946 0.03389607 -0.058912884 0.062313333 -0.049828917 -0.0033911746 -0.0051011913
0.08793425 0.12369859 -0.09007395 -0.102608666 -0.30019057 -0.05707929 0.052930005 -0.004103316
0.048458602 0.1613654 -0.17898554 -0.15119284 -0.12376224 -0.18056896 0.16517529 0.12419967
0.11676281 -0.12240607 -0.08042294 -0.0486087 -0.13521156 -0.0831821 -0.042003073 0.10385717
-0.15898025 -0.040744524 0.024163367 -0.13640088 -0.010055072 -0.072102316 0.033912607 -0.050491627
-0.011277477 0.046864368 0.015456946 0.0012994137 0.07323166 -0.022348622 0.16189991 -0.1045894
0.06367788 0.123597495 0.028446227 0.08258747 -0.07660594 -0.030466717 -0.13052623 -0.056666125
-0.10324202 -0.057386395 -0.078930326 0.09498862 0.12224636 0.07937099 -0.028378772 -0.035471972
0.041867934 -0.0074952464 -0.061226286 -0.020250201 -0.092359655 -0.0008174158 0.117626235 -0.019306973
-0.00397585 0.02646327 0.09240457 0.021168783 0.0315683 0.07175819 -0.08526509 0.042055868
-0.077341735 0.14100832 0.06259286 0.1747088 -0.17647634 -0.12536052 0.041873623 -0.107710265
0.046053983 -0.030858308 0.029505804 0.00174753 -0.09917407 -0.097095154 -0.03896852 0.14097242
0.08551369 0.25432423 -0.008453381 0.057309218 0.1917108 -0.12151587 0.00806949 -0.10262695
0.096943334 0.232029 -0.16209085 -0.016878026 0.029134301 -0.14080834 0.12064552 0.06067832
0.25613734 0.16594423 -0.066178784 -0.059685636 -0.079787865 0.062065214 0.018612497 -0.035004463
-0.110480666 0.012633134 -0.13061321 -0.08750631 -0.09404645 -0.1360905 0.003742812 0.0054569147
-0.039413225 -0.11619144 -0.00071779627 -0.012236741 0.08875999 0.06435134 0.08467386 0.027983317
0.051806733 -0.005684714 -0.07654866 0.19037399 -0.124487646 0.10800439 0.06130797 0.1908833
00000000: be04 43be f700 993e 4582 053d 1d67 8e3d
00000010: 1f44 27bd 4099 57bc b602 cb3e 3dbb 87bd
00000020: 0f79 0b3e 7082 50bd c5a5 ac3d 18d1 503e
00000030: 3c6b f6bd dbc0 be3c 8b2a a8bd b1fa a53d
00000040: 3cac 133e e8da 25bd 6500 c13e 5269 903e
00000050: ed98 65bd 1df5 353d 5545 39be dc54 25be
00000060: d186 2a3e 029e cd3c ce71 b8bd 7793 193d
00000070: fbc2 ccbd a097 cd3c 1124 a53c 73b7 dc3d
00000080: e94e 693d 5ae0 98bd 8d98 623d 3cae 8dbd
00000090: efa5 47ba a716 833d cb10 db3d 486e 6a3e
000000a0: 84d9 4ebd 2829 113e d135 823d d19c 813d
000000b0: 222a 4bbd 2e89 493e b5f2 313c 5f9d 32bc
000000c0: 2b20 fb3d bea8 573e a8c6 163d 49e7 05be
000000d0: 0991 e2bd 6ad1 fabd 6c41 ae3d 3edd 653c
000000e0: de71 90bd 1984 f03d 9bd6 0a3d a34e 71bd
000000f0: 443c 7f3d 6819 4cbd 783e 5ebb e527 a7bb
00000100: df16 b43d b055 fd3d b178 b8bd 7e24 d2bd
00000110: 94b2 99be f9cb 69bd 22cd 583d 1c75 86bb
00000120: 877c 463d f93c 253e fc47 37be 4cd2 1abe
00000130: 0f77 fdbd 12e7 38be b623 293e 665c fe3d
00000140: 5721 ef3d 09b0 fabd c8b4 a4bd eb19 47bd
00000150: e674 0abe 605b aabd 6a0b 2cbd 11b3 d43d
00000160: b8cb 22be bbe3 26bd 41f2 c53c acac 0bbe
00000170: 07be 24bc 61aa 93bd f2e7 0a3d 4fd0 4ebd
00000180: 2bc5 38bc daf4 3f3d 213f 7d3c 1751 aa3a
00000190: 7bfa 953d 7514 b7bc 17c9 253e f832 d6bd
000001a0: 8c69 823d af20 fd3d 1008 e93c 9f23 a93d
000001b0: 93e3 9cbd 5695 f9bc aba8 05be bd1a 68bd
000001c0: 8d70 d3bd ff0d 6bbd 39a6 a1bd 6589 c23d
000001d0: 4d5c fa3d 428d a23d 997a e8bc 0f4b 11bd
000001e0: b67d 2b3d af9a f5bb 6ac8 7abd c0e3 a5bc
000001f0: 0f27 bdbd d947 56ba 06e6 f03d a829 9ebc
00000200: d947 82bb 80c9 d83c 9b3e bd3d 286a ad3c
00000210: c34d 013d f5f5 923d 779f aebd c642 2c3d
00000220: 5865 9ebd 7c64 103e af30 803d dde6 323e
00000230: 37b6 34be 825e 00be ad83 2b3d 3397 dcbd
00000240: 1aa3 3c3d 90ca fcbc 28b6 f13c 600d e53a
00000250: c61b cbbd d3d9 c6bd 749d 1fbd 135b 103e
00000260: cd21 af3d c936 823e 0d80 0abc 12bd 6a3d
00000270: d64f 443e 50dd f8bd e535 043c 142e d2bd
00000280: 3a8a c63d 0399 6d3e 25fb 25be c943 8abc
00000290: 0fab ee3c 1030 10be 0015 f73d d489 783d
000002a0: 6f24 833e 49ed 293e be88 87bd ed78 74bd
000002b0: d267 a3bd 1838 7e3d 3c79 983c d760 0fbd
000002c0: b043 e2bd 34fb 4e3c 78bf 05be 8236 b3bd
000002d0: 6d9b c0bd 4f5b 0bbe f749 753b ebcf b23b
000002e0: c36f 21bd c7f5 edbd 7e2a 3cba 9d7c 48bc
000002f0: ccc7 b53d a3ca 833d 7d69 ad3d 453d e53c
00000300: 4c33 543d d646 babb 8bc5 9cbd 66f1 423e
00000310: 61f3 febd 6831 dd3d 111e 7b3d e976 433e

lstm.weight_ih_l1 f4 [200, 50]
-0.033609062 0.11185483 0.23587753 0.09745726 -0.11256351 -0.033526883 -0.071418345 0.07992686
-0.13161008 0.077267006 0.07248378 0.04829363 -0.13123 -0.04760366 0.08242215 -0.10357113
-0.19179069 -0.034888815 0.27765363 0.19396153 0.086052485 0.09859184 0.047789294 -0.065803334
0.11497823 0.109099194 0.04771608 0.019421114 -0.03857603 0.13105597 0.06576507 -0.033900045
0.26369625 -0.08845061 -0.11072079 -0.13613465 -0.04187054 -0.03478697 -0.08430964 -0.062160816
0.0029823699 -0.114948794 -0.036177583 0.021138104 0.029467331 0.14388417 0.0075590233 0.030560136
0.03233378 0.15090342 0.016431032 0.11265254 0.083114624 -0.053951677 -0.15094636 0.08404431
-0.09446937 0.15789641 -0.037010767 -0.15720679 -0.13828905 -0.01827802 -0.014196498 0.071290456
0.04588238 -0.064735696 0.24505398 -0.16992564 0.097685024 0.0025238248 -0.20338657 0.22503804
0.011525319 0.016067134 0.119565636 0.024515217 0.09934524 0.14348926 0.13384248 -0.09652726
0.034599237 -0.15694453 0.4019005 -0.12825103 -0.024114614 -0.0113045955 -0.1251746 0.015347799
-0.0033293185 0.2425949 0.017147604 -0.04775897 0.27189586 -0.06008704 0.22868319 0.14703335
0.006467133 0.008171905 0.053542107 0.03029605 0.06786506 -0.019560788 -0.10636849 0.06925348
-0.11778125 -0.0659742 -0.05343175 0.039498005 0.08377054 -0.017765265 -0.1033267 0.36354268
-0.012726754 0.0142856585 0.104095295 0.00037824645 0.031330183 0.08879904 0.15922248 0.057192277
0.02369507 0.03835276 -0.032127626 -0.07439068 -0.062391628 -0.07657662 -0.012374427 0.036026347
0.15436928 0.09121535 0.10712342 -0.12515126 0.006991511 0.041276563 -0.08265067 -0.08950196
-0.09922482 -0.08651277 -0.02815021 -0.44880027 -0.11275728 0.05342702 -0.07231652 -0.07764919
0.038861953 0.14088692 -0.028478157 -0.0013144874 0.010206854 0.10916599 -0.05979351 0.118623815
0.11185339 -0.21262392 0.16839491 -0.034453966 -0.015790395 -0.18153548 0.08328819 -0.14522399
-0.06703094 -0.13367833 0.0012271138 0.0025892865 0.05633328 -0.1600376 -0.02322739 0.071117826
0.056993935 0.051375095 0.07222418 0.11006092 -0.0869067 0.15547672 -0.023457574 -0.13750327
0.054323785 0.06158248 -0.042604145 0.14008439 0.14716673 0.05741591 0.023056604 -0.028095292
0.013784398 -0.08734522 0.059268095 -0.19424587 0.057533428 -0.017118918 0.11288505 -0.053526066
0.12451965 -0.0764537 -0.013844307 0.005822892 0.05277113 0.13579164 0.08143002 -0.11844084
0.048120514 -0.16223903 -0.12760238 -0.0209965 -0.14568867 -0.039940026 0.041050028 0.08495448
-0.16667514 0.14051592 0.05438218 0.10250522 0.06758121 -0.007753595 -0.18175635 0.023280228
0.22260135 -0.06954326 -0.04094034 -0.02290743 0.0036468257 -0.07082441 -0.012002375 -0.044487886
-0.049955197 -0.13109066 -0.0038482365 -0.006862854 -0.062340826 -0.083489396 -0.17539982 -0.18995686
-0.09267228 0.14292403 -0.026180165 -0.069082804 -0.07473139 0.031239878 0.15454708 -0.11663339
0.008881526 -0.068660155 -0.1602362 0.03600888 0.10922748 -0.30148774 -0.082497306 -0.105756976
0.037642423 -0.056231607 -0.11218753 0.20510735 -0.115902014 -0.30522314 -0.05965596 0.08101655
00000000: a8a9 09bd 2514 e53d e189 713e ac97 c73d
00000010: b387 e6bd 7c53 09bd c843 92bd b2b0 a33d
00000020: cbc4 06be 2a3e 9e3d 6072 943d 8bcf 453d
00000030: 2861 06be 0efc 42bd f2cc a83d 1a1d d4bd
00000040: c764 44be 93e7 0ebd 9e28 8e3e da9d 463e
00000050: 493c b03d 85ea c93d b5be 433d e6c3 86bd
00000060: b579 eb3d 666f df3d f071 433d 0719 9f3c
00000070: e601 1ebd 8933 063e d6af 863d c6da 0abd
00000080: 3203 873e 9825 b5bd 95c1 e2bd e266 0bbe
00000090: 7180 2bbd c87c 0ebd 88aa acbd 579c 7ebd
000000a0: dd73 433b 466a ebbd f22e 14bd d129 ad3c
000000b0: 7965 f13c 5f56 133e afb1 f73b 4059 fa3c
000000c0: 6d70 043d 6d86 1a3e 5f9a 863c 60b6 e63d
000000d0: 0038 aa3d 6ffc 5cbd af91 1abe 6c1f ac3d
000000e0: 2879 c1bd 99af 213e 9a98 17bd d1fa 20be
000000f0: a59b 0dbe c9bb 95bc 6e98 68bc bb00 923d
00000100: 2aef 3b3d 2694 84bd 6eef 7a3e fd00 2ebe
00000110: 160f c83d c166 253b 9244 50be 5f70 663e
00000120: b1d4 3c3c 399f 833c d4de f43d 23d4 c83c
00000130: 8475 cb3d d9ee 123e 010e 093e 16b0 c5bd
00000140: eeb7 0d3d 11b6 20be e7c5 cd3e 3d54 03be
00000150: 038c c5bc e936 39bc c52d 00be 5675 7b3c
00000160: b230 5abb cc6a 783e 2279 8c3c e99e 43bd
00000170: ef35 8b3e d41d 76bd ed2b 6a3e e98f 163e
00000180: 3eea d33b 74e3 053c f84e 5b3d 6c2f f83c
00000190: d6fc 8a3d f23d a0bc b9d7 d9bd c5d4 8d3d
000001a0: 4c37 f1bd 7b1d 87bd 40db 5abd a9c8 213d
000001b0: e48f ab3d 7688 91bc f39c d3bd 4422 ba3e
000001c0: e083 50bc 650e 6a3c ea2f d53d 614f c639
000001d0: 1454 003d 45dc b53d 380b 233e 7342 6a3d
000001e0: 2a1c c23c c917 1d3d 4298 03bd 245a 98bd
000001f0: 5d8e 7fbd 34d4 9cbd 1cbe 4abc 5d90 133d
00000200: fb12 1e3e 1dcf ba3d 8663 db3d a727 00be
00000210: 0c19 e53b 9d11 293d c144 a9bd ce4c b7bd
00000220: 6236 cbbd 9b2d b1bd 459b e6bc 26c9 e5be
00000230: 4aed e6bd 4ad6 5a3d af1a 94bd 8a06 9fbd
00000240: b62d 1f3d a944 103e 064b e9bc e14a acba
00000250: a63a 273c 6b92 df3d 0aea 74bd 0bf1 f23d
00000260: 6413 e53d 16ba 59be b76f 2c3e 9a1f 0dbd
00000270: dc5a 81bc 70e4 39be 0093 aa3d 99b5 14be
00000280: 8447 89bd f9e2 08be 1bd7 a03a 05b1 293b
00000290: babd 663d e6e0 23be 5e47 bebc 39a6 913d
000002a0: 7972 693d b16e 523d 45ea 933d 9f67 e13d
000002b0: 24fc b1bd 4a35 1f3e 192a c0bc a8cd 0cbe
000002c0: 9e82 5e3d e93d 7c3d af81 2ebd 4872 0f3e
000002d0: e0b2 163e f22c 6b3d 34e1 bc3c 1928 e6bc
000002e0: f5d7 613c 0de2 b2bd 1ac3 723d 64e8 46be
000002f0: 2ca8 6b3d f93c 8cbc 4730 e73d 263e 5bbd
00000300: 2904 ff3d c293 9cbd 3bd3 62bc f5cd be3b
00000310: 8a26 583d f70c 0b3e c8c4 a63d 1c91 f2bd
00000320: 041a 453d fd21 26be 33aa 02be da00 acbc
00000330: 692f 15be 2798 23bd 1324 283d 9dfc ad3d
00000340: e3ac 2abe 68e3 0f3e d9bf 5e3d 42ee d13d
00000350: 0468 8a3d de11 febb 561e 3abe 2db6 be3c
00000360: 9cf1 633e b26c 8ebd 0fb1 27bd 5da8 bbbc
00000370: 95ff 6e3b 630c 91bd 9ca5 44bc ee38 36bd
00000380: d29d 4cbd a13c 06be b232 7cbb cbe1 e0bb
00000390: 1859 7fbd 7dfc aabd 039c 33be 0d84 42be
000003a0: f7ca bdbd ad5a 123e c977 d6bc 497b 8dbd
000003b0: c50c 99bd c6ea ff3c 9741 1e3e 7ddd eebd
000003c0: d283 113c b29d 8cbd f514 24be 0c7e 133d
000003d0: a8b2 df3d 9a5c 9abe 59f4 a8bd 1d97 d8bd
000003e0: f12e 1a3d 1d53 66bd 93c2 e5bd a907 523e
000003f0: 095e edbd 3546 9cbe cf59 74bd 01ec a53d
