pol_models/aqi_last_7_model_state.pt (torch, 650495 bytes, 16 tensors)

conv1.weight f4 [64, 300, 3]
-0.025938738 0.0051208134 0.00944083 -0.008587607 0.005133521 -0.03693082 -0.011737854 -0.032813642
-0.010137973 -0.026818987 -0.018456135 0.002349372 -0.006359804 -0.013214268 -0.0077328747 -0.007884884
0.019052342 -0.027468534 -0.018680735 0.0062160655 0.014131836 0.004432968 -0.03786696 0.026075365
-0.02674524 -0.0034238575 -0.032103356 -0.0045397193 0.020558037 -0.033929046 -0.0004849684 0.0021081853
0.0002625833 0.024680296 -0.023558246 -0.008216472 0.015101849 -0.027431505 -0.025167057 0.015976464
-0.010598018 0.010725654 0.013079211 -0.009081297 0.0030897418 -0.020063603 -0.022719136 -0.0181756
0.01521422 -0.014192924 0.024212576 0.009084273 0.016570492 0.021788534 -0.032212574 -0.016012745
-0.026036136 -0.014246271 0.02165597 -0.010786225 0.02363982 -0.016926462 0.005125431 0.021405092
-0.039326318 -0.022166036 0.01642769 -0.014844635 -0.015831549 -0.023207895 0.0059439326 -0.03130931
0.025629219 0.016249193 0.015646202 -0.016327469 -0.03175675 0.0202291 0.008692116 -0.027506365
0.011732261 -0.0002784493 -0.03143742 0.025949622 0.007885771 0.017864129 0.019960785 -0.035513815
-0.014779654 -0.02708666 0.006464141 0.019001277 0.00804756 -0.018368538 0.026996698 0.023675473
-0.022170676 -0.015239764 0.021170538 -0.022586158 0.017731527 -0.009195564 -0.0030249353 -0.02415253
0.019336835 -0.024462437 0.013712083 -0.030446626 0.022484811 -0.033345196 0.02491452 -0.025374917
-0.018079372 -0.0054474524 -0.034953855 -0.0048679896 -0.0022811065 -0.030412402 -0.019111132 0.022651426
0.013409936 -0.013435364 0.008477112 -0.0010903849 -0.027245821 -0.026130643 0.012321262 -0.01998876
0.0026803506 0.023146437 0.013358536 0.020289455 -0.0035240485 0.008486816 -0.02428707 -0.037773833
-0.03232704 0.0029219987 0.008471688 -0.018159369 0.0047472403 0.0074743577 0.027209053 0.018388523
-0.000805052 0.010870017 0.005269666 0.022717008 -0.025501173 -0.017802803 0.0016297126 -0.020723458
-0.0022770423 -0.03464579 -0.004807569 -0.006084473 -0.009097106 -0.03676917 -0.002666671 -0.015496852
-0.0041554044 -0.0014025245 -0.034019705 -0.006161145 -0.0044392226 -0.012703344 0.009194005 -0.001548666
-0.0028670423 0.019496439 0.015086359 -0.015517596 -0.0058489563 0.022454109 0.0053324183 -0.02779739
0.019916398 0.017482286 -0.001591309 -0.02740183 -0.0073252246 -0.016306374 -0.038848247 0.012494528
0.019176511 0.017922552 -0.00982847 0.025160873 -0.017248463 -0.003025686 0.008848449 -0.032618273
0.021570304 -0.028289907 -0.023736132 0.014312385 -0.033211894 -0.026343629 0.02173876 0.010879033
0.023654334 -0.0024940139 0.006747618 -0.01360281 -0.006915436 0.00784836 -0.03223875 0.02617029
0.014362589 -0.005758412 -0.026267184 0.018697092 0.012830347 -0.02676736 -0.010589138 0.0011737645
-0.014664309 0.019074852 -0.02179432 -0.037626173 -0.017143665 0.0056718625 -0.014275509 -0.03631861
-0.009338425 0.021676762 -0.019862114 0.0012066385 -0.026116032 0.0268776 -0.0021775288 0.004791231
0.0011630008 0.024560047 -0.02701245 -0.038978294 -0.008527406 -0.017295212 -0.032598864 -0.02143495
0.007034105 -0.020430053 0.016425906 -0.0046033626 -0.012194562 -0.018190414 -0.031901713 -0.03654721
0.014968565 -0.035188787 0.00016921035 0.00015699964 -0.03013423 -0.01339905 0.0046040197 0.0068388893
00000000: 7a7d d4bc 7fcc a73b b6ad 1a3c 09b3 0cbc
00000010: 1837 a83b c644 17bd 2150 40bc 9967 06bd
00000020: be19 26bc 7eb3 dbbc 5231 97bc ecf7 193b
00000030: e765 d0bb a880 58bc 0e64 fdbb 9a2f 01bc
00000040: a813 9c3c b105 e1bc 5708 99bc 23b0 cb3b
00000050: 3789 673c 6e42 913b 631a 1bbd 019c d53c
00000060: d518 dbbc cc62 60bb cf7e 03bd edc1 94bb
00000070: 5469 a83c 2ff9 0abd 5b43 feb9 7b29 0a3b
00000080: 55ab 8939 552e ca3c 39fd c0bc 629e 06bc
00000090: bf6d 773c 09b8 e0bc 252b cebc 13e1 823c
000000a0: 4fa3 2dbc a7ba 2f3c 304a 563c b8c9 14bc
000000b0: 447d 4a3b 6d5c a4bc 7b1d babc ffe4 94bc
000000c0: 1045 793c 7089 68bc 7459 c63c 34d6 143c
000000d0: d7be 873c de7d b23c 55f1 03bd 292d 83bc
000000e0: bc49 d5bc 3169 69bc dc67 b13c b5b8 30bc
000000f0: 4ca8 c13c 5da9 8abc 3bf3 a73b bb59 af3c
00000100: a214 21bd 8c95 b5bc 5d93 863c e936 73bc
00000110: 2ab1 81bc 7c1e bebc 52c5 c23b 313e 00bd
00000120: 5ef4 d13c 071d 853c 772c 803c 2fc1 85bc
00000130: 5e13 02bd 7fb7 a53c 6069 0e3c 0755 e1bc
00000140: ab38 403c d5fc 91b9 86c4 00bd 4d94 d43c
00000150: 5233 013c cb57 923c cd84 a33c ef76 11bd
00000160: 5d26 72bc d8e4 ddbc 25d1 d33b 91a8 9b3c
00000170: ead9 033c 9e79 96bc 2e28 dd3c 11f3 c13c
00000180: 479f b5bc 34b0 79bc d66d ad3c 9b06 b9bc
00000190: b541 913c fea8 16bc fe3d 46bb 87db c5bc
000001a0: 4868 9e3c 7365 c8bc a5a8 603c 346b f9bc
000001b0: 1132 b83c f994 08bd 8919 cc3c 0fdf cfbc
000001c0: 311b 94bc 8b80 b2bb c62b 0fbd a883 9fbb
000001d0: 9e7e 15bb 6e23 f9bc f38e 9cbc 7c8f b93c
000001e0: 59b5 5b3c 0020 5cbc 96e3 0a3c 3feb 8eba
000001f0: a132 dfbc ee0f d6bc 1edf 493c 78bf a3bc
00000200: d2a8 2f3b 999d bd3c c3dd 5a3c 1236 a63c
00000210: b9f3 66bb 490c 0b3c adf5 c6bc bcb8 1abd
00000220: 5c69 04bd 017f 3f3b d6cc 0a3c f5c2 94bc
00000230: bd8e 9b3b 75eb f43b 85e5 de3c 87a3 963c
00000240: 200a 53ba 2818 323c 2aad ac3b 0519 ba3c
00000250: d6e7 d0bc 2fd7 91bc 159c d53a 3ec4 a9bc
00000260: 6e3a 15bb bee8 0dbd d088 9dbb 4260 c7bb
00000270: 070c 15bc 459b 16bd 51c3 2ebb 82e6 7dbc
00000280: 0f2a 88bb ead4 b7ba 3f58 0bbd 6ee3 c9bb
00000290: e676 91bb b021 50bc 74a2 163c 9cfc caba
000002a0: fde4 3bbb ffb6 9f3c c72c 773c 843d 7ebc
000002b0: 9aa8 bfbb aef1 b73c 91bb ae3b 5ab7 e3bc
000002c0: b727 a33c 0337 8f3c 7893 d0ba cd79 e0bc
000002d0: 7008 f0bb f294 85bc 571f 1fbd d9b5 4c3c
000002e0: 0f18 9d3c 51d2 923c 9707 21bc 2d1e ce3c
000002f0: a64c 8dbc 964a 46bb 16f9 103c bd9a 05bd
00000300: 35b4 b03c 3cc0 e7bc 4772 c2bc 7e7e 6a3c
00000310: 3209 08bd 98ce d7bc 7c15 b23c f93d 323c
00000320: bcc6 c13c 9c72 23bb 1f1b dd3b 52de 5ebc
00000330: e29a e2bb 6896 003c c80c 04bd 1363 d63c
00000340: 1151 6b3c 10b1 bcbb 472e d7bc a52a 993c
00000350: 6036 523c 3947 dbbc 107e 2dbc 00d9 993a
00000360: 9242 70bc dd42 9c3c 008a b2bc e71d 1abd
00000370: df70 8cbc 08db b93b d3e3 69bc d3c2 14bd
00000380: 3100 19bc 7793 b13c dfb5 a2bc 1228 9e3a
00000390: 4af1 d5bc 6a2e dc3c dfb4 0ebb c2ff 9c3b
000003a0: d56f 983a 2732 c93c 3749 ddbc b4a7 1fbd
000003b0: 88b6 0bbc b0ae 8dbc 6386 05bd 5998 afbc
000003c0: 597e e63b ed5c a7bc 9f8f 863c ced7 96bb
000003d0: b3cb 47bc 1004 95bc 5fab 02bd 87b2 15bd
000003e0: b63e 753c 1e22 10bd 0f6e 3139 45a0 2439
000003f0: 10dc f6bc b087 5bbc 51dd 963b c318 e03b

conv1.bias f4 [64]
0.0012384348 0.0005477916 0.018565023 -0.03533185 -0.00518497 -0.000103317 -0.03545554 -0.047390014
0.0043829824 -0.005749032 0.021226682 -0.030370109 -0.036645308 -0.23309973 -0.037149977 -0.022270711
-0.110616565 -0.0491137 -0.032530725 -0.0093092155 0.025601814 -0.021451749 -0.01723325 -0.004309309
0.047708455 0.0022872367 -0.026528217 0.020863876 -0.033511344 0.009423427 -0.013602335 -0.03245831
-0.04819634 -0.013437374 0.018867178 -0.05043816 0.019122167 0.017204588 0.007743377 -0.005804902
-0.037557893 -0.19767837 -0.019156922 -0.0015401545 -0.03427864 -0.022784945 -0.008020659 -0.019631792
0.02312079 -0.0062141307 -0.011545028 -0.0483491 -0.06427803 0.0029363153 -0.0323051 -0.023470351
-0.040887162 -0.020973645 -0.0344715 -0.0022628887 -0.15565817 -0.028257208 -0.17311838 -0.020410458
00000000: fa52 a23a ac99 0f3a ad15 983c 21b8 10bd
00000010: aee6 a9bb e4ab d8b8 d439 11bd 081c 42bd
00000020: 1f9f 8f3b 6062 bcbb 94e3 ad3c bcca f8bc
00000030: 6419 16bd b2b1 6ebe 932a 18bd 1171 b6bc
00000040: f08a e2bd 722b 49bd f03e 05bd ae85 18bc
00000050: e5ba d13c 94bb afbc bf2c 8dbc 1b35 8dbb
00000060: f169 433d 77e5 153b b451 d9bc b8ea aa3c
00000070: 3143 09bd b864 1a3c 54dc 5ebc 01f3 04bd
00000080: 8769 45bd 6e28 5cbc 578f 9a3c 3e98 4ebd
00000090: 17a6 9c3c a3f0 8c3c 27bc fd3b 0c37 bebb
000000a0: 4ed6 19bd 336c 4abe faee 9cbc 02df c9ba
000000b0: c267 0cbd 7ea7 babc 1569 03bc dad2 a0bc
000000c0: d067 bd3c e89f cbbb 5b27 3dbc b509 46bd
000000d0: 33a4 83bd 326f 403b 5a52 04bd e544 c0bc
000000e0: 4c79 27bd ecd0 abbc fd31 0dbd f94c 14bb
000000f0: db64 1fbe a97b e7bc f245 31be d533 a7bc

conv2.weight f4 [128, 64, 3]
-0.060566973 0.03406381 -0.064745404 -0.016030032 0.020592315 0.005889132 0.028729262 -0.043200117
-0.071359895 -0.048050143 0.064956576 -0.012215151 0.026407745 0.06131797 0.05133043 -0.041219145
0.06615339 0.027206112 -0.04653178 -0.03639673 0.017299654 0.01762804 -0.036952112 0.010115948
0.04311476 -0.05534086 -0.054269098 0.058603078 -0.016846592 0.025154762 0.038662527 0.041076414
-0.048044883 0.036503583 0.025100576 0.023167212 -0.021515537 0.023540732 0.066158235 -0.09434903
0.027254798 0.02152428 0.028755786 0.062216684 -0.072869256 -0.028795382 -0.055944826 -0.039944086
0.027229996 0.016066195 0.014465257 -0.007624402 -0.03676325 0.020805521 0.05865334 0.05437156
0.0647426 -0.04016496 -0.058729213 -0.034346752 0.07590181 0.0485829 -0.008287805 -0.07668847
0.010640318 -0.025533503 -0.036918934 -0.027557328 0.061697334 0.057541184 0.0085508805 -0.017677225
-0.06473519 0.030228777 -0.05490968 -0.05773556 -0.055179235 0.05324646 0.04945774 -0.049503893
-0.027057638 -0.0044332477 0.01116486 0.016921183 -0.0048624487 -0.028437318 -0.01811395 0.04284769
-0.04706308 0.0005639967 0.034742936 0.05285676 0.037527636 -0.004802075 -0.055782452 -0.013356338
-0.010814385 0.063167565 -0.009560572 0.038561143 0.009278333 0.056984093 0.0566064 0.056460727
-0.06359421 0.04825493 0.02363531 -0.032089174 0.026712703 0.065549366 -0.0040993686 0.024945596
0.030778773 0.052743018 0.022489402 -0.06784171 0.03658587 -0.0571214 0.0017411634 0.048323177
0.041416056 0.024357945 0.018989965 -0.030916395 -0.056609344 -0.08381359 0.043543775 -0.009801999
-0.052850667 0.045072768 0.05296029 0.014061239 -0.06147885 -0.01536872 0.06583068 0.06971317
0.02389629 -0.04332528 -0.041949984 -0.061921928 -0.016861971 -0.05433315 -0.007938468 0.036046863
-0.025903488 0.033828948 -0.07082553 -0.031846106 0.041423615 -0.014202535 -0.06694414 0.053227123
-0.009633182 -0.06426694 -0.046269584 0.040478416 -0.046215545 0.03847491 -0.071975954 0.037269756
-0.006222407 0.06046032 -0.028774014 0.0042810882 -0.03052126 -0.02159069 -0.047698803 0.038653836
-0.01938763 -0.11157657 -0.09508403 0.027616212 -0.06911757 0.050035246 0.01623453 -0.040361173
0.032239687 -0.009845587 0.0103481645 -0.039376788 -0.02829915 -0.043880522 -0.065382354 0.03044843
0.05324158 -0.06930736 -0.04612676 0.008323477 -0.01991345 -0.04531587 -0.036073145 0.030391503
0.013794348 -0.011454381 -0.065259546 0.015033126 -0.06339562 -0.058312062 0.0701313 -0.029190175
0.030167334 0.008765109 -0.041744936 -0.02202145 -0.059433594 0.06547138 -0.018871903 -0.06333503
-0.046842594 0.019867875 -0.018229108 -0.055598117 0.052532423 -0.024888324 -0.031449415 -0.05019375
0.05086921 0.0055934787 0.027521484 -0.0057643726 -0.0054140314 -0.03776983 0.046465278 -0.04992152
0.0382109 0.010455467 -0.054966774 -0.046620443 -0.03215721 -0.06689114 -0.034615517 -0.027254872
-0.065081924 0.019001603 -0.04866973 0.059558943 0.04736264 -0.047714777 0.07129486 -0.047329955
-0.050840884 -0.011591727 -0.027701207 -0.030884668 0.018639402 0.021924809 0.015846074 0.009108766
-0.04315917 -0.106164336 -0.010102443 -0.002584509 -0.005643539 0.030083664 -0.012857821 -0.035805948
00000000: 1315 78bd 7e86 0b3d 3d99 84bd 6a51 83bc
00000010: 37b1 a83c 9ff9 c03b a159 eb3c 9bf2 30bd
00000020: 2325 92bd 3ad0 44bd f407 853d 0f22 48bc
00000030: 0e55 d83c 8d28 7b3d db3f 523d 68d5 28bd
00000040: 6e7b 873d 5adf de3c 1c98 3ebd bd14 15bd
00000050: 01b8 8d3c ae68 903c 195b 17bd 5cbd 253c
00000060: 1a99 303d 19ad 62bd 4649 5ebd c809 703d
00000070: dd01 8abc 5c11 ce3c 995c 1e3d be3f 283d
00000080: b6ca 44bd c884 153d b99f cd3c 2ac9 bd3c
00000090: 5a41 b0bc 7ed8 c03c f87d 873d 103a c1bd
000000a0: 7445 df3c b053 b03c 4191 eb3c ecd6 7e3d
000000b0: 7a3c 95bd 4be4 ebbc 6726 65bd 699c 23bd
000000c0: 7111 df3c 419d 833c afff 6c3c 1fd6 f9bb
000000d0: 1095 16bd 5770 aa3c 7c3e 703d b7b4 5e3d
000000e0: c597 843d 0384 24bd 0b8e 70bd 2eaf 0cbd
000000f0: 6872 9b3d ddfe 463d 93c9 07bc d80e 9dbd
00000100: ba54 2e3c a32b d1bc 4f38 17bd e8bf e1bc
00000110: 58b6 7c3d 4eb0 6b3d fe18 0c3c d4cf 90bc
00000120: e293 84bd 57a2 f73c f9e8 60bd 1f7c 6cbd
00000130: 9f03 62bd f618 5a3d 3394 4a3d 98c4 4abd
00000140: fba7 ddbc c744 91bb d1ec 363c 4b9e 8a3c
00000150: 2d55 9fbb 61f5 e8bc b563 94bc 0f81 2f3d
00000160: 37c5 40bd 2ed9 133a 9c4e 0e3d 5480 583d
00000170: 94b6 193d ba5a 9dbb 247c 64bd 8bd4 5abc
00000180: d12e 31bc ff5d 813d f2a3 1cbc 4af2 1d3d
00000190: 2604 183c 2768 693d 1ddc 673d 5d43 673d
000001a0: ae3d 82bd f6a6 453d d69e c13c f06f 03bd
000001b0: 99d4 da3c bf3e 863d ff53 86bb b55a cc3c
000001c0: c423 fc3c 1009 583d b23b b83c 98f0 8abd
000001d0: 11db 153d 21f8 69bd c037 e43a 86ee 453d
000001e0: e2a3 293d 508a c73c d890 9b3c 6144 fdbc
000001f0: 33df 67bd 76a6 abbd f55a 323d 9098 20bc
00000200: f179 58bd 399e 383d e4ec 583d 1c61 663c
00000210: 3fd1 7bbd 15cd 7bbc 3cd2 863d c7c5 8e3d
00000220: 27c2 c33c d975 31bd bfd3 2bbd d9a1 7dbd
00000230: 1e22 8abc 708c 5ebd 5910 02bc e0a5 133d
00000240: 8d33 d4bc 3990 0a3d fa0c 91bd 1071 02bd
00000250: cfab 293d c0b1 68bc 021a 89bd af04 5a3d
00000260: 7ed4 1dbc 639e 83bd 2d85 3dbd b2cc 253d
00000270: 834c 3dbd de97 1d3d 2168 93bd 2ca8 183d
00000280: 55e5 cbbb 3ea5 773d 7bb7 ebbc 5f48 8c3b
00000290: b907 fabc f5de b0bc d25f 43bd 7c53 1e3d
000002a0: cfd2 9ebc 4282 e4bd 6abb c2bd 653b e23c
000002b0: 838d 8dbd c2f1 4c3d 47fe 843c c251 25bd
000002c0: c30d 043d 634f 21bc 598b 293c 8e49 21bd
000002d0: 9ed3 e7bc 10bc 33bd 2fe7 85bd fc6e f93c
000002e0: d813 5a3d 04f1 8dbd 6aef 3cbd 315f 083c
000002f0: 8821 a3bc 229d 39bd 6fc1 13bd 9af7 f83c
00000300: b001 623c 28ab 3bbc cca6 85bd 804d 763c
00000310: 90d5 81bd a1d8 6ebd 00a1 8f3d 3c20 efbc
00000320: 7c21 f73c 889b 0f3c bdfc 2abd 5466 b4bc
00000330: a470 73bd dc15 863d 4099 9abc ccb5 81bd
00000340: 05de 3fbd f4c1 a23c 3655 95bc daba 63bd
00000350: 3d2c 573d 99e2 cbbc 1ad1 00bd f697 4dbd
00000360: 3c5c 503d 8049 b73b bc74 e13c 10e3 bcbb
00000370: 3068 b1bb 8ab4 1abd 6052 3e3d 827a 4cbd
00000380: 0883 1c3d 684d 2b3c d724 61bd 14f5 3ebd
00000390: 47b7 03bd 39fe 88bd 00c9 0dbd 9c45 dfbc
000003a0: ac49 85bd 40a9 9b3c e959 47bd 14f4 733d
000003b0: 54ff 413d 9270 43bd 0a03 923d 0edd 41bd
000003c0: 883e 50bd 3aeb 3dbc a4ed e2bc d801 fdbc
000003d0: a9b1 983c a89b b33c a0cf 813c ef3c 153c
000003e0: abc7 30bd b06c d9bd b884 25bc de60 29bb
000003f0: 70ed b8bb 0472 f63c 9ca9 52bc 42a9 12bd

conv2.bias f4 [128]
-0.06729878 -0.06257127 -0.029958459 0.019279687 -0.0017599745 -0.1696855 -0.1715447 -0.08463702
-0.045634445 -0.1785811 -0.250732 -0.14122136 0.17387116 -0.18565972 -0.16654669 0.09250669
-0.006042123 -0.048901677 0.0018417262 -0.081078984 -0.031988636 -0.092575766 -0.028278284 -0.06617578
0.13063042 -0.25871465 -0.07372792 -0.049407378 -0.031173272 0.01623732 -0.18922116 -0.2520303
-0.16689086 -0.08392094 -0.011811316 0.19521296 -0.1678336 0.0001065386 0.113522954 -0.24464723
-0.0033179938 -0.15368451 -0.0075585083 0.23259592 0.22101368 -0.1982721 -0.02782175 -0.07159296
-0.0014515582 -0.0023257618 -0.104363695 -0.037005574 -0.0140723465 -0.08192224 -0.020021427 -0.09400445
-0.17102696 -0.12603422 -0.17569426 -0.09240406 -0.025328053 -0.12909062 -0.21722615 -0.040621493
-0.16151565 -0.15044576 0.026850315 -0.032532338 -0.19587566 -0.017649429 -0.0136413835 -0.17743558
-0.032573815 -0.15648411 -0.048153333 0.00735573 -0.107983455 -0.0897702 -0.20780155 -0.046035115
-0.052972168 -0.11030159 -0.009914532 0.02405047 -0.031428855 0.017730169 -0.17646305 0.0004273941
-0.21110594 -0.10285163 -0.02286001 0.21596757 -0.08414495 -0.025626246 0.043823786 0.030864561
-0.0951023 -0.10376081 0.19424348 -0.11814472 -0.029446086 -0.06466604 -0.03646545 -0.078137115
-0.011947361 -0.013993674 -0.014999785 -0.037878506 -0.17081209 -0.18660153 -0.07620326 -0.076828636
-0.093114845 -0.101995155 -0.1350901 0.099947535 -0.15274382 -0.14076622 -0.0878575 0.04618918
-0.15040518 -0.050774228 -0.13406146 -0.029931748 -0.015520903 -0.08429615 -0.15084678 -0.20043875
00000000: f1d3 89bd 5e25 80bd 716b f5bc 6ff0 9d3c
00000010: f2ae e6ba 09c2 2dbe 6aa9 2fbe 2d56 adbd
00000020: 2feb 3abd f7dd 36be f25f 80be 559c 10be
00000030: 480b 323e 951d 3ebe 378b 2abe 2674 bd3d
00000040: 00fd c5bb 204d 48bd 1466 f13a bd0c a6bd
00000050: 8406 03bd 5d98 bdbd dca7 e7bc 2b87 87bd
00000060: fbc3 053e 3f76 84be aafe 96bd 645f 4abd
00000070: 175f ffbc 2104 853c 31c3 41be 1e0a 81be
00000080: 70e5 2abe bede abbd 4084 41bc e8e5 473e
00000090: 92dc 2bbe 7a6d df38 b97e e83d ce84 7abe
000000a0: b372 59bb 795f 1dbe 5dad f7bb a02d 6e3e
000000b0: 6951 623e d707 4bbe 70ea e3bc 549f 92bd
000000c0: 3642 beba cf6b 18bb a2bc d5bd 2893 17bd
000000d0: b38f 66bc d9c6 a7bd fa03 a4bc 6885 c0bd
000000e0: b121 2fbe 1d0f 01be 32e9 33be 573e bdbd
000000f0: c77c cfbc 5530 04be 8870 5ebe b962 26bd
00000100: 5c64 25be 740e 1abe 31f5 db3c a140 05bd
00000110: a193 48be 8995 90bc 1c80 5fbc acb1 35be
00000120: 1f6c 05bd 5f3d 20be 6e3c 45bd 5608 f13b
00000130: 6e26 ddbd 70d9 b7bd eec9 54be 518f 3cbd
00000140: 58f9 58bd cde5 e1bd 9070 22bc 7e05 c53c
00000150: 8bbb 00bd dc3e 913c bbb2 34be dd13 e039
00000160: 282c 58be e0a3 d2bd ea44 bbbc 9a26 5d3e
00000170: 3054 acbd 22ee d1bc 9280 333d add7 fc3c
00000180: ffc4 c2bd 8c80 d4bd c3e7 463e dcf5 f1bd
00000190: eb38 f1bc a16f 84bd cc5c 15bd 5a06 a0bd
000001a0: ddbe 43bc b945 65bc a9c1 75bc 7e26 1bbd
000001b0: 5de9 2ebe 7914 3fbe 7410 9cbd 5558 9dbd
000001c0: ffb2 bebd d6e2 d0bd 0f55 0abe 4bb1 cc3d
000001d0: e068 1cbe 0525 10be a2ee b3bd de30 3d3d
000001e0: d103 1abe a3f8 4fbd 6847 09be 6d33 f5bc
000001f0: 634b 7ebc 76a3 acbd 9477 1abe d13f 4dbe

lstm.weight_ih_l0 f4 [200, 128]
0.099771485 0.053694207 -0.06354701 0.022432884 -0.09181009 0.14454427 -0.10183787 0.063042894
-0.06240559 0.1138741 0.14332438 0.044576224 0.092177674 -0.067099586 -0.16037361 0.05969707
-0.02007251 0.010969587 0.20243232 -0.09740014 -0.04308133 0.19902655 0.062981695 0.059575256
-0.002601825 0.1533549 0.022002561 -0.037560325 -0.092761636 -0.03608693 -0.066906124 -0.0016926086
0.05238138 0.033867832 0.080070905 -0.16207524 0.016409334 0.052464154 -0.013274494 -0.057572022
0.06325393 0.040896513 0.03946997 -0.03516555 0.031211942 0.00414458 0.05852724 -0.07546693
-0.07277548 -0.014314256 0.14995949 -0.13402127 0.14489007 -0.016450893 0.03814232 0.07433377
0.10446959 -0.09024162 0.15105514 -0.009268122 0.10252935 -0.069239505 0.043921303 0.010727944
-0.16533723 -0.03269914 0.039193843 0.080662735 -0.08224418 -0.23823799 -0.053509165 0.19762008
-0.044404767 -0.008740741 0.05385535 -0.022976054 0.039806806 0.008790119 0.08219583 0.06241732
-0.097821236 0.07097767 -0.1310802 0.042981762 -0.078938015 0.030603088 0.0025928519 0.12290935
0.101526886 0.0024559763 0.15649197 0.21437037 0.062405962 -0.055285886 0.07020695 -0.12646556
-0.19384047 -0.033031307 -0.04373652 0.006050602 -0.11998945 0.044086374 0.054765534 -0.03908142
0.04700379 0.13431197 0.007115201 0.013683796 0.058607273 -0.13231894 0.10761977 0.0843808
0.037931096 0.115622565 -0.06559206 0.020156022 -0.019910378 0.0611938 0.106117345 -0.02168295
-0.07351905 -0.017371422 0.038858756 0.08679707 -0.10593851 -0.10037895 -0.025618546 -0.07373078
-0.026782965 -0.029309727 0.052572682 0.05593906 -0.026132403 0.102365255 -0.09481101 0.07627311
-0.06315935 -0.07105684 0.042903848 -0.16793266 0.027614245 -0.10238166 0.060679007 -0.056645934
-0.0928292 0.10508911 -0.17031379 -0.05289099 0.09786476 -0.12335095 0.118059054 -0.07627301
0.19742973 0.14537705 -0.04148277 -0.12540634 -0.111524016 -0.14825694 -0.014640097 -0.010392189
0.0425232 -0.10118379 0.122340195 -0.022100845 0.038009234 0.18147364 -0.014240198 0.060801897
0.0919918 -0.24101262 -0.15495607 0.13185869 0.16352278 -0.01690104 0.08766416 0.009164679
0.107324645 -0.068420164 -0.07683754 0.09642041 -0.070436634 -0.085409634 0.06910394 0.04966995
-0.039607964 -0.07612365 0.08793039 -0.07720173 0.028479336 -0.13343158 -0.08567283 0.11963316
0.036120232 -0.0876521 -0.03655815 0.014319756 0.07628103 0.027981324 0.10234158 0.0025393679
0.1283356 -0.124453135 0.078916185 -0.24564761 -0.097397424 -0.14758131 -0.18989024 -0.09933589
-0.21727109 -0.22421442 0.1303702 -0.021371223 -0.19534884 -0.013415139 -0.21689513 -0.02523038
0.07951034 -0.077696376 0.13011815 -0.07963147 -0.27533343 -0.0718494 -0.24359961 0.09201782
-0.12356127 -0.054899517 0.08601766 -0.17509416 0.013550719 -0.1543323 -0.06638418 0.16859047
0.0013678469 0.041673798 -0.0772796 0.013351681 -0.057623435 -0.061041478 0.05374837 -0.16290951
0.019169902 -0.11883105 -0.0050036935 0.13136238 0.08054432 -0.23029275 -0.0856707 0.0057803025
-0.13746122 -0.08808334 -0.26254138 0.10684243 0.09661588 -0.22523023 -0.10524454 0.1637008
00000000: fe54 cc3d 75ee 5b3d ef24 82bd 2bc5 b73c
00000010: ee06 bcbd 6a03 143e 6090 d0bd a21c 813d
00000020: 019d 7fbd d336 e93d a0c3 123e 8f95 363d
00000030: a6c7 bc3d 826b 89bd fb38 24be ea84 743d
00000040: 1b6f a4bc c8b9 333c 6b4a 4f3e b979 c7bd
00000050: 0c76 30bd 9ecd 4b3e 8cfc 803d 2f05 743d
00000060: 6183 2abb 1109 1d3e b73e b43c dbd8 19bd
00000070: d0f9 bdbd e4cf 13bd 1406 89bd 85da ddba
00000080: dc8d 563d ffb8 0a3d 37fc a33d 0df7 25be
00000090: de6c 863c a7e4 563d 437d 59bc a4d0 6bbd
000000a0: 478b 813d 1a83 273d 43ab 213d c009 10bd
000000b0: 30b0 ff3c 42cf 873b 42ba 6f3d 688e 9abd
000000c0: 500b 95bd 5786 6abc fb8e 193e df3c 09be
000000d0: 105e 143e 06c4 86bc 1f3b 1c3d 4e3c 983d
000000e0: 27f4 d53d 99d0 b8bd 33ae 1a3e 52d9 17bc
000000f0: e8fa d13d 71cd 8dbd d3e6 333d 42c4 2f3c
00000100: 2a4e 29be 89ef 05bd b989 203d 8132 a53d
00000110: a36f a8bd a9f4 73be 6d2c 5bbd eb5c 4a3e
00000120: c6e1 35bd 5335 0fbc 6d97 5c3d 4738 bcbc
00000130: 760c 233d 6e04 103c 4a56 a83d 4ea9 7f3d
00000140: 8056 c8bd be5c 913d e339 06be a50d 303d
00000150: 41aa a1bd 54b3 fa3c d6ec 293b e6b7 fb3d
00000160: 54ed cf3d 72f4 203b 6e3f 203e e883 5b3e
00000170: 659d 7f3d 7473 62bd a9c8 8f3d 3080 01be
00000180: 1e7e 46be d64b 07bd 1125 33bd 2144 c63b
00000190: 07bd f5bd ea93 343d d351 603d d713 20bd
000001a0: 0c87 403d 1489 093e a226 e93b 0032 603c
000001b0: 2e0e 703d 9e7e 07be c167 dc3d d7cf ac3d
000001c0: a35d 1b3d 86cb ec3d 2155 86bd 3e1e a53c
000001d0: 171b a3bc 5aa6 7a3d 0d54 d93d 71a0 b1bc
000001e0: 2891 96bd 834e 8ebc 5c2a 1f3d aac2 b13d
000001f0: 4af6 d8bd 7b93 cdbd fcdd d1bc 2a00 97bd
00000200: f367 dbbc f41a f0bc 7456 573d 5b20 653d
00000210: 9f13 d6bc e0a4 d13d 462c c2bd 1435 9c3d
00000220: b059 81bd 4086 91bd f2bb 2f3d 8af6 2bbe
00000230: 4537 e23c 7aad d1bd 8d8a 783d 9105 68bd
00000240: 3c1d bebd f638 d73d bd66 2ebe 39a4 58bd
00000250: 526d c83d 6c9f fcbd f2c8 f13d 0635 9cbd
00000260: 052b 4a3e b9dd 143e d6e9 29bd 856a 00be
00000270: b466 e4bd abd0 17be 04dd 6fbc 0044 2abc
00000280: cf2c 2e3d 7239 cfbd 7f8d fa3d d50c b5bc
00000290: 92af 1b3d 3ad4 393e b84f 69bc 690b 793d
000002a0: 3266 bc3d 03cc 76be ceac 1ebe f705 073e
000002b0: 8472 273e 0d74 8abc 4489 b33d 7327 163c
000002c0: 06cd db3d df1f 8cbd 005d 9dbd 1078 c53d
000002d0: 1541 90bd 3feb aebd 5e86 8d3d b872 4b3d
000002e0: f63b 22bd b7e6 9bbd d914 b43d f11b 9ebd
000002f0: 7f4d e93c 4aa2 08be 3d75 afbd 3b02 f53d
00000300: cff2 133d f282 b3bd 00be 15bd 699d 6a3c
00000310: 3b39 9c3d 1739 e53c 7698 d13d 866b 263b
00000320: 686a 033e 49e1 febd cf9e a13d 0c8b 7bbe
00000330: 4d78 c7bd 8e1f 17be 9672 42be 9d70 cbbd
00000340: 507c 5ebe 7798 65be c47f 053e b412 afbc
00000350: 8709 48be 2ccb 5bbc c219 5ebe f1af cebc
00000360: 51d6 a23d 471f 9fbd b13d 053e d315 a3bd
00000370: 81f8 8cbe c725 93bd 2d72 79be d773 bc3d
00000380: b10d fdbd 51de 60bd 072a b03d e24b 33be
00000390: d603 5e3c 4909 1ebe 6ef4 87bd fba2 2c3e
000003a0: 5349 b33a 25b2 2a3d c444 9ebd 02c1 5a3c
000003b0: 8d06 6cbd a106 7abd 4027 5c3d c0d1 26be
000003c0: 330a 9d3c b25d f3bd 06f6 a3bb dc83 063e
000003d0: 6cf4 a43d ddd1 6bbe 1f74 afbd b168 bd3b
000003e0: a2c2 0cbe 0a65 b4bd d36b 86be 34d0 da3d
000003f0: 8cde c53d c1a2 66be 738a d7bd 2fa1 273e

lstm.weight_hh_l0 f4 [200, 50]
0.022041388 -0.20429263 -0.14099851 0.0521567 -0.020626092 -0.07581562 -0.15214066 0.010292964
0.08922236 -0.060492374 0.099928886 -0.18825863 0.0018805414 -0.094593704 0.1552169 -0.13571104
0.029497685 -0.2324493 0.05740885 -0.2740408 0.0051359013 0.17831819 0.014653109 -0.042861585
-0.0035549963 0.1750598 0.22647627 -0.18791014 -0.076860406 0.1068131 -0.03169774 0.098996595
-0.0023224365 -0.017906101 0.051759657 -0.18976262 -0.026982214 -0.0358106 -0.12863818 0.10851887
-0.09080354 0.0034768307 -0.12194772 0.040365867 0.06803909 0.037534464 0.09600911 0.17687759
0.050105188 0.13094142 -0.17989407 -0.022764584 0.063570835 -0.1468542 -0.12330015 -0.051940784
-0.026714569 -0.034824926 -0.055576447 -0.088056885 0.11125042 0.17015733 0.14123845 0.04092184
0.16417018 -0.03441327 0.01647909 -0.03778248 -0.21584834 0.016517932 0.16625117 0.06760221
0.1956445 0.25252718 0.0002858173 0.10203697 -0.072032936 -0.124795154 0.18655165 -0.154085
-0.13611276 -0.012505037 0.06935097 -0.22853339 -0.0010409247 -0.069298126 0.007934176 0.06806823
0.04479737 -0.1232983 -0.12203082 -0.06874983 0.20298225 0.24048561 0.27024484 0.1054583
-0.13325356 0.056440566 0.064524986 -0.08109599 -0.028244773 -0.10204674 0.10540484 -0.052679386
0.050232172 -0.075896665 0.03130032 0.17205705 0.0677597 0.078958906 -0.11546542 0.037372764
0.12224508 -0.022474341 0.0907021 -0.13242768 0.11583262 0.08659873 0.24523367 -0.025353119
-0.025322542 0.024625517 -0.046127774 -0.024692332 0.17190945 0.10253371 0.14451748 0.11872888
0.059437785 0.08312146 0.06402398 0.02589611 -0.05362757 0.033154417 -0.009076514 0.02112896
0.08247321 -0.17611994 0.09623534 0.14683183 0.07902185 -0.09957046 -0.057799205 -0.030898202
-0.22877803 -0.022438938 -0.010014603 -0.13551609 -0.019220931 0.16318655 -0.048777707 0.09107109
-0.025182717 0.020859696 0.013316684 -0.032069627 -0.11116924 0.09690742 0.019433439 -0.08182106
0.08264034 -0.019107027 0.1551544 -0.18254088 0.07146529 0.06680883 -0.040329523 0.053881288
0.06624399 0.10074957 -0.08953616 0.021246472 0.24716192 0.12820327 0.004968021 0.09873458
-0.04980207 -0.082281694 0.094594665 0.021070639 -0.08348085 -0.12510182 0.12831086 0.028430136
-0.15252157 0.12270989 0.034342922 -0.052729268 0.11148774 -0.06878161 0.06598568 0.18733718
0.06752726 0.0516559 0.025868738 -0.06486723 -0.13298295 0.12619098 -0.10978819 0.00049434724
0.17966871 -0.28507996 -0.052974228 -0.030298505 -0.053441707 -0.19373529 -0.0023288722 0.21295711
0.07352909 -0.11315371 0.027306275 0.070028916 0.1542312 0.15147246 -0.14455657 -0.007455116
0.18165609 0.058949318 0.05122529 0.034176815 0.021024613 -0.08278545 -0.074860156 -0.18436074
0.043746524 -0.27991834 -0.07155802 -0.0069782906 0.0066409158 0.11833489 0.1516685 0.11086931
-0.061050367 0.2561094 0.1306137 -0.07627624 -0.02082476 -0.009331386 0.070493236 -0.1562124
-0.03953927 -0.04338999 -0.12928255 0.066475086 0.036284734 -0.18150772 0.071133025 -0.21781372
0.0732912 -0.033330712 0.06903819 -0.034096137 0.08760609 0.00044950575 -0.08019839 0.015320969
00000000: 2490 b43c 1632 51be ea61 10be 44a2 553d
00000010: 0df8 a8bc 3845 9bbd c3ca 1bbe d2a3 283c
00000020: 36ba b63d dac6 77bd 84a7 cc3d dfc6 40be
00000030: 807c f63a 58ba c1bd 2ef1 1e3e d6f7 0abe
00000040: 21a5 f13c 3007 6ebe 8b25 6b3d 134f 8cbe
00000050: 104b a83b 0b99 363e 9813 703c a18f 2fbd
00000060: f1fa 68bb e042 333e 65e9 673e 846b 40be
00000070: fd68 9dbd d4c0 da3d 7dd5 01bd babe ca3d
00000080: 0534 18bb d1af 92bc ef01 543d 2251 42be
00000090: ce09 ddbc 23ae 12bd bab9 03be 243f de3d
000000a0: 35f7 b9bd 8adb 633b babf f9bd ae56 253d
000000b0: 1458 8b3d bdbd 193d 6da0 c43d 661f 353e
000000c0: 193b 4d3d 8215 063e 2736 38be cb7c babc
000000d0: 6d31 823d f360 16be ca84 fcbd dcbf 54bd
000000e0: 83d8 dabc 95a4 0ebd 21a4 63bd 2b57 b4bd
000000f0: 43d7 e33d b93d 2e3e d0a0 103e a99d 273d
00000100: 3a1c 283e eef4 0cbd 28ff 863c cdc1 1abd
00000110: 5907 5dbe 9d50 873c bf3d 2a3e 0773 8a3d
00000120: 0857 483e 3e4b 813e c0d9 9539 c2f8 d03d
00000130: 0186 93bd 9a94 ffbd 6507 3f3e 75c8 1dbe
00000140: 2561 0bbe ede1 4cbc e207 8e3d a804 6abe
00000150: a36f 88ba 2dec 8dbd 59fe 013c 5b67 8b3d
00000160: 727d 373d d283 fcbd 4beb f9bd b6cc 8cbd
00000170: 94da 4f3e dc41 763e 885d 8a3e 85fa d73d
00000180: 9f73 08be 392e 673d ad25 843d a815 a6bd
00000190: 9561 e7bc e2fd d0bd 7ede d73d 57c6 57bd
000001a0: 40c0 4d3d b66f 9bbd c434 003d b92f 303e
000001b0: 99c5 8a3d 35b5 a13d 2279 ecbd 2f14 193d
000001c0: a15b fa3d 1c1c b8bc 06c2 b93d 1f9b 07be
000001d0: a739 ed3d ad5a b13d 891e 7b3e 58b1 cfbc
000001e0: 3871 cfbc 74bb c93c 7af0 3cbd 9347 cabc
000001f0: 0809 303e 32fd d13d 64fc 133e 2128 f33d
00000200: 0975 733d 963b aa3d 011f 833d 1424 d43c
00000210: 95a8 5bbd edcc 073d a9b5 14bc a416 ad3c
00000220: b7e7 a83d c958 34be 0917 c53d 155b 163e
00000230: 35d6 a13d 99eb cbbd dcbe 6cbd 3a1e fdbc
00000240: ca44 6abe ddd1 b7bc 4a14 24bc bbc4 0abe
00000250: 3775 9dbc 601a 273e 22cb 47bd 7b83 ba3d
00000260: fc4b cebc f4e1 aa3c 392e 5a3c 715b 03bd
00000270: b3ac e3bd 6677 c63d e032 9f3c cd91 a7bd
00000280: 573f a93d 5786 9cbc cce0 1e3e ffeb 3abe
00000290: 655c 923d 11d3 883d 9230 25bd a0b2 5c3d
000002a0: eeaa 873d ca55 ce3d bc5e b7bd 150d ae3c
000002b0: 0418 7d3e b847 033e c8ca a23b 5b35 ca3d
000002c0: 41fd 4bbd 4e83 a8bd d9ba c13d 559c ac3c
000002d0: 02f8 aabd b11a 00be ec63 033e 51e6 e83c
000002e0: 9d2e 1cbe 534f fb3d 2aab 0c3d a5fa 57bd
000002f0: af53 e43d 5fdd 8cbd 8023 873d 51d5 3f3e
00000300: bb4b 8a3d 2395 533d adea d33c 1cd9 84bd
00000310: af2c 08be 3538 013e a1d8 e0bd 1597 013a
00000320: 13fb 373e 00f6 91be 81fb 58bd 9234 f8bc
00000330: b1e5 5abd 8b62 46be fe9f 18bb 6e11 5a3e
00000340: 6b96 963d 22bd e7bd 69b1 df3c 526b 8f3d
00000350: c9ee 1d3e 991b 1b3e a306 14be 0c4a f4bb
00000360: 0e04 3a3e d774 713d 9cd1 513d fdfc 0b3d
00000370: cf3b ac3c 6b8b a9bd 4850 99bd 10c9 3cbe
00000380: 8e2f 333d 7551 8fbe 038d 92bd 25aa e4bb
00000390: 0a9c d93b 9059 f23d fd4e 1b3e 730f e33d
000003a0: f30f 7abd c520 833e 99bf 053e b836 9cbd
000003b0: b098 aabc abe2 18bc c25e 903d 25f6 1fbe
000003c0: eef3 21bd b4b9 31bd a562 04be 1724 883d
000003d0: 4d9f 143d 29dd 39be 31ae 913d 8f0a 5fbe
000003e0: b219 963d c985 08bd e563 8d3d 64a8 0bbd
000003f0: d26a b33d a4ab eb39 0e3f a4bd cd04 7b3c

lstm.bias_ih_l0 f4 [200]
-0.19135422 0.27254722 -0.13646127 -0.032189965 -0.07697395 -0.047525436 -0.16006315 0.13476412
0.23623803 0.124695145 -0.054613423 -0.13964565 0.17881462 -0.009714789 0.041687973 0.08996703
0.19997463 -0.0014462024 0.1689587 0.1353653 -0.09444511 -0.085534126 0.19609176 0.11280066
-0.1703389 0.13728964 0.13341925 0.013159152 -0.0316352 0.084177196 0.054561358 -0.0319446
-0.028501488 0.11482729 -0.11544194 -0.07679577 0.033993967 -0.070683725 0.0013421522 0.081674755
0.31554806 -0.06513435 0.050258763 -0.084437266 0.0025798145 -0.10912486 -0.12519033 0.013797698
-0.08476529 0.16234039 -0.13359223 0.13205454 0.0872599 -0.013538438 0.15680401 0.092868716
-0.04142793 -0.25795025 -0.10719126 -0.09437318 -0.062489133 0.05718154 -0.10403322 -0.04599471
-0.039746445 -0.05720998 0.027794965 -0.0529163 0.108671285 0.12287278 -0.17936395 -0.13770184
-0.059687212 0.043435883 -0.1296029 -0.26758102 -0.060080316 -0.34422925 0.08047855 -0.020455321
-0.13651384 0.019710012 0.031440105 -0.006822474 -0.14729196 -0.10995144 -0.14828609 0.24634159
-0.16787986 0.10429744 -0.16174038 0.09910941 -0.06335201 0.11324165 -0.022121169 -0.0850887
-0.10243972 0.09473979 -0.007849875 -0.03270573 -0.059128866 -0.032527026 -0.030405538 -0.027113622
-0.16797014 -0.054445207 -0.012664705 -0.0043676975 0.09937758 -0.08903398 -0.115132846 0.05962478
0.0547371 -0.09363648 0.059058845 -0.09935082 -0.14487265 -0.054863073 -0.08008483 -0.09452146
0.089901164 0.14444 0.1083616 0.07815217 -0.021245545 0.014050502 0.08063676 -0.094995596
0.1560826 -0.123352855 0.0011006014 0.07320594 0.037986457 0.006488806 -0.098888166 0.06422701
-0.12123279 -0.017048435 0.04166726 -0.14399475 0.023184007 0.1112745 0.063981056 0.033262018
0.06777067 0.070952795 -0.09513285 -0.077987544 0.020283572 0.0046320143 0.093299 0.26615804
-0.019319804 0.024412507 -0.11482523 -0.05793709 0.09978676 -0.016279478 0.06620214 0.038532525
0.1229413 0.019556157 0.115855634 0.031813517 -0.08530034 0.18979225 -0.0695488 -0.079657525
0.09852308 0.010295798 -0.18978955 0.076665245 0.16174485 -0.02651182 0.12925948 0.15679145
0.18196191 0.116322 -0.09509739 -0.028199267 0.055685952 0.09338587 0.039795943 0.27022702
-0.011651016 -0.13182777 0.061818667 0.07739484 0.03077974 0.045001734 0.18614529 0.013643193
-0.020433629 -0.039469674 -0.06217098 -0.1274093 -0.00917044 0.055191785 -0.16708149 0.15760559
00000000: 5cf2 43be 4f8b 8b3e 81bc 0bbe a0d9 03bd
00000010: 85a4 9dbd 08aa 42bd 98e7 23be 9bff 093e
00000020: 62e8 713e 2b60 ff3d 53b2 5fbd 45ff 0ebe
00000030: 2e1b 373e c72a 1fbc 02c1 2a3d a240 b83d
00000040: 26c6 4c3e 808e bdba 8203 2d3e 349d 0a3e
00000050: 706c c1bd 842c afbd 47cc 483e 0804 e73d
00000060: 526d 2ebe a895 0c3e 0e9f 083e 7c99 573c
00000070: e993 01bd 1865 ac3d bb7b 5f3d 57d8 02bd
00000080: f47b e9bc 922a eb3d d36c ecbd 1a47 9dbd
00000090: 423d 0b3d a1c2 90bd 28eb af3a 1845 a73d
000000a0: 848f a13e 2865 85bd 22dc 4d3d 72ed acbd
000000b0: 1b12 293b db7c dfbd e531 00be bd0f 623c
000000c0: 6d99 adbd 8f3c 263e 67cc 08be 4e39 073e
000000d0: 52b5 b23d 53d0 5dbc 3b91 203e f431 be3d
000000e0: 55b0 29bd 0e12 84be 1787 dbbd ba46 c1bd
000000f0: 9bf4 7fbd 3137 6a3d 5e0f d5bd f364 3cbd
00000100: 2bcd 22bd 0355 6abd 44b2 e33c c3be 58bd
00000110: 0d8f de3d b9a4 fb3d 2fab 37be b601 0dbe
00000120: 947a 74bd d3e9 313d 9fb6 04be 6100 89be
00000130: c716 76bd d13e b0be f0d1 a43d eb91 a7bc
00000140: 49ca 0bbe e476 a13c 57c7 003d 0f8f dfbb
00000150: b4d3 16be 382e e1bd 4fd8 17be f840 7c3e
00000160: b3e8 2bbe e599 d53d 459f 25be e0f9 ca3d
00000170: b3be 81bd 3deb e73d 7437 b5bc fc42 aebd
00000180: eacb d1bd ef06 c23d c39c 00bc 72f6 05bd
00000190: 1c31 72bd 0f3b 05bd 0915 f9bc 631d debc
000001a0: 5d00 2cbe f001 5fbd 9f7f 4fbc e71e 8fbb
000001b0: 7986 cb3d 7357 b6bd c5ca ebbd 1d39 743d
000001c0: 0234 603d 7cc4 bfbd b0e7 713d 7178 cbbd
000001d0: 7f59 14be 1ab8 60bd 8403 a4bd 7894 c1bd
000001e0: 1a1e b83d 14e8 133e b0ec dd3d 3f0e a03d
000001f0: 230b aebc 1434 663c e324 a53d 0d8d c2bd
00000200: 1ed4 1f3e 6ca0 fcbd 0e42 903a ffec 953d
00000210: b097 1b3d 0da0 d43b e185 cabd 7389 833d
00000220: e648 f8bd 29a9 8bbc 4aab 2a3d 5c73 13be
00000230: 63ec bd3c e3e3 e33d 8008 833d c13d 083d
00000240: 59cb 8a3d b34f 913d 03d5 c2bd efb7 9fbd
00000250: bc29 a63c 27c8 973b 8c13 bf3d de45 883e
00000260: 9144 9ebc bdfc c73c 7d29 ebbd 714f 6dbd
00000270: 005d cc3d 8a5c 85bc fd94 873d 48d4 1d3d
00000280: a6c8 fb3d 3c34 a03c b845 ed3d e44e 023d
00000290: f2b1 aebd e658 423e 9a6f 8ebd 7c23 a3bd
000002a0: 78c6 c93d b5af 283c 3158 42be ab02 9d3d
000002b0: 71a0 253e 512f d9bc 995c 043e f08d 203e
000002c0: 3954 3a3e 3b3a ee3d 6cc2 c2bd 2602 e7bc
000002d0: f416 643d 1741 bf3d 1201 233d 325b 8a3e
000002e0: e7e3 3ebc dcfd 06be 9235 7d3d 3081 9e3d
000002f0: cb25 fc3c bd53 383d df9c 3e3e b387 5f3c
00000300: 6d64 a7bc f4aa 21bd ffa6 7ebd 9577 02be
00000310: 9d3f 16bc c810 623d 6917 2bbe 5c63 213e

lstm.bias_hh_l0 f4 [200]
-0.07097828 0.32689923 -0.17023414 0.017714366 -0.0022826311 0.0022162807 0.027428674 0.06442895
0.108463004 0.039285153 0.12124568 -0.16245586 0.17051817 -0.09443607 0.08777202 0.09835017
0.0033606275 -0.01736387 0.0034050883 0.15684481 -0.14792944 -0.062513866 0.16402061 0.22730735
0.0041662976 0.27601674 0.17767544 0.017767547 0.1735635 0.04279696 0.15316004 0.23328958
0.0351775 0.20695065 0.11174146 -0.14691801 -0.090174794 -0.020727469 -0.079565726 -0.015401622
0.2645202 0.05753011 -0.16987725 -0.019592926 0.027640762 0.09638856 0.08940229 -0.1713232
-0.081291296 0.13114004 0.038182806 -0.09099833 0.14723723 0.08502927 0.025976088 0.00027977367
0.012340886 -0.24993291 -0.14976901 -0.101132676 0.015895016 0.07760186 -0.070998505 0.024455553
-0.104601644 -0.009238076 0.07999798 -0.19970432 -0.044589236 0.08983836 -0.0623017 -0.037765067
-0.190429 -0.15731026 -0.14501652 -0.21912728 -0.25418413 -0.09195002 0.085828364 -0.12309216
-0.1387332 -0.09216439 -0.011092183 -0.106159285 -0.027451977 0.103697 -0.18233088 0.24262822
-0.08325895 0.081674 -0.012452741 -0.10069589 -0.053527743 -0.075712666 0.057877794 -0.08000795
0.010666496 0.11274249 0.13443121 -0.079621136 -0.08141191 -0.10593502 -0.1553732 -0.044256743
-0.06535848 -0.057505105 0.08578683 -0.1076768 0.08807363 -0.105426535 0.013367907 0.033512853
0.05142673 0.110130265 -0.0971694 -0.059938893 -0.11436272 0.08513321 0.0771913 -0.0066750017
0.044427164 -0.10530926 0.096808836 -0.11721504 0.058273427 -0.04301343 0.020294897 -0.059200283
0.08887869 -0.12316339 -0.056049 0.110738784 0.059430353 0.0699243 -0.074732274 -0.12046579
-0.11043778 0.12792896 -0.14231445 0.008858416 -0.0590846 -0.020528596 0.07273276 0.12860608
-0.07073214 0.021266252 -0.07073606 0.11876668 0.07629465 0.15866241 0.03129573 0.107822426
-0.13216715 0.13218804 -0.093533196 0.09946506 -0.097228944 -0.035378978 0.17524333 0.11461123
0.047484785 0.06179533 -0.05193619 0.005929304 0.10334093 0.056053262 0.17133188 -0.07926004
-0.04071087 0.006227224 -0.024026712 -0.09435641 0.04902748 0.08839121 -0.058165934 0.28534618
0.024880113 0.13847981 -0.14781389 -0.07249188 0.22440623 0.14105155 -0.09610054 0.23417437
-0.009986027 -0.0194749 -0.005852206 0.018936405 0.02673623 0.1532871 0.29247275 -0.10857716
0.06629439 0.112680115 0.104096666 0.07846017 0.042937476 -0.05169452 -0.062351685 0.06861768
00000000: 0f5d 91bd 565f a73e dc51 2ebe b81d 913c
00000010: 3298 15bb 053f 113b 19b2 e03c 53f3 833d
00000020: da21 de3d 78e9 203d a84f f83d d45a 26be
00000030: 519c 2e3e b367 c1bd d1c1 b33d d06b c93d
00000040: f93d 5c3b ad3e 8ebc e727 5f3b ed9b 203e
00000050: d17a 17be 4507 80bd 05f5 273e 42c3 683e
00000060: 7085 883b 1152 8d3e 8df0 353e 3f8d 913c
00000070: a1ba 313e dd4b 2f3d fcd5 1c3e 77e3 6e3e
00000080: 4816 103d dfea 533e b5d8 e43d ad71 16be
00000090: 90ad b8bd a7cc a9bc 5bf3 a2bd 1657 7cbc
000000a0: 316f 873e b1a4 6b3d 4df4 2dbe 5881 a0bc
000000b0: e16e e23c 5e67 c53d 8c18 b73d 596f 2fbe
000000c0: 0d7c a6bd 9349 063e 9365 1c3d 555d babd
000000d0: 5bc5 163e d323 ae3d cecb d43c 96ae 9239
000000e0: 6d31 4a3c 6aee 7fbe 0c5d 19be a61e cfbd
000000f0: 4436 823c b9ed 9e3d aa67 91bd 0357 c83c
00000100: 6339 d6bd 4d5b 17bc fbd5 a33d 4a7f 4cbe
00000110: 34a3 36bd 2dfd b73d 1130 7fbd 8baf 1abd
00000120: d2ff 42be f115 21be 367f 14be e762 60be
00000130: 6c24 82be 4b50 bcbd c8c6 af3d be17 fcbd
00000140: 1310 0ebe afc0 bcbd fdbb 35bc 0a6a d9bd
00000150: f8e2 e0bc 185f d43d f2b4 3abe 8873 783e
00000160: ab83 aabd b344 a73d 9506 4cbc a639 cebd
00000170: e83f 5bbd 3e0f 9bbd 4411 6d3d 35db a3bd
00000180: 87c2 2e3c 89e5 e63d 56a8 093e 6810 a3bd
00000190: 4abb a6bd 76f4 d8bd 271a 1fbe 8f46 35bd
000001a0: abda 85bd 798a 6bbd 01b1 af3d a785 dcbd
000001b0: f35f b43d dee9 d7bd 1105 5b3c c644 093d
000001c0: d6a4 523d fa8b e13d c000 c7bd 7c82 75bd
000001d0: 0037 eabd 525a ae3d 7916 9e3d f9b9 dabb
000001e0: 42f9 353d 62ac d7bd b643 c63d 700e f0bd
000001f0: 1eb0 6e3d da2e 30bd 7c41 a63c ff7b 72bd
00000200: 0806 b63d 163d fcbd a393 65bd 04cb e23d
00000210: 3e6d 733d 7934 8f3d 3c0d 99bd c5b6 f6bd
00000220: 342d e2bd cfff 023e e1ba 11be e422 113c
00000230: b202 72bd 962b a8bc eaf4 943d 50b1 033e
00000240: 03dc 90bd 9036 ae3c 11de 90bd f23b f33d
00000250: 5f40 9c3d 6678 223e f42f 003d 01d2 dc3d
00000260: d356 07be 4d5c 073e 558e bfbd 56b4 cb3d
00000270: f81f c7bd 8ce9 10bd fd72 333e 4bb9 ea3d
00000280: 687f 423d 1a1d 7d3d 0bbb 54bd 9b4a c23b
00000290: 69a4 d33d 1b98 653d a071 2f3e 1653 a2bd
000002a0: 71c0 26bd be0d cc3b abd3 c4bc ef3d c1bd
000002b0: 0ad1 483d 7306 b53d 673f 6ebd e518 923e
000002c0: 61d1 cb3c a7cd 0d3e 865c 17be 9f76 94bd
000002d0: bfca 653e d16f 103e 5cd0 c4bd 68cb 6f3e
000002e0: 6f9c 23bc d389 9fbc ddc3 bfbb 8520 9b3c
000002f0: f005 db3c 4bf7 1c3e fdbe 953e b45d debd
00000300: 5ac5 873d d5c4 e63d a230 d53d baaf a03d
00000310: 35df 2f3d a2bd 53bd 7b64 7fbd 6d87 8c3d

lstm.weight_ih_l1 f4 [200, 50]
-0.024438113 -0.099408716 -0.013145744 0.064704545 0.037578367 0.15352683 0.10262169 -0.065406516
0.066077076 -0.0121920705 -0.044465296 0.018760378 0.032544106 -0.17761825 0.05807363 0.18235293
0.05677468 0.04372471 0.098570704 0.111532964 0.13740663 -0.24065517 -0.018321062 -0.16478476
0.037257534 0.07648593 0.027295748 0.24220659 -0.21013965 -0.086250715 -0.094650075 0.13050511
0.02245523 0.117036305 0.07214605 0.19866505 0.04564652 -0.28808904 0.13488089 -0.1656263
0.045733027 -0.14472568 0.097061686 -0.25828993 0.10847887 0.105290845 -0.06805786 -0.0043851873
0.065220036 -0.06746758 0.046345197 -0.31627575 -0.03778637 -0.078090765 0.11658429 -0.13490877
-0.06949439 -0.14453392 0.2069829 -0.06115725 -0.11310464 0.11149455 0.11305738 0.010483114
-0.10302993 -0.11575569 -0.08686351 -0.085788615 -0.06459285 -0.21680486 0.13734293 -0.14075105
0.14002669 -0.13770446 0.08771576 0.088204175 0.07516645 -0.1755277 0.024584929 -0.044497937
-0.18998297 0.1667515 -0.047401346 -0.06387743 -0.00537585 -0.14010085 -0.34279275 -0.14081727
0.083808504 -0.24507691 0.06019811 -0.035212208 0.010953495 -0.07288793 -0.031620253 0.08254855
0.05598628 -0.19391556 0.05506448 -0.03239365 -0.10665084 -0.09861664 0.024343355 0.12942217
-0.06730196 -0.018476702 0.10333163 -0.10164482 -0.13766229 -0.13787238 0.10304005 0.09405239
0.060216017 -0.15002121 0.0343603 -0.20261055 0.02321393 0.017762547 0.009658936 -0.08240621
0.003852348 -0.06334352 0.03724084 -0.033677477 0.16623653 0.30544254 0.055039123 -0.08411088
0.018049646 0.057570577 -0.06691392 -0.12359968 -0.0626249 -0.11391376 0.0957241 0.0010267149
-0.23006178 0.30760026 -0.21216674 0.2383115 0.008912645 -0.07505298 -0.042696457 -0.07745064
0.019582512 -0.016520798 -0.05357075 0.24824518 -0.1151052 -0.26255593 0.033567972 -0.4094027
0.06414159 -0.11743148 0.15498589 0.09864 -0.105287045 0.09602029 -0.053024482 0.019388093
0.067087136 0.098063685 0.02312986 -0.07168251 -0.14083306 -0.0913075 -0.1430809 -0.0035719208
0.039208017 -0.11046512 0.11491874 -0.012394122 -0.07365216 -0.064412825 0.13915905 0.103808455
0.06366531 0.014179162 0.089952074 0.1050381 -0.15585247 0.058830265 -0.030119557 -0.086162776
-0.022526387 0.06992449 -0.24338977 -0.10799314 0.03591758 -0.10564047 0.084313326 -0.036250744
-0.032873314 0.026440619 0.10112319 0.046281762 -0.1059541 0.04153383 0.11663811 -0.058512673
0.023320256 0.106675796 -0.05028153 -0.13329443 -0.024272442 0.09232924 0.005709877 -0.027439164
-0.06535728 -0.04699215 -0.042335194 0.25489306 -0.015995437 0.10615051 -0.15914688 -0.10794573
-0.039782763 0.06476351 0.054236304 0.035643607 0.04551301 -0.09769972 0.18583845 0.06269341
-0.16031529 0.23561262 -0.013750088 -0.24718378 -0.034173656 -0.02195157 -0.14658614 0.18810049
-0.046101436 -0.03217287 -0.006999081 0.08077686 0.05243518 0.07803008 0.03949541 -0.28520843
-0.020915223 0.097413264 0.21004345 0.064316526 -0.09780189 0.028048893 0.08162276 -0.033451907
-0.068368904 -0.10812317 0.054648407 -0.22684924 0.017960047 -0.19062622 0.24290967 0.087587744
00000000: 7032 c8bc cc96 cbbd 3f61 57bc d183 843d
00000010: c6eb 193d 2336 1d3e 522b d23d daf3 85bd
00000020: 6b53 873d 40c1 47bc 3e21 36bd 5daf 993c
00000030: f84c 053d 8fe1 35be 9dde 6d3d baba 3a3e
00000040: 918c 683d ae18 333d 70df c93d 656b e43d
00000050: 53b4 0c3e 4f6e 76be 0d16 96bc 56bd 28be
00000060: 5b9b 183d a8a4 9c3d 559b df3c 0105 783e
00000070: d92e 57be 37a4 b0bd e6d7 c1bd 22a3 053e
00000080: 08f4 b73c bbb0 ef3d 4fc1 933d da6e 4b3e
00000090: d8f7 3a3d 6880 93be 371e 0a3e f199 29be
000000a0: 8e52 3b3d f832 14be 47c8 c63d 943e 84be
000000b0: 2b2a de3d baa2 d73d eb61 8bbd 9eb1 8fbb
000000c0: 1592 853d 712c 8abd 76d4 3d3d e5ee a1be
000000d0: e1c5 1abd 0dee 9fbd bfc3 ee3d 8625 0abe
000000e0: 1353 8ebd b300 14be 53f3 533e 0680 7abd
000000f0: 68a3 e7bd 4157 e43d a18a e73d 5ec1 2b3c
00000100: 5b01 d3bd 5211 edbd 7fe5 b1bd f1b1 afbd
00000110: 4249 84bd 1802 5ebe a0a3 0c3e 0b21 10be
00000120: 2863 0f3e 6602 0dbe 52a4 b33d 64a4 b43d
00000130: def0 993d 89bd 33be 5566 c93c 7843 36bd
00000140: e58a 42be e8c0 2a3e ea27 42bd 2cd2 82bd
00000150: e627 b0bb 9976 0fbe 8882 afbe 6732 10be
00000160: cba3 ab3d 71f5 7abe 4b92 763d ad3a 10bd
00000170: 4a76 333c 4446 95bd 3d84 01bd 370f a93d
00000180: df51 653d cd91 46be 4b8b 613d 34af 04bd
00000190: c16b dabd 85f7 c9bd b76b c73c 3f87 043e
000001a0: 9cd5 89bd 745c 97bc 899f d33d 292b d0bd
000001b0: 58f7 0cbe 6b2e 0dbe a906 d33d 8a9e c03d
000001c0: 12a5 763d 299f 19be 63bd 0c3d 2479 4fbe
000001d0: 242b be3c c382 913c 8440 1e3c 96c4 a8bd
000001e0: ad77 7c3b 3fba 81bd da89 183d 65f1 09bd
000001f0: e939 2a3e f762 9c3e b470 613d 5342 acbd
00000200: dadc 933c 20cf 6b3d 2a0a 89bd d421 fdbd
00000210: 7c41 80bd 9e4b e9bd ff0a c43d d692 863a
00000220: 5195 6bbe c87d 9d3e 3d42 59be ee07 743e
00000230: 5806 123c 60b5 99bd 7be2 2ebd 719e 9ebd
00000240: 816b a03c a056 87bc 016d 5bbd fc33 7e3e
00000250: 46bc ebbd bb6d 86be 927e 093d 3b9d d1be
00000260: aa5c 833d ea7f f0bd 9fb4 1e3e c503 ca3d
00000270: bca0 d7bd 49a6 c43d 3330 59bd c7d3 9e3c
00000280: fb64 893d 9dd5 c83d d57a bd3c 48ce 92bd
00000290: 8b36 10be 6dff babd cd83 12be e316 6abb
000002a0: 9698 203d 893b e2bd 845a eb3d b710 4bbc
000002b0: f2d6 96bd dfea 83bd b67f 0e3e 8799 d43d
000002c0: f562 823d b74f 683c cb38 b83d 371e d73d
000002d0: ca97 1fbe 01f8 703d 4abd f6bc 1c76 b0bd
000002e0: 4289 b8bc 9234 8f3d 2b3b 79be 822b ddbd
000002f0: 501e 133d 085a d8bd 77ac ac3d a97b 14bd
00000300: 2ba6 06bd ff99 d83c ad19 cf3d f291 3d3d
00000310: 77fe d8bd 611f 2a3d f6df ee3d fcaa 6fbd
00000320: 1f0a bf3c d778 da3d 01f4 4dbd 567e 08be
00000330: 00d7 c6bc 1d17 bd3d eb19 bb3b 19c8 e0bc
00000340: 0ada 85bd d77a 40bd ab67 2dbd 5881 823e
00000350: dd08 83bc 7065 d93d 66f7 22be a712 ddbd
00000360: 40f3 22bd bba2 843d e326 5e3d 08ff 113d
00000370: da6b 3a3d ca16 c8bd 6f4c 3e3e 6765 803d
00000380: b129 24be 6f44 713e 0d48 61bc bf1d 7dbe
00000390: adf9 0bbd c7d3 b3bc ad1a 16be 6a9d 403e
000003a0: dcd4 3cbd b3c7 03bd 8c58 e5bb 576e a53d
000003b0: 45c6 563d 3cce 9f3d f0c5 213d d706 92be
000003c0: 6756 abbc 9b80 c73d a115 573e 62b8 833d
000003d0: 5b4c c8bd cbc6 e53c d529 a73d de04 09bd
000003e0: ff04 8cbd ae6f ddbd 02d7 5f3d 2b4b 68be
000003f0: f320 933c 8533 43be 50bd 783e 3461 b33d
