pol_models/aqi_last_14_model_state.pt (torch, 650572 bytes, 16 tensors)

conv1.weight f4 [64, 300, 3]
-0.024685113 0.020391686 0.018637195 0.007074974 0.018199358 0.01908911 -0.017498452 -0.032927815
-0.017192293 -0.009041362 -0.005603893 -0.023637827 -0.030466245 -0.013256568 -0.01011084 0.0068367645
-0.03060755 0.0074135824 0.024753166 0.019562954 0.026763842 0.0013529818 -0.028959757 -0.018654443
-0.035196424 0.01784568 -0.0058752424 -0.02006782 0.025372485 -0.023893634 0.005281829 -0.027518684
0.00434394 0.020621343 -0.010396351 0.010727039 -0.0006704172 -0.02083552 -0.036197085 0.01581442
-0.008776893 0.019151006 0.0030494784 -0.022650193 0.02059602 0.023769703 -0.00690496 -0.032736797
-1.5849737e-05 -0.036209587 0.009384005 -0.024354855 -0.026517082 0.019096183 -0.0072966325 -0.037652407
0.005707878 -0.03163116 -0.028042749 0.017386058 0.018507177 0.02325514 0.0045118732 0.012964811
-0.035692204 -0.037645902 -0.02899615 -0.00545163 0.02032265 0.027067507 -0.023558376 -0.014082728
0.024680646 -0.016539564 0.005511175 0.0043536853 -0.0058425916 -0.0024441837 -0.03924399 -0.008911259
-0.00076081866 0.021954501 -0.00784263 0.024118321 -0.03419632 0.025341798 -0.0019680818 -0.008027
-0.031116795 -0.033419773 -0.018447211 -0.03596847 -0.036214273 -0.034253452 -0.008963571 -0.0010028637
-0.019020045 -0.03065519 0.00010671926 0.018842582 0.024885796 0.027017735 -0.026512906 -0.0307816
0.012531995 0.013167383 0.014470119 0.021658206 0.010122512 0.023635643 0.024098797 -0.0153617
-0.027890481 0.009980608 -0.0070593907 0.017464854 0.008588863 -0.0097018005 -0.03508024 -0.033465583
-0.00029812023 0.015488225 0.014108317 -0.029349877 -0.028220953 -0.034575257 0.016538145 -0.01793412
-0.029740104 -0.0036850462 0.021955892 -0.03650326 -0.027971443 0.0010671995 -0.00036709805 -0.0020189444
0.026841974 -0.023174584 0.011984363 0.015536395 -0.0050194487 0.010693168 -0.011605541 -0.013145199
0.0111190025 0.014549163 0.012337436 -0.038684413 -0.035763778 -0.0267483 -0.029361218 0.008768885
0.00805976 0.014056914 0.010993287 0.008056827 -0.036534984 -0.032322705 0.006695834 0.026968194
0.013189292 -0.018947931 0.00904239 0.020939693 0.017180454 0.024244154 0.021421205 -0.013592143
0.017819136 0.012130168 -0.015210451 -0.024708029 0.026130848 0.021631029 -0.039073676 0.014428878
-0.0050441665 -0.0029347106 0.021662172 0.013583465 -0.02167815 -0.02695336 -0.019581905 -0.01883074
-0.00042113356 -0.035179272 0.004981237 -0.015911283 -0.00011425589 0.013740697 0.026325848 -0.0034859742
-0.001528601 -0.033183698 -0.007371013 -0.01585006 -0.034834784 -0.025551358 -0.020341441 -0.034223326
-0.023479883 -0.024215957 -0.028881343 -0.035027355 -0.0025766087 -0.015612256 -0.031177796 -0.024252776
-0.03015167 0.018618098 -0.02348185 0.013658122 -0.010525952 -0.01701098 -0.022030775 0.012664098
-0.014045421 0.002489529 -0.007212693 0.0066580838 -0.0155569995 -0.029502958 -0.009622136 -0.0012836701
-0.030996867 -0.015157916 -0.02372729 0.01065348 0.0025031993 0.021751825 -0.01723457 0.0038022979
-0.028844908 -0.005657093 -0.016787194 -0.038984794 -0.00468945 -0.013475811 0.007489453 -0.01044627
0.016083438 0.013431886 -0.024807245 -0.02211822 -0.029131046 0.016140908 -0.019612288 -0.023541192
0.015114964 -0.0037053544 0.023275726 -0.038764484 0.0007083934 -0.03415037 -0.009471491 -0.029443339
00000000: 6f38 cabc 770c a73c 08ad 983c 2fd5 e73b
00000010: d216 953c c460 9c3c ea58 8fbc 51df 06bd
00000020: dad6 8cbc 3922 14bc dda0 b7bb 1ea4 c1bc
00000030: 5994 f9bc 1432 59bc f0a7 25bc f006 e03b
00000040: afbc fabc a3ed f23b 27c7 ca3c 7d42 a03c
00000050: d83f db3c 8956 b13a 033d edbc 34d1 98bc
00000060: 202a 10bd 1a31 923c 1b85 c0bb 4565 a4bc
00000070: f5d9 cf3c 95bc c3bc 3113 ad3b dd6e e1bc
00000080: 9c57 8e3b 17ee a83c 7555 2abc 76c0 2f3c
00000090: f0be 2fba 41af aabc 6543 14bd 3e8d 813c
000000a0: f5cc 0fbc 92e2 9c3c c2d9 473b e68c b9bc
000000b0: fcb8 a83c aeb8 c23c 0143 e2bb 0517 06bd
000000c0: 0df5 84b7 8150 14bd 5fbf 193c d583 c7bc
000000d0: 5a3a d9bc 996f 9c3c 9718 efbb 6939 1abd
000000e0: 2709 bb3b ad8f 01bd e8b9 e5bc 356d 8e3c
000000f0: 5d9c 973c 9081 be3c 56d8 933b 5c6a 543c
00000100: fd31 12bd 9732 1abd 5589 edbc 96a3 b2bb
00000110: b07b a63c adbc dd3c 7ffd c0bc 3ebb 66bc
00000120: 112f ca3c fb7d 87bc 1697 b43b 5ca9 8e3b
00000130: 3673 bfbb 992e 20bb 4ebe 20bd 8700 12bc
00000140: ad71 47ba edd9 b33c 607e 00bc c993 c53c
00000150: 7111 0cbd 9a99 cf3c effa 00bb ae83 03bc
00000160: a6e8 febc 2ce3 08bd 9b1e 97bc ad53 13bd
00000170: 6b55 14bd 594d 0cbd f1db 12bc 8672 83ba
00000180: edcf 9bbc 9820 fbbc 77ce df38 c25b 9a3c
00000190: 4cdd cb3c 4c54 dd3c 9831 d9bc b229 fcbc
000001a0: ff52 4d3c 02bc 573c 1414 6d3c 8d6c b13c
000001b0: e4d8 253c 899f c13c d76a c53c a4af 7bbc
000001c0: 947a e4bc b485 233c 7652 e7bb 7412 8f3c
000001d0: 4db8 0c3c 4df4 1ebc 4cb0 0fbd 3513 09bd
000001e0: 054d 9cb9 53c2 7d3c 9226 673c 276f f0bc
000001f0: a12f e7bc c99e 0dbd 017b 873c 93ea 92bc
00000200: 85a1 f3bc d180 71bb d8dc b33c 7184 15bd
00000210: 5e24 e5bc 46e1 8b3a 1177 c0b9 4450 04bb
00000220: b3e3 db3c a0d8 bdbc 105a 443c 5d8c 7e3c
00000230: 307a a4bb 6632 2f3c 2b25 3ebc f65e 57bc
00000240: 7a2c 363c 9d5f 6e3c f522 4a3c 8c73 1ebd
00000250: 0a7d 12bd 401f dbbc f086 f0bc 5fab 0f3c
00000260: 150d 043c f84e 663c 301d 343c c800 043c
00000270: b5a5 15bd d064 04bd ba68 db3b 67ec dc3c
00000280: e617 583c b138 9bbc 8826 143c b889 ab3c
00000290: 06be 8c3c ad9b c63c 867b af3c 94b1 5ebc
000002a0: 70f9 913c 9dbd 463c 4135 79bc 7e68 cabc
000002b0: 5c10 d63c 8e33 b13c b80b 20bd 1a67 6c3c
000002c0: 8949 a5bb 4654 40bb de74 b13c 2e8d 5e3c
000002d0: 6096 b1bc 4bcd dcbc 3b6a a0bc ed42 9abc
000002e0: 97cb dcb9 2418 10bd a539 a33b 6158 82bc
000002f0: aa9c efb8 a920 613c 4ea9 d73c f174 64bb
00000300: 575b c8ba a1eb 07bd 8a88 f1bb fcd7 81bc
00000310: ebae 0ebd 1551 d1bc 18a3 a6bc c22d 0cbd
00000320: e258 c0bc 8b60 c6bc 9198 ecbc d878 0fbd
00000330: 52dc 28bb 8cca 7fbc 9468 ffbc c2ad c6bc
00000340: a300 f7bc fb84 983c 025d c0bc 51c6 5f3c
00000350: 0b75 2cbc 9c5a 8bbc e279 b4bc 147d 4f3c
00000360: c41e 66bc 5e27 233b 7458 ecbb 0e2c da3b
00000370: c9e2 7ebc 30b0 f1bc 2aa6 1dbc d240 a8ba
00000380: 24ed fdbc e858 78bc bc5f c2bc ef8b 2e3c
00000390: b70c 243b e230 b23c 832f 8dbc f92f 793b
000003a0: 284c ecbc 235f b9bb 4c85 89bc 85ae 1fbd
000003b0: f5a9 99bb a6c9 5cbc 166a f53b d526 2bbc
000003c0: 6ac1 833c 6a11 5c3c 9038 cbbc 4531 b5bc
000003d0: 3ba4 eebc f039 843c f3a9 a0bc 75d9 c0bc
000003e0: c1a4 773c 88d5 72bb bcac be3c 82c7 1ebd
000003f0: 7ab3 393a 42e1 0bbd 502e 1bbc 2833 f1bc

conv1.bias f4 [64]
-0.005376231 -0.21294476 -0.031413168 0.049859308 -0.026794624 0.021434534 0.019943144 -0.008554125
-0.19503114 0.004711503 -0.21596475 -0.219889 -0.01880702 0.017523972 -0.077599116 0.01811218
0.016473453 0.02118296 0.018274479 -0.002346745 0.005815312 -0.0002952854 -0.19457793 -0.03855994
-0.0034577884 -0.016206611 -0.037404526 -0.008612631 -0.17205669 -0.026098298 -0.2402671 0.019973114
-0.17866227 -0.012444161 0.013397318 -0.017508844 0.02008834 -0.021982599 -0.034129456 0.008193996
0.0024990418 0.01612906 -0.011889637 -0.031821195 0.01606932 -0.0057709157 -0.020736866 -0.16777703
-0.023162754 -0.027922828 -0.19682439 0.11137291 0.017857047 0.024868831 -0.25366026 -0.02114659
-0.08431979 0.007870404 -0.025149653 0.003988641 0.017426616 -0.003571062 0.013749488 -0.036148924
00000000: 182b b0bb 310e 5abe 18ab 00bd 4639 4c3d
00000010: 6680 dbbc 7a97 af3c ce5f a33c 9a26 0cbc
00000020: 3eb6 47be f462 9a3b dd25 5dbe 952a 61be
00000030: 2e11 9abc 6f8e 8f3c 49ec 9ebd ff5f 943c
00000040: 56f3 863c e387 ad3c 5cb4 953c d9cb 19bb
00000050: 5f8e be3b 89d0 9ab9 703f 47be 07f1 1dbd
00000060: 109c 62bb bac3 84bc 7d35 19bd fe1b 0dbc
00000070: a12f 30be 19cc d5bc 9408 76be a89e a33c
00000080: 3ef3 36be 98e2 4bbc 6d80 5b3c b56e 8fbc
00000090: 4d90 a43c da14 b4bc 54cb 0bbd 1c40 063c
000000a0: f7c6 233b 1721 843c c1cc 42bc f156 02bd
000000b0: cea3 833c f319 bdbb 5ce0 a9bc becd 2bbe
000000c0: d1bf bdbc 6abe e4bc 558c 49be 7b17 e43d
000000d0: f148 923c b8b9 cb3c c2df 81be 9d3b adbc
000000e0: dbaf acbd def2 003c a506 cebc 25b3 823b
000000f0: 43c2 8e3c 7b08 6abb 8845 613c e510 14bd

conv2.weight f4 [128, 64, 3]
0.028415438 -0.059501674 0.008338691 0.014614392 0.06522612 0.04789297 -0.04277977 0.021246137
0.014577193 0.06419819 -0.23516788 -0.0003553463 0.0034200803 0.022962699 -0.055807795 -0.01584656
-0.03585938 -0.052352518 -0.062356476 -0.016951658 -0.04140404 0.06191041 0.04825024 -0.05101023
-0.0018915868 -0.08241384 -0.0408365 0.028013721 0.016251741 -0.021519275 -0.155164 0.0747581
0.0878359 -0.08369745 -0.051150188 -0.09071245 -0.072321974 -0.008520229 -0.055188846 0.046864808
0.035918456 0.0017446866 -0.024126587 0.118827745 0.038806234 -0.048791878 -0.039726943 -0.04448118
-0.028033031 0.04982418 -0.027168151 0.0337777 -0.020283772 0.0030948943 0.009643969 -0.052412324
-0.07077431 0.0023052776 0.04299123 -0.008417691 0.05345166 -0.06733404 -0.01219437 -0.06367512
0.029366134 -0.0682387 0.01750196 -0.013787757 -0.0639654 -0.04986482 -0.05438697 -0.039323743
-0.046994448 0.019771576 0.017222852 0.04289115 0.05565887 -0.042199798 0.03786998 0.028897166
-0.028212773 0.009704927 -0.07072005 -0.03740475 -0.0025606742 -0.011222032 -0.16664866 0.037998185
-0.00731413 0.071952194 0.039808407 -0.28202718 -0.39146376 -0.041121278 0.002436677 0.07566346
-0.00086687313 -0.02948828 -0.06798053 0.034549166 -0.014960771 -0.030876167 0.027497947 -0.005040447
0.065830864 -0.033936657 -0.0683996 0.060304917 0.061076216 0.059431106 -0.05206096 0.026510954
-0.009109486 -0.005330159 -0.03925967 0.04176104 -0.065628394 0.0064616054 -0.034381885 -0.004220642
-0.05456027 -0.033591706 -0.014902972 -0.027433446 0.014432662 0.05571816 0.03654831 -0.075216815
0.019768884 -0.05745847 -0.00039470443 0.05813426 -0.027829554 0.0061877137 -0.028435776 -0.01648091
-0.020378271 0.0031148174 -0.049347855 0.012973594 -0.051089972 0.011050107 0.110771 0.015439392
-0.019070847 0.058149066 0.033693068 -0.049699325 -0.0011023362 0.017500333 -0.00784207 -0.025757778
-0.09642413 0.0017163737 0.168354 0.08751091 0.045685127 0.07399679 0.06498397 -0.07685797
-0.038753767 0.01666412 0.05450628 -0.08462741 -0.07947191 -0.016925083 -0.06076641 0.003173696
0.09693383 0.08553348 0.031471666 -0.008541719 0.053157717 0.03193994 0.008748002 -0.013922808
0.0050024395 0.019689383 0.05390598 -0.013556487 0.008574751 -0.008165426 -0.045264147 0.013491523
0.08558756 0.044462312 -0.023070997 -0.042459346 -0.008078509 0.004761142 0.060032085 -0.037816312
0.008154931 0.011342781 -0.050712615 0.024434341 0.025473638 -0.055811733 0.039883267 0.07524047
-0.027052376 -0.020460386 0.07677543 0.05973514 -0.03191122 -0.008531503 -0.017733373 0.038252313
0.03910419 0.042605314 -0.0007847148 -0.05703033 -0.05019735 0.066937715 -0.017163005 -0.03473142
-0.050802547 -0.04314582 0.060514603 0.006443665 0.073458426 0.08134347 0.011733046 -0.037067268
0.032279193 -0.011908823 -0.04632037 0.050227776 -0.006248828 0.014799998 0.007459308 0.01256259
0.009377658 0.048182286 -0.028850745 0.06552261 0.009158115 -0.0017422104 -0.018545913 0.028734226
-0.01651135 -0.023132762 0.046662107 0.02321414 0.023533905 0.05665898 0.07659954 -0.014503211
0.07656475 0.052828997 -0.0498352 -0.04629688 0.063465066 -0.04179753 0.07441701 -0.03848975
00000000: 7ec7 e83c 07b8 73bd 019f 083c 3471 6f3c
00000010: 4695 853d 6b2b 443d d739 2fbd 610c ae3c
00000020: 2ed5 6e3c 577a 833d d9cf 70be c64d bab9
00000030: 6d23 603b 451c bc3c b796 64bd a5d0 81bc
00000040: 49e1 12bd 986f 56bd 8169 7fbd 34de 8abc
00000050: 4897 29bd c595 7d3d 0ba2 453d 1af0 50bd
00000060: 1fef f7ba 96c8 a8bd 2c44 27bd 087d e53c
00000070: 5f22 853c 3149 b0bc 50e3 1ebe c61a 993d
00000080: 4fe3 b33d 9269 abbd dc82 51bd 73c7 b9bd
00000090: 8b1d 94bd 6e98 0bbc b30d 62bd 50f5 3f3d
000000a0: 3b1f 133d f8ad e43a 1fa5 c5bc f65b f33d
000000b0: 49f3 1e3d fed9 47bd b8b8 22bd e631 36bd
000000c0: 87a5 e5bc 7014 4c3d be8f debc 7c5a 0a3d
000000d0: 272a a6bc b6d3 4a3b bd01 1e3c 4eae 56bd
000000e0: 1ff2 90bd 2414 173b 9217 303d 5bea 09bc
000000f0: 21f0 5a3d 6ee6 89bd e5ca 47bc 1a68 82bd
00000100: 3f91 f03c bbc0 8bbd 4560 8f3c 0be6 61bc
00000110: 4b00 83bd 0e3f 4cbd dfc4 5ebd ef11 21bd
00000120: 407d 40bd 00f8 a13c f016 8d3c a1ae 2f3d
00000130: 8efa 633d b2d9 2cbd 8d1d 1b3d c0b9 ec3c
00000140: 791e e7bc 6a01 1f3c acd5 90bd b935 19bd
00000150: fcd0 27bb 9ddc 37bc f2a5 2abe fca3 1b3d
00000160: 5fab efbb ac5b 933d 240e 233d de65 90be
00000170: f06d c8be c96e 28bd a8b0 1f3b 72f5 9a3d
00000180: df3e 63ba 6891 f1bc 6039 8bbd 6d83 0d3d
00000190: 061e 75bc 04f0 fcbc 6043 e13c 562a a5bb
000001a0: 55d2 863d 2a01 0bbd 1715 8cbd 4a02 773d
000001b0: 0e2b 7a3d 086e 733d e03d 55bd 802d d93c
000001c0: f43f 15bc 9da8 aebb bfce 20bd a00d 2b3d
000001d0: 2e68 86bd e0bb d33b 05d4 0cbd 504d 8abb
000001e0: 977a 5fbd 7597 09bd 982b 74bc 1bbc e0bc
000001f0: f976 6c3c ba38 643d aeb3 153d 460b 9abd
00000200: 5bf2 a13c 9359 6bbd 55f0 ceb9 311e 6e3d
00000210: cefa e3bc 4ec2 ca3b 25f2 e8bc f902 87bc
00000220: 55f0 a6bc f721 4c3b fa20 4abd 328f 543c
00000230: b843 51bd 820b 353c e8db e23d 81f5 7c3c
00000240: 773a 9cbc b72d 6e3d be01 0a3d 8591 4bbd
00000250: 447c 90ba dc5c 8f3c 077c 00bc fa01 d3bc
00000260: 047a c5bd f2f7 e03a fe64 2c3e ec38 b33d
00000270: 5420 3b3d a18b 973d 5116 853d b667 9dbd
00000280: 45bc 1ebd 3183 883c fa41 5f3d 2351 adbd
00000290: 2bc2 a2bd 79a6 8abc 33e6 78bd c9fd 4f3b
000002a0: 3e85 c63d 2d2c af3d 6fe8 003d 91f2 0bbc
000002b0: e8bb 593d 74d3 023d c853 0f3c 7d1c 64bc
000002c0: 81eb a33b a14b a13c 84cc 5c3d 071c 5ebc
000002d0: 1d7d 0c3c 47c8 05bc e666 39bd 8d0b 5d3c
000002e0: 8848 af3d 1d1e 363d 63ff bcbc dae9 2dbd
000002f0: b95b 04bc 5b03 9c3b 34e4 753d 47e5 1abd
00000300: 429c 053c 12d7 393c 08b8 4fbd 872a c83c
00000310: 17ae d03c d89a 64bd a35c 233d ad17 9a3d
00000320: f29c ddbc 8a9c a7bc 703c 9d3d d6ac 743d
00000330: 57b5 02bd b8c7 0bbc 9445 91bc 75ae 1c3d
00000340: b72b 203d e982 2e3d 52b5 4dba a398 69bd
00000350: bd9b 4dbd a416 893d 6e99 8cbc 8942 0ebd
00000360: 5516 50bd acb9 30bd 29de 773d 6125 d33b
00000370: 5f71 963d 6897 a63d f63b 403c d9d3 17bd
00000380: 3037 043d 391d 43bc 6eba 3dbd a4bb 4d3d
00000390: f8c2 ccbb b17b 723c 366d f43b 52d3 4d3c
000003a0: c0a4 193c ca5a 453d 6658 ecbc b830 863d
000003b0: eb0b 163c e15a e4ba 99ed 97bc 0a64 eb3c
000003c0: d042 87bc eb80 bdbc c420 3f3d 952b be3c
000003d0: 2dca c03c 3f13 683d 38e0 9c3d e09e 6dbc
000003e0: fbcd 9c3d 3863 583d ff1f 4cbd cca1 3dbd
000003f0: f9f9 813d e333 2bbd f267 983d 6ea7 1dbd

conv2.bias f4 [128]
0.089578606 -0.1522691 -0.067475356 -0.05553964 -0.058624133 -0.20328891 0.09887567 -0.16188782
-0.14477457 -0.035674553 -0.121559165 -0.05846332 -0.1368324 -0.09596898 -0.21433042 -0.09210772
0.10323538 -0.06742064 -0.07253326 -0.00090129575 -0.095476925 -0.088052414 -0.066971906 -0.016394144
-0.0047193756 -0.13248757 -0.060155828 0.083712205 -0.010753111 -0.06802918 -0.055535857 -0.091001906
-0.15593722 -0.0799534 -0.16376024 0.13048777 -0.041510634 -0.07928951 -0.13370992 -0.014650173
-0.16969395 -0.101372845 0.12823418 -0.04780234 -0.100150764 -0.10745176 -0.1449756 -0.082723245
0.14999087 0.24160467 -0.055912234 -0.07703098 -0.2416426 0.1822563 -0.14990115 -0.13220446
-0.15072054 -0.06717195 -0.070245594 -0.03206527 0.15223667 -0.11541625 -0.08744878 0.010919877
-0.0073940316 -0.074844226 -0.052896056 -0.0045386036 0.002017675 -0.018952856 -0.20163909 -0.0429671
0.23960501 -0.17762232 -0.037313104 -0.07437629 -0.12139358 0.032659274 -0.059954934 0.08060409
-0.048813194 -0.08426551 -0.003977944 -0.12325014 -0.113799304 -0.06394826 -0.042104796 -0.07384653
0.2249825 -0.09423749 -0.060419556 -0.0033302444 -0.11593835 -0.06371975 0.0017411174 -0.011056989
-0.07613225 -0.059069283 -0.15677613 -0.108175516 -0.21848626 0.023512749 -0.029055877 -0.004779193
-0.06981296 0.08467191 -0.047027078 -0.0490678 -0.17077526 -0.25608435 0.29635796 0.25618187
-0.04269252 -0.0298116 -0.13463771 -0.09675713 -0.0155168325 -0.25339043 -0.069563515 -0.1664236
0.06557889 0.122667834 0.2393188 -0.13727377 -0.06831948 -0.060351793 0.25310892 -0.037889916
00000000: fd74 b73d 6eec 1bbe 8530 8abd 897d 63bd
00000010: dc1f 70bd f82a 50be 547f ca3d ecc5 25be
00000020: c93f 14be 7b1f 12bd 03f4 f8bd 3c77 6fbd
00000030: cb1d 0cbe 628b c4bd 6f79 5bbe f9a2 bcbd
00000040: 126d d33d d513 8abd 518c 94bd ef44 6cba
00000050: 6889 c3bd d354 b4bd 9128 89bd 034d 86bc
00000060: fea4 9abb d2aa 07be f565 76bd 4e71 ab3d
00000070: d12d 30bc e252 8bbd 9179 63bd 355f babd
00000080: 02ae 1fbe 9cbe a3bd c4b0 27be 969e 053e
00000090: 0e07 2abd 8a62 a2bd 41eb 08be 4707 70bc
000000a0: 40c4 2dbe 919c cfbd d24f 033e 63cc 43bd
000000b0: d81b cdbd ab0f dcbd 7c74 14be ce6a a9bd
000000c0: 3597 193e 3767 773e 3a04 65bd 6bc2 9dbd
000000d0: 2871 77be 65a1 3a3e b07f 19be 9b60 07be
000000e0: 7c56 1abe 7391 89bd ecdc 8fbd df56 03bd
000000f0: eee3 1b3e 5b5f ecbd 5918 b3bd 49e9 323c
00000100: a249 f2bb ee47 99bd 89a9 58bd 91b8 94bb
00000110: f83a 043b 0543 9bbc 7a7a 4ebe 45fe 2fbd
00000120: 045b 753e a0e2 35be a0d5 18bd 9952 98bd
00000130: 339d f8bd bbc5 053d 4e93 75bd c213 a53d
00000140: 58f0 47bd 6593 acbd 6a59 82bb 926a fcbd
00000150: 9c0f e9bd 4ef7 82bd 1476 2cbd d93c 97bd
00000160: d061 663e 96ff c0bd 7f7a 77bd 3b40 5abb
00000170: 1671 edbd 807f 82bd 3536 e43a 6028 35bc
00000180: 3aeb 9bbd a2f2 71bd ec89 20be 208b ddbd
00000190: ddba 5fbe cf9d c03c 9706 eebc c79a 9cbb
000001a0: 19fa 8ebd 7768 ad3d 779f 40bd 51fb 48bd
000001b0: b6df 2ebe 7d1d 83be 3bbc 973e 452a 833e
000001c0: 5ade 2ebd 7537 f4bc 78de 09be 9a28 c6bd
000001d0: 503a 7ebc 64bc 81be 5177 8ebd f36a 2abe
000001e0: 3a4e 863d 4639 fb3d fd0f 753e 7f91 0cbe
000001f0: 15eb 8bbd 7133 77bd 7e97 813e 7532 1bbd

lstm.weight_ih_l0 f4 [200, 128]
-0.012872706 0.14649308 -0.038341988 0.14798878 0.04848549 -0.10330811 -0.05150907 -0.06557737
-0.1472593 -0.06631868 0.11104221 -0.012198418 -0.029019091 -0.13129853 -0.13130246 -0.046769112
-0.08859938 0.05183591 -0.07777401 -0.18575406 0.11018218 -0.07355979 0.052436262 0.030959427
0.13498113 0.027928479 0.0621764 0.15305157 0.071924075 -0.056627925 -0.07763571 -0.09743086
0.121515565 -0.066375256 0.08515571 -0.1175003 0.055648055 -0.032592982 0.23009928 0.10089866
0.081170015 -0.007340741 -0.029131932 -0.05049385 0.079303905 -0.09850097 -0.010652337 -0.14414951
-0.0002318863 0.54309815 -0.10943161 0.07318981 -0.04622596 0.10081794 -0.10475676 -0.13350059
0.08035903 -0.08326778 0.0041663614 -0.028105699 -0.029059911 -0.12506369 -0.09025045 -0.07578915
0.099481925 0.020590605 0.11745822 -0.019827439 -0.050676033 -0.02114116 0.20879836 -0.050032184
-0.03257289 0.026206613 0.14569263 0.14394724 -0.07560358 0.11316939 -0.016107997 -0.27237764
0.13870639 0.044835705 0.015416732 0.13702439 0.05291378 -0.0022942564 0.023665113 0.020198613
-0.012306592 -0.1238615 0.090050966 -0.033667926 -0.096020855 0.051660907 0.062197767 0.101282254
0.11613327 -0.04829924 -0.12349466 -0.050245613 0.17028862 -0.040152945 0.19256571 -0.10904226
0.09983497 -0.061281826 -0.07732863 -0.123314366 -0.044282366 -0.08140351 0.23168375 -0.12601718
0.1254031 -0.0010673156 0.17705238 0.120011635 -0.008950658 0.1513194 0.029053945 -0.046542734
0.14553751 0.09580694 0.50556844 0.048610818 -0.10609001 -0.07219368 0.030468052 0.121242955
0.1078461 -0.018947449 -0.09338318 -0.079774216 -0.043247335 -0.12372741 0.09891664 0.015697684
-0.06623726 -0.05437391 0.12339801 -0.017241323 -0.053729713 -0.10068905 0.011462603 -0.12990224
-0.03739639 0.054349907 -0.094291314 0.07461095 -0.07645329 -0.093544535 0.016748115 0.049085323
0.059561875 0.017976303 -0.11119552 0.13261718 0.076924905 0.04547342 -0.12910803 -0.21449643
-0.03088903 0.1070709 -0.032853305 0.43078485 0.049907234 -0.115664355 0.14352635 -0.13361222
-0.07339132 -0.012466668 -0.026735064 -0.14000398 0.08681214 0.12290692 -0.10069155 -0.059624586
-0.1654922 0.043833368 -0.023205461 0.2509038 -0.012655409 0.07270869 -0.05522102 -0.024433546
-0.033567935 -0.07492534 -0.11183237 0.04481363 -0.010169094 -0.13049518 -0.08613235 0.05576044
0.109588385 0.08214622 0.07945527 -0.05668149 0.07986578 0.010280821 0.19167006 0.06504255
0.07015016 0.08382569 0.04272857 0.08086811 -0.19422922 0.035780866 0.06418951 0.07811529
0.06820793 0.019014372 0.10875839 0.059867725 0.047744397 0.051714547 0.050692342 0.14579727
-0.19584334 -0.218607 -0.07101374 -0.12874448 0.05482594 0.1012183 0.09798602 -0.13520555
0.16330847 0.09498881 -0.16174008 -0.0371417 0.09139142 -0.061438706 -0.06686019 -0.07585265
0.0968633 0.15892683 -0.011378757 -0.12782264 0.039410625 0.03700914 0.03419985 -0.00010449622
0.11616372 -0.04239514 0.06482895 0.1307666 -0.090975374 0.085848704 0.07875811 0.02436075
-0.13617043 0.09626558 -0.21449052 -0.047121238 -0.028409125 0.080037326 -0.19427371 -0.052903116
00000000: 0be8 52bc 4802 163e 7d0c 1dbd 5f8a 173e
00000010: b998 463d 3493 d3bd 2dfb 52bd 6e4d 86bd
00000020: 24cb 16be 17d2 87bd 196a e33d e0db 47bc
00000030: 72b9 edbc 1f73 06be 2774 06be f890 3fbd
00000040: 9773 b5bd e451 543d fb47 9fbd 5036 3ebe
00000050: 32a7 e13d 84a6 96bd 68c7 563d a09e fd3c
00000060: 7e38 0a3e 44ca e43c aeac 7e3d 8db9 1c3e
00000070: ee4c 933d aff2 67bd 79ff 9ebd d589 c7bd
00000080: 27dd f83d c0ef 87bd 1e66 ae3d ffa3 f0bd
00000090: 37ef 633d 3880 05bd 259f 6b3e f5a3 ce3d
000000a0: 773c a63d 998a f0bb 17a6 eebc a4d2 4ebd
000000b0: 166a a23d e0ba c9bd 2487 2ebc ee9b 13be
000000c0: 8126 73b9 7b08 0b3f ae1d e0bd 8ae4 953d
000000d0: 6f57 3dbd a379 ce3d b68a d6bd 61b4 08be
000000e0: 4693 a43d 4c88 aabd f985 883b ec3d e6bc
000000f0: 0d0f eebc b210 00be 3ad5 b8bd 5837 9bbd
00000100: 2ebd cb3d a1ad a83c ef8d f03d 276d a2bc
00000110: ac91 4fbd 3a30 adbc 3dcf 553e 8cee 4cbd
00000120: 276b 05bd 40af d63c 7330 153e e866 133e
00000130: 0dd6 9abd 5ac5 e73d ebf4 83bc 1575 8bbe
00000140: 0c09 0e3e a5a5 373d 7696 7c3c 1f50 0c3e
00000150: 1fbc 583d 3c5b 16bb 57dd c13c 9077 a53c
00000160: 97a1 49bc 19ab fdbd a46c b83d 61e7 09bd
00000170: 95a6 c4bd 639a 533d 16c3 7e3d 126d cf3d
00000180: 48d7 ed3d 6dd5 45bd c5ea fcbd 58ce 4dbd
00000190: 2460 2e3e 6a77 24bd f22f 453e 8c51 dfbd
000001a0: 4776 cc3d a702 7bbd 795e 9ebd 3e8c fcbd
000001b0: 6d61 35bd e2b6 a6bd 813e 6d3e a60a 01be
000001c0: ac69 003e 2be5 8bba 384d 353e a9c8 f53d
000001d0: c8a5 12bc 79f3 1a3e 8a02 ee3c 98a3 3ebd
000001e0: c907 153e 6e36 c43d ef6c 013f 231c 473d
000001f0: b845 d9bd 48da 93bd 2398 f93c 3a4e f83d
00000200: 6bde dc3d ae37 9bbc ae3f bfbd aa60 a3bd
00000210: 1e24 31bd cc64 fdbd cf94 ca3d 6e98 803c
00000220: 67a7 87bd 2db7 5ebd 19b8 fc3d ad3d 8dbc
00000230: b013 5cbd 1036 cebd a4cd 3b3c 1805 05be
00000240: f52c 19bd 029e 5e3d ce1b c1bd a0cd 983d
00000250: 8b93 9cbd 4794 bfbd 5833 893c b10d 493d
00000260: 27f7 733d 0a43 933c 7aba e3bd cccc 073e
00000270: ce8a 9d3d 5642 3a3d e534 04be f4a4 5bbe
00000280: fe0a fdbc fd47 db3d 3091 06bd d58f dc3e
00000290: 876b 4c3d 6fe1 ecbd 92f8 123e a4d1 08be
000002a0: 304e 96bd ff40 4cbc 7e03 dbbc 345d 0fbe
000002b0: 90ca b13d a0b6 fb3d 5f37 cebd e938 74bd
000002c0: ca76 29be 9e8a 333d 6119 bebc 7676 803e
000002d0: a258 4fbc 4be8 943d 702f 62bd dc28 c8bc
000002e0: 887e 09bd 7572 99bd 5f08 e5bd 7f8e 373d
000002f0: 469c 26bc 87a0 05be 2866 b0bd 0f65 643d
00000300: e06f e03d 473c a83d 72b9 a23d da2a 68bd
00000310: ac90 a33d e370 283c 2845 443e 0735 853d
00000320: e3aa 8f3d ceac ab3d 2704 2f3d 2e9e a53d
00000330: 06e4 46be f58e 123d ca75 833d e9fa 9f3d
00000340: 99b0 8b3d 07c4 9b3c b8bc de3d dc37 753d
00000350: a18f 433d a2d2 533d c6a2 4f3d e14b 153e
00000360: 288b 48be 83da 5fbe a76f 91bd 98d5 03be
00000370: 2a91 603d 8a4b cf3d e5ac c83d 5373 0abe
00000380: 563a 273e 7e89 c23d 319f 25be e521 18bd
00000390: 6d2b bb3d 27a7 7bbd ffed 88bd a258 9bbd
000003a0: 4460 c63d b7bd 223e f76d 3abc f0e3 02be
000003b0: 096d 213d e596 173d 2415 0c3d fb24 dbb8
000003c0: 3fe7 ed3d 87a6 2dbd 0ac5 843d aee7 053e
000003d0: 4c51 babd 72d1 af3d ef4b a13d 3290 c73c
000003e0: 4370 0bbe e326 c53d 67a3 5bbe 3302 41bd
000003f0: 41ba e8bc 9cea a33d b0ef 46be f0b0 58bd

lstm.weight_hh_l0 f4 [200, 50]
0.11870007 -0.18573128 0.08110512 -0.03556444 -0.114099324 -0.016737739 0.016082058 0.07672285
-0.012634681 -0.20188081 0.0067464737 -0.043817177 0.14426745 -0.24237144 0.049005467 -0.059418894
0.16336386 -0.15916654 0.2368946 -0.11231493 -0.098226644 0.18645379 0.05228312 -0.09695512
0.026728349 0.07706164 -0.005020312 0.24476819 0.1231529 0.080046296 0.003029197 0.31412944
-0.29233935 0.0072772508 -0.07358724 -0.09038231 -0.37944478 -0.08387016 0.12798296 0.22681342
0.14433756 -0.09215377 -0.19109908 0.24632236 0.18778287 -0.19159128 -0.027211722 0.030703904
-0.013038581 0.19964156 0.052910984 -0.093455724 0.018487751 -0.1281033 0.054687783 -0.17507963
0.00017934132 -0.027768914 0.096708216 -0.016726173 -0.017139133 -0.04897669 0.08275581 0.09012069
-0.07759118 0.16149588 0.14455853 -0.03044365 -0.052979186 -0.053163644 0.04023079 0.13097344
-0.056864366 -0.24752548 -0.07697632 -0.041132502 0.019922048 -0.11323653 -0.011380898 -0.10418974
0.15715723 -0.14569168 -0.08289162 0.07769711 -0.009384919 0.031937767 -0.11213592 0.025999414
-0.114726536 0.04237907 0.108187534 0.056076698 -0.09711053 0.010300339 0.022088828 0.017911004
-0.082176454 -0.037558593 -0.010539729 -0.014523465 0.0034595174 -0.008035933 -0.026103228 0.020782111
0.09877263 0.19303977 0.1777468 0.117511824 0.0059695086 0.16897026 0.016658217 0.15008965
0.14613548 0.2108274 -0.029116461 -0.09505205 -0.11739421 -0.058119044 0.0667423 -0.023068676
-0.048545655 -0.2264536 0.09201612 0.15916242 -0.11487383 0.0054659415 0.15120502 -0.05860954
0.07634735 0.041906063 0.13126984 -0.2974889 0.18894662 0.02924768 -0.05398018 0.102375224
0.2792466 -0.082745895 -0.08439117 -0.15182045 0.22278912 0.06639221 0.024709182 -0.122910224
0.025087101 -0.07388949 0.25444764 0.04850629 -0.015099654 -0.28962615 0.10714961 -0.12748921
-0.24479067 0.114322335 -0.045441322 -0.06543934 -0.09995846 -0.09994965 -0.10956035 0.23552488
0.14679752 0.07979074 -0.08896077 0.06017714 -0.052171543 0.1356038 0.050080065 0.01160043
0.12478858 -0.022130486 -0.08924296 0.037996445 -0.15966147 -0.00877523 -0.057998877 0.022126077
0.062485587 -0.07850536 -0.012278614 0.0618304 0.17397603 -0.010008927 -0.013846551 0.018004151
-0.038862236 0.019905467 0.09246785 0.08798727 0.061413303 -0.1957648 0.22100906 0.067042135
0.02158164 0.04548818 0.014106967 -0.023560794 0.12346032 0.11454585 0.01888194 0.06422577
0.023053052 -0.15445861 -0.07019299 0.096244946 -0.12509048 -0.16600728 -0.071622245 -0.033719882
-0.115888536 0.3075196 0.16426697 0.21361622 0.20776308 0.1289914 0.020609833 -0.012809378
0.23475905 -0.12257139 0.2231072 -0.12540095 -0.092616394 -0.09968624 -0.11496874 -0.111692645
-0.042552147 -0.067129366 0.05035259 -0.002218117 -0.1755505 -0.14294626 -0.053342793 -0.1089095
0.28511682 0.086802706 0.015498447 -0.118870966 0.18536045 -0.09102032 -0.11181373 0.011506309
0.05913668 0.01630408 -0.004322556 -0.081616685 0.07808766 -0.23907924 -0.029320728 -0.02916948
0.0983085 -0.08194074 0.22515826 -0.05053199 0.12956023 -0.1803346 -0.042904127 -0.11761566
00000000: 0619 f33d 5730 3ebe 711a a63d 05ac 11bd
00000010: e8ac e9bd 951d 89bc 85be 833c df20 9d3d
00000020: b101 4fbc d8b9 4ebe 8611 dd3b a479 33bd
00000030: d9ba 133e 3830 78be f5b9 483d 3a61 73bd
00000040: db48 273e 8efc 22be 7f94 723e 5f05 e6bd
00000050: 0d2b c9bd beed 3e3e d326 563d 6890 c6bd
00000060: 69f5 da3c 7ed2 9d3d 6e81 a4bb 83a4 7a3e
00000070: 9637 fc3d 50ef a33d 7e85 463b 93d5 a03e
00000080: 81ad 95be 0176 ee3b e8b4 96bd 5c1a b9bd
00000090: 9646 c2be 1ec4 abbd f70d 033e c741 683e
000000a0: 3acd 133e 1ebb bcbd 7aaf 43be ee3b 7c3e
000000b0: 274a 403e 8130 44be 1eeb debc c186 fb3c
000000c0: c69f 55bc d66e 4c3e 30b9 583d b765 bfbd
000000d0: a073 973c 832d 03be 4c00 603d 1348 33be
000000e0: 920d 3c39 a27b e3bc f50e c63d 5405 89bc
000000f0: 5e67 8cbc c89b 48bd e17b a93d 3291 b83d
00000100: 20e8 9ebd 2d5f 253e 2707 143e f664 f9bc
00000110: b400 59bd 1fc2 59bd 0ac9 243d e71d 063e
00000120: 9cea 68bd 5277 7dbe c3a5 9dbd 8e7a 28bd
00000130: 9033 a33c 8ee8 e7bd f276 3abc 6e61 d5bd
00000140: d3ed 203e 3330 15be 15c3 a9bd aa1f 9f3d
00000150: 34c3 19bc 2dd1 023d 84a7 e5bd b9fc d43c
00000160: bff5 eabd ad95 2d3d 6d91 dd3d aeb0 653d
00000170: e3e1 c6bd c1c2 283c a1f3 b43c 19ba 923c
00000180: 214c a8bd 0ad7 19bd d4ae 2cbc d4f3 6dbc
00000190: 12b9 623b 25a9 03bc 70d6 d5bc 3f3f aa3c
000001a0: 4e49 ca3d 38ac 453e 4203 363e 0aaa f03d
000001b0: de9b c33b 8a06 2d3e d076 883c 1ab1 193e
000001c0: 8aa4 153e 23e3 573e a585 eebc a6aa c2bd
000001d0: 606c f0bd 3c0e 6ebd 30b0 883d 85fa bcbc
000001e0: cfd7 46bd 74e3 67be f372 bc3d 79fb 223e
000001f0: f842 ebbd a41b b33b 7dd5 1a3e 8f10 70bd
00000200: 005c 9c3d b1a5 2b3d 9a6b 063e 7750 98be
00000210: 397b 413e d598 ef3c 521a 5dbd 1aaa d13d
00000220: 69f9 8e3e ae76 a9bd 47d5 acbd d276 1bbe
00000230: d522 643e a4f8 873d e96a ca3c 5bb8 fbbd
00000240: 7783 cd3c 5f53 97bd f646 823e 88ae 463d
00000250: 8a64 77bc e149 94be 4171 db3d 888c 02be
00000260: 68aa 7abe d421 ea3d ae20 3abd 1005 86bd
00000270: 05b7 ccbd 67b2 ccbd 2d61 e0bd 6f2d 713e
00000280: 1752 163e 5469 a33d 1031 b6bd 4e7c 763d
00000290: d4b1 55bd b9db 0a3e c120 4d3d bb0f 3e3c
000002a0: 2891 ff3d fe4a b5bc 03c5 b6bd 29a2 1b3d
000002b0: 4c7e 23be fbc5 0fbc 3b90 6dbd bf41 b53c
000002c0: e3f0 7f3d 6bc7 a0bd 3d2c 49bc e041 7d3d
000002d0: c626 323e 7cfc 23bc a5dc 62bc 717d 933c
000002e0: 022e 1fbd ca10 a33c c95f bd3d ab32 b43d
000002f0: 848c 7b3d 9176 48be 3350 623e 634d 893d
00000300: fbcb b03c d051 3a3d e820 673c 9102 c1bc
00000310: c4d8 fc3d 0497 ea3d 4cae 9a3c cd88 833d
00000320: c1d9 bc3c 662a 1ebe 58c1 8fbd 121c c53d
00000330: b817 00be d0fd 29be afae 92bd dc1d 0abd
00000340: f856 edbd 3673 9d3e 9a35 283e 36be 5a3e
00000350: d8bf 543e 5216 043e f4d5 a83c 6dde 51bc
00000360: ad64 703e b506 fbbd 3776 643e 1b69 00be
00000370: aaad bdbd 4d28 ccbd bb74 ebbd 1dbf e4bd
00000380: 294b 2ebd 1f7b 89bd 843e 4e3d d45d 11bb
00000390: 83c3 33be 8160 12be f97d 5abd f20b dfbd
000003a0: d5fa 913e 9ec5 b13d 33ed 7d3c 9f72 f3bd
000003b0: 21cf 3d3e dd68 babd 99fe e4bd f584 3c3c
000003c0: 4e39 723d 2290 853c 3aa4 8dbb a626 a7bd
000003d0: 6cec 9f3d 30d1 74be 0632 f0bc d5f4 eebc
000003e0: f855 c93d 8cd0 a7bd e38f 663e a2fa 4ebd
000003f0: 70ab 043e a2a9 38be 3dbc 2fbd 7be0 f0bd

lstm.bias_ih_l0 f4 [200]
-0.15341336 0.09807986 0.13039982 0.13960443 -0.22075348 0.12360295 -0.047746558 -0.16953014
0.11792575 0.1948732 0.023867326 0.047668517 -0.016259223 0.03891173 -0.12413222 -0.10568684
-0.05541582 0.058380492 -0.12863351 0.053191844 0.29123306 0.20180832 0.003959135 -0.19515675
0.16026703 0.06931343 0.22115794 0.20453198 -0.034130607 -0.0020576047 -0.006676338 -0.09228057
0.19803385 -0.071422584 0.0038811567 -0.16731967 0.47171816 -0.10059869 -0.034003206 -0.051257923
0.06435645 0.15163074 -0.021096202 -0.19268125 0.043902356 -0.01675282 0.13612308 0.1251244
0.053441107 0.2938968 0.028339718 -0.07775168 -0.20864908 -0.08535999 -0.079316825 0.10277657
0.14056185 -0.016283182 0.13032931 -0.07983983 0.037300345 -0.036648422 -0.13688874 -0.07761516
-0.14976121 0.028271656 -0.09874315 0.15384313 -0.07946209 -0.110148065 -0.04514996 -0.064039454
-0.03956066 -0.14074011 -0.10793594 0.09944098 0.01867912 0.08973464 -0.153285 0.120597914
0.041072965 0.20555364 -0.042694356 -0.06919156 0.09998504 -0.10368163 -0.10989215 0.06586874
0.05580239 -0.056864925 -0.033220146 0.03189603 -0.3465062 0.16613586 0.12966086 0.0027319405
0.06261096 -0.18407321 -0.21978818 -0.20293862 -0.0849324 0.070105195 0.08321077 0.14914839
-0.0117076775 -0.09152443 0.07286156 -0.10240708 0.0034836975 -0.055370662 -0.12344372 0.1287326
-0.07219608 -0.056240022 0.08104118 -0.13459346 0.045710243 -0.087240934 0.11147665 -0.077453904
-0.037795957 -0.011442906 -0.13551079 -0.061621975 -0.021142416 -0.0254769 0.03280443 0.070065975
-0.062117863 -0.08098415 0.1387098 -0.05725022 -0.026133798 -0.07258876 0.041405067 0.062299903
0.04294291 0.08817518 0.068543494 -0.119084686 0.065138325 -0.06296588 -0.017712839 0.00053045515
0.06777574 0.10350851 0.034422647 0.034059994 0.025117874 -0.0038209464 0.025170358 -0.07792995
0.25223893 0.07252114 0.032642815 0.11088814 -0.030553821 -0.067264 0.07270914 0.21979468
0.07068049 0.03598543 -0.012592157 0.17374402 -0.03403511 0.06546908 0.02866974 -0.036788613
0.01939358 0.19007792 0.3959802 0.09906405 -0.07155458 0.050846633 -0.015218379 -0.13025653
0.19895996 0.20833111 -0.089672 0.008488299 0.09823486 0.09194137 0.011011317 0.025466729
-0.0027222836 0.032545738 0.2176258 0.11656954 -0.043513022 0.09912496 0.30034807 0.046534907
0.15824766 0.07739414 -0.02093978 0.077026024 0.043163374 0.36221248 0.07508037 0.20224905
00000000: 6418 1dbe 18de c83d 8887 053e 77f4 0e3e
00000010: 330d 62be 8b23 fd3d e591 43bd 4f99 2dbe
00000020: 0e83 f13d d78c 473e 6985 c33c 1040 433d
00000030: 1032 85bc e861 1f3d 0939 febd 5872 d8bd
00000040: b3fb 62bd 6220 6f3d 81b8 03be b1df 593d
00000050: 801c 953e d7a6 4e3e a2bb 813b 2cd7 47be
00000060: 0a1d 243e 33f4 8d3d 3a77 623e d570 513e
00000070: 89cc 0bbd e1d8 06bb 2fc5 dabb 98fd bcbd
00000080: 63c9 4a3e 0146 92bd 015b 7e3b d955 2bbe
00000090: 0b85 f13e b006 cebd f246 0bbd d4f3 51bd
000000a0: 51cd 833d 1745 1b3e f1d1 acbc 3c4e 45be
000000b0: f5d2 333d 363d 89bc d963 0b3e 9c20 003e
000000c0: 10e5 5a3d a479 963e b228 e83c 463c 9fbd
000000d0: 1ba8 55be 38d1 aebd dc70 a2bd 867c d23d
000000e0: 72ef 0f3e 4f64 85bc 0c75 053e 1183 a3bd
000000f0: 3fc8 183d a81c 16bd 902c 0cbe b2f4 9ebd
00000100: 015b 19be f699 e73c d939 cabd 0e89 1d3e
00000110: 05bd a2bd 4f95 e1bd 2aef 38bd 1e27 83bd
00000120: 5c0a 22bd 2d1e 10be 850d ddbd b6a7 cb3d
00000130: f404 993c ccc6 b73d bef6 1cbe 0afc f63d
00000140: 203c 283d a77c 523e 47e0 2ebd 4eb4 8dbd
00000150: f5c4 cc3d 0957 d4bd 230f e1bd 31e6 863d
00000160: 0c91 643d 32eb 68bd d911 08bd 69a5 023d
00000170: 4369 b1be 851f 2a3e d1c5 043e 5b0a 333b
00000180: 2d3a 803d b07d 3cbe 2710 61be 24cf 4fbe
00000190: 0af1 adbd 5093 8f3d 686a aa3d 5bba 183e
000001a0: 8fd1 3fbc 2971 bbbd 7138 953d ceba d1bd
000001b0: bf4e 643b 59cc 62bd 10d0 fcbd 7bd2 033e
000001c0: 8adb 93bd f05b 66bd ebf8 a53d ded2 09be
000001d0: aa3a 3b3d 60ab b2bd df4d e43d 27a0 9ebd
000001e0: efcf 1abd 077b 3bbc 57c3 0abe 5367 7cbd
000001f0: dc32 adbc efb4 d0bc f05d 063d c07e 8f3d
00000200: 4d6f 7ebd 05db a5bd f109 0e3e 357f 6abd
00000210: 8c16 d6bc 6aa9 94bd 5c98 293d 2f2e 7f3d
00000220: e8e4 2f3d 3095 b43d 8860 8c3d ace2 f3bd
00000230: 3e67 853d 41f4 80bd 841a 91bc 3e0e 0b3a
00000240: 02ce 8a3d 45fc d33d c3fe 0c3d 7e82 0b3d
00000250: 00c4 cd3c d868 7abb 1132 ce3c bd99 9fbd
00000260: 7625 813e f785 943d 79b4 053d 5219 e33d
00000270: 024c fabc b5c1 89bd 88e8 943d db11 613e
00000280: efc0 903d 7565 133d 564f 4ebc f4e9 313e
00000290: 6668 0bbd a714 863d cddc ea3c a8af 16bd
000002a0: 49df 9e3c c9a3 423e ebbd ca3e 18e2 ca3d
000002b0: 358b 92bd 8f44 503d 8256 79bc f861 05be
000002c0: 29bc 4b3e c054 553e f4a5 b7bd 8212 0b3c
000002d0: 5c2f c93d c24b bc3d d068 343c 9a9f d03c
000002e0: 5768 32bb ae4e 053d 4cd9 5e3e 03bc ee3d
000002f0: b63a 32bd 0702 cb3d 39c7 993e 639b 3e3d
00000300: ad0b 223e d280 9e3d e789 abbc d2bf 9d3d
00000310: 14cc 303d ea73 b93e bdc3 993d 601a 4f3e

lstm.bias_hh_l0 f4 [200]
0.05783117 0.059378803 0.19038822 -0.047740262 -0.15297316 -0.029531008 -0.23659463 0.095419295
-0.005104708 0.066946566 0.052278772 -0.02090415 0.072488755 0.094088644 0.009730705 0.07131715
0.046257887 -0.17323294 -0.1292043 0.087214895 0.22838223 0.19720075 -0.05265407 -0.20600662
0.0539086 -0.15761574 0.22240901 0.4599731 -0.030717278 -0.068086684 0.18086529 0.08108589
0.087396175 -0.044198137 0.120965175 -0.15450819 0.37151435 -0.14891145 -0.14195456 0.060036644
0.19083071 0.25353098 0.15321821 -0.10139712 0.05437007 0.15500872 0.061176803 0.22536534
0.11044983 0.38434303 0.12131123 0.031873498 -0.08093582 0.1384369 -0.07068042 -0.1082171
-0.095551066 0.0137300845 0.08528594 -0.18372785 0.118765116 -0.0038923759 -0.026963094 0.025676962
-0.01865587 -0.10082408 -0.0721045 0.1158489 -0.14507824 -0.0771769 -0.1782392 -0.07964969
0.03744079 0.070736535 -0.060399085 0.062753044 -0.021504829 -0.084662825 -0.12083006 -0.05036829
-0.08856811 0.14553164 0.011542435 -0.03483436 0.043271396 -0.11724277 -0.079200074 -0.12750243
-0.062483888 0.06772345 -0.16253498 0.05492564 -0.12774916 0.05866073 0.23604552 -0.10914769
-0.03830381 -0.17836551 -0.061416604 -0.05529739 0.019877844 -0.005969534 -0.11820771 -0.036430694
0.008256651 0.009607792 0.16218698 0.04334295 0.06164125 0.022387015 -0.051726997 -0.030718552
-0.05155639 -0.020835953 0.065165065 0.04477911 -0.03203841 -0.011600671 -0.05090682 -0.121183716
-0.11961781 0.15409534 -0.033368897 0.0014241175 -0.109144524 -0.13792562 0.07197607 0.08110336
-0.08961822 0.062422533 0.13627185 -0.007702839 0.0538328 -0.03519723 0.0048620123 0.089726746
-0.07248281 0.13100119 -0.009717325 -0.15693924 0.04829948 -0.09454069 -0.123974085 -0.08020266
-0.011181561 0.05416017 -0.0031227488 0.10768135 -0.019454652 0.011055187 -0.048907213 -0.004931701
0.16443837 -0.082028635 -0.054727584 0.0062614945 0.10099603 0.032304347 0.13031177 0.28557965
0.06258627 -0.08355013 -0.1784936 -0.053212475 -0.14252706 0.05513377 -0.021505833 0.096460834
0.0748533 0.047450457 0.39590734 0.098412484 -0.05679841 -0.17193365 -0.05636124 0.023773853
0.014277907 0.11814164 -0.12811793 -0.12799191 0.10918761 0.038871415 0.03167151 0.09559069
0.05423372 0.06514408 0.08966574 -0.029885285 -0.030042745 -0.042202074 0.044384215 -0.03991824
0.048925284 -0.0754305 -0.08522032 0.009557664 -0.05930035 0.32606378 0.28720522 0.22551352
00000000: 60e0 6c3d 3037 733d 21f5 423e 4b8b 43bd
00000010: ffa4 1cbe 03eb f1bc dd45 72be 316b c33d
00000020: 6545 a7bb 481b 893d 4422 563d 2e3f abbc
00000030: fc74 943d 8cb1 c03d 896d 1f3c ba0e 923d
00000040: e978 3d3d fa63 31be 224e 04be b99d b23d
00000050: 08dd 693e feee 493e cbab 57bd 66f3 52be
00000060: 44cf 5c3d 0566 21be 30bf 633e 9881 eb3e
00000070: cda2 fbbc 0871 8bbd c034 393e 5c10 a63d
00000080: c4fc b23d 1b09 35bd 97bc f73d 6537 1ebe
00000090: 2137 be3e 3e7c 18be 895c 11be fce8 753d
000000a0: 2069 433e d0ce 813e 3ce5 1c3e 4ba9 cfbd
000000b0: 27b3 5e3d 9bba 1e3e 8794 7a3d 2cc6 663e
000000c0: 8533 e23d 9cc8 c43e 0672 f83d c98d 023d
000000d0: aec1 a5bd 67c2 0d3e e5c0 90bd eda0 ddbd
000000e0: 47b0 c3bd 26f4 603c 65aa ae3d 2723 3cbe
000000f0: 203b f33d 3b17 7fbb b5e1 dcbc 7e58 d23c
00000100: 32d4 98bc db7c cebd 86ab 93bd 3042 ed3d
00000110: 648f 14be ec0e 9ebd 5684 36be 601f a3bd
00000120: 845b 193d 51de 903d 0865 77bd ab84 803d
00000130: e52a b0bc b463 adbd c075 f7bd fb4e 4ebd
00000140: 3263 b5bd 3f06 153e 7b1c 3d3c 79ae 0ebd
00000150: 593d 313d fa1c f0bd a633 a2bd ff8f 02be
00000160: 1bef 7fbd 98b2 8a3d 926f 26be b5f9 603d
00000170: add0 02be 3c46 703d ebb5 713e d388 dfbd
00000180: 75e4 1cbd 73a5 36be fa8f 7bbd 847f 62bd
00000190: dcd6 a23c 159c c3bb e216 f2bd 5a38 15bd
000001a0: e846 073c 006a 1d3c 5814 263e 6188 313d
000001b0: 897b 7c3d f964 b73c b0df 53bd 79a5 fbbc
000001c0: cb2c 53bd 29b0 aabc 4375 853d 4d6a 373d
000001d0: b53a 03bd be10 3ebc ab83 50bd 2b2f f8bd
000001e0: 2ffa f4bd 2bcb 1d3e d3ad 08bd 74a9 ba3a
000001f0: 2a87 dfbd 603c 0dbe 3168 933d 8519 a63d
00000200: c289 b7bd c5ae 7f3d d98a 0b3e 1968 fcbb
00000210: c87f 5c3d f82a 10bd 8451 9f3b a8c2 b73d
00000220: de71 94bd 2d25 063e 6a35 1fbc aeb4 20be
00000230: add5 453d 8d9e c1bd 20e6 fdbd 4b41 a4bd
00000240: de32 37bc 0ed7 5d3d 08a7 4cbb 0a88 dc3d
00000250: 5d5f 9fbc d120 353c ee52 48bd 1b9a a1bb
00000260: 8862 283e a1fe a7bd 082a 60bd 392d cd3b
00000270: 02d7 ce3d 9051 043d 7370 053e 7f37 923e
00000280: 3b2d 803d 551c abbd 07c7 36be 53f5 59bd
00000290: 9df2 11be f3d3 613d 002d b0bc 428d c53d
000002a0: b04c 993d 695b 423d 5eb4 ca3e 7c8c c93d
000002b0: 73a5 68bd 600f 30be 0bdb 66bd 62c1 c23c
000002c0: e2ed 693c 3ff4 f13d 5931 03be 5010 03be
000002d0: c19d df3d a237 1f3d fcb9 013d 0dc5 c33d
000002e0: 2d24 5e3d 426a 853d aca2 b73d fcd1 f4bc
000002f0: 341c f6bc 15dc 2cbd 39cc 353d 4f81 23bd
00000300: e165 483d 4e7b 9abd fe87 aebd c097 1c3c
00000310: ece4 72bd d5f1 a63e 900c 933e 04ed 663e

lstm.weight_ih_l1 f4 [200, 50]
0.11733926 0.077392206 0.1471181 -0.02406141 -0.00938573 -0.23260787 0.043274783 -0.030738305
-0.046955574 -0.20628038 -5.5179593e-05 -0.14483044 0.06696849 0.049393304 -0.12713902 0.032654714
0.017474072 -0.08208918 0.12367913 0.18895797 -0.046136152 0.041600283 -0.05574235 -0.18229868
0.1743929 -0.010727015 -0.22860943 -0.039524436 -0.027260209 0.05491961 0.001703443 -0.093082346
-0.09031093 -0.049817156 0.1344879 0.0800177 -0.041452177 -0.12138668 -0.08936532 0.03754571
0.2252505 -0.042382438 -0.027481768 -0.012575469 0.050382573 -0.0764601 0.08250165 -0.15521687
0.027890569 -0.085746646 -0.0493526 -0.05668159 0.008073115 0.047524624 -0.085437834 0.008128215
0.076041855 0.07768075 -0.039624587 -0.09964147 -0.059012145 0.025176914 0.031569693 0.074932635
-0.093946874 0.08832026 -0.06297427 -0.06731137 0.060609937 -0.05507869 0.06175362 -0.086090505
0.092897296 -0.048672378 0.0060690185 0.0070014787 0.06265479 0.060101785 0.0038893695 0.11137695
-0.024400087 0.12656714 0.11967729 0.1048208 0.107746206 -0.030622154 -0.13572049 -0.10743082
-0.008705386 0.104560904 -0.03482347 -0.010288693 0.06856276 0.09720399 0.119871385 -0.14289375
-0.0653581 -0.21683757 -0.11097503 -0.07299468 -0.09529972 0.2091301 0.31806383 -0.27807382
-0.29081944 0.12810932 0.011012463 -0.115511 -0.31795233 0.02026701 -0.15880015 -0.2833283
-0.24166006 -0.062292293 0.16600226 -0.08842437 -0.11854758 0.070786305 -0.08379993 0.005919335
0.14357834 0.18411131 0.17740236 -0.06764109 -0.29806063 0.10258291 -0.07460506 -0.43890923
0.2375434 -0.034231756 -0.06714584 -0.12086635 -0.083081596 -0.24195182 0.14027523 0.30332476
0.1696931 -0.09641637 0.29466176 0.19129317 0.2204475 0.3639016 0.21268068 -0.03466512
-0.058557894 0.00030508384 0.059023526 -0.28313947 -0.1624195 -0.19445138 -0.18874177 0.055126842
0.114008635 0.010075587 -0.10439791 -0.033012576 -0.010774774 0.00408584 0.046376094 -0.14616242
-0.04898523 0.057358254 -0.10450256 0.0637514 0.097355865 0.10011474 0.042025466 0.12503599
-0.09264856 0.1343807 -0.055826567 0.11220719 0.058579028 0.054981675 -0.045951206 -0.061128158
-0.12915672 -0.032726817 -0.10257206 -0.06115266 0.02514868 -0.058394417 -0.0057073417 -0.16483815
0.13434781 0.12481776 -0.066602536 0.121948086 -0.07191148 0.09966058 -0.017783394 -0.060076118
-0.09027961 0.12614898 -0.13823242 0.043750122 0.09332035 0.13699432 0.13990009 0.1784518
0.032632634 0.13979019 0.12936893 -0.2056968 -0.035976768 -0.044072796 0.03046775 -0.110224724
-0.17574602 0.07844989 0.10241846 -0.08365731 -0.054434802 -0.029057652 -0.09347303 -0.034024253
0.04175521 0.01795441 0.036860015 -0.06009683 0.022362258 0.061141964 -0.08566906 -0.11491007
-0.1726932 0.097455494 0.059636634 0.11930078 0.07579155 -0.11067383 0.10193713 -0.14238015
0.040743724 -0.12534484 0.11452889 -0.034874544 -0.036669437 0.016215468 -0.04771485 -0.100636505
-0.011779763 -0.0068342923 -0.092345685 -0.22743031 -0.12781458 -0.081659175 -0.086027294 0.007825674
0.22042407 0.16354096 0.084654756 0.13903588 0.41123122 0.008660881 -0.02818904 0.10469981
00000000: 914f f03d ce7f 9e3d 21a6 163e 6f1c c5bc
00000010: 9bc6 19bc c230 6ebe e640 313d e6ce fbbc
00000020: 7d54 40bd 2a3b 53be a370 67b8 6e4e 14be
00000030: c726 893d a250 4a3d bb30 02be f3c0 053d
00000040: c925 8f3c 5f1e a8bd 7c4b fd3d 337e 413e
00000050: 43f9 3cbd 0f65 2a3d 1752 64bd 81ac 3abe
00000060: 0d94 323e 5dc0 2fbc 9718 6abe 60e4 21bd
00000070: cd50 dfbc 63f3 603d 1046 df3a f5a1 bebd
00000080: f0f4 b8bd 130d 4cbd 32b7 093e 52e0 a33d
00000090: c2c9 29bd 9499 f8bd 2a05 b7bd 88c9 193d
000000a0: 11a8 663e 3599 2dbd 7221 e1bc 5709 4ebc
000000b0: f55d 4e3d 1d97 9cbd a0f6 a83d 2cf1 1ebe
000000c0: c37a e43c f09b afbd f425 4abd f42a 68bd
000000d0: 1945 043c 2ea9 423d 08fa aebd 342c 053c
000000e0: d5bb 9b3d 1617 9f3d 644d 22bd d410 ccbd
000000f0: b8b6 71bd d13f ce3c 394f 013d 4876 993d
00000100: 3867 c0bd 41e1 b43d a7f8 80bd 8bda 89bd
00000110: 2042 783d 319a 61bd 5df1 7c3d 3850 b0bd
00000120: f040 be3d b05c 47bd 9ede c63b a96c e53b
00000130: 2851 803d 4a2d 763d cbe4 7e3b 9919 e43d
00000140: b1e2 c7bc d19a 013e 5e19 f53d 4aac d63d
00000150: 0baa dc3d 50db fabc 50fa 0abe b104 dcbd
00000160: 09a1 0ebc 0724 d63d 0ea3 0ebd e891 28bc
00000170: a26a 8c3d e312 c73d 217f f53d bd52 12be
00000180: 78da 85bd ab0a 5ebe e046 e3bd 3c7e 95bd
00000190: 802c c3bd 3326 563e 43d9 a23e b15f 8ebe
000001a0: 49e6 94be 172f 033e 9e6d 343c 0891 ecbd
000001b0: a6ca a2be 0007 a63c 829c 22be 6810 91be
000001c0: bc75 77be 3426 7fbd 7ffc 293e d617 b5bd
000001d0: 13c9 f2bd 69f8 903d 4c9f abbd fbf6 c13b
000001e0: 3306 133e ad87 3c3e f7a8 353e 6987 8abd
000001f0: 679b 98be fd16 d23d 8aca 98bd b6b8 e0be
00000200: 943e 733e 9936 0cbd c283 89bd c788 f7bd
00000210: af26 aabd 38c2 77be 4fa4 0f3e 624d 9b3e
00000220: 07c4 2d3e f275 c5bd e8dd 963e 5be2 433e
00000230: fdbc 613e 4f51 ba3e f7c8 593e 03fd 0dbd
00000240: 67da 6fbd a9f3 9f39 a7c2 713d a8f7 90be
00000250: 4c51 26be 431e 47be 8645 41be afcc 613d
00000260: 5c7d e93d 1314 253c 92ce d5bd 3238 07bd
00000270: ad88 30bc 83e2 853b dcf4 3d3d 9aab 15be
00000280: bda4 48bd 7df0 6a3d 7005 d6bd 1890 823d
00000290: 8362 c73d f508 cd3d e522 2c3d 6f09 003e
000002a0: 87be bdbd 189b 093e 66aa 64bd e2cc e53d
000002b0: 90f0 6f3d 7734 613d 5537 3cbd 8561 7abd
000002c0: a941 04be 8e0c 06bd 4d11 d2bd 367b 7abd
000002d0: 9b04 ce3c fc2e 6fbd a704 bbbb 55cb 28be
000002e0: 7992 093e 74a0 ff3d e966 88bd ebbf f93d
000002f0: 5346 93bd d91a cc3d 7bae 91bc 6012 76bd
00000300: 84e4 b8bd 332d 013e cd8c 0dbe 5433 333d
00000310: bd1e bf3d 3d48 0c3e f841 0f3e 12bc 363e
00000320: cca9 053d 2925 0f3e 4a79 043e 2fa2 52be
00000330: 605c 13bd ad85 34bd 8197 f93c 80bd e1bd
00000340: c4f6 33be 56aa a03d c5c0 d13d 8654 abbd
00000350: 07f7 5ebd 500a eebc ca6e bfbd 045d 0bbd
00000360: 8307 2b3d 2015 933c 87fa 163d 1828 76bd
00000370: 0e31 b73c ff6f 7a3d 4373 afbd f955 ebbd
00000380: 7cd6 30be bf96 c73d 8b45 743d f853 f43d
00000390: 9a38 9b3d f6a8 e2bd 6ac4 d03d 1acc 11be
000003a0: e4e2 263d 665a 00be 1f8e ea3d 9cd8 0ebd
000003b0: b132 16bd 4dd6 843c a670 43bd 831a cebd
000003c0: e8ff 40bc 33f2 dfbb bc1f bdbd 7ee3 68be
000003d0: d3e1 02be ed3c a7bd 142f b0bd 4137 003c
000003e0: d9b6 613e 4877 273e 795f ad3d 6c5f 0e3e
000003f0: e68c d23e 5ee6 0d3c b4ec e6bc db6c d63d
