pol_models/carbon_monoxide_model_state.pt (torch, 650624 bytes, 16 tensors)

conv1.weight f4 [64, 300, 3]
-0.0070755463 0.011022682 -0.03394298 -0.030561388 -0.019006493 0.002871585 -0.0070141116 0.019962749
-0.009387856 0.0040812804 -0.014903865 -0.011078038 -0.037577916 -0.027699621 -0.018902753 -0.005418595
0.006599025 0.013666292 -0.029047154 -0.021078832 0.0055915364 0.022201579 -0.012376224 0.019840099
-0.0114370985 -0.0027713142 0.02391959 -0.03697353 -0.027195469 -0.014492158 -0.019659959 0.02203429
-0.028121049 -0.022056026 -0.030016473 -0.03762283 -0.026311724 0.021898305 0.008437707 0.009338597
-0.0050405087 -0.02371867 -0.00053701986 -0.037550993 -0.030282198 -0.02363406 0.014438486 0.013260247
-0.021471784 -0.007954903 0.014910751 0.026828432 0.006930488 -0.0015860903 0.01677664 -0.025285644
0.0006394968 -0.032853927 -0.03004728 -0.023925457 0.008572521 0.006868477 -0.025953725 0.003740216
0.011872903 -0.010590401 -0.0054351906 0.0011054897 0.014203282 0.02569395 -0.03207476 -0.018203463
0.0071204966 0.02137536 0.022942644 0.023141008 0.00030705598 -0.035078853 -0.0034088609 -0.02739921
-0.03723279 0.023810167 0.019302813 -0.039082825 0.0002089691 -0.011783346 -0.011552368 -0.021923881
0.0063258964 -0.025975924 0.005275714 0.010096071 0.017325029 0.006200362 -0.03925395 -0.027512075
0.009955208 0.0002245558 -0.032410722 -0.025595492 0.024825435 0.016117275 -0.021248408 -0.015185408
-0.038452834 -0.006618376 -0.031275827 -0.03167467 -0.008469797 -0.0017662463 -0.020287324 0.0130166095
-0.02710862 0.023624891 0.016467711 -0.034423545 -0.014423793 -0.0048949393 -0.0016027744 0.0015057704
0.0065046963 -0.0045658676 -0.02239869 0.009061359 -0.038703416 -0.02616103 -0.014920569 -0.022799654
-0.017795507 -0.033489194 -0.013314653 0.0009676724 -0.028423423 -0.008328649 0.017385758 -0.009799537
-0.005440571 -0.00892692 0.0005299794 0.01499775 0.02554019 0.014449519 0.02491932 -0.008827431
-0.036882356 -0.02261425 0.016132597 -0.006668879 -0.02322088 -0.03213593 -0.037056822 -0.034107134
-0.0123730665 0.012009321 0.011694608 -0.038240496 0.013736487 -0.03299049 -0.013736751 -0.019845782
-0.012846672 -0.012927912 -0.0362226 -0.035047535 -0.010961302 -0.0061175562 -0.021893352 0.005995497
-0.036193386 -0.008648455 0.023260647 -0.019997906 0.023567224 0.0057284655 -0.036534812 0.014437247
-0.0104386695 -0.020838803 0.020726511 -0.032681856 -0.0027045768 -0.013491164 0.017310822 0.0032794818
0.009878417 0.005873825 -0.013828149 -0.012873923 -0.03300433 0.011910523 0.020036906 0.01648358
-0.029953739 -0.00505334 -0.030062813 -0.024780488 -0.026036827 0.004887711 -0.026176289 -0.0071145734
-0.0045855413 0.014765738 -0.031914003 -0.029287472 -0.025817644 0.01679898 -0.01842034 0.02244386
0.0062548583 -0.0013992917 -0.0069698305 -0.013306091 -0.0022215282 -0.014086769 -0.006779916 -0.0019145649
-0.032622125 -0.024221903 0.020355271 -0.03377167 -0.009116919 0.02638032 0.005817451 -0.0053906376
-0.035020873 0.009928546 -0.030382514 -0.015768567 -0.017213965 -0.011104259 -0.005702382 0.020639878
-0.0025936814 0.023420194 0.014102388 -0.027485343 0.008536177 -0.030473849 -0.021026665 0.003146834
0.004784113 0.01873828 -0.016627584 -0.006660893 0.010364872 -0.03893597 0.017816478 -0.03379304
-0.005597921 -0.012429877 -0.024379745 -0.0022150802 0.021136997 -0.016133184 -0.02593985 -0.018598847
00000000: fcd9 e7bb 7b98 343c cb07 0bbd e05b fabc
00000010: 81b3 9bbc 3431 3c3b a2d6 e5bb eb88 a33c
00000020: 86cf 19bc 43bc 853b 572f 74bc a980 35bc
00000030: 4deb 19bd 51ea e2bc f2d9 9abc 788e b1bb
00000040: a23c d83b 95e8 5f3c 4cf4 edbc 84ad acbc
00000050: 3539 b73b 16e0 b53c a5c5 4abc b487 a23c
00000060: ab62 3bbc f09e 35bb 04f3 c33c 8e71 17bd
00000070: 08c9 debc 8470 6dbc ec0d a1bc 4181 b43c
00000080: 1d5e e6bc d7ae b4bc 1be5 f5bc 661a 1abd
00000090: af8b d7bc 1364 b33c 4f3e 0a3c ea00 193c
000000a0: da2a a5bb a84d c2bc cbc6 0cba 12cf 19bd
000000b0: 5f12 f8bc 379c c1bc 668f 6c3c 8241 593c
000000c0: 98e5 afbc 4855 02bc 394c 743c 4dc7 db3c
000000d0: 2619 e33b 5ce4 cfba 2a6f 893c d723 cfbc
000000e0: e7a3 273a d791 06bd b725 f6bc 52ff c3bc
000000f0: c273 0c3c f610 e13b e89c d4bc 691e 753b
00000100: 9186 423c 5c83 2dbc af19 b2bb 14e6 903a
00000110: e2b4 683c 1e7c d23c d360 03bd 6e1f 95bc
00000120: 0e53 e93b 611b af3c 36f2 bb3c 3692 bd3c
00000130: 5bfc a039 d8ae 0fbd 3267 5fbb 4f74 e0bc
00000140: 6981 18bd 8a0d c33c ef20 9e3c 5015 20bd
00000150: b71e 5b39 ef0e 41bc 2546 3dbc b699 b3bc
00000160: 7749 cf3b 76cb d4bc e6df ac3b fe69 253c
00000170: 38ed 8d3c 682c cb3b c0c8 20bd 0161 e1bc
00000180: 2b1b 233c bd76 6b39 1bc1 04bd a3ad d1bc
00000190: b65e cb3c 6008 843c 2411 aebc 38cc 78bc
000001a0: b880 1dbd f6de d8bb 151b 00bd 4cbd 01bd
000001b0: e7c4 0abc 6481 e7ba 9a31 a6bc 9e43 553c
000001c0: e612 debc fd88 c13c 4be7 863c b4ff 0cbd
000001d0: c651 6cbc ba65 a0bb 2f14 d2ba 455d c53a
000001e0: 5925 d53b 469d 95bb 757d b7bc 1876 143c
000001f0: 7987 1ebd a84f d6bc 6775 74bc 57c6 babc
00000200: e2c7 91bc f72b 09bd b425 5abc 65ab 7d3a
00000210: 3dd8 e8bc e374 08bc 946c 8e3c 3d8e 20bc
00000220: d146 b2bb 3742 12bc 51ee 0a3a 1fb9 753c
00000230: a939 d13c adbd 6c3c 9a23 cc3c eea0 10bc
00000240: f411 17bd 8541 b9bc 8228 843c 9d86 dabb
00000250: b739 bebc f7a0 03bd e5c8 17bd ecb3 0bbd
00000260: 67b8 4abc bec2 443c be9a 3f3c 11a2 1cbd
00000270: 010f 613c 0921 07bd 1c10 61bc 9f93 a2bc
00000280: d97a 52bc 98cf 53bc 265e 14bd 018e 0fbd
00000290: 0897 33bc c875 c8bb b059 b3bc e075 c43b
000002a0: 843f 14bd 40b2 0dbc 1d8d be3c a6d2 a3bc
000002b0: 0d10 c13c dab5 bb3b 87a5 15bd 348a 6c3c
000002c0: f406 2bbc 23b6 aabc a5ca a93c 69dd 05bd
000002d0: 453f 31bb 0b0a 5dbc 6dcf 8d3c 93ec 563b
000002e0: 15d9 213c 3779 c03b 768f 62bc 26ed 52bc
000002f0: 8c2f 07bd 5b24 433c 7024 a43c 9308 873c
00000300: 8b61 f5bc 7d96 a5bb 4a46 f6bc 7300 cbbc
00000310: 2f4b d5bc 1729 a03b a86f d6bc 5e21 e9bb
00000320: 4f42 96bb feeb 713c 42b8 02bd 48ec efbc
00000330: 867f d3bc 049e 893c 41e6 96bc 30dc b73c
00000340: 8ef5 cc3b 7068 b7ba 2d63 e4bb ca01 5abc
00000350: 0f97 11bb 31cc 66bc 0f2a debb 23f2 faba
00000360: c79e 05bd 036d c6bc 19c0 a63c 2a54 0abd
00000370: 215f 15bc 8a1b d83c 51a0 be3b f2a3 b0bb
00000380: 0c72 0fbd 57ab 223c c0e4 f8bc 152d 81bc
00000390: 4d04 8dbc a3ee 35bc 0cdb babb f614 a93c
000003a0: c1fa 29bb b5db bf3c b40d 673c f128 e1bc
000003b0: 52db 0b3c 4ba4 f9bc 1d40 acbc 1d3b 4e3b
000003c0: 0cc4 9c3b 0581 993c 9236 88bc 9f43 dabb
000003d0: 6dd1 293c 537b 1fbd ddf3 913c 926a 0abd
000003e0: c46e b7bb afa6 4bbc 08b8 c7bc e12a 11bb
000003f0: 7f27 ad3c bd29 84bc cf7f d4bc 9c5c 98bc

conv1.bias f4 [64]
0.002573401 -0.017187785 -0.023525067 0.0034440756 -0.036546152 0.007841724 -0.012928641 0.007785465
-0.046667818 -0.014899738 0.022443699 -0.024277125 -0.17060724 -0.16463535 -0.0385539 0.012410732
-0.057664573 -0.022194598 0.10078583 -0.0050791204 -0.002262441 -0.1315439 -0.029081054 -0.0068643373
-0.022718249 -0.02436267 -0.30144623 -0.0030251383 -0.034586754 0.014276413 -0.0923211 0.028819138
0.013083222 -0.021881593 0.002704637 -0.034565885 0.10008676 0.020806316 0.031124802 -0.14939481
0.007473133 -0.08564958 -0.011816849 -0.09906268 0.026655847 -0.01786519 -0.04632556 -0.026714746
-0.035119936 -0.32030064 -0.026953503 -0.03373854 0.017400209 -0.017203659 -0.012202016 -0.033300914
-0.006782538 0.022511693 0.014159282 -0.013420641 0.019708546 -0.20891377 -0.026724093 -0.017370462
00000000: 81a6 283b 66cd 8cbc a4b7 c0bc 00b6 613b
00000010: 6bb1 15bd 937a 003c a7d2 53bc 371d ff3b
00000020: c126 3fbd 081e 74bc d9db b73c d2e0 c6bc
00000030: aab3 2ebe 2b96 28be b2ea 1dbd 6256 4b3c
00000040: b031 6cbd 72d1 b5bc cd68 ce3d c06e a6bb
00000050: 7645 14bb 72b3 06be 643b eebc 3cee e0bb
00000060: 9f1b babc 3994 c7bc 2957 9abe 6641 46bb
00000070: d7aa 0dbd 9ee7 693c d812 bdbd 1d16 ec3c
00000080: 035b 563c 0741 b3bc 4740 313b f594 0dbd
00000090: 4afa cc3d 0272 aa3c 71f9 fe3c f4fa 18be
000000a0: 2fe1 f43b 0c69 afbd 759b 41bc 60e1 cabd
000000b0: 5d5d da3c 055a 92bc dfbf 3dbd e2d8 dabc
000000c0: ecd9 0fbd 72fe a3be 98cd dcbc 6c31 0abd
000000d0: e28a 8e3c b0ee 8cbc f7ea 47bc 8a66 08bd
000000e0: 0d40 debb 716a b83c 55fc 673c 40e2 5bbc
000000f0: d173 a13c 7eed 55be 7cec dabc 804c 8ebc

conv2.weight f4 [128, 64, 3]
-0.06404735 0.0138045885 -0.0249143 0.009732826 0.017812118 -0.061771624 0.05145945 -0.07473437
-0.05137244 -0.04931404 -0.015352324 0.015464261 -0.053561304 -0.035695355 -0.034284923 0.018897193
-0.016854895 -0.025129566 -0.036549162 0.043697376 0.0082406765 -0.012738002 -0.0082459785 0.026347341
0.006796933 0.038519815 0.031919915 -0.025059976 0.0105110295 0.0027686586 -0.02017035 0.05150954
0.027163118 0.055947233 -0.04829203 0.008427984 0.02278559 -0.0688884 0.0015395959 -0.034522016
-0.024864763 -0.051608086 -0.0074422485 -0.07596338 -0.031363804 0.06668463 -0.068395935 0.030860167
-0.05105515 -0.0016397204 0.027050022 -0.041604903 -0.06637569 0.008900698 0.041345593 0.038054142
-0.025125435 -0.010919671 -0.07778769 -0.059771467 0.04085355 0.06682339 -0.04976394 0.04151927
0.014761991 -0.06813059 0.0285208 0.018821362 0.032057732 -0.009973452 -0.014835623 0.061480626
-0.020557681 -0.08210718 -0.05437665 0.018438704 -0.029588984 -0.058309425 -0.054705516 -0.0671284
-0.07495839 0.006266266 -0.050800312 -0.021967683 -0.025730802 0.073787406 0.06419626 -0.060618147
-0.06731867 -0.056442257 -0.048432283 -0.017782891 0.012768889 -0.057961807 -0.07985792 -0.009180649
0.009342798 -0.05885351 -0.023061082 -0.08564995 -0.051649965 -0.03860269 0.03613523 0.03387334
0.0013857579 -0.054315068 0.0101352185 0.051517256 -0.00735747 0.039088544 0.02406386 -0.06898268
0.04262009 -0.07529259 0.072111994 0.009608431 -0.04434026 0.044028707 0.04540883 -0.06604341
-0.009722074 0.02801637 -0.032083113 0.01724446 0.028536938 0.03575366 0.049364638 -0.075301304
-0.04318942 -0.002869067 -0.0026090567 -0.060320597 0.045546286 0.034731306 -0.04938796 0.006434962
-0.06728023 0.061028868 0.007450647 0.046874072 -0.036819592 -0.051924594 0.022542857 0.051079866
-0.056097597 -0.03738256 -0.032553323 -0.07913501 -0.04034695 -0.047790896 -0.035762306 -0.025058322
-0.04033504 0.014617884 -0.072942026 0.017413871 -0.019090114 0.0033931504 0.044513926 -0.015967809
-0.05722821 -0.026198082 0.015337364 0.019647902 0.038033694 -0.015041364 -0.0073792017 0.049153693
0.054625347 -0.0016803504 0.0102866385 -0.062197074 0.01187772 0.004168577 -0.010540785 0.047754012
-0.002322806 -0.028570961 -0.012620764 0.059432477 0.005331177 -0.057388276 0.04939923 -0.06019125
0.00551629 -0.025497017 -0.068641655 -0.027091336 0.038566094 -0.022791998 -0.06483812 -0.052174564
0.04107124 0.030981971 -0.032245692 0.012872842 -0.09241949 -0.12581544 -0.03194634 0.006806866
-0.060023475 -0.0073827133 -0.03325994 -0.037352733 -0.040544815 -0.011103889 0.020860909 -0.026943719
-0.017665086 0.023042835 -0.0031902369 -0.001078638 -0.027640454 0.0049444833 -0.07851788 0.046689965
-0.050161455 -0.004226312 -0.07007656 -0.07776787 -0.030165521 -0.04729374 0.010970047 -0.06776002
-0.00042310628 -0.17647286 -0.041410204 0.031920835 0.068746835 -0.054090116 0.017749913 0.03337987
-0.013178192 -0.1452169 -0.015501361 -0.05742359 0.023536159 0.057551593 0.024988756 0.027228981
0.05438667 -0.3136939 0.07222196 -0.02858733 0.05021337 -0.048493654 0.07538335 -0.24624115
0.10067686 0.05090828 -0.056774642 0.025712397 0.0046783634 -0.02003388 -0.052925497 0.011781794
00000000: 422b 83bd a42c 623c 1319 ccbc 6e76 1f3c
00000010: b8ea 913c 3e04 7dbd 25c7 523d 550e 99bd
00000020: e86b 52bd 85fd 49bd 5088 7bbc d05d 7d3c
00000030: 1963 5bbd 4b35 12bd 596e 0cbd 49ce 9a3c
00000040: 4713 8abc 85dc cdbc 93b4 15bd 05fc 323d
00000050: e703 073c 0eb3 50bc 241a 07bc 61d6 d73c
00000060: ceb8 de3b f4c6 1d3d 75be 023d 944a cdbc
00000070: 7436 2c3c 6272 353b 4a3c a5bc abfb 523d
00000080: 3085 de3c ed28 653d ddcd 45bd 8715 0a3c
00000090: d8a8 ba3c 5d15 8dbd 44cc c93a f566 0dbd
000000a0: 30b1 cbbc 0063 53bd 1bde f3bb b092 9bbd
000000b0: 5577 00bd f491 883d 2b13 8cbd 76ce fc3c
000000c0: 341f 51bd e3eb d6ba 0298 dd3c e769 2abd
000000d0: faef 87bd 3cd4 113c ff59 293d a9de 1b3d
000000e0: dbd3 cdbc 6be8 32bc 274f 9fbd edd2 74bd
000000f0: 0d56 273d b4da 883d 46d5 4bbd 1c10 2a3d
00000100: 47dc 713c 0d88 8bbd 74a4 e93c 422f 9a3c
00000110: f84e 033d b167 23bc 1d11 73bc 1cd3 7b3d
00000120: 9568 a8bc cf27 a8bd 0dba 5ebd c40c 973c
00000130: 9964 f2bc ddd5 6ebd e412 60bd 9d7a 89bd
00000140: c983 99bd 4055 cd3b fd13 50bd 92f5 b3bc
00000150: 67c9 d2bc da1d 973d 5479 833d bc4a 78bd
00000160: 5fde 89bd ff2f 67bd ee60 46bd 6dad 91bc
00000170: 9a34 513c 5c69 6dbd 8d8c a3bd 6f6a 16bc
00000180: 8912 193c 6110 71bd 98ea bcbc 3e69 afbd
00000190: ea8e 53bd db1d 1ebd 8902 143d c5be 0a3d
000001a0: 52a2 b53a 7a79 5ebd 300e 263c c203 533d
000001b0: ef16 f1bb 4f1b 203d 9221 c53c cb46 8dbd
000001c0: 6792 2e3d 0033 9abd 74af 933d ae6c 1d3c
000001d0: 229e 35bd 7257 343d 9cfe 393d c441 87bd
000001e0: 5549 1fbc 9682 e53c 9569 03bd 4144 8d3c
000001f0: 4cc6 e93c 6e72 123d 9332 4a3d 9237 9abd
00000200: 64e7 30bd f506 3cbb b5fc 2abb bb12 77bd
00000210: be8e 3a3d 6a42 0e3d 084b 4abd 60dc d23b
00000220: 38ca 89bd 68f9 793d 8f24 f43b 07ff 3f3d
00000230: 24d0 16bd e2ae 54bd ccab b83c 1f39 513d
00000240: 98c6 65bd 751e 19bd a256 05bd 8911 a2bd
00000250: d842 25bd 63c0 43bd 7f7b 12bd 1c47 cdbc
00000260: 5b36 25bd d97f 6f3c a162 95bd 89a7 8e3c
00000270: df62 9cbc 9e5f 5e3b 3c54 363d ecce 82bc
00000280: 2168 6abd 5c9d d6bc 9149 7b3c a3f4 a03c
00000290: 38c9 1b3d 0e70 76bc 3bcd f1bb 6255 493d
000002a0: d4be 5f3d 343f dcba 4a89 283c 5cc2 7ebd
000002b0: c59a 423c 8f98 883b 42b3 2cbc b699 433d
000002c0: 383a 18bb a60d eabc 52c7 4ebc 786f 733d
000002d0: 27b1 ae3b f80f 6bbd d956 4a3d 1a8b 76bd
000002e0: ffc1 b43b 1fdf d0bc ff93 8cbd a6ee ddbc
000002f0: 7bf7 1d3d 49b6 babc d9c9 84bd ffb4 55bd
00000300: 513a 283d e7cd fd3c 0f14 04bd 9de8 523c
00000310: 6e46 bdbd c3d5 00be 2ada 02bd 210c df3b
00000320: 2ddb 75bd b0ea f1bb 933b 08bd 2eff 18bd
00000330: 5212 26bd 16ed 35bc 7fe4 aa3c 13b9 dcbc
00000340: 5fb6 90bc 54c4 bc3c 4b13 51bb 1661 8dba
00000350: 3c6e e2bc 5505 a23b fbcd a0bd fa3d 3f3d
00000360: 1976 4dbd e07c 8abb 4d84 8fbd c344 9fbd
00000370: af1d f7bc 15b7 41bd b6bb 333c c4c5 8abd
00000380: 5dd4 ddb9 4db5 34be bf9d 29bd 6cbf 023d
00000390: 24cb 8c3d 998d 5dbd 4468 913c 55b9 083d
000003a0: 58e9 57bc bdb3 14be 6cf9 7dbc 0035 6bbd
000003b0: e7ce c03c 38bb 6b3d 38b5 cc3c 500f df3c
000003c0: 8fc4 5e3d 7d9c a0be 1be9 933d fa2f eabc
000003d0: 89ac 4d3d 48a1 46bd 9662 9a3d a426 7cbe
000003e0: ab2f ce3d 3385 503d 878c 68bd cea2 d23c
000003f0: f54c 993b 171e a4bc 68c8 58bd 6d08 413c

conv2.bias f4 [128]
-0.081251845 0.2088571 -0.24954414 -0.18353721 -0.0970165 -0.40018582 -0.2096238 -0.06139985
-0.15670599 -0.24370672 -0.3668455 -0.05532052 -0.1409272 0.2023831 -0.10334379 -0.29498637
0.1828599 -0.083081864 -0.2784897 -0.13136905 -0.116672516 -0.3556886 -0.121804915 -0.16479984
-0.023938997 -0.3574801 0.045061562 -0.24428532 -0.051065207 -0.09370666 -0.15988469 -0.2963735
-0.07432954 -0.056903977 -0.24815229 -0.090686925 0.1999841 -0.027334241 -0.2386462 -0.08723821
0.19441253 -0.09264398 -0.15206276 0.03676416 -0.09182314 -0.122351795 -0.3225294 -0.057896882
-0.114215925 -0.16118309 -0.03728351 0.25435415 -0.0102701625 0.15909828 -0.18040437 0.19111355
-0.09702427 -0.05646864 -0.020902123 -0.29561314 -0.107364066 -0.11682117 0.16703685 -0.101777665
-0.34258997 -0.11999211 -0.021304684 -0.083727665 -0.18377821 -0.0035099194 0.11735432 -0.067064896
0.047816753 0.06645001 -0.101895735 -0.0773698 -0.01903668 -0.09454126 -0.23262973 0.18251197
-0.044111606 -0.37326002 -0.23839284 0.066858776 -0.055346657 -0.3321014 -0.017754946 -0.15135697
-0.08254161 -0.09262326 -0.2750796 -0.20752388 -0.087986946 -0.2768739 -0.09781768 -2.2008146e-05
-0.25717336 -0.06564612 -0.30272308 -0.2791531 0.17494103 -0.26715007 -0.23972462 -0.028029656
0.22325763 -0.14943108 -0.16192333 -0.10073477 -0.12592933 -0.08167029 -0.13933901 -0.18936121
-0.10273188 -0.0044308305 -0.2812464 -0.29894662 0.03665782 -0.21975918 -0.12834789 -0.09311876
-0.2659129 -0.15371874 -0.03643443 0.19910693 -0.18172798 -0.041258764 0.16978773 -0.28643695
00000000: 5e67 a6bd a3de 553e 8088 7fbe 2ef1 3bbe
00000010: 96b0 c6bd 28e5 ccbe 9fa7 56be 697e 7bbd
00000020: 8977 20be 418e 79be 2cd3 bbbe c597 62bd
00000030: 384f 10be 843d 4f3e e9a5 d3bd 7408 97be
00000040: a03f 3b3e d326 aabd 3496 8ebe 9c85 06be
00000050: 00f2 eebd d11c b6be db74 f9bd 4ac1 28be
00000060: b71b c4bc a207 b7be 7992 383d ee25 7abe
00000070: c029 51bd 47e9 bfbd d0b8 23be 44be 97be
00000080: 163a 98bd 2514 69bd a21b 7ebe 11ba b9bd
00000090: a2c8 4c3e 0fec dfbc ab5f 74be f2a9 b2bd
000000a0: 1414 473e 21bc bdbd 57b6 1bbe 0496 163d
000000b0: c50d bcbd 9493 fabd 9322 a5be 4825 6dbd
000000c0: 0aea e9bd 2e0d 25be 98b6 18bd b53a 823e
000000d0: 2f44 28bc a9ea 223e ecbb 38be 45b3 433e
000000e0: a9b4 c6bd a94b 67bd ee3a abbc 9b5a 97be
000000f0: b1e1 dbbd f03f efbd b50b 2b3e cf70 d0bd
00000100: f467 afbe 6cbe f5bd 2987 aebc 6979 abbd
00000110: 5b30 3cbe ad06 66bb 7657 f03d 5259 89bd
00000120: 80db 433d f116 883d b6ae d0bd 0f74 9ebd
00000130: d0f2 9bbc d99e c1bd 7d36 6ebe 6be4 3a3e
00000140: 5fae 34bd f01b bfbe 411d 74be 41ed 883d
00000150: 2db3 62bd 3209 aabe d272 91bc 52fd 1abe
00000160: 930b a9bd 44b1 bdbd 3cd7 8cbe 2481 54be
00000170: 8032 b4bd 6ac2 8dbe a354 c8bd 229e b8b7
00000180: 3aac 83be 7971 86bd 85fe 9abe 28ed 8ebe
00000190: be23 333e e5c7 88be 5f7a 75be 739e e5bc
000001a0: a69d 643e 7604 19be 3bcf 25be 084e cebd
000001b0: 9ef3 00be c142 a7bd e3ae 0ebe e8e7 41be
000001c0: 1865 d2bd 8030 91bb 87ff 8fbe 880f 99be
000001d0: 8326 163d 8d08 61be a16d 03be 0cb5 bebd
000001e0: bc25 88be 7268 1dbe 453c 15bd b0e2 4b3e
000001f0: e616 3abe f3fe 28bd d6dc 2d3e dda7 92be

lstm.weight_ih_l0 f4 [200, 128]
0.08336251 0.10846462 -0.072482675 -0.029077286 0.09351999 0.06118955 0.13686182 -0.13694903
0.062700115 0.06505666 0.1071416 0.11644133 -0.043983106 -0.13529944 -0.04056806 -0.062177747
-0.16324244 -0.049985588 -0.0730553 -0.10692522 0.0049222247 -0.13703237 -0.32613742 0.013875512
-0.0047490275 -0.10351925 0.022021329 -0.06750109 -0.053418428 -0.02371604 -0.03434586 -0.07190526
-0.039513167 -0.09260291 0.116330005 0.05562817 0.1713525 -0.103453524 0.033219703 -0.12617637
-0.09815238 -0.052303925 -0.15237044 -0.107183546 -0.13621894 -0.04743965 0.09088557 0.081991896
-0.046593282 -0.14655373 -0.09969898 -0.22703388 0.092981875 -0.07465311 -0.11287993 -0.03931164
0.10093987 0.008642051 -0.08000012 0.029439785 0.06014359 -0.14994377 -0.043973703 -0.111727186
0.07988941 0.03151542 0.01238279 0.15991113 0.04028558 0.026169132 -0.08635366 0.020703234
-0.14283255 -0.060463745 -0.0678534 -0.055018574 0.051334515 -0.055856764 0.054055702 -0.1204112
0.053619884 -0.05466301 -0.13998967 0.11106963 -0.124715224 -0.12901066 0.13054061 -0.078532
0.06461825 0.06267535 -0.17793779 0.019036416 0.13221058 0.0356329 -0.076177284 -0.011800446
-0.12019587 -0.24892849 0.06964589 0.076907314 -0.16408736 0.04146383 0.022414215 0.017482555
-0.025781015 -0.10480407 -0.22729614 -0.040096875 0.10264505 0.01227335 0.0008990744 -0.089757144
-0.058104225 -0.18116419 -0.002135215 -0.059972104 -0.041567463 0.036255926 -0.027095864 0.053771254
-0.09256823 0.06679532 0.09225029 -0.04830007 0.054247525 0.12901624 -0.19811365 -0.08060425
-0.07197108 -0.111843124 -0.10006668 -0.06515499 -0.09403421 -0.08438648 -0.06460356 -0.090347834
-0.1706092 -0.13267496 -0.13394177 0.08823404 0.115765154 0.15770735 -0.003729799 0.018985942
-0.047866542 0.12056626 -0.15305962 -0.07011599 0.10636464 0.053536057 -0.107553 0.08678839
0.14885321 -0.030040432 0.06835122 -0.099434525 0.16356236 -0.0123063475 0.0076420144 -0.05389364
0.15645258 0.019543473 0.0556541 0.048310168 -0.22198361 0.14231783 0.0360429 0.09635803
-0.015823193 0.0359292 0.08035222 -0.23142923 0.0746662 -0.12516534 0.057187527 -0.0054927613
0.06536116 -0.13246384 -0.14704603 -0.11674804 0.09342666 -0.07697345 0.025401706 0.143347
-0.13047506 -0.11762015 0.088999726 -0.029814677 0.03362289 -0.09015411 0.13187939 -0.047727622
-0.023369309 -0.23708282 -0.103146285 0.049903795 -0.18055026 -0.051477306 -0.05297477 0.031037876
-0.145284 0.11823408 -0.15139686 -0.1118813 -0.033310615 -0.053203285 -0.13704523 -0.043669708
-0.013560725 -0.019909069 -0.22416496 0.05470559 -0.13464285 -0.049665697 0.2605631 0.027371876
0.07810699 -0.1347452 0.13266103 -0.16503958 -0.20187972 -0.11681956 -0.008674613 0.15853587
-0.047344908 -0.0047112904 -0.2717803 -0.08181741 0.041967522 -0.014204683 0.042626403 -0.12216012
0.028244201 0.047237746 0.071580656 -0.03949523 0.036191553 -0.078671776 -0.006954201 -0.11226716
0.026749885 0.09460254 -0.026579656 0.12348348 -0.02901094 -0.11894063 -0.0558521 -0.14366318
-0.15843342 -0.17528808 -0.039185263 -0.0935338 -0.106122725 -0.074758306 -0.053437702 0.15303591
00000000: f7b9 aa3d b322 de3d cc71 94bd 7d33 eebc
00000010: 6987 bf3d e5a1 7a3d 8125 0c3e 5e3c 0cbe
00000020: eb68 803d 6d3c 853d 0e6d db3d cb78 ee3d
00000030: a127 34bd f08b 0abe b22a 26bd 18ae 7ebd
00000040: 0729 27be b0bd 4cbd 049e 95bd 9cfb dabd
00000050: 9d4a a13b 3752 0cbe 7cfb a6be 1e56 633c
00000060: bb9d 9bbb e701 d4bd 1366 b43c 033e 8abd
00000070: 48cd 5abd 2448 c2bc 3fae 0cbd 1143 93bd
00000080: 8fd8 21bd 98a6 bdbd 6d3e ee3d 5dda 633d
00000090: 0877 2f3e 71df d3bd 6211 083d 6134 01be
000000a0: 1d04 c9bd a43c 56bd ff06 1cbe 0c83 dbbd
000000b0: fa7c 0bbe 1450 42bd 3722 ba3d 5eeb a73d
000000c0: 99d8 3ebd 2e12 16be fb2e ccbd 927b 68be
000000d0: 486d be3d bbe3 98bd 982d e7bd 3e05 21bd
000000e0: 90b9 ce3d 6497 0d3c 1ad7 a3bd b42b f13c
000000f0: 2059 763d dc8a 19be c51d 34bd 39d1 e4bd
00000100: 0f9d a33d 5016 013d 30e1 4a3c bebf 233e
00000110: 7e02 253d a660 d63c 30da b0bd d499 a93c
00000120: b242 12be d5a8 77bd b9f6 8abd 285b 61bd
00000130: 2444 523d 10ca 64bd 8369 5d3d 269a f6bd
00000140: 86a0 5b3d 52e6 5fbd 7459 0fbe 7978 e33d
00000150: b26a ffbd 5f1b 04be 70ac 053e 63d5 a0bd
00000160: 9356 843d ef5b 803d 5335 36be 42f2 9b3c
00000170: 3662 073e cef3 113d d602 9cbd a856 41bc
00000180: 4129 f6bd 1ce7 7ebe 81a2 8e3d 9581 9d3d
00000190: 8406 28be fad5 293d 049e b73c 9337 8f3c
000001a0: b532 d3bc 84a3 d6bd 52c0 68be 9f3c 24bd
000001b0: 9137 d23d 2916 493c ddaf 6b3a 98d2 b7bd
000001c0: b2fe 6dbd 1b83 39be f7ee 0bbb 4fa5 75bd
000001d0: a542 2abd 1881 143d 25f8 ddbc 3f3f 5c3d
000001e0: 6a94 bdbd fccb 883d b8ed bc3d 4bd6 45bd
000001f0: a732 5e3d d51c 043e 4ede 4abe d713 a5bd
00000200: 9365 93bd 020e e5bd c2ef ccbd fb6f 85bd
00000210: 0295 c0bd d2d2 acbd df4e 84bd 4908 b9bd
00000220: 2eb4 2ebe f2db 07be 0828 09be 0cb4 b43d
00000230: 4816 ed3d 097e 213e a56f 74bb 6888 9b3c
00000240: b50f 44bd 71eb f63d a9bb 1cbe f998 8fbd
00000250: b4d5 d93d a048 5b3d bf44 dcbd 1dbe b13d
00000260: fa6c 183e 5a17 f6bc b9fb 8b3d 54a4 cbbd
00000270: e47c 273e 90a0 49bc dd69 fa3b 94bf 5cbd
00000280: 1b35 203e a219 a03c 8ef5 633d e2e0 453d
00000290: ac4f 63be c4bb 113e b8a1 133d 5c57 c53d
000002a0: a49f 81bc 7f2a 133d b48f a43d c9fb 6cbe
000002b0: 98ea 983d 582b 00be 783d 6a3d 9ffc b3bb
000002c0: 12dc 853d 9aa4 07be 3c93 16be 9919 efbd
000002d0: 7a56 bf3d 42a4 9dbd 3d17 d03c 8ec9 123e
000002e0: 419b 05be d5e2 f0bd 7d45 b63d e93d f4bc
000002f0: 28b8 093d b8a2 b8bd 640b 073e 0a7e 43bd
00000300: fe70 bfbc d7c5 72be 5c3e d3bd ec67 4c3d
00000310: 2be2 38be ded9 52bd 13fc 58bd 2543 fe3c
00000320: 54c5 14be b624 f23d c707 1bbe 0622 e5bd
00000330: b670 08bd b0eb 59bd 9655 0cbe 02df 32bd
00000340: ce2d 5ebc 5818 a3bc 808b 65be f812 603d
00000350: d1df 09be 426e 4bbd 8768 853e fc3a e03c
00000360: 8ff6 9f3d a5fa 09be 4bd8 073e 2300 29be
00000370: 8fb9 4ebe 183f efbd f71f 0ebc 3a57 223e
00000380: bcec 41bd 2b61 9abb ca26 8bbe e38f a7bd
00000390: 23e6 2b3d c2ba 68bc 0699 2e3d 162f fabd
000003a0: 6260 e73c 5e7c 413d e198 923d c0c5 21bd
000003b0: 983d 143d ab1e a1bd 11e0 e3bb 53ec e5bd
000003c0: 9322 db3c fabe c13d 94bd d9bc e8e4 fc3d
000003d0: 5aa8 edbc 2597 f3bd 2cc5 64bd 711c 13be
000003e0: 5f3c 22be b87e 33be ba80 20bd a68e bfbd
000003f0: df56 d9bd e21a 99bd 7ee1 5abd 72b5 1c3e

lstm.weight_hh_l0 f4 [200, 50]
-0.0038380602 0.02600344 -0.046645835 -0.12543109 0.0768408 0.09249326 -0.020200819 -0.041429505
0.073198505 -0.10479469 -0.10585462 0.11648002 0.091506794 -0.09252254 -0.035308436 -0.09082963
-0.022253515 0.5891625 0.016580956 -0.14652196 -0.086941846 0.17644298 0.19285113 0.13856208
0.13823815 -0.1284763 0.19858311 -0.121560335 0.08957431 -0.17175384 -0.0695033 -0.021247705
-0.13198313 0.2792657 0.20564185 0.012952688 -0.058033332 -0.051837076 0.002395013 -0.1364377
-0.08307092 -0.02351138 -0.24313377 0.057235528 -0.115214005 0.08274059 0.09457451 0.02624234
-0.043449268 -0.16724801 0.04288823 0.087270305 0.02737433 0.03270321 -0.044716347 -0.103394784
0.055819437 0.0035873603 0.02634772 0.06624793 -0.00039171218 0.021233492 -0.036032513 -0.110032305
-0.0037736732 0.13909857 0.041341446 -0.290758 -0.029792514 0.04529381 -0.20613548 -0.13073932
0.008218586 0.22410034 0.004791623 -0.19405322 0.013674582 0.08037645 -0.2569503 0.13162148
0.005724657 0.1345428 -0.027676355 -0.0338433 0.06649508 -0.082943246 0.22875611 0.011180922
-0.10122179 0.054187912 0.18850005 -0.0022771647 0.12826109 -0.022339318 -0.058924288 0.11435025
-0.043952033 0.053730354 0.039890338 0.009382398 0.020322336 -0.023618124 0.04078369 0.024420489
0.10545152 0.34416613 0.056468096 0.032183744 -0.2138101 0.021449633 0.11689251 0.10348506
0.19361064 0.119697034 0.17624427 0.022924988 0.22198564 0.15150385 -0.032089688 -0.012072418
0.20072536 0.057849746 -0.045610733 0.08135195 0.14314988 -0.27080035 0.17033584 0.0792988
-0.08838436 0.02979547 -0.17492686 0.15387838 -0.11458958 0.023237655 0.19112603 -0.13759582
-0.1670976 -0.0034822188 0.038087677 -0.082655616 0.15657797 -0.110677436 -0.102304816 0.2286915
-0.09379881 -0.06932831 0.070321165 -0.16710852 0.16266923 -0.04106077 0.07968529 -0.022566035
-0.21971235 0.1417334 0.16434203 0.14546934 0.14291868 0.07982515 0.027350588 0.22284114
-0.13003892 0.052499402 0.28558135 0.15813339 0.03207093 -0.10394479 -0.041160215 0.32202375
-0.125523 -0.10200933 0.15376969 0.043490835 -0.043899354 -0.32096595 0.34367916 0.037115637
-0.04060828 0.18557072 -0.024616228 0.028554441 -0.13506332 0.06206204 -0.07351726 -0.07179678
-0.08465178 -0.056594413 -0.04361942 -0.09644087 -0.05411385 0.13859078 0.015177429 -0.16420916
-0.058499668 0.14409402 -0.12749128 -0.26505482 -0.07493036 -0.20639412 0.1709308 -0.023977935
0.07191226 0.1818352 -0.08278869 -0.028119579 0.19100845 0.22371487 0.1291724 -0.05702195
-0.25298783 -0.1975668 0.030897776 -0.17366102 -0.09066363 -0.040330008 0.11955351 0.10721734
0.052063376 0.10550253 0.15791033 -0.048034284 -0.009507786 0.11981782 -0.19857208 -0.013763832
-0.11215811 0.022413991 0.24943958 0.033821892 0.052340515 0.16430616 0.092960544 0.24455555
0.16418998 -0.046828005 -0.28089577 -0.018908879 -0.15681353 0.058607534 -0.025132973 0.05343525
0.20690958 0.1757031 -0.036130153 0.048021358 -0.027731838 -0.050282665 -0.22633865 0.25586998
-0.029414887 0.010948289 -0.18934962 -0.013390656 -0.12939562 0.085076615 0.17876622 0.042039987
00000000: f787 7bbb 2b05 d53c b40f 3fbd 0271 00be
00000010: b65e 9d3d 1b6d bd3d 307c a5bc fcb1 29bd
00000020: 19e9 953d 999e d6bd 4fca d8bd 148d ee3d
00000030: ea67 bb3d 757c bdbd 949f 10bd e304 babd
00000040: 014d b6bc 5bd3 163f c9d4 873c da09 16be
00000050: 910e b2bd 78ad 343e c47a 453e 38e3 0d3e
00000060: 4d8e 0d3e 4b8f 03be 5f59 4b3e a0f4 f8bd
00000070: bc72 b73d 3de0 2fbe bf57 8ebd ab0f aebc
00000080: 9626 07be eafb 8e3e c793 523e 8337 543c
00000090: 5cb4 6dbd 1d53 54bd a7f5 1c3b 53b6 0bbe
000000a0: 1621 aabd f09a c0bc 0ff8 78be cd6f 6a3d
000000b0: 52f5 ebbd e673 a93d 48b0 c13d 2dfa d63c
000000c0: dcf7 31bd 1043 2bbe 92ab 2f3d c6ba b23d
000000d0: 2240 e03c cdf3 053d 7d28 37bd a5c0 d3bd
000000e0: eca2 643d eb19 6b3b 2cd7 d73c ffac 873d
000000f0: b85e cdb9 dcf1 ad3c d496 13bd 9e58 e1bd
00000100: bb4f 77bb db6f 0e3e a655 293d 3cde 94be
00000110: 6e0f f4bc 0186 393d 2e15 53be 87e0 05be
00000120: 40a7 063c 8f7a 653e 0c03 9d3b e3b5 46be
00000130: 5b0b 603c 699c a43d fd8e 83be c8c7 063e
00000140: e795 bb3b 96c5 093e 86b9 e2bc 469f 0abd
00000150: 932e 883d 26de a9bd 0b3f 6a3e 3030 373c
00000160: 5f4d cfbd 25f4 5d3d 2806 413e 7c3c 15bb
00000170: e056 033e f200 b7bc 985a 71bd 7730 ea3d
00000180: 0c07 34bd 5c14 5c3d 0d64 233d a1b8 193c
00000190: 077b a63c cc7a c1bc cc0c 273d 7a0d c83c
000001a0: f7f6 d73d 8b36 b03e 174b 673d 1ad3 033d
000001b0: 09f1 5abe 24b7 af3c 5765 ef3d faef d33d
000001c0: de41 463e b823 f53d 6179 343e 2fcd bb3c
000001d0: 3450 633e d323 1b3e 7a70 03bd 64cb 45bc
000001e0: f38a 4d3e dbf3 6c3d 52d2 3abd da9b a63d
000001f0: e295 123e 58a6 8abe 856c 2e3e 6967 a23d
00000200: dc02 b5bd a115 f43c 0720 33be 4b92 1d3e
00000210: f1ad eabd e55c be3c 8bb6 433e ebe5 0cbe
00000220: a21b 2bbe f035 64bb d301 1c3d 5947 a9bd
00000230: fa55 203e daaa e2bd 3085 d1bd 1b2e 6a3e
00000240: 9719 c0bd 00fc 8dbd 8b04 903d 7f1e 2bbe
00000250: c392 263e 572f 28bd 0b32 a33d 68dc b8bc
00000260: 46fc 60be 8f22 113e 4749 283e eaf5 143e
00000270: 4659 123e 5e7b a33d 570e e03c 7830 643e
00000280: ec28 05be 9d09 573d b837 923e b8ed 213e
00000290: cf5c 033d 02e1 d4bd 9d97 28bd 4ce0 a43e
000002a0: 1a89 00be 45ea d0bd cd75 1d3e 7223 323d
000002b0: cfcf 33bd a655 a4be b7f6 af3e 9106 183d
000002c0: de54 26bd 4006 3e3e f9a7 c9bc 01eb e93c
000002d0: 0a4e 0abe c434 7e3d 3890 96bd 310a 93bd
000002e0: ea5d adbd 8bcf 67bd 47aa 32bd ca82 c5bd
000002f0: 7ca6 5dbd beea 0d3e c0aa 783c 7226 28be
00000300: 599d 6fbd 628d 133e 138d 02be 44b5 87be
00000310: 1775 99bd fb58 53be 7c08 2f3e 606d c4bc
00000320: bc46 933d 0233 3a3e 1e8d a9bd 085b e6bc
00000330: b897 433e 8315 653e c545 043e d98f 69bd
00000340: 9f87 81be f44e 4abe 551d fd3c 32d4 31be
00000350: daad b9bd 1431 25bd 78d8 f43d c494 db3d
00000360: 6840 553d b611 d83d 3fb3 213e 99bf 44bd
00000370: 8bc6 1bbc 0c63 f53d 7b56 4bbe b281 61bc
00000380: 27b3 e5bd 8c9d b73c 176d 7f3e d388 0a3d
00000390: 0263 563d e03f 283e 1962 be3d c56c 7a3e
000003a0: 6b21 283e b9ce 3fbd 92d1 8fbe cbe6 9abc
000003b0: ba93 20be 740e 703d aae3 cdbc ecde 5a3d
000003c0: 1be0 533e 83eb 333e 36fd 13bd 0bb2 443d
000003d0: e12d e3bc 32f5 4dbd 52c5 67be 6401 833e
000003e0: 7df7 f0bc 7460 333c dee4 41be 7b64 5bbc
000003f0: 4980 04be a63c ae3d 7e0e 373e 1f32 2c3d

lstm.bias_ih_l0 f4 [200]
-0.09259473 0.08831246 0.11175255 -0.19801664 0.11929648 0.008275091 -0.29090923 -0.20980033
0.069900624 -0.011416645 -0.054146137 0.06297671 -0.18969747 -0.14773512 0.047504872 0.42936066
-0.18536901 0.2681685 0.2267357 -0.12537462 -0.13524339 -0.20804387 0.033216972 -0.09052046
-0.3105708 0.20363069 -0.09319229 -0.2909276 -0.227623 -0.19526613 0.13536544 0.039843645
-0.13845502 -0.20572558 0.21401969 0.051634617 0.18364002 -0.13353235 -0.09049034 -0.1650968
0.089389645 -0.06820948 0.14725058 -0.22536762 -0.112540215 -0.02905326 0.033355296 -0.25818458
-0.07119281 0.11073946 -0.08073364 0.08664262 -0.008073016 -0.08723244 -0.28983656 -0.0018006198
-0.03175614 -0.0369895 -0.2357467 -0.12774873 -0.0712546 -0.03868138 0.0075137895 0.20313302
0.057561412 -0.25820997 -0.098042116 -0.23095483 0.058446087 0.18644463 -0.042347718 -0.06167996
-0.0036349148 0.08696845 0.1826103 -0.006465797 -0.14110038 0.095037125 -0.011672243 -0.04244369
-0.05167766 0.06514743 -0.17191006 0.20634224 -0.29021868 0.27887192 -0.1196092 -0.030711047
0.10656946 -0.14522915 -0.17737682 0.028762514 -0.0059401905 -0.02781691 0.11047993 -0.087642774
-0.007967203 -0.15303297 -0.20635359 -0.11025996 -0.056127165 0.12078433 0.10387013 -0.10075312
0.0035119576 -0.026913308 -0.084718555 0.01538963 -0.04203299 -0.10858595 0.13083696 -0.043640904
-0.14556183 -0.14292294 -0.14771971 -0.16436999 -0.088786215 0.08666132 0.13674358 0.022501718
0.028798494 -0.004666131 0.12331148 0.1638943 -0.16251451 -0.2063155 -0.010372479 -0.17107725
-0.063793264 0.018764108 0.029961541 -0.100232355 0.1234184 -0.013177593 0.04974313 0.11015215
0.15056899 0.10442565 -0.16799363 -0.010859745 -0.0831077 -0.078210816 0.011275462 0.05135381
0.010321589 0.19381703 -0.006066207 -0.17491163 -0.093315855 -0.16237327 -0.101917244 0.10418196
-0.10917979 -0.03361871 0.08027534 -0.1343078 -0.21609472 -0.24478489 0.24213672 0.1165093
-0.2540968 0.06646627 0.05935596 0.04595719 -0.112594225 0.18267454 -0.15556206 0.3621297
0.011260526 -0.030144498 -0.091903314 -0.26766598 -0.05515285 -0.21752623 -0.13314742 0.16403732
-0.101473965 -0.018035045 -0.16917403 0.01938946 0.14103542 -0.14531949 0.033224814 -0.1360836
0.113280706 0.061493404 0.23291802 -0.024324179 0.09911904 -0.04603206 0.13350345 0.080181554
0.17604545 -0.016850522 0.07992508 -0.3273022 -0.029427929 -0.058130108 -0.19831133 -0.14787497
00000000: 4ea2 bdbd 2add b43d 85de e43d e0c4 4abe
00000010: b751 f43d 3f94 073c 0ef2 94be e6d5 56be
00000020: 0f28 8f3d e10c 3bbc 57c8 5dbd eff9 803d
00000030: 0e40 42be e047 17be 7894 423d 29d5 db3e
00000040: 60d1 3dbe 624d 893e 672d 683e 3462 00be
00000050: 3e7d 0abe 7409 55be 850e 083d ca62 b9bd
00000060: 2303 9fbe 9084 503e 99db bebd 76f4 94be
00000070: 0116 69be d8f3 47be 3d9d 0a3e 1733 233d
00000080: 27c7 0dbe baa9 52be fa27 5b3e d27e 533d
00000090: 210c 3c3e b4bc 08be 0053 b9bd 230f 29be
000000a0: eb11 b73d 69b1 8bbd dbc8 163e c5c6 66be
000000b0: 7c7b e6bd 1a01 eebc 909f 083d c530 84be
000000c0: 89cd 91bd 5fcb e23d ae57 a5bd b071 b13d
000000d0: af44 04bc eca6 b2bd 7565 94be c602 ecba
000000e0: ba12 02bd 4d82 17bd 9567 71be 90d0 02be
000000f0: efed 91bd 5e70 1ebd 3c36 f63b 1a02 503e
00000100: 84c5 6b3d 1934 84be 4eca c8bd 6c7f 6cbe
00000110: 2a65 6f3d 57eb 3e3e cd74 2dbd 20a4 7cbd
00000120: c037 6ebb 841c b23d 32fe 3a3e 09df d3bb
00000130: 9e7c 10be d3a2 c23d ef3c 3fbc 6fd9 2dbd
00000140: f4ab 53bd 046c 853d 3109 30be 614b 533e
00000150: 8b97 94be 4dc8 8e3e abf5 f4bd bc95 fbbc
00000160: 1741 da3d f3b6 14be 45a2 35be 5d9f eb3c
00000170: eea5 c2bb 4ae0 e3bc 4d43 e23d 0e7e b3bd
00000180: df88 02bc adb4 1cbe 5b4e 53be f9cf e1bd
00000190: 99e5 65bd c65d f73d ddb9 d43d a757 cebd
000001a0: df28 663b 4c79 dcbc ec80 adbd c924 7c3c
000001b0: c92a 2cbd 5062 debd 20fa 053e cec0 32bd
000001c0: 290e 15be 645a 12be d643 17be 9b50 28be
000001d0: 8cd5 b5bd 7d7b b13d 8206 0c3e 8655 b83c
000001e0: d2ea eb3c 58e6 98bb bb8a fc3d e8d3 273e
000001f0: 346a 26be 5f44 53be 55f1 29bc e02e 2fbe
00000200: 0ba6 82bd 30b7 993c e871 f53c 9f46 cdbd
00000210: c9c2 fc3d d5e6 57bc 74bf 4b3d 7397 e13d
00000220: c22e 1a3e 1ddd d53d 8606 2cbe 12ed 31bc
00000230: 5f34 aabd fe2c a0bd b7bc 383c 5f58 523d
00000240: e21b 293c f977 463e 08c7 c6bb 091c 33be
00000250: 621c bfbd 2e45 26be fdb9 d0bd 5a5d d53d
00000260: a799 dfbd c6b3 09bd 6667 a43d fc87 09be
00000270: ef47 5dbe e4a8 7abe b0f2 773e 6e9c ee3d
00000280: fa18 82be 781f 883d 3c1f 733d 9b3d 3c3d
00000290: cd97 e6bd 090f 3b3e a94b 1fbe 1069 b93e
000002a0: 127e 383c 98f1 f6bc ce37 bcbd 840b 89be
000002b0: f4e7 61bd 32bf 5ebe cc57 08be 66f9 273e
000002c0: 95d1 cfbd 3bbe 93bc f53b 2dbe a5d6 9e3c
000002d0: 976b 103e a2ce 14be be16 083d 8059 0bbe
000002e0: b7ff e73d 82e0 7b3d 1082 6e3e 8043 c7bc
000002f0: ecfe ca3d 1d8c 3cbd 21b5 083e 3a36 a43d
00000300: 4245 343e 1b0a 8abc c3af a33d 2794 a7be
00000310: d712 f1bc d619 6ebd 2012 4bbe 896c 17be

lstm.bias_hh_l0 f4 [200]
-0.18714885 0.2531298 0.1101157 -0.05911766 -0.060980238 0.02021551 -0.32676113 -0.09810598
0.05773733 0.056493513 -0.14310749 -0.076717615 -0.016499266 -0.07656282 -0.1519859 0.22470431
0.00993148 0.44769317 0.24203618 -0.25252837 -0.010603592 0.00796817 -0.11740648 -0.085117914
-0.25224897 0.27028716 -0.21685848 -0.26519722 -0.2282521 -0.29829934 -0.04458047 0.0033420639
-0.049950894 -0.044718836 0.25174704 -0.062937155 0.033268027 -0.014757889 -0.23195064 -0.04477396
0.12233154 -0.048949767 0.10949039 -0.14979605 -0.1259807 -0.22305287 -0.15038955 -0.15557118
-0.26137432 0.08021414 -0.10753585 0.09730066 -0.22512671 0.15882902 -0.29579163 -0.11691958
0.014295985 0.013703207 -0.21852012 -0.054733165 -0.051758707 -0.01121165 -0.02257095 0.39340374
0.09438336 -0.27643934 -0.058733493 -0.24378012 -0.07366699 0.13372013 -0.06494656 0.16224974
-0.0015285648 0.054980054 0.075667635 -0.12234874 -0.1835027 -0.022660637 -0.03453339 -0.19746059
-0.2232379 -0.1112156 -0.055824436 0.119841814 -0.050386697 0.2574808 -0.0016452246 -0.052512795
-0.004465372 -0.0366544 -0.049219474 -0.06825399 -0.13846071 0.12253404 -0.02327859 0.04078504
-0.018010834 -0.023014296 -0.24640283 -0.21342416 0.07893267 0.0012315755 0.01794967 -0.0047812248
-0.20628105 -0.06422758 -0.14109075 0.07844591 -0.103477806 0.11411915 0.09205669 -0.057117064
-0.12255226 0.030887967 -0.00709622 -0.17181316 -0.017516848 0.16681458 0.050335433 0.14405403
-0.022556473 0.08780453 0.12127733 0.16940783 -0.20499521 -0.19050677 -0.014526938 -0.0012762122
0.023370879 -0.06156427 -0.15835647 -0.11985244 0.19942015 0.026587443 -0.12557438 -0.013902425
0.16464923 0.13442291 -0.012622538 -0.044407833 -0.14521354 0.03853369 -0.11594329 0.070048064
0.14595443 0.13954304 0.10201967 0.02101487 -0.045396745 -0.06677743 0.0028048346 0.045543224
-0.13397487 -0.150335 0.031446435 -0.11926209 -0.31514043 -0.098832265 0.09183226 0.18269004
-0.08561892 0.016395072 0.020044884 -0.01866008 -0.13055365 0.24506971 -0.21499896 0.3666061
0.12530059 -0.009152283 -0.03319055 -0.11715105 -0.11103501 -0.039958205 -0.11750071 0.19844887
-0.17065617 -0.14638638 -0.012497321 -0.058542702 0.15034153 -0.14649855 -0.011522812 -0.095317334
0.09789306 0.052921712 0.20452367 -0.038413584 0.052046828 -0.10813542 0.021289445 0.13717103
0.04983654 -0.00029101898 0.040932003 -0.29826686 0.06261798 -0.20927662 -0.13615057 -0.13347487
00000000: f3a3 3fbe 3b9a 813e 5784 e13d 5c25 72bd
00000010: 6ac6 79bd ff9a a53c 3c4d a7be caeb c8bd
00000020: fb7d 6c3d be65 673d c58a 12be 201e 9dbd
00000030: 7829 87bc f8cc 9cbd 31a2 1bbe e318 663e
00000040: a5b7 223c 0a38 e53e 55d8 773e 664b 81be
00000050: b0ba 2dbc ed8c 023c cf72 f0bd 4d52 aebd
00000060: c726 81be 1463 8a3e 2610 5ebe eec7 87be
00000070: ebba 69be b1ba 98be 039a 36bd 8706 5b3b
00000080: 4f99 4cbd 192b 37bd fde4 803e 32e5 80bd
00000090: 0e44 083d 13cb 71bc 7884 6dbe e664 37bd
000000a0: f588 fa3d 8d7f 48bd 7f3c e03d 2364 19be
000000b0: 1601 01be f967 64be b8ff 19be 0d4e 1fbe
000000c0: dbd2 85be 5047 a43d c13b dcbd 9245 c73d
000000d0: 9e87 66be 13a4 223e 0072 97be 8873 efbd
000000e0: b539 6a3c 6a83 603c bdc3 5fbe e22f 60bd
000000f0: f000 54bd 12b1 37bc b7e6 b8bc 376c c93e
00000100: 104c c13d 7589 8dbe 8892 70bd 7fa1 79be
00000110: b8de 96bd eeed 083e b402 85bd cc24 263e
00000120: 205a c8ba c432 613d a2f7 9a3d fa91 fabd
00000130: 22e8 3bbe cda2 b9bc e272 0dbd 1c33 4abe
00000140: 7a98 64be 01c5 e3bd 2aa8 64bd a06f f53d
00000150: 4862 4ebd 86d4 833e 94a4 d7ba a817 57bd
00000160: 4152 92bb ed22 16bd 5c9a 49bd bfc8 8bbd
00000170: a5c8 0dbe 20f3 fa3d beb2 bebc 370e 273d
00000180: 758b 93bc 7a88 bcbc 0651 7cbe dd8b 5abe
00000190: 74a7 a13d d16c a13a 300b 933c d2ab 9cbb
000001a0: 573b 53be c089 83bd 187a 10be 40a8 a03d
000001b0: 2cec d3bd 4db7 e93d 3888 bc3d 95f3 69bd
000001c0: aefc fabd c308 fd3c 6887 e8bb caef 2fbe
000001d0: 7e7f 8fbc 71d1 2a3e 872c 4e3d e682 133e
000001e0: 5ac8 b8bc ddd2 b33d 4060 f83d 3f79 2d3e
000001f0: 44ea 51be 3514 43be 6502 6ebc 9346 a7ba
00000200: 4974 bf3c d12a 7cbd 3328 22be 3275 f5bd
00000210: cc34 4c3e e9cd d93c 9296 00be ffc6 63bc
00000220: cf99 283e 29a6 093e c3ce 4ebc fde4 35bd
00000230: dcb2 14be 81d5 1d3d ad73 edbd 5c75 8f3d
00000240: 1475 153e 5fe4 0e3e b0ef d03d 6027 ac3c
00000250: f0f1 39bd 9bc2 88bd 51d1 373b 888b 3a3d
00000260: b530 09be 6bf1 19be facd 003d af3f f4bd
00000270: 165a a1be 9268 cabd 8d12 bc3d 1913 3b3e
00000280: f958 afbd f54e 863c 2b35 a43c 06dd 98bc
00000290: dbaf 05be 8ef3 7a3e b028 5cbe cbb3 bb3e
000002a0: cc4e 003e 75f3 15bc d0f2 07bd e4ec efbd
000002b0: 5366 e3bd 37ab 23bd 36a4 f0bd 2e36 4b3e
000002c0: 7ec0 2ebe 50e6 15be 90c1 4cbc 79ca 6fbd
000002d0: 21f3 193e b703 16be 2dca 3cbc bc35 c3bd
000002e0: 287c c83d 70c4 583d a76e 513e 9057 1dbd
000002f0: 0e2f 553d 1a76 ddbd 3467 ae3c 9076 0c3e
00000300: 6621 4c3d e893 98b9 51a8 273d 6fb6 98be
00000310: db3d 803d 9c4c 56be 0e6b 0bbe a3ad 08be

lstm.weight_ih_l1 f4 [200, 50]
-0.19949852 -0.1774897 -0.07465848 0.22174713 0.14541544 0.18295766 0.083218955 0.047393106
0.21532291 -0.022611931 -0.128926 0.03607604 0.09379758 0.0063304785 0.16009341 0.27210522
0.14374082 -0.22205532 0.019490372 -0.28797272 -0.024277924 0.02392664 -0.20161751 0.08551912
0.107496955 0.11616646 -0.0717475 0.16594908 -0.008703183 -0.29588243 0.008920427 0.16180217
-0.024594098 -0.08908657 -0.22128585 0.11253111 -0.24370348 -0.071925394 0.20522746 0.08754691
-0.08279766 0.19076411 0.13254058 0.16880631 0.12282141 -0.20839207 0.27424332 0.18737023
0.11532709 0.122128464 -0.005740406 -0.26823065 0.10253431 -0.04338086 -0.008991347 -0.0042716847
0.033321857 -0.10647169 -0.011701102 -0.036125306 -0.01791163 0.093541175 0.14644319 0.114837274
0.11579883 0.105499074 0.043924157 0.035042055 0.1981363 -0.19768293 0.082929514 0.010944523
-0.14571907 -0.0077860444 -0.11442161 -0.039419368 -0.06502906 0.21066298 0.023371376 -0.0843246
0.0057623666 -0.18219328 0.15014564 0.056879316 -0.018718261 0.058012497 -0.07425801 -0.17888686
-0.011420551 0.08371426 0.024477575 -0.18096419 0.076612115 -0.03555725 0.071395464 0.017221423
0.121067666 -0.17288132 -0.04370121 0.15417479 0.16923864 0.2597137 0.17240584 -0.21601523
0.07270794 -0.011437237 -0.30665088 -0.0396184 -0.085767694 -0.047482878 -0.111620836 0.15698162
-0.072539136 -0.09153433 -0.10266731 0.18853179 -0.06736173 -0.47670922 -0.184709 0.3205333
0.1266741 0.1365386 -0.124617524 0.11403523 -0.029490646 -0.0672705 -0.021319017 -0.1827075
-0.026553264 -0.01598415 -0.25914314 -0.15428203 0.076097086 -0.23951022 0.0014807445 -0.06793287
-0.34077194 -0.084034964 -0.100125335 0.023684053 -0.044055313 -0.03237842 -0.07868055 0.021266492
0.03564742 0.30767834 0.41858682 0.07118671 -0.22091617 0.06750683 0.0817769 0.05305793
-0.026625754 0.083975784 -0.024395438 0.1666964 0.005902523 -0.0071708127 0.20668946 -0.1925967
-0.097103305 0.1313397 0.1294173 0.07869941 -0.033644367 -0.044640366 0.14558747 -0.32843587
0.41250658 -0.09747149 -0.0735566 0.049602974 -0.10727361 -0.0747514 -0.014239181 -0.15032703
-0.16353838 -0.1051471 -0.04960207 0.046776354 0.017759636 0.013781696 -0.09100727 0.025314061
-0.16397591 0.17159696 -0.1609134 -0.04578574 0.06746128 -0.103073 0.077194534 -0.015595293
-0.011224403 -0.0073693553 0.055524178 -0.24834812 -0.1762885 0.11525363 -0.06886843 -0.1385042
-0.012180063 0.06935362 -0.08518932 -0.1293963 0.046727736 0.053671274 0.1516968 -0.04159586
-0.006567445 0.23768477 0.06621963 -0.03296417 0.13416573 0.0883839 0.16035645 -0.018312648
-0.18238191 0.12070034 0.17706504 -0.041679304 0.08904148 -0.016885195 0.048013862 0.09404598
0.14854065 -0.35371238 -0.12810457 -0.082673535 0.064319246 -0.074409574 -0.19213638 -0.14782348
0.007489288 0.0073705427 0.17364922 0.25090253 0.15378645 0.19783297 -0.098290466 0.10710315
-0.16319755 -0.20277572 -0.1392889 0.13510565 0.062587164 0.055310316 0.025281444 -0.06256796
0.126891 0.1588615 -0.117756106 -0.011377058 -0.12788004 -0.00010192745 -0.06620748 0.13177449
00000000: 5749 4cbe dcbf 35be 8ce6 98bd ae11 633e
00000010: c9e7 143e 4159 3b3e b36e aa3d 461f 423d
00000020: 9c7d 5c3e a83c b9bc 2d05 04be 78c4 133d
00000030: f218 c03d e76f cf3b 87ef 233e 6051 8b3e
00000040: cb30 133e 7862 63be 46aa 9f3c 2971 93be
00000050: 7fe2 c6bc cd01 c43c d274 4ebe a624 af3d
00000060: 5d27 dc3d aee8 ed3d 5af0 92bd 8eee 293e
00000070: cc97 0ebc e77d 97be fc26 123c 78af 253e
00000080: 9079 c9bc 0573 b6bd c298 62be b676 e63d
00000090: 688d 79be 9f4d 93bd 2627 523e cb4b b33d
000000a0: d291 a9bd ab57 433e b8b8 073e 90db 2c3e
000000b0: cb89 fb3d bb64 55be 9f69 8c3e fbdd 3f3e
000000c0: 9c30 ec3d 7d1e fa3d 041a bcbb 8755 89be
000000d0: 82fd d13d 21b0 31bd 7150 13bc 7df9 8bbb
000000e0: 807c 083d d40d dabd fbb5 3fbc 21f8 13bd
000000f0: 69bb 92bc 8492 bf3d 34f5 153e ce2f eb3d
00000100: f027 ed3d e60f d83d d1e9 333d 4288 0f3d
00000110: 3ee4 4a3e 656d 4abe f3d6 a93d a850 333c
00000120: 6137 15be 1322 ffbb e155 eabd 3476 21bd
00000130: f52d 85bd 09b8 573e 5475 bf3c 60b2 acbd
00000140: 3cd2 bc3b e090 3abe c7bf 193e 49fa 683d
00000150: 0a57 99bc 839e 6d3d 9514 98bd 1e2e 37be
00000160: 431d 3bbc 6272 ab3d 3285 c83c ad4e 39be
00000170: d0e6 9c3d 7ba4 11bd c937 923d f113 8d3c
00000180: 53f2 f73d cd07 31be 0a00 33bd ffdf 1d3e
00000190: e54c 2d3e 32f9 843e 288b 303e 1933 5dbe
000001a0: e7e7 943d 4063 3bbc 5801 9dbe e746 22bd
000001b0: f9a6 afbd 687d 42bd 7799 e4bd cabf 203e
000001c0: 668f 94bd 5a76 bbbd 3d43 d2bd 7a0e 413e
000001d0: f2f4 89bd 3b13 f4be 5b24 3dbe f11c a43e
000001e0: dbb6 013e c6d0 0b3e 7937 ffbd 4d8b e93d
000001f0: 5e96 f1bc 1ec5 89bd 38a5 aebc ad17 3bbe
00000200: 3b86 d9bc 31f1 82bc 69ae 84be 1cfc 1dbe
00000210: cad8 9b3d 2b42 75be 8a15 c23a 6320 8bbd
00000220: a979 aebe 861a acbd 830e cdbd 0f05 c23c
00000230: 5873 34bd 3c9f 04bd 4523 a1bd 1137 ae3c
00000240: 0703 123d 0488 9d3e 0351 d63e 56ca 913d
00000250: d937 62be 0541 8a3d a67a a73d 4653 593d
00000260: 411e dabc 7ffb ab3d f1d8 c7bc 76b2 2a3e
00000270: f469 c13b 23f9 eabb 67a6 533e 1238 45be
00000280: 19de c6bd ea7d 063e f885 043e 282d a13d
00000290: adce 09bd d1d8 36bd e214 153e bf28 a8be
000002a0: 1034 d33e 229f c7bd d8a4 96bd 7d2c 4b3d
000002b0: 44b2 dbbd 4317 99bd 744b 69bc 54ef 19be
000002c0: 9b76 27be 5d57 d7bd 8a2b 4bbd 9098 3f3d
000002d0: a87c 913c 9fcc 613c 0562 babd 6f5f cf3c
000002e0: 4de9 27be 1db7 2f3e 7bc6 24be d489 3bbd
000002f0: 2429 8a3d f017 d3bd 2b18 9e3d 6683 7fbc
00000300: 8fe6 37bc a27a f1bb 526d 633d f84e 7ebe
00000310: f984 34be 180a ec3d e40a 8dbd 0cd4 0dbe
00000320: e38e 47bc 4509 8e3d bd77 aebd 7780 04be
00000330: 9565 3f3d 69d6 5b3d 6856 1b3e 6c60 2abd
00000340: b933 d7bb a363 733e 289e 873d 7005 07bd
00000350: be62 093e 9e02 b53d 7b34 243e 6804 96bc
00000360: 53c2 3abe bd31 f73d 8a50 353e ebb7 2abd
00000370: 615b b63d d252 8abc 2faa 443d 2e9b c03d
00000380: 0a1b 183e ca19 b5be d82d 03be be50 a9bd
00000390: cfb9 833d 0c64 98bd 66bf 44be 0a5f 17be
000003a0: b468 f53b 9884 f13b 1ad1 313e 4c76 803e
000003b0: 327a 1d3e ba94 4a3e 834c c9bd e558 db3d
000003c0: 421d 27be 70a4 4fbe c0a1 0ebe 2359 0a3e
000003d0: b32d 803d 128d 623d 081b cf3c a123 80bd
000003e0: b7ef 013e 97ac 223e 1d2a f1bd d766 3abc
000003f0: fcf2 02be e2c1 d5b8 ca97 87bd e4ef 063e
