pol_models/dust_model_state.pt (torch, 650353 bytes, 16 tensors)

conv1.weight f4 [64, 300, 3]
0	0x3c179dad	0.009253901
1	0xbca74585	-0.020418892
2	0xbc40dc47	-0.011771268
3	0x3c897e51	0.016783865
4	0xbc9077f1	-0.017635318
5	0xbcb0b7de	-0.02157205
6	0xbc685e7c	-0.014182683
7	0x3c34c942	0.011034312
8	0x3b777b5d	0.003776274
9	0xbd0ee34b	-0.034884732
10	0x3c49a453	0.012307244
11	0xbc77a60d	-0.015115273
12	0xbc175f66	-0.009239053
13	0xbcb2fc4c	-0.02184882
14	0x3be519a2	0.006991581
15	0x3c2cf584	0.010556582
16	0xbd0a9bc8	-0.03383997
17	0xbc21c917	-0.009874604
18	0xbc87842b	-0.016542515
19	0xbbb93a01	-0.0056526666
20	0x3b6e4525	0.0036357131
21	0xbc5d2e32	-0.013499783
22	0xbc2dd60f	-0.010610118
23	0x3c3dc203	0.0115819005
24	0x3c8ae1cf	0.016953377
25	0xbab30cad	-0.0013660394
26	0xbceb33f0	-0.02871129
27	0x3cd66f1b	0.026176026
28	0xbd117a30	-0.035516918
29	0xbd047281	-0.032335762
30	0xbc96d312	-0.018411193
31	0xbb95c5dc	-0.004570706
32	0xbcd7bada	-0.026334215
33	0xbcdecee0	-0.027198255
34	0x3b887f5f	0.0041655744
35	0x3b821be2	0.003970609
36	0x3bbc3f61	0.00574486
37	0x3b1d98f5	0.0024047468
38	0xbc72b2a9	-0.014813104
39	0x3af2354b	0.0018479017
40	0xbd10ff7e	-0.035399906
41	0xbcfa7a91	-0.030576022
42	0xbbd5c265	-0.006523418
43	0x3b74af0d	0.0037335784
44	0xbd0867de	-0.03330218
45	0xbd00d5a4	-0.031453744
46	0xbd1c002e	-0.03808611
47	0x3c24e503	0.010064366
48	0xbc5d0f4b	-0.013492416
49	0xbcf185f3	-0.029482817
50	0xbcd34d3a	-0.02579366
51	0x3cae80bd	0.021301622
52	0xbaf7db24	-0.0018909913
53	0x3b1b92de	0.0023738663
54	0x3aee4192	0.00181775
55	0xbc2d27c6	-0.010568565
56	0xbc6d82f3	-0.014496553
57	0xbd1fa529	-0.03897587
58	0xbc7829b7	-0.015146664
59	0xbbca10dd	-0.006166561
60	0xbb7de5dd	-0.0038741746
61	0xbd1c5bf7	-0.038173642
62	0xba0b5337	-0.0005314829
63	0xbc51e81c	-0.012811687
64	0xbcfc5c5d	-0.030805761
65	0xbc0ac7f3	-0.008470523
66	0xbcd3b08a	-0.025841016
67	0x3b64b713	0.003489916
68	0x3ae0fdbc	0.0017165462
69	0xbce9373c	-0.02846872
70	0x3c05e305	0.008171801
71	0xbc2491f1	-0.010044561
72	0xbc1e54a6	-0.009663736
73	0xbd06999b	-0.032861333
74	0x3cded90a	0.027203102
75	0xbc852eb8	-0.016257629
76	0xbce7cab1	-0.028294893
77	0xbc5ce042	-0.013481202
78	0x3c617bdd	0.013762441
79	0xbd01d526	-0.031697415
80	0xbcc2b68c	-0.023768686
81	0xbcfbc02b	-0.030731281
82	0xbcdde68c	-0.027087472
83	0xbd1ba0d2	-0.037995167
84	0xbcffe139	-0.031235324
85	0xbb9f0977	-0.004853423
86	0xbd1d0ba1	-0.03834117
87	0xbc3eba55	-0.011641105
88	0x36092fe3	2.0442465e-06
89	0xbc63ec7a	-0.013911361
90	0xbc070877	-0.008241764
91	0xbcd3662a	-0.025805552
92	0x3cb2e83a	0.02183925
93	0x3aa9c528	0.0012952434
94	0x3c51b251	0.012798862
95	0x3c5b5564	0.013387058
96	0x3c333e8a	0.010940203
97	0x3c969a1b	0.01838403
98	0x3bfc3eed	0.007697931
99	0xbd115814	-0.03548439
100	0xbc530a02	-0.012880804
101	0xbc4f03d2	-0.012635188
102	0xbd0de3ba	-0.034641005
103	0x3cdb4f3e	0.026771184
104	0x3cdbfcb2	0.026853893
105	0x3b918d17	0.004441868
106	0xbce54dfd	-0.02799129
107	0x3c717f27	0.014739788
108	0x3b48a57f	0.0030616221
109	0xbc8ee28c	-0.01744201
110	0x3cade225	0.021225998
111	0x3ba5e73d	0.005062966
112	0xbc7941d3	-0.015213448
113	0x3cc8dcd3	0.02451936
114	0x3c33b63b	0.01096874
115	0x3c989608	0.018626228
116	0xbced3a8e	-0.028958585
117	0x39bf5c5c	0.00036499172
118	0xbc0d93f5	-0.008641233
119	0xbcd9968c	-0.026561044
120	0xbb83f9c0	-0.0040275753
121	0x3cdd7f11	0.027038129
122	0xbbb60ba5	-0.0055555874
123	0xbd1da1e2	-0.03848446
124	0x3ac46895	0.0014984781
125	0x3bc73b71	0.006080084
126	0xbc808ab1	-0.015691133
127	0xbb6e20f5	-0.0036335562
128	0xbcce3fcf	-0.02517691
129	0x3cbda1a4	0.023148365
130	0xbc02fbe4	-0.007994626
131	0x3c056984	0.008142833
132	0xbc43d188	-0.011951812
133	0xbbdbc645	-0.006706985
134	0xbc1b7b07	-0.009489781
135	0x3c9724f4	0.018450238
136	0xbd136575	-0.03598543
137	0xbc8f76e7	-0.017512752
138	0xbcea84bc	-0.028627746
139	0xbae6739b	-0.001758206
140	0xbd0a5752	-0.03377468
141	0x3ca4f4f0	0.020136327
142	0x3c6d144e	0.014470173
143	0xbd1c2e8b	-0.038130324
144	0xbcc4a480	-0.024004221
145	0xbc7e67bc	-0.015527662
146	0xbc92e470	-0.017931193
147	0xbc2032d2	-0.0097777415
148	0x3b18f1aa	0.0023337402
149	0xbc47a588	-0.012185462
150	0xbbdaf668	-0.006682206
151	0xbc4bed6e	-0.012446744
152	0x3c8ab34c	0.016931199
153	0x3ccc269b	0.024920752
154	0xbd1e075a	-0.03858123
155	0x3cc2644b	0.023729464
156	0x3be8dce8	0.007106412
157	0x3cd7b3e6	0.0263309
158	0x3cd4fa58	0.02599828
159	0xbcb88500	-0.022524357
160	0xbbb4d66b	-0.0055187247
161	0x3c016354	0.007897217
162	0xbc4877ee	-0.012235625
163	0x3c96b717	0.01839785
164	0x3c596c01	0.013270379
165	0xbb83f9fb	-0.0040276027
166	0x3b84e17a	0.004055199
167	0x3bfe630b	0.0077632717
168	0xbc1fc4a9	-0.009751477
169	0xbcfa70df	-0.0305714
170	0x3b7bf025	0.0038442698
171	0x3c58acf2	0.013224827
172	0x3ca524e6	0.020159196
173	0x3bda4477	0.0066609937
174	0xbc27b103	-0.010235074
175	0xbcaf772b	-0.021419128
176	0xb95c09ef	-0.00020984536
177	0xbd037f25	-0.032103676
178	0xbca28406	-0.019838344
179	0xbcb610f5	-0.022224883
180	0xbcf0da27	-0.029400898
181	0xbc6f66f9	-0.014611953
182	0x3a6f3b9f	0.00091260107
183	0xbced7d35	-0.028990367
184	0x3bc80c92	0.006105014
185	0x3c39bfb2	0.011337208
186	0x3c919131	0.017769428
187	0x3cca6a34	0.024708845
188	0xbc933635	-0.017970184
189	0xbd1c1870	-0.038109243
190	0xbc9b99f1	-0.018994303
191	0xbbb39d19	-0.005481374
192	0x3c2fed35	0.010737707
193	0xbbd8752a	-0.006605764
194	0xbaddf3f4	-0.0016933666
195	0x3a998426	0.0011712357
196	0xbc8febd2	-0.017568503
197	0xbc8cee49	-0.017203467
198	0xbcef306f	-0.0291979
199	0xbce98f98	-0.028510854
200	0x3b6b01d9	0.0035859256
201	0xbc43fb46	-0.011961764
202	0xbd12277d	-0.03568219
203	0xbb330238	-0.0027314555
204	0xbcb4d787	-0.022075428
205	0xbc9ba604	-0.01900006
206	0xbd18946a	-0.037250914
207	0x3c8af585	0.016962776
208	0xbc21a5b6	-0.009866169
209	0xbbf31d3f	-0.007419258
210	0xbc2b7213	-0.010464209
211	0xbc710a00	-0.014711857
212	0xbc007fc3	-0.007842961
213	0x3c4fce31	0.012683437
214	0xbd181882	-0.037132747
215	0xbce201b1	-0.027588697
216	0x3c1bce43	0.009509626
217	0xbce67c3d	-0.028135413
218	0xbca318c2	-0.019909266
219	0xbcac8cba	-0.021063197
220	0xbcb1185f	-0.021618066
221	0xbc4a5f25	-0.012351786
222	0x3cae8810	0.021305114
223	0x3cdf6896	0.02727155
224	0xbb711af7	-0.0036789754
225	0xbcda4f1e	-0.026649054
226	0xbbb0d76f	-0.0053967754
227	0x3bb003ae	0.0053715324
228	0xbcb8937c	-0.022531264
229	0xbc104e0e	-0.008807672
230	0xbbeda9ba	-0.007252899
231	0x3bfb7f0c	0.0076750573
232	0xbc83a7e6	-0.016071271
233	0xbca426b8	-0.020037994
234	0xbcb2b8c9	-0.021816628
235	0xbcb10d59	-0.02161281
236	0x3c60d2ef	0.0137221655
237	0xbc6f01b8	-0.014587812
238	0xbd041e43	-0.032255422
239	0xbc2bcf48	-0.010486431
240	0xbd0cd7c7	-0.03438547
241	0x3b0429db	0.002016655
242	0xbd0d596a	-0.0345091
243	0xbc9bde1a	-0.019026805
244	0xbc953a16	-0.018216174
245	0x3ca00968	0.019535735
246	0xbc7c868e	-0.01541294
247	0xbc4f5e9f	-0.012656837
248	0xbbf92ed6	-0.00760446
249	0xbc6f2d3e	-0.014598189
250	0x3c451d2c	0.012030881
251	0x3bf34cf3	0.0074249445
252	0x3ccf2c75	0.025289753
253	0x3bf2c9dc	0.0074093174
254	0xbbe134d5	-0.006872753
255	0x3a111ff3	0.0005536072

conv1.bias f4 [64]
0	0xb9da46f8	-0.00041633076
1	0x3ea3c4c3	0.31986055
2	0xbd0c4d1a	-0.034253217
3	0xbd15d5ca	-0.03658084
4	0xbc8c14bd	-0.017099733
5	0xbb20eaf7	-0.0024554112
6	0xbbc09bf9	-0.0058779684
7	0x3dad4406	0.0846024
8	0xbd1cd025	-0.03828444
9	0xbd0f8151	-0.035035435
10	0xbc1fb6cb	-0.009748171
11	0xbc2d2446	-0.01056773
12	0xbdb7a762	-0.089674726
13	0xbca80e59	-0.020514654
14	0xbc5bd32e	-0.013417048
15	0xbe1682a9	-0.1469828
16	0x3e1a82b3	0.1508892
17	0xbc97b09e	-0.018516835
18	0xbcfa460a	-0.030550975
19	0xbce74129	-0.028229313
20	0xbcb27c6b	-0.021787843
21	0xba8f687e	-0.0010941175
22	0xbe30dcb4	-0.17271692
23	0xbcd43da3	-0.025908297
24	0x3e67aeb7	0.22625242
25	0xbcf00554	-0.029299416
26	0xbce6af72	-0.02815983
27	0xbde4ea12	-0.11177458
28	0xbe6cd960	-0.23129797
29	0xbc88f31e	-0.01671749
30	0x3e07a4ce	0.13246462
31	0xbd88e9ac	-0.066851944
32	0x3e7bbabc	0.24582952
33	0x3db88c20	0.09011102
34	0xbd6b902d	-0.057510544
35	0xbbb7cd54	-0.005609194
36	0x3dab0891	0.08351243
37	0xbd41c265	-0.04730453
38	0xbc4da2c0	-0.01255101
39	0xbdf23f46	-0.11828475
40	0x3b95e6bc	0.004574625
41	0x3e455b02	0.19272998
42	0x3e332872	0.17495897
43	0x3cd7f8d0	0.02636376
44	0xb99d4ee9	-0.00030004166
45	0xbe3d398a	-0.1847898
46	0xbe0a41a1	-0.13501598
47	0x3e26b78c	0.16280955
48	0xbb46d442	-0.0030338918
49	0xbe3d4125	-0.18481882
50	0xbd3fd86b	-0.04683725
51	0xbc7f733b	-0.015591438
52	0xbc037747	-0.008024043
53	0xbe324a23	-0.17411093
54	0xbcada1dd	-0.021195346
55	0x3a26063a	0.00063333253
56	0xbde94842	-0.11390735
57	0x3e791b6c	0.24326867
58	0xbbde6696	-0.0067871315
59	0x3cd46479	0.025926815
60	0xbcf88f65	-0.030341813
61	0xbe585a64	-0.21128231
62	0xbb84db45	-0.0040544593
63	0xbc5041fc	-0.012711044

conv2.weight f4 [128, 64, 3]
0	0xbd6aae7f	-0.05729532
1	0x3d7116ea	0.058859743
2	0x3d564643	0.0523131
3	0x3cd5a7d8	0.02608101
4	0xbbbdfeb6	-0.005798186
5	0xbdbf7757	-0.09348934
6	0xbd80a055	-0.06280581
7	0xbd5c0be7	-0.05372229
8	0xbd524a2b	-0.051340263
9	0x3d5d5564	0.054036513
10	0xbc5c35df	-0.013440578
11	0xbc4d2393	-0.012520689
12	0xbd765038	-0.060135096
13	0xbd013371	-0.0315432
14	0xbd058015	-0.03259285
15	0x3b097670	0.0020975135
16	0xbd53c93e	-0.05170559
17	0xbc822b42	-0.015889768
18	0xbc7139c9	-0.01472325
19	0x3daac272	0.08337869
20	0xbcc72a45	-0.024312148
21	0x3d8d2242	0.068913
22	0x3d4b4f4d	0.049636174
23	0x3d86211b	0.06549283
24	0x3da564eb	0.08075889
25	0x3bcec5d6	0.006310205
26	0xbc5c1776	-0.013433328
27	0xbd78a43c	-0.0607035
28	0x3cb6ff08	0.022338405
29	0xbd19a4bb	-0.037510615
30	0x3d9cfc9f	0.07665371
31	0x3d043d9d	0.03228532
32	0x3d8b0b5f	0.06789278
33	0xbd3f25d3	-0.04666693
34	0xbcce7f01	-0.025207045
35	0x3d6cc4d5	0.0578049
36	0xbca91dc4	-0.020644076
37	0x3ccefe55	0.02526776
38	0xbcb3c41b	-0.021944096
39	0x3d2b71ec	0.04185669
40	0xbd3d39be	-0.046197645
41	0xbcd22ca3	-0.02565605
42	0x3d9a6531	0.07538832
43	0x3d91d902	0.07121469
44	0x3d02124d	0.031755734
45	0x3cac0480	0.02099824
46	0x3d53983d	0.051658858
47	0x3dae79d1	0.085193284
48	0xbd4c5b00	-0.049891472
49	0x3c4c7a76	0.012480369
50	0x3dcc4cbb	0.09975573
51	0xbde05626	-0.109539315
52	0xbcc70344	-0.02429355
53	0x3df8799d	0.12132571
54	0xbd6e9fca	-0.058257855
55	0x3d5ca12d	0.053864647
56	0x3bde2e64	0.0067804325
57	0x3d2e744d	0.04259138
58	0xbc80fa5c	-0.01574438
59	0x3d4c91fe	0.049943916
60	0x3c27a93f	0.0102332225
61	0x3738c1ca	1.1012375e-05
62	0xbd10b96d	-0.035333086
63	0x3ced69eb	0.02898117
64	0x3d121a15	0.035669405
65	0xbd62fb87	-0.055415656
66	0xbc7e2c7a	-0.015513534
67	0x3cf27535	0.029596904
68	0xbd2f035b	-0.04272781
69	0x3c2702aa	0.010193506
70	0xb9ca5577	-0.0003859212
71	0x3d918251	0.07104934
72	0x3d44adab	0.048017185
73	0xbd9a4222	-0.07532145
74	0xbdd62bef	-0.104575984
75	0x3d94af9d	0.07260058
76	0x3ce944e5	0.028475234
77	0xbd28a7c1	-0.041175608
78	0x3d3aa6b2	0.04556913
79	0x3d3331d4	0.04374869
80	0xbd514573	-0.051091623
81	0x3c54482c	0.01295666
82	0xbbec00e2	-0.0072022537
83	0xbe24417e	-0.16040608
84	0xbd3bcb23	-0.045848023
85	0x3d176505	0.036961574
86	0x3ca3fa8a	0.020016927
87	0xbceffd44	-0.029295571
88	0x3d634e69	0.0554947
89	0xbd39d034	-0.045364574
90	0xbde2430a	-0.11047943
91	0xbd73f7f1	-0.059562627
92	0x3b92ddae	0.0044819927
93	0xbd8471a7	-0.0646699
94	0xbda52f3e	-0.08065651
95	0x3ce1c4b3	0.027559614
96	0xbbf0c979	-0.007348236
97	0x3c7f90a9	0.0155984545
98	0xbdb669a7	-0.0890687
99	0xbc3a25ac	-0.011361521
100	0xbbcc0a34	-0.0062268022
101	0x3dfe5b42	0.1241975
102	0xbced86f2	-0.028995011
103	0x3b9064d4	0.004406551
104	0x3d2c7c63	0.042110812
105	0xbb9b8242	-0.0047457526
106	0xbd0686cb	-0.032843392
107	0x3de3c3e2	0.11121346
108	0x3d905e7c	0.070492715
109	0x3d23cf04	0.039992347
110	0xbc37411a	-0.011184955
111	0x3d268763	0.04065646
112	0xbd2f2097	-0.04275569
113	0xb841f627	-4.6244033e-05
114	0xbd572f00	-0.052535057
115	0xbc96826b	-0.018372735
116	0xbd5f126d	-0.05446093
117	0xbdc9b454	-0.09848848
118	0x3d68f661	0.05687559
119	0x3d5a9e61	0.0533737
120	0x3cfe2edc	0.031028204
121	0x3bc90beb	0.006135454
122	0x3c1b4c8f	0.009478702
123	0xbd99b28d	-0.07504759
124	0xbe914ce0	-0.28378963
125	0xbb765fc8	-0.0037593711
126	0xbd401585	-0.046895523
127	0xbe1214da	-0.14265767
128	0xbe7fb1c9	-0.24970163
129	0x3d28a481	0.04117251
130	0x3d80a416	0.06281297
131	0x3cc07e86	0.023497831
132	0xbd2e08ff	-0.042489048
133	0x3d95532c	0.072912544
134	0xbc973a89	-0.018460529
135	0xbcbabc3f	-0.02279484
136	0x3d31792e	0.043328457
137	0x3d1b120a	0.037859
138	0x3c58ba92	0.013228076
139	0x3d51d1bf	0.05122542
140	0xbd097cb5	-0.033566196
141	0x3c92a5d0	0.017901331
142	0x3d64510d	0.05574136
143	0x3ca7b631	0.020472618
144	0xbd336e0a	-0.043806113
145	0xbd64f27c	-0.055895314
146	0x3cddc23a	0.027070154
147	0x3cfb3c43	0.030668383
148	0xbd5c0bdf	-0.05372226
149	0x3dff5c8d	0.124688245
150	0x3d9beaaf	0.07613122
151	0xbcbf83a8	-0.023378208
152	0xbc847c95	-0.016172687
153	0x3b39d496	0.002835547
154	0xbd35fb39	-0.044429038
155	0xbcded86b	-0.027202806
156	0x3ce07f4e	0.027404454
157	0xbd4d15f5	-0.050069768
158	0x3d31859c	0.04334031
159	0xbd9e02f4	-0.07715407
160	0x3d0d4777	0.034491982
161	0x3d11c0bf	0.035584208
162	0x3da35c6d	0.07976613
163	0x3b58767b	0.0033029604
164	0x3ce35aff	0.027753351
165	0x3c4904a5	0.012269174
166	0xbb23663a	-0.0024932758
167	0xbd3f01b0	-0.04663247
168	0xbc42916b	-0.011875491
169	0x3d964df2	0.07339086
170	0x3d741dcc	0.05959873
171	0xbd43d94d	-0.047814656
172	0xbb2f8144	-0.002677993
173	0xbc56fd8b	-0.013121973
174	0x3d95c91d	0.0731375
175	0x3d313375	0.043261964
176	0x3a5e7e66	0.0008487463
177	0x3d7dae45	0.061933775
178	0x3c402371	0.0117272
179	0xbd44a171	-0.048005525
180	0xbd866106	-0.065614745
181	0x3c86f615	0.016474763
182	0x3d753fe0	0.05987537
183	0x3c68faa2	0.014219912
184	0xbd941331	-0.07230223
185	0x3dbc8379	0.09204764
186	0x3d3a7026	0.04551711
187	0xbd0b7452	-0.03404648
188	0x3c80c187	0.015717281
189	0x3ca2df33	0.01988182
190	0xbc199acd	-0.009375286
191	0x3d8e8946	0.069597766
192	0x3d3b0fc0	0.045669317
193	0x3d12471e	0.035712354
194	0x3c3e4e9a	0.01161542
195	0xbcde611c	-0.027145915
196	0xbe4f3ae7	-0.20237313
197	0x3d6360ab	0.05551211
198	0xba11e871	-0.00055659475
199	0x3d8056c3	0.062665485
200	0x3d81baaf	0.06334435
201	0x3d19a9e2	0.03751553
202	0x3d55f573	0.05223603
203	0xbd32f120	-0.043686986
204	0xbc00db5b	-0.007864798
205	0x3d5ce9e8	0.053934008
206	0xbd4a0a67	-0.049326327
207	0xbd93ac16	-0.07210557
208	0x3b6cb2b2	0.0036117253
209	0x3caff6c7	0.021479977
210	0xbd085bdf	-0.03329074
211	0x3d68c4f6	0.05682846
212	0xbd07e669	-0.03317872
213	0xbe379f3f	-0.17931841
214	0xbb33ff8b	-0.0027465548
215	0xbdbab6a9	-0.09116871
216	0xbd174c14	-0.036937788
217	0x3d7d4864	0.061836615
218	0xbc7dce4d	-0.0154910805
219	0x3d726d87	0.059186485
220	0x3b5de2f5	0.00338572
221	0xbd716f5b	-0.058944087
222	0xbc9e9e8d	-0.019362712
223	0xbc8e3c79	-0.01736282
224	0xbd4b7c8e	-0.04967933
225	0x3c05360c	0.008130562
226	0x3d018231	0.0316183
227	0xbc1d2dc2	-0.009593429
228	0x3a8e8b20	0.0010875203
229	0x3c5d0325	0.013489519
230	0x3c8753be	0.016519424
231	0x3d695dcf	0.05697423
232	0x3c2bf46c	0.010495286
233	0x3d1a3e88	0.03765729
234	0x3d032085	0.032013435
235	0xbd880a38	-0.06642574
236	0xbd85ecf2	-0.06539334
237	0x3cf8e6d8	0.030383512
238	0xbc7b5332	-0.0153396595
239	0x3dd8ecb3	0.10592022
240	0xbca17e5d	-0.019713575
241	0xbdaab6e7	-0.08335667
242	0x3d6a26e5	0.057166
243	0x3d80dda8	0.062922776
244	0x3cccbfd1	0.024993809
245	0x3d39b4e8	0.04533854
246	0x3d0c0fb3	0.03419466
247	0x3d820281	0.06348134
248	0xbd95bae6	-0.07311039
249	0xbc5fd2dd	-0.013661114
250	0xbd4644bf	-0.048405405
251	0x3d2ec619	0.04266939
252	0x3be5dd23	0.007014887
253	0x3d86eeb8	0.06588501
254	0xbc0842b4	-0.0083166845
255	0x3ce3d9e4	0.02781386

conv2.bias f4 [128]
0	0xbd6f6182	-0.0584426
1	0xbe6f2250	-0.23352933
2	0xbe389b5f	-0.1802802
3	0xbcfc1b4a	-0.030774731
4	0xbd8316fd	-0.06400869
5	0xbd93abcb	-0.07210501
6	0xbd838c8e	-0.06423293
7	0x3e108540	0.14113331
8	0xbdaa45a3	-0.083140634
9	0x3d8e4013	0.06945815
10	0xbdd79d35	-0.10528032
11	0xbe3f44f4	-0.18678647
12	0x3c7adc40	0.015311301
13	0x3cb2c1bc	0.021820895
14	0x3d8a953a	0.06766744
15	0x3df2d624	0.1185725
16	0xbd3a4bd9	-0.04548249
17	0xbdac3a30	-0.08409536
18	0xbe144510	-0.1447947
19	0xbdbc9ee7	-0.09209996
20	0xbdae713c	-0.085176915
21	0xbd59726d	-0.05308764
22	0xbdac1dd7	-0.08404129
23	0xbd9d8e53	-0.07693162
24	0xbcb274bd	-0.02178418
25	0xbe79f6c6	-0.24410543
26	0x3dff0773	0.12452593
27	0x3e04e3aa	0.12977472
28	0xbd8256df	-0.063642256
29	0xbe134cd8	-0.14384782
30	0xbd10449a	-0.035221674
31	0xbd8f1675	-0.06986705
32	0x3e07ce28	0.13262236
33	0xbbed0290	-0.0072329715
34	0xbe12ee24	-0.14348656
35	0xbe03235a	-0.12806454
36	0x3df2728e	0.11838256
37	0x3e071e40	0.13195133
38	0xbe0022fc	-0.12513345
39	0xbdea6b66	-0.11446266
40	0xbd60f4a8	-0.054920822
41	0x3c256ea2	0.010097178
42	0xbe5b06b1	-0.21389271
43	0xbe27de6a	-0.16393438
44	0xbd9e2cef	-0.07723414
45	0x3dbda695	0.092602886
46	0xbdc99684	-0.09843162
47	0xbd3fdd79	-0.046842072
48	0x3dddf92a	0.1083854
49	0xbdfd6987	-0.12373643
50	0xbdcef0ec	-0.10104546
51	0xbba84da6	-0.0051362095
52	0xbd6ba54d	-0.05753069
53	0xbdaa2c30	-0.08309209
54	0xbe3331ff	-0.17499541
55	0xbdbf35db	-0.09336444
56	0x3e45b3fd	0.19306941
57	0xbe28c7e3	-0.164825
58	0xbdd22e89	-0.10262782
59	0x3d8afd1e	0.067865595
60	0xbdff8bcb	-0.12477835
61	0xbdbe4bc9	-0.092917986
62	0xbd7e22cd	-0.062044907
63	0xbe534b29	-0.2063414
64	0xbd9506f8	-0.0727672
65	0xbd8587df	-0.06520056
66	0xbe278bce	-0.16361925
67	0xbd85b638	-0.06528896
68	0xbdcc7911	-0.09984029
69	0xbcb1fc6c	-0.02172681
70	0xbd43d8ab	-0.047814053
71	0x3cc75272	0.024331305
72	0xbdf70dd7	-0.120631866
73	0xbe372025	-0.17883356
74	0xbccb5112	-0.02481893
75	0xbe3ae2db	-0.18250601
76	0xbd95f417	-0.07321947
77	0x3e331736	0.17489323
78	0x3dd6efc4	0.104949504
79	0x3bccca96	0.006249736
80	0xbe56082e	-0.20901558
81	0xbdd042ab	-0.10168966
82	0xbdddfdb5	-0.108394064
83	0x3e24df55	0.1610082
84	0xbe553b5d	-0.20823427
85	0xbe5a0a8b	-0.21293084
86	0xbda581ab	-0.08081373
87	0x3b93b40e	0.004507548
88	0xbda98c77	-0.08278745
89	0xbd825023	-0.06362941
90	0xbe032de5	-0.12810476
91	0xbe83b835	-0.25726476
92	0x3cced0fc	0.025246136
93	0x3e06c9f7	0.13162981
94	0xbe5ffb00	-0.21873093
95	0x3da6eeec	0.081510395
96	0x3cff4fd2	0.031165991
97	0xbe387df6	-0.180168
98	0xbdae4921	-0.08510042
99	0x3db0f938	0.08641285
100	0xbdd6a630	-0.104809165
101	0xbdaa9674	-0.08329478
102	0x3df51836	0.119675085
103	0xbd210762	-0.03931368
104	0xbd9c93e3	-0.07645395
105	0xbd39be4e	-0.045347504
106	0xbc871397	-0.016488833
107	0x3e3d75f7	0.18502031
108	0xbde2c627	-0.11072951
109	0x3c5d66d7	0.013513288
110	0x3b365210	0.002781991
111	0xbdd31d39	-0.10308308
112	0x3d9d6fc9	0.07687337
113	0xbe4c15c5	-0.1993018
114	0xbe3ab3cd	-0.18232651
115	0xbd082e74	-0.033247426
116	0x3c9d0862	0.019169036
117	0x3d268e29	0.04066292
118	0x3cf36b15	0.029714147
119	0xbd79de99	-0.0610033
120	0x3d5bb55c	0.053639755
121	0xbd81478b	-0.06312474
122	0xbd7f9691	-0.06239945
123	0xbcafb80f	-0.02145007
124	0xbe7d421c	-0.2473225
125	0x3e065779	0.13119306
126	0xbe151ef9	-0.14562596
127	0xbdc9b149	-0.098482676

lstm.weight_ih_l0 f4 [200, 128]
0	0xbd1481d9	-0.036256645
1	0x3dc3e752	0.09565605
2	0xbda68d89	-0.081324644
3	0xbc62d531	-0.013844774
4	0xbb1a6753	-0.0023560121
5	0x3d6dd1de	0.058061473
6	0xbd79aa67	-0.060953524
7	0x3dff58a9	0.124680825
8	0xbd5760bc	-0.052582487
9	0x3e695be6	0.22788963
10	0xbd35d1ab	-0.044389408
11	0xbe11aae4	-0.14225346
12	0xbd462f0a	-0.048384704
13	0xbd9297c6	-0.07157855
14	0x3e6dac10	0.23210168
15	0x3d744106	0.059632324
16	0x3de87bac	0.113517135
17	0xbe139cab	-0.14415233
18	0x3dcffa5e	0.101551756
19	0xbdf814a5	-0.12113313
20	0xbd6a78ef	-0.057244238
21	0xbdcaacb7	-0.09896224
22	0x3dd4c472	0.103890315
23	0x3e353a7f	0.17698096
24	0x3d4165cb	0.047216218
25	0xba97180a	-0.001152755
26	0x3edcbfd5	0.43115106
27	0x3cfaa03d	0.030593986
28	0x3d007b78	0.03136775
29	0xbcf737b1	-0.030177923
30	0xbd17e13d	-0.03708004
31	0xbe2d05e8	-0.16896784
32	0x3e4e9999	0.2017578
33	0x3dc90b54	0.09816614
34	0x3c28de1a	0.010306859
35	0x3d5557d1	0.0520857
36	0x3eaef0b7	0.34168026
37	0x3e58ee5b	0.21184675
38	0x3c8df3f0	0.017328233
39	0x3d347b70	0.04406303
40	0x3e930c50	0.2872033
41	0xbdf9f358	-0.12204617
42	0x3deecacf	0.116597764
43	0x3dece595	0.11567227
44	0x3dc528c5	0.09626917
45	0x3ddded29	0.1083625
46	0xbd69ddfc	-0.057096466
47	0xbc9509cd	-0.01819315
48	0x3d3a9f5b	0.04556213
49	0xbc36de75	-0.011161436
50	0xbc0d69cc	-0.008631181
51	0xbe0cd23f	-0.13752078
52	0x3d26b524	0.040700093
53	0xbdbb1106	-0.09134106
54	0xbd58c44b	-0.052921575
55	0x3cd6872b	0.0261875
56	0xbd890550	-0.066904664
57	0xbba3377e	-0.0049809804
58	0xbda781e0	-0.081790686
59	0x3b9065ba	0.004406658
60	0xbe208411	-0.1567538
61	0xbd5bf251	-0.053697888
62	0xbd67ff55	-0.056639988
63	0x3d7fdd6f	0.062467035
64	0x3ded02a7	0.115727715
65	0x3d5fa5ef	0.054601606
66	0xbca0e304	-0.0196395
67	0x3de25db0	0.11053026
68	0xbe3865d5	-0.18007596
69	0x3d324542	0.04352308
70	0x3de5ca25	0.11220197
71	0x3e9731c0	0.29530144
72	0xbdb5606a	-0.0885628
73	0xbbf87700	-0.0075825453
74	0x3dc2d8c2	0.095139995
75	0x3dc8cd4c	0.09804782
76	0xbcc586cc	-0.024112128
77	0xbe854c03	-0.26034555
78	0x3ee8614c	0.45386732
79	0x3cbce653	0.023059046
80	0x3e4ddd93	0.20104055
81	0xbd97461e	-0.07386421
82	0xbdda3de4	-0.10656336
83	0x3ecb67d6	0.39727658
84	0xbdad5bc4	-0.084647685
85	0x3e361b14	0.17783767
86	0x3d0c581d	0.03426372
87	0x3cd78f87	0.026313556
88	0xbdb915c3	-0.09037354
89	0xbcbbe043	-0.022934085
90	0x3dcb8968	0.099383175
91	0x3d9f42af	0.07776391
92	0xbd0d3327	-0.03447261
93	0x3e0edd45	0.13951595
94	0xbd97568f	-0.073895566
95	0xbd148751	-0.03626186
96	0xbeb8398e	-0.3598141
97	0xbc3f9b69	-0.0116947675
98	0x3dc1e1f9	0.09466929
99	0x3dac9431	0.08426703
100	0x3d9237f3	0.07139578
101	0x3e025a69	0.12729801
102	0x3ea429ec	0.32063234
103	0xbe5e08d5	-0.21683057
104	0xbdb242d5	-0.087041534
105	0x3bff7fbc	0.0077972095
106	0x3dd4fe78	0.104000986
107	0x3ed50565	0.41605678
108	0xbcc5e9d5	-0.024159351
109	0x3e9ebd44	0.31003773
110	0x3e9565fe	0.29179376
111	0x3d9cac4e	0.07650052
112	0xbde54f82	-0.111968055
113	0x3e03bc33	0.12864761
114	0x3e121bdf	0.14268444
115	0x3e127313	0.1430171
116	0x3e69f77c	0.22848314
117	0x3d82dbe8	0.063896
118	0xbd22b015	-0.039718706
119	0x3dce5885	0.100754775
120	0x3e360505	0.17775352
121	0xbe919994	-0.28437483
122	0xbd9b90fe	-0.075960144
123	0xbcfe7d4d	-0.031065607
124	0x3d828988	0.06373888
125	0x3e64aed1	0.22332312
126	0x3e084fc4	0.13311678
127	0x3dfd4859	0.12367315
128	0xbdca2c66	-0.098717496
129	0x3e18fd0b	0.14940278
130	0xbd92f4ef	-0.071756236
131	0xbc899365	-0.016793916
132	0x3d9521ca	0.072818354
133	0xbe03c3e8	-0.12867701
134	0x3d9dfadd	0.07713864
135	0xbe06d30e	-0.13166448
136	0xbd891976	-0.066943094
137	0xbde2d012	-0.110748425
138	0xbdec27ec	-0.11531052
139	0xbe242e1c	-0.16033214
140	0xbc02f18b	-0.007992159
141	0xbe261886	-0.16220292
142	0xbbd6c028	-0.0065536685
143	0xbdc18709	-0.09449584
144	0xbdddc228	-0.10828048
145	0xbd35eecc	-0.044417188
146	0x3dcdfaf5	0.10057632
147	0xbd76fbb8	-0.06029865
148	0xbca74d89	-0.020422714
149	0x3de10b30	0.10988462
150	0xbc1e7ac4	-0.009672824
151	0xbe228319	-0.15870322
152	0xbdf96372	-0.12177171
153	0xbe014c70	-0.12626815
154	0xbded8ddd	-0.11599324
155	0x3e31964b	0.17342488
156	0xbdab5f5c	-0.08367798
157	0x3caf1567	0.02137251
158	0x3d919559	0.07108564
159	0xbe835681	-0.25651935
160	0x3db90cce	0.090356454
161	0x3db9645b	0.090523444
162	0x3da2de81	0.079525955
163	0x3e2cff9e	0.16894385
164	0x3e3f31d4	0.18671352
165	0xbe065bdb	-0.13120978
166	0x3d5d99e5	0.054101843
167	0xbd2cc18b	-0.042176764
168	0xbe19f1d1	-0.15033652
169	0xbd3b6693	-0.04575212
170	0x3e11c660	0.1423583
171	0xbdf58647	-0.11988502
172	0xbcefbdd6	-0.029265326
173	0xbe29708c	-0.1654684
174	0x3c8a5a33	0.016888713
175	0xbd22791d	-0.039666284
176	0x3dffd185	0.124911346
177	0xbc6cd907	-0.01445604
178	0xbd13ee60	-0.036116004
179	0x3e93a161	0.2883406
180	0xbd7ff290	-0.062487185
181	0x3dde50b9	0.108552404
182	0x3dbacfc6	0.09121661
183	0xbe38a770	-0.18032622
184	0x3b51a32e	0.0031988132
185	0x3d1c946c	0.038227484
186	0xbc077853	-0.008268434
187	0x3e1f9dd4	0.1558755
188	0x3c7ecda5	0.015551959
189	0xbd9d6635	-0.0768551
190	0x3dc6446a	0.09681018
191	0xbce19266	-0.027535629
192	0x3a84c08c	0.0010128184
193	0x3d5421ea	0.051790155
194	0xbcabcaeb	-0.020970782
195	0xbe12874b	-0.14309423
196	0xbdc4092d	-0.09572063
197	0xbda7d355	-0.08194605
198	0xbe80f294	-0.25185072
199	0xbd92bc55	-0.07164828
200	0x3dc418eb	0.09575065
201	0xbd877d16	-0.06615655
202	0x3ca2eea1	0.019889178
203	0x3d8f7458	0.07004613
204	0x3d0b99d4	0.03408225
205	0xbe111556	-0.14168295
206	0x3d80d85d	0.06291268
207	0xbe179f0a	-0.14806762
208	0xbd6bb677	-0.05754706
209	0xbe5e0cb5	-0.21684535
210	0x3d834dee	0.06411348
211	0xbdf8e3de	-0.12152837
212	0xbd119a67	-0.03554764
213	0xbd7e2bf3	-0.062053632
214	0xbcda592e	-0.026653852
215	0x3d1979ed	0.037469793
216	0x3d402353	0.046908688
217	0x3e1ca953	0.15298967
218	0xbe9a4f73	-0.3013874
219	0x3ea41a73	0.3205143
220	0x3defc639	0.1170773
221	0xbb4a068b	-0.0030826654
222	0xbd4b5e40	-0.04965043
223	0x3d909f28	0.07061607
224	0xbdd4a95d	-0.10383866
225	0xbd68952a	-0.05678288
226	0xbc0a7505	-0.008450751
227	0xbd87364b	-0.066021524
228	0x3d19019a	0.037355043
229	0xbe7856f3	-0.24251918
230	0x3d9e9759	0.07743711
231	0x3dc9f5a5	0.09861306
232	0x3dabbe4a	0.08385904
233	0x3d809e09	0.06280143
234	0xbd332080	-0.043732166
235	0x3e1a6a2e	0.15079567
236	0xbd912864	-0.07087782
237	0x3d2a79cd	0.041620065
238	0x3de5459e	0.11194919
239	0xbd67ae9e	-0.056563012
240	0xbb210a05	-0.0024572622
241	0xbdfacaca	-0.1224571
242	0xbcfe5b6f	-0.031049458
243	0xbd80c7ce	-0.0628811
244	0xbdd750cc	-0.10513458
245	0xbe2333ee	-0.15937778
246	0x3e08ff06	0.13378534
247	0x3df1519f	0.11783146
248	0x3c3663b3	0.011132169
249	0x3dc2b0bf	0.09506368
250	0xbe70e89f	-0.23526238
251	0x3dc0891a	0.0940115
252	0x3d80f3f4	0.0629653
253	0x3dad3dd8	0.084590614
254	0x3d068428	0.032840878
255	0xbd5d82c3	-0.054079782

lstm.weight_hh_l0 f4 [200, 50]
0	0xbe1bbd8f	-0.1520903
1	0x3dd300e1	0.10302902
2	0xbd7cb661	-0.061697368
3	0xbc04797c	-0.008085605
4	0x3e80ad52	0.25132233
5	0xbdcfbbef	-0.10143267
6	0x3e3d0aeb	0.18461196
7	0xbd989230	-0.07449758
8	0x3d3ead9c	0.046552286
9	0x3bdde0ce	0.0067711836
10	0xb9909142	-0.00027574046
11	0xbab5e385	-0.001387701
12	0x3d21545f	0.039387103
13	0xbd653c1a	-0.05596552
14	0x3d3b60e4	0.0457467
15	0xbd5f669c	-0.054541215
16	0xbe2c345a	-0.16816846
17	0x3c90a9f7	0.01765917
18	0xbe43414f	-0.19067882
19	0xbcbf4ec2	-0.023352984
20	0xbe155ca6	-0.14586124
21	0xbdd77ade	-0.10521482
22	0xbd830af0	-0.063985705
23	0x3cd87531	0.026423069
24	0xbd63f8fe	-0.05565738
25	0xbd4a1e0e	-0.04934507
26	0x3e50d5b9	0.20394029
27	0xbda27cef	-0.079339854
28	0xbe261c82	-0.16221812
29	0xbc069153	-0.008213359
30	0xbd28c671	-0.041204873
31	0x3d242c82	0.04008151
32	0x3dfe3841	0.12413073
33	0xbdbadf48	-0.09124619
34	0xbde197ba	-0.11015268
35	0x3db773dd	0.08957646
36	0xbdcee655	-0.10102526
37	0x3e16c37e	0.14723012
38	0x3ea22c9b	0.31674656
39	0x3d96a18c	0.07355031
40	0xbd494c23	-0.049144875
41	0xbdabaef7	-0.08382981
42	0x3e24375f	0.16036747
43	0x3ce6bf74	0.028167464
44	0xbdac521e	-0.084141
45	0x3de075c9	0.10959966
46	0x3ee731b8	0.4515512
47	0xbd034427	-0.032047417
48	0x3d15e236	0.036592685
49	0xbdabc358	-0.08386868
50	0x3dc51bc7	0.09624439
51	0xbcbfb479	-0.023401486
52	0x3cab12ee	0.02088305
53	0xbd67e6c8	-0.056616575
54	0x3cec3e51	0.028838309
55	0x3c9eb3cb	0.019372841
56	0xbdbca661	-0.09211422
57	0xbe8889c6	-0.26667613
58	0xbe50cdeb	-0.20391051
59	0x3e3ea1fb	0.18616478
60	0xbd023526	-0.031788968
61	0x3eb7cbb7	0.3589761
62	0x3e0bea48	0.1366359
63	0x3e180587	0.14845859
64	0xbe45f575	-0.19331916
65	0xbef6fa46	-0.48237818
66	0x3e920a11	0.28523305
67	0xbe3b7735	-0.18307193
68	0x3eb7d295	0.3590285
69	0xbc031d92	-0.008002656
70	0x3a5dc202	0.00084593904
71	0xbe667acb	-0.2250778
72	0x3b3290af	0.0027246883
73	0x3d15bf99	0.036559675
74	0x3d459424	0.04823698
75	0xbe31e3d6	-0.17372069
76	0x3dbefed1	0.09325946
77	0x3c18642e	0.009301228
78	0x3e66d7b0	0.22543216
79	0x3af60b24	0.0018771631
80	0x3c370ce3	0.011172506
81	0x3c9ac3bb	0.01889216
82	0x3cd527f8	0.026020035
83	0xbd82d50c	-0.06388292
84	0xbd2bdde5	-0.041959662
85	0x3d96aeda	0.07357569
86	0xbd95fee6	-0.07324009
87	0x3e17bfcc	0.14819258
88	0xbd11319c	-0.0354477
89	0xbcebce10	-0.028784782
90	0xbd81cf6b	-0.0633839
91	0xbdf90467	-0.12159043
92	0xbc30b722	-0.01078585
93	0x3dfd7757	0.12376278
94	0x3e290a6b	0.1650788
95	0x3e2a1bff	0.16612242
96	0x3c124a0c	0.008928787
97	0x3d7e512d	0.062089134
98	0xbdcfd1f6	-0.10147469
99	0xbe81f501	-0.25382236
100	0xbdd1d13a	-0.10244985
101	0xbe0e0a92	-0.1387122
102	0x3dd67d52	0.10473122
103	0x3e541bc0	0.20713711
104	0x3d04e9aa	0.032449402
105	0x3d84ac8b	0.064782225
106	0x3e6529b8	0.22379196
107	0xbc244425	-0.010026013
108	0xbbef4797	-0.0073022353
109	0xbc393049	-0.011303016
110	0xbd31e79f	-0.04343378
111	0xbc6bc1ab	-0.014389436
112	0xbe0d64a0	-0.13807917
113	0x3cdd5f22	0.027022902
114	0xbc5c974f	-0.013463809
115	0x3e5b738d	0.21430798
116	0xbcde1b6f	-0.02711269
117	0xbe149224	-0.14508873
118	0xbcf60ef6	-0.03003643
119	0xbd5e2d10	-0.054242194
120	0x3e30e22d	0.17273779
121	0xbd4f1f76	-0.050567113
122	0xbe55a3a4	-0.20863205
123	0x3e39c219	0.18140449
124	0x3c98a0ba	0.018631328
125	0xbd351e7b	-0.04421852
126	0x3de6a221	0.112613924
127	0x3b12aad5	0.0022379656
128	0xbdd4f89c	-0.10398981
129	0x3dffd020	0.124908686
130	0x3d3b4347	0.045718458
131	0x3babb83e	0.0052404692
132	0xbd165c8a	-0.036709346
133	0xbdbd90df	-0.092561476
134	0xbe28a6cf	-0.16469882
135	0xbd89cba7	-0.06728297
136	0xbdd1d366	-0.10245399
137	0x3dd871ad	0.10568557
138	0x3da9972f	0.08280789
139	0xbdf86fcf	-0.12130701
140	0x3dd9823f	0.106205456
141	0xbd29765b	-0.04137264
142	0x3d9da10f	0.07696735
143	0xbe081c34	-0.13292009
144	0x3d86f200	0.065891266
145	0xbcb0c956	-0.02158038
146	0x3e474476	0.1945971
147	0xbe4df85c	-0.20114273
148	0x3e0a35df	0.13497113
149	0xba3c8ea9	-0.0007192889
150	0xbdb0fe20	-0.086422205
151	0xbe854fd2	-0.2603746
152	0xbdcb173c	-0.09916541
153	0xbdf8fa31	-0.12157095
154	0x3c739cd0	0.01486893
155	0x3d979952	0.074022904
156	0x3d80fe76	0.062985346
157	0xbd4e3f53	-0.05035336
158	0x3e06e1f8	0.13172138
159	0xbd53b5af	-0.05168694
160	0x3d7d3b44	0.0618241
161	0xbbe8e6b2	-0.007107579
162	0x3e81fc26	0.25387686
163	0xbe4be5af	-0.19911836
164	0xbd93a2b5	-0.07208768
165	0xbea4e0de	-0.3220281
166	0x3e0b0564	0.13576275
167	0xbd717c91	-0.058956686
168	0xbe2ba1a0	-0.16760874
169	0x3e80c029	0.25146607
170	0xbc3f65db	-0.011681999
171	0xbe74a1d1	-0.23889853
172	0xbe4398c5	-0.19101246
173	0xbd9ffde8	-0.07812101
174	0xbe11e9e6	-0.14249381
175	0x3e49f096	0.19720683
176	0xbc14379d	-0.009046462
177	0x3cd4eaa4	0.025990792
178	0x3ce82e88	0.0283425
179	0xbb3bf06f	-0.0028677245
180	0xbe29c840	-0.16580296
181	0x3e44ff94	0.1923812
182	0xbc7ffa46	-0.015623635
183	0x3b98d0f2	0.00466358
184	0x3e44a8b2	0.19204977
185	0xbdb9d33d	-0.09073494
186	0xbd5dba8e	-0.05413299
187	0x3de40a75	0.11134807
188	0xbe01f0a3	-0.12689452
189	0xbdb374b2	-0.08762492
190	0x3e5e8245	0.21729381
191	0x3d9d8999	0.0769226
192	0xbd5891f9	-0.052873585
193	0xbe0d3748	-0.1379062
194	0xbe1246b9	-0.14284791
195	0xbe28f124	-0.16498238
196	0x3e97f323	0.29677686
197	0xbdb6c535	-0.08924333
198	0xbcacf448	-0.021112576
199	0x3dde20ad	0.10846076
200	0x3da482ee	0.08032785
201	0xbe084b75	-0.13310035
202	0xbc460de7	-0.0120882755
203	0x3df0bf55	0.11755244
204	0xbe93f516	-0.28897923
205	0xbcd001a2	-0.025391404
206	0x3de27d81	0.11059094
207	0x3e2b31a5	0.16718157
208	0xbbf9bbd8	-0.0076212697
209	0xbdafa2b5	-0.08575956
210	0xbd1dc5de	-0.03851878
211	0x3e212d0b	0.15739839
212	0xbdd2e38c	-0.10297307
213	0x3d2d2c35	0.042278487
214	0xbdf27132	-0.118379965
215	0x3e873e68	0.264148
216	0x3e302335	0.1720093
217	0xbd521415	-0.051288683
218	0xbdacb4d3	-0.08432927
219	0xbd36cb1e	-0.0446273
220	0x3e2d3e3e	0.16918275
221	0x3ccb35f9	0.02480601
222	0xbc56d5da	-0.01311251
223	0x3aa243e6	0.0012379854
224	0xbc8fbfd1	-0.01754752
225	0xbe293f2d	-0.16528006
226	0xbd6fd921	-0.05855668
227	0xbe8a9621	-0.27067664
228	0xbd83f7d6	-0.06443755
229	0xbdaff5d8	-0.08591813
230	0x3d36d4a9	0.044636402
231	0x3d912136	0.070864126
232	0xbdf0994d	-0.1174799
233	0xbc47473d	-0.012162981
234	0x3e92a3aa	0.2864049
235	0x3e0a71c4	0.1351996
236	0xbdd484b6	-0.10376875
237	0xbdd7965f	-0.10526728
238	0xbdc91990	-0.09819329
239	0x3d81140d	0.063026525
240	0x3ddb6267	0.10712128
241	0x3d2768c6	0.040871404
242	0xbd096a6d	-0.03354876
243	0x3e0acaaa	0.13553873
244	0x3e460c34	0.19340593
245	0x3e3aceac	0.18242902
246	0x3e816c7d	0.25278082
247	0xbc71a97e	-0.014749883
248	0x3d957334	0.07297364
249	0x3c09e7d5	0.0084170895
250	0xbd394ffa	-0.045242287
251	0x3c633b8a	0.013869176
252	0xbe06520c	-0.13117236
253	0x3db8382f	0.08995091
254	0xbe3a6ff4	-0.18206769
255	0x3d08cc89	0.033398185

lstm.bias_ih_l0 f4 [200]
0	0x3d90d223	0.070713304
1	0xbd88fe7e	-0.066891655
2	0xbdfb3e24	-0.12267712
3	0x3db3ff31	0.08788908
4	0x3dddf0e8	0.10836965
5	0xbd06c73b	-0.032904845
6	0x3dde1fc7	0.10845905
7	0xbda081b7	-0.07837241
8	0xbdd5c261	-0.104374655
9	0xbbb3b9a7	-0.005484778
10	0xbdaaec24	-0.083458215
11	0xbe02c491	-0.12770297
12	0xbdbd6d5b	-0.092493735
13	0x3e265186	0.16242036
14	0xbd6a8288	-0.05725339
15	0x3d15e673	0.036596727
16	0x3d009ab8	0.03139755
17	0xbd67b395	-0.056567747
18	0x3e8af323	0.27138624
19	0x3e76b8f7	0.24093996
20	0x3bed80d0	0.0072480217
21	0xbd31c97c	-0.04340504
22	0x3d7b4010	0.06134039
23	0x3dc46d03	0.09591105
24	0x3cb8a15d	0.022537882
25	0xbd504ef2	-0.050856538
26	0xbd56ae75	-0.05241247
27	0xbd7aa943	-0.061196577
28	0xbd3cf792	-0.04613454
29	0xbe0c77bc	-0.1371755
30	0xbe352f73	-0.17693882
31	0xbe3483e6	-0.1762844
32	0xbd9e8e70	-0.077420115
33	0x3e93f498	0.28897548
34	0xbd86a68c	-0.06574735
35	0x3d8e71b0	0.06955278
36	0x3d93d4df	0.07218336
37	0x3d56eed5	0.05247386
38	0xbddd4198	-0.10803527
39	0x3e4d48bd	0.20047279
40	0x3e35e8bf	0.17764567
41	0xbc94f6b1	-0.018184038
42	0x3d3995aa	0.045308746
43	0xbe155101	-0.14581682
44	0xbd2c8d3e	-0.042126887
45	0xbe2ddcf6	-0.16978821
46	0xbcd9ec96	-0.02660207
47	0xbcfe81c3	-0.031067735
48	0xbdc8307c	-0.09774873
49	0x3ce7bdf5	0.02828882
50	0x3e120a9d	0.14261861
51	0xbe2ff950	-0.17184949
52	0xbd0b9387	-0.03407624
53	0x3df1c3d3	0.11804929
54	0xbe10d093	-0.14142065
55	0xbcc05988	-0.023480192
56	0xbd965258	-0.073399246
57	0xbd8c8298	-0.06860846
58	0xbe85c1ab	-0.2612432
59	0x3d2ffd6f	0.042966302
60	0xbe3f676f	-0.186918
61	0xbe1918c7	-0.14950858
62	0xbe0956a5	-0.13411959
63	0x3d12a8b1	0.035805408
64	0xbda85edf	-0.0822122
65	0xbe735ca9	-0.23765816
66	0xbd82abab	-0.06380399
67	0x3c2520fc	0.010078665
68	0x3d7c0866	0.061531447
69	0xbe7b980f	-0.24569725
70	0xbda0436b	-0.07825359
71	0xbe57dac4	-0.21079546
72	0xbe379fd3	-0.17932062
73	0xbe00b017	-0.12567173
74	0xbb9b7e87	-0.004745308
75	0xbdc3f96a	-0.09569056
76	0x3d01460f	0.031560954
77	0xbd64d771	-0.055869523
78	0x3d85651d	0.065134265
79	0xbe1edb30	-0.15513301
80	0x3d5590bd	0.052139986
81	0xbdc06409	-0.0939408
82	0x3ca3ca1d	0.019993836
83	0xbe8497e6	-0.2589714
84	0xbe51239b	-0.20423739
85	0xbd555896	-0.052086435
86	0xbd274c49	-0.040844236
87	0xbdaa0729	-0.08302147
88	0x3cd0e4a2	0.025499646
89	0xbda319a6	-0.079638764
90	0xbd3c8b74	-0.04603143
91	0xbc0bfd76	-0.0085443165
92	0x3d1dd42e	0.03853243
93	0xbdb1b035	-0.08676187
94	0xbe411b5e	-0.18858096
95	0xbd8aac00	-0.06771088
96	0xbe08adf4	-0.13347608
97	0x3d88b1d8	0.06674546
98	0xbdb59cf2	-0.088678256
99	0x3d915cad	0.070977546
100	0xbe0e0133	-0.13867645
101	0x3d312a31	0.043253127
102	0xbd8b9e90	-0.06817353
103	0x3cb33761	0.021876993
104	0x3c9a820a	0.018860836
105	0xbd4f09a4	-0.050546303
106	0x3afc32fe	0.0019241271
107	0x3c3ea21d	0.0116353305
108	0x3cada4cf	0.02119675
109	0xbdd837bf	-0.10557508
110	0xbc953107	-0.018211855
111	0xbd8af03d	-0.06784103
112	0x3c8b0ad1	0.016972931
113	0xbe245d63	-0.16051249
114	0xbdf0da65	-0.117604055
115	0xbdd9e651	-0.106396325
116	0x3c03f919	0.008054995
117	0x3d91f4cc	0.071267694
118	0xbe065c09	-0.13121046
119	0xbd57843c	-0.052616343
120	0xbd1310e1	-0.03590477
121	0xbd18adec	-0.03727524
122	0xbe5c6a8b	-0.21525018
123	0xbdc24193	-0.094851635
124	0x3d4cf726	0.050040387
125	0xbdb543bc	-0.0885081
126	0x3dfe87b4	0.12428227
127	0xbdf374fb	-0.11887547
128	0xbd8e1132	-0.069368735
129	0xbd1d0ee9	-0.038344298
130	0xbe2fa408	-0.17152417
131	0xbd2714c5	-0.04079129
132	0xbd0586e9	-0.032599363
133	0x3d98dfe3	0.07464578
134	0xbd09e39f	-0.033664342
135	0xbdc5c2c2	-0.09656288
136	0x3d18300c	0.037155196
137	0x3e18e5f9	0.14931478
138	0xbb2724f8	-0.0025504213
139	0xbc31ada9	-0.010844626
140	0x3d852358	0.06500882
141	0xbde741fc	-0.112918824
142	0x3d68a405	0.056797046
143	0xbdc58a81	-0.09645558
144	0xbdd55b1e	-0.1041777
145	0xbddbd5cb	-0.10734137
146	0x3cb00391	0.021486076
147	0x3b005ddd	0.0019587197
148	0xbdb33403	-0.08750155
149	0x3d1608a1	0.036629323
150	0x3cf96f3b	0.030448547
151	0x3b0baa08	0.0021311063
152	0xbdec7e04	-0.11547473
153	0xbe30ce1a	-0.17266122
154	0x3d10b50f	0.03532892
155	0xbd9a935a	-0.07547636
156	0x3cb5bb38	0.022184
157	0xbdf61408	-0.120155394
158	0xbe11996d	-0.14218684
159	0xbe3f6e86	-0.18694505
160	0x3d7abdda	0.061216213
161	0x3cbda1be	0.023148414
162	0x3e2a202a	0.16613832
163	0x3dc0cbed	0.09413896
164	0x3e3745b4	0.17897683
165	0xbdcee0d6	-0.10101478
166	0x3d9f488c	0.07777509
167	0x3d5f2376	0.054477178
168	0x3e7592d2	0.23981789
169	0x3ddb4a43	0.10707524
170	0xbe499fc0	-0.19689846
171	0xbd4cdbf3	-0.050014447
172	0x3cc18cb8	0.02362667
173	0x3d78a2e4	0.06070222
174	0x3d6dc4eb	0.058049124
175	0xbc3107e8	-0.010805108
176	0xbd7cb4af	-0.06169575
177	0xbdd41370	-0.1035527
178	0x3de7a833	0.11311378
179	0xbe2c8462	-0.16847375
180	0xbda5819e	-0.08081363
181	0xbcaa39ab	-0.020779451
182	0xbe114371	-0.14185883
183	0x3e037527	0.12837659
184	0x3e267025	0.16253717
185	0xbc2779c3	-0.010221901
186	0xbd5848a2	-0.052803643
187	0xbda14904	-0.07875255
188	0xbd91f383	-0.07126524
189	0xbe0ddf8d	-0.13854809
190	0x3e338f82	0.17535213
191	0x3d1dd609	0.038534198
192	0xbe35c5d4	-0.17751247
193	0x3dd02e93	0.10165133
194	0xbe2624aa	-0.16224924
195	0xbc071ab1	-0.00824611
196	0x3e2d6e91	0.16936709
197	0xbd86eb3a	-0.06587835
198	0x3d9c4975	0.07631198
199	0x3db243ba	0.08704324

lstm.bias_hh_l0 f4 [200]
0	0x3e6c30f4	0.23065549
1	0x3e0e2cad	0.1388423
2	0xbdc557bc	-0.09635875
3	0xbda84c9b	-0.08217736
4	0x3c7e16c2	0.015508356
5	0xbb13c287	-0.0022546367
6	0xbdc0408a	-0.0938731
7	0xbdfa38c6	-0.1221786
8	0xbd364c9f	-0.044506665
9	0xbc8ed146	-0.017433774
10	0x3c3b95e2	0.011449309
11	0xbe358b8e	-0.17729017
12	0x3d2c4502	0.042058
13	0x3e0d53ab	0.13801448
14	0x3e38137d	0.17976184
15	0xbe0f8208	-0.14014447
16	0xbe0115a7	-0.12605916
17	0xbdeecf41	-0.11660624
18	0x3d655b85	0.055995483
19	0x3e0bce54	0.13652927
20	0xbda9516e	-0.082674846
21	0x3dc4ed35	0.09615556
22	0x3dd254bb	0.10270067
23	0xbda410ef	-0.08011042
24	0x3e0cde2b	0.13756625
25	0x3cee29e6	0.029072713
26	0xbd872a10	-0.0659982
27	0xbcd0e406	-0.025499355
28	0xbe037c48	-0.12840378
29	0xbe08e119	-0.13367118
30	0x3d04e35d	0.032443393
31	0x3d83cecd	0.064359285
32	0x3e0422db	0.12903921
33	0x3da35db1	0.079768546
34	0x3d30d6e8	0.0431737
35	0xbd038f49	-0.03211907
36	0x3e5c9ec7	0.21544944
37	0x3dbc6559	0.09199018
38	0xbdb6e1b0	-0.08929765
39	0x3e523297	0.20527111
40	0x3e6e3a92	0.2326453
41	0xbb48c4ad	-0.0030634806
42	0xbdf0d5fe	-0.11759566
43	0x3c9f8d39	0.01947652
44	0xbe4da86c	-0.20083779
45	0xbc5909af	-0.013246938
46	0xbc937918	-0.018002078
47	0xbe6abc1a	-0.22923318
48	0xbe31a285	-0.17347153
49	0xbc8f0d22	-0.017462317
50	0xbd7fdb65	-0.06246509
51	0xbe12f988	-0.14353001
52	0xbd22dd0f	-0.0397616
53	0xbd5533a0	-0.052051187
54	0xbe170bd8	-0.14750612
55	0xbbc19077	-0.005907114
56	0xbde6cdc3	-0.11269715
57	0xbe241601	-0.16024019
58	0xbe25713c	-0.16156477
59	0x3e1e7e58	0.15477884
60	0xbe3ce2d1	-0.18445899
61	0x3d2580b2	0.040405937
62	0xbd93df99	-0.07220382
63	0xbd79ad73	-0.06095643
64	0xbe37fbaf	-0.17967103
65	0xbda9d3aa	-0.08292325
66	0x3dd1ddf5	0.10247413
67	0xbe008085	-0.12549026
68	0xbc3722c4	-0.011177722
69	0xbe8507c9	-0.25982502
70	0xbdf4a0f6	-0.11944763
71	0xbd73a9a1	-0.059487943
72	0x3c8bdca8	0.01707299
73	0xbe0fc774	-0.14040929
74	0xbbd52ffd	-0.006505965
75	0xbe1ffcde	-0.15623805
76	0x3de1523b	0.11002012
77	0xbe2ae1cc	-0.16687697
78	0x3c10d269	0.008839228
79	0xbdbe13d2	-0.09281124
80	0xbd3f44d6	-0.046696506
81	0xbdc8413b	-0.09778067
82	0xbe15c6e8	-0.14626658
83	0xbd5ac359	-0.053408954
84	0x3d01622a	0.031587757
85	0x3ba5cee5	0.005060064
86	0x3e05ca6b	0.13065498
87	0xbe8e5cec	-0.2780527
88	0xbdf8a509	-0.12140853
89	0x3cd1a430	0.025590986
90	0xbe1e6179	-0.1546687
91	0xbe2f9b03	-0.17148976
92	0xbe153915	-0.14572556
93	0x3dc134be	0.09433888
94	0xbd14d611	-0.036336962
95	0xba6a12db	-0.0008929201
96	0xbd21d839	-0.039512847
97	0xbd77137e	-0.060321324
98	0xbdacaaf3	-0.084310435
99	0xbd339de9	-0.043851767
100	0x3d8b9b6f	0.06816756
101	0x3d586efb	0.052840214
102	0x3d88273f	0.066481106
103	0xbdad795a	-0.084704116
104	0x3dcdd727	0.10050803
105	0x3cc2ad50	0.023764282
106	0x3d17b5ec	0.03703873
107	0x3cd2db7e	0.025739428
108	0x3d61d026	0.055130146
109	0x3d1ee13b	0.038789015
110	0x3ddfb7a3	0.10923698
111	0xbe654944	-0.2239123
112	0x3cf20577	0.029543621
113	0x3cdc6575	0.026903847
114	0xbd12f37a	-0.03587673
115	0xbde4edae	-0.11178146
116	0x3d9f8828	0.077896416
117	0xbd170868	-0.03687325
118	0x3c2cd697	0.010549209
119	0xbc83a6d0	-0.016070753
120	0xbd6e8161	-0.058228854
121	0xbdf37ad3	-0.11888661
122	0xbd256798	-0.040381998
123	0x3e105394	0.14094383
124	0xbe3d9681	-0.18514444
125	0xbd0145c6	-0.03156068
126	0x3d6902a4	0.056887284
127	0x3ddc49c2	0.10756256
128	0x3d2af6d7	0.04173931
129	0xbdbd21f0	-0.09234989
130	0xbcb21a21	-0.021740975
131	0xbda729f6	-0.081623
132	0xbc09696d	-0.008386952
133	0xbca92f4a	-0.020652432
134	0x3da40092	0.08007921
135	0x3cfaa73c	0.030597322
136	0xbb96290c	-0.00458253
137	0x3c7eeea6	0.015559828
138	0x3d598bac	0.053111717
139	0xbd827492	-0.0636989
140	0x3e22bb10	0.15891671
141	0x3e1390e4	0.1441074
142	0xbe1d4e09	-0.153618
143	0xbd81f564	-0.06345633
144	0xbe42bca7	-0.19017278
145	0xbcb44919	-0.022007512
146	0x3dd0d185	0.10196213
147	0x3decff93	0.115721844
148	0x3d09ecd7	0.033673134
149	0x3de6f479	0.11277098
150	0x3db431fb	0.087985955
151	0x3da06dc8	0.07833439
152	0xbdb30303	-0.08740809
153	0xbe01aa93	-0.12662725
154	0x3dd5f4e3	0.10447099
155	0xbd4174a4	-0.047230378
156	0xbc08288b	-0.008310447
157	0xbd8127e2	-0.06306435
158	0x3da7b6b9	0.081891485
159	0xbe12e4d4	-0.14345104
160	0xbd9a209b	-0.0752575
161	0xbd542e94	-0.051802233
162	0xbd0714b4	-0.03297873
163	0x3bb12d56	0.005407016
164	0x3e26de0e	0.16295645
165	0x3d70ef0e	0.05882173
166	0xbcabba7a	-0.020962942
167	0xbd3afb14	-0.045649603
168	0x3e5504b2	0.20802572
169	0x3e8b2036	0.27173012
170	0xbe5e9436	-0.21736225
171	0xbd8a9cdf	-0.06768202
172	0xbd0f475b	-0.03498016
173	0x3dc28d07	0.09499555
174	0x3e075365	0.13215406
175	0xbd1ffeb6	-0.03906127
176	0xbd9cf9b3	-0.07664814
177	0xbc310ac6	-0.010805791
178	0xbdb142de	-0.08655332
179	0xbe126176	-0.14294991
180	0xbc8ddd87	-0.017317547
181	0xbe219052	-0.1577771
182	0x3d09ceaf	0.033644374
183	0x3e8c3db5	0.2739083
184	0x3dfd1106	0.123567626
185	0x3ce32d4e	0.027731564
186	0x3da50e49	0.08059365
187	0x3de404f7	0.111337595
188	0xbdb0a5e6	-0.086253926
189	0x3dc788f2	0.09742917
190	0xbc80f893	-0.01574353
191	0xbd79745f	-0.060901996
192	0xbdf86128	-0.12127906
193	0xbdf65216	-0.120273754
194	0x3dbada5e	0.091236815
195	0x3c4aedee	0.012385828
196	0x3e5b02de	0.21387812
197	0xbdc75eda	-0.097348884
198	0xbde71bca	-0.11284597
199	0x3d18e20e	0.037324958

lstm.weight_ih_l1 f4 [200, 50]
0	0x3d0e7e97	0.034788694
1	0xbe73aa71	-0.23795487
2	0x3e17a4b8	0.14808929
3	0xbba27f97	-0.0049590576
4	0x3cec5052	0.028846893
5	0xbd75c300	-0.06000042
6	0x3d6e175a	0.05812774
7	0x3e1df2b7	0.1542462
8	0xbe80b26b	-0.25136122
9	0xba4d2636	-0.0007825823
10	0xbe125210	-0.14289117
11	0x3e215bc9	0.1575767
12	0x3dfb3ed8	0.12267846
13	0xba1df340	-0.0006025322
14	0xbce7f8ef	-0.028316943
15	0x3e165b42	0.1468325
16	0x3e92a866	0.28644103
17	0xbd34d110	-0.04414469
18	0xbe25cf11	-0.16192271
19	0x3c3efc78	0.011656873
20	0xbc366ba9	-0.011134067
21	0x3d8a5e3e	0.067562565
22	0xbd96af2d	-0.07357631
23	0x3d3f3871	0.046684686
24	0xbd1bb791	-0.03801686
25	0x3d844aca	0.064595774
26	0x3d99e737	0.07514804
27	0xbccc7c05	-0.02496148
28	0x3e2c8ee0	0.16851377
29	0x3e16a0b3	0.1470974
30	0x3e017f94	0.12646323
31	0xbd2afb50	-0.041743577
32	0x3df3ace4	0.11898211
33	0xbe2dbe5c	-0.16967148
34	0x3e010302	0.12598804
35	0xbbe6b0d5	-0.007040123
36	0xbdb3cca1	-0.08779264
37	0xbd7214a1	-0.059101705
38	0xbc98b658	-0.018641636
39	0x3da296c8	0.079389155
40	0xbcca88c4	-0.024723418
41	0xbc4e07c9	-0.012575098
42	0x3d83723c	0.06418273
43	0x3df0a445	0.11750082
44	0x3c731a07	0.014837748
45	0x3d226783	0.039649498
46	0x3d46ed8a	0.04856638
47	0xbddd8138	-0.10815662
48	0xbb58976b	-0.0033049237
49	0xbdc03fc3	-0.093871616
50	0x3e0470cd	0.12933655
51	0x3d8062a0	0.06268811
52	0xbb8d1e9a	-0.0043066265
53	0xbe14d81d	-0.14535566
54	0xbdcb2058	-0.099182785
55	0xbc7d9420	-0.01547721
56	0xbc88ebdc	-0.016714029
57	0x3d7d0b97	0.06177863
58	0x3e36d9a9	0.17856468
59	0xbc022691	-0.007943765
60	0x3db6f6ce	0.08933793
61	0xbddfd323	-0.10928943
62	0x3b1dad68	0.0024059657
63	0x3d10b18e	0.03532558
64	0xbc49d0ed	-0.012317878
65	0x3c4d490b	0.012529622
66	0xbdb5da72	-0.08879556
67	0xbe2ddb04	-0.16978079
68	0xbe1eb728	-0.15499556
69	0xbde455b2	-0.111491576
70	0xbd943f1b	-0.07238599
71	0x3d4c70d1	0.049912278
72	0x3e1c9958	0.15292871
73	0xbd64e5a0	-0.05588305
74	0x3e641049	0.22271837
75	0xbe1a87a8	-0.15090811
76	0x3d3547bf	0.044257876
77	0xbe3c11ce	-0.18366167
78	0x3d47a9ba	0.04874585
79	0xbd241538	-0.0400593
80	0xbcdc8ca6	-0.026922535
81	0x3e473846	0.1945506
82	0x3ad8fba5	0.0016554488
83	0xbcbb6661	-0.022875967
84	0x3d9ead80	0.07747936
85	0x3dee27b5	0.11628667
86	0x3dfcfa3a	0.123524144
87	0xbcbbd5e3	-0.022929138
88	0x3dc21faa	0.09478696
89	0xbd69584a	-0.056968965
90	0x3dbda721	0.09260393
91	0xbe1feb1b	-0.1561703
92	0x3d1b6ac8	0.03794363
93	0x3dc27556	0.09495036
94	0xbc5e9a17	-0.013586543
95	0xbe4f4a3f	-0.20243166
96	0x3e5cd2d9	0.21564807
97	0xbdc1d366	-0.09464149
98	0x3d02fe2c	0.03198068
99	0xbe206206	-0.15662393
100	0x3d39a856	0.045326553
101	0xbe243af2	-0.16038111
102	0xbdfc79d1	-0.12327922
103	0xbdb200c5	-0.08691553
104	0x3d2dbea2	0.04241813
105	0xbe0a5219	-0.1350788
106	0xbe29d9f9	-0.16587056
107	0xbc972be9	-0.018453555
108	0xbd43904d	-0.047745038
109	0xbb141bce	-0.002259958
110	0x3de79849	0.11308343
111	0x3e1d3163	0.15350871
112	0x3e64638f	0.22303604
113	0x3cc0b289	0.023522632
114	0xbd280178	-0.041017026
115	0xbe7e6779	-0.24844159
116	0x3d4c655d	0.049901355
117	0x3c46a330	0.012123868
118	0x3b28bd8b	0.0025747742
119	0x3d02894c	0.031869218
120	0xbe30c3f0	-0.17262244
121	0xbcf16572	-0.029467318
122	0xbdfbd6a8	-0.12296802
123	0xbd6a9dd2	-0.057279415
124	0x3df77085	0.12082008
125	0x3c8c538b	0.01712968
126	0xbd6e06d7	-0.05811199
127	0x3d2c50d4	0.04206927
128	0x3e148c93	0.1450675
129	0xbcf1cd7b	-0.029516926
130	0x3e075344	0.13215357
131	0x3dbfd1a7	0.0936616
132	0x3e0b7732	0.13619688
133	0x3ddf9dbb	0.109187566
134	0xbdd0aa27	-0.10188704
135	0xbca92d2e	-0.020651426
136	0xbdf7c3cd	-0.12097893
137	0x3df306ee	0.11866556
138	0xbd07a31f	-0.03311455
139	0xbd0d5e86	-0.034513973
140	0xbd84f0ef	-0.06491267
141	0x3de6e13b	0.11273428
142	0xbcdd64a7	-0.027025534
143	0xbd21178b	-0.039329093
144	0x3e29b985	0.16574676
145	0x3e286c27	0.16447507
146	0x3dd841c0	0.10559416
147	0xbb47e927	-0.003050396
148	0xbd8b3aed	-0.067983486
149	0x3d180054	0.037109688
150	0x3bc94d7c	0.00614327
151	0xbe19d256	-0.15021643
152	0x3b469919	0.0030303656
153	0x3b375c8e	0.002797875
154	0xbc787216	-0.015163919
155	0x3bf9f88d	0.0076285065
156	0xbd8933ea	-0.06699355
157	0x3ddead09	0.108728476
158	0xbd19b4f7	-0.037526097
159	0x3e1463c1	0.14491178
160	0xbc4c1f05	-0.0124585675
161	0x3e492238	0.1964196
162	0xbd1e7a15	-0.038690645
163	0x3d340161	0.043946628
164	0x3e389e53	0.18029146
165	0x3b1f4c8d	0.0024307102
166	0x3d0278b9	0.03185341
167	0x3e6c21f2	0.23059824
168	0xbc6940c7	-0.0142366355
169	0x3da405de	0.080089316
170	0x3e227e06	0.15868387
171	0x3eaf9369	0.34292153
172	0xbe7adf54	-0.24499255
173	0x3d404e8b	0.046949904
174	0x3e4fbc5d	0.20286699
175	0x3d738543	0.05945326
176	0x3d4ffad0	0.050776303
177	0x3d6d22a8	0.05789438
178	0x3deb06a3	0.11475875
179	0xbd5fdb5c	-0.054652557
180	0x3d697a1d	0.057001222
181	0xbddad2fe	-0.10684775
182	0xbdaf2b29	-0.08553154
183	0xbdc76645	-0.09736303
184	0x3e65c21c	0.22437328
185	0xbe615c28	-0.22007811
186	0xbd959c0b	-0.073051535
187	0x3bfeebcb	0.0077795736
188	0x3d83401e	0.06408714
189	0xbd9da3c1	-0.07697249
190	0x3cb916bc	0.022593848
191	0xbdb0c60c	-0.086315244
192	0x3da73fab	0.081664406
193	0xbcfcba73	-0.030850625
194	0x3e2fbc91	0.17161776
195	0xbb99eac8	-0.0046971776
196	0xbdd98bb6	-0.10622351
197	0xbe7d31bd	-0.24726005
198	0x3e19d5e7	0.15023004
199	0xbd34ee79	-0.044172738
200	0xbe3d60ce	-0.1849396
201	0xbe896066	-0.2683136
202	0xbdfefe67	-0.12450867
203	0x3d66d717	0.05635747
204	0x3daae21f	0.083439104
205	0x3dd4ca97	0.103902034
206	0x3bd5512f	0.006509922
207	0x3d774931	0.060372535
208	0x3d8f6968	0.070025265
209	0x3dfa1933	0.122118376
210	0x3cadf30c	0.021234058
211	0xbdd12a41	-0.102131374
212	0xbdc6340a	-0.096778944
213	0x3c05ee3c	0.008174475
214	0x3e1145a3	0.1418672
215	0x3e96e5d8	0.29472232
216	0x3d4785fc	0.04871176
217	0x3de68e27	0.11257582
218	0x3db3a9aa	0.08772595
219	0xbd885495	-0.06656758
220	0x3e026e34	0.12737352
221	0x3e1cbf11	0.15307261
222	0x3e2fd6f2	0.17171839
223	0x3c8a6a52	0.0168964
224	0xbda8defb	-0.08245655
225	0x3de64bae	0.112449035
226	0xbe151bb3	-0.14561348
227	0xbcb3da4d	-0.02195468
228	0xbde734af	-0.112893455
229	0xbdc52f20	-0.09628129
230	0xbe24f08f	-0.16107391
231	0xbe5e40fc	-0.21704477
232	0x3bd0837c	0.0063633304
233	0xbdcf1f33	-0.10113373
234	0x3e56cec4	0.20977312
235	0x3d53a396	0.05166968
236	0x3dac07cd	0.083999254
237	0xbdcf18fb	-0.101121865
238	0x3cc78a9d	0.024358088
239	0x3afc61e6	0.001925525
240	0x3cf4293b	0.029804816
241	0xbdd72f78	-0.10507101
242	0x3da7f397	0.08200758
243	0xbe0a72b0	-0.13520312
244	0x3d68094c	0.05664949
245	0x3e5eca31	0.21756817
246	0x3df17a14	0.11790863
247	0xbe20fd03	-0.15721516
248	0xbdcbbe4b	-0.09948405
249	0xbd2372f1	-0.03990454
250	0xbe0635cd	-0.13106461
251	0xbc80ca79	-0.015721546
252	0x3e332f2b	0.17498462
253	0xbdcbe9af	-0.09956681
254	0x3cd8cb2a	0.026464064
255	0xbd9a8665	-0.07545165
