pol_models/nitrogen_dioxide_model_state.pt (torch, 650637 bytes, 16 tensors)

conv1.weight f4 [64, 300, 3]
00000000: 08f6 8dba ca27 773c 0ec8 fdbc 85f6 e4bc
00000010: 4b8d 8bbc 1adb 843b 5cbc 86bb 14fc ae3c
00000020: ee95 0abc f05e e93b 746e 57bc 6064 2dbc
00000030: 2360 0bbd f29e d4bc 966a a1bc 11a6 cf3a
00000040: 12b8 433c b3e4 913c 20cf dabc 65d9 a2bc
00000050: 15fe d73b a79c c73c 7ba9 36bc d37f a73c
00000060: 0a5c 0cbc 8933 5dba 1f8f cf3c 1f42 0fbd
00000070: 2362 d4bc 4630 5fbc 78e8 81bc 732e c63c
00000080: 3640 debc 285a 8fbc b876 dcbc 1bbf 11bd
00000090: eb31 96bc bbcb e53c 6014 553c 5616 4e3c
000000a0: 8fb5 73bb ca20 c0bc 8974 813b da75 0cbd
000000b0: aec5 e9bc 6179 97bc d753 913c 9290 733c
000000c0: a973 8cbc 2910 afbb dc02 843c 7e13 083d
000000d0: d932 3d3c 3e2e f43a 4a94 973c 95df c7bc
000000e0: fec0 3a3a b7c6 f0bc cf6f e7bc b0cc bdbc
000000f0: 7b82 2e3c 2cdc fe3b b8d9 d6bc cbd6 d23b
00000100: 6ce4 603c 8fcc 1abc c848 6abb 1f67 be3a
00000110: 8bc4 673c 6c59 e53c 4449 febc 95c2 94bc
00000120: 24e3 233c 4e02 bf3c 760e c23c b1e0 e73c
00000130: c658 853b 7637 07bd e63c adb9 c60e cfbc
00000140: fd4f 15bd fa40 cf3c c92a a33c 078d 20bd
00000150: d8dc 383b 87c2 20bc e5e4 29bc 1043 50bc
00000160: 7f0a 663c 2334 a3bc 3c7d 303c 0f05 683c
00000170: 3d1c a83c 4fd6 023c 5cd1 1ebd b654 eebc
00000180: 12ff 693c 2fec 393b 82a5 ffbc 3a2e 9ebc
00000190: f6e2 f03c 1107 9e3c a3ae 99bc 0158 62bc
000001a0: 8ff8 18bd b47b 58bb 3d71 f4bc fce3 01bd
000001b0: 4e49 3bbb bd93 2a3b 1a3d 87bc e9d2 8a3c
000001c0: 05e7 cdbc 5ca5 c73c a555 df3c 2ee3 d2bc
000001d0: 8890 fcbb e236 daba fc0e 80b9 a90f e23a
000001e0: c3a0 323c 26a7 e7ba 600f acbc 821f 5f3c
000001f0: 4ad0 11bd 1299 c5bc 5767 2cbc 7ad9 a3bc
00000200: cd59 86bc 5511 f9bc 27f6 40bc da7b d03a
00000210: ee9a d9bc bcc4 02bc 68f4 8d3c 687c fd39
00000220: 5d23 f93a 9baa 8fbb 0de3 7e3b 8869 8b3c
00000230: fc68 d83c 24f1 8b3c a91e d93c 6c1e 05bc
00000240: 800b 05bd c311 a2bc 54f6 943c 23bc a6bb
00000250: 0d50 b9bc ac2b 01bd f74c 0bbd 4dfe 05bd
00000260: d569 49bc d9af 8c3c 413f 7d3c b02a 14bd
00000270: 408c 843c 896b 02bd 0b0e 57bc b981 8cbc
00000280: 021d 34bc c918 41bc 2561 eebc 8c1d f6bc
00000290: b340 fdbb d632 ddba 9e55 9abc 261f 0c3c
000002a0: 0782 04bd ccb5 d1bb 7347 c13c 80a6 60bc
000002b0: 4c94 e63c 58d8 113c 342c 0fbd 7e5d 763c
000002c0: e931 21bc f7ad 84bc 4128 c73c 1b9e f7bc
000002d0: f54a 233a 4b60 36bc 6c7a a03c 119f e63b
000002e0: d529 4c3c d509 dc3b 1355 0cbc 945a 15bc
000002f0: 9880 f9bc b4e4 643c b0a3 ac3c ec0d 8f3c
00000300: 6100 d6bc 4db7 2fbb 466a e8bc d9a7 b2bc
00000310: c3a9 c5bc 65de e13b 5b92 c3bc 9e3f c7bb
00000320: 07cf 94bb ea57 953c 3ffe f2bc 7093 e5bc
00000330: 8ba0 c8bc d952 8a3c a38b 97bc db9e cd3c
00000340: 9f44 fb3b de00 b3ba 3db7 65bb 0e1d 35bc
00000350: 6340 7bba 4a5c 34bc e093 98bb 05c4 94ba
00000360: 4bf3 e6bc f268 adbc 3cb2 bb3c 7c11 01bd
00000370: 66d4 07bc 20e3 dc3c 19d4 213c 0ca0 1ebb
00000380: 935e 07bd d674 783c 99b5 e0bc 11bd 6dbc
00000390: e63d 6fbc 3ba2 15bc 9618 94bb ba6e ea3c
000003a0: a742 693b b546 e53c 4f94 8c3c 4521 d1bc
000003b0: b2a3 263c 2af6 d5bc 632c 98bc 946b 993b
000003c0: 0f4e 163c 080e ab3c 0f49 84bc 6cb9 88bb
000003d0: a145 403c 29f3 1abd f0d3 e53c 0569 d2bc
000003e0: 0db4 a139 7044 0bbc 298c b7bc 9b8f c0ba
000003f0: b612 f73c 004c 12bc ab43 a7bc 481c 5cbc
-0.0010830769 0.01508517 -0.030979183 -0.02794958 -0.017035147 0.0040544393 -0.0041118097 0.021360435
-0.008458598 0.007121913 -0.013148893 -0.010583013 -0.03402723 -0.025954697 -0.019704144 0.0015842338
0.011945741 0.017809248 -0.026710093 -0.019879052 0.0065915682 0.02436669 -0.011148806 0.020446694
-0.008566866 -0.00084381603 0.0253368 -0.034975167 -0.025925701 -0.013622349 -0.01585792 0.02419207
-0.027130228 -0.017499045 -0.026912078 -0.035582643 -0.01833435 0.028051248 0.013005346 0.0125785675
-0.0037187075 -0.023453135 0.0039506597 -0.03429208 -0.028536644 -0.018490495 0.017740173 0.014866011
-0.017144995 -0.0053425026 0.016114645 0.033221714 0.011547768 0.0018629504 0.018503327 -0.024398604
0.0007124095 -0.02939163 -0.028251557 -0.023168892 0.010651226 0.0077777114 -0.026226863 0.0064342967
0.013726335 -0.009448185 -0.0035748947 0.0014526582 0.014145981 0.027996741 -0.031040795 -0.01815919
0.010002885 0.023316529 0.023688536 0.028305383 0.0040694205 -0.033011876 -0.00033042504 -0.0252756
-0.036453236 0.025299538 0.019917862 -0.039196994 0.0028207805 -0.009812004 -0.010369514 -0.012711301
0.014040588 -0.019922322 0.010772046 0.014161362 0.020521278 0.007985665 -0.03877388 -0.029093128
0.014282005 0.0028369536 -0.03120685 -0.019309152 0.029405098 0.019290479 -0.018760031 -0.013814927
-0.03734642 -0.0033032717 -0.029839152 -0.031711563 -0.0028577629 0.0026028 -0.016508628 0.016946273
-0.025134573 0.024370842 0.027262518 -0.025743093 -0.007707659 -0.0016648436 -0.00024425227 0.0017247099
0.010902586 -0.0017673715 -0.021003425 0.013618352 -0.03559903 -0.024120841 -0.010522685 -0.020001162
-0.016400242 -0.030403772 -0.011777437 0.0015906051 -0.026563134 -0.007981475 0.017328456 0.0004834861
0.0019007731 -0.0043843514 0.0038892657 0.017018095 0.026417248 0.017082758 0.026503878 -0.008124929
-0.03248167 -0.01978386 0.018183865 -0.0050883456 -0.022621179 -0.03153579 -0.034008946 -0.032713223
-0.012293299 0.017173694 0.015456975 -0.036173522 0.016180158 -0.031840835 -0.013125907 -0.0171517
-0.010993244 -0.011785694 -0.029099056 -0.030043386 -0.00772866 -0.0016876112 -0.018839654 0.008552348
-0.032350566 -0.0063998457 0.02359364 -0.013711572 0.028146885 0.008901678 -0.034954265 0.015036939
-0.00983856 -0.016196234 0.024311187 -0.030226758 0.0006229126 -0.0111313565 0.019589625 0.007038005
0.012461145 0.0067150393 -0.008565205 -0.009115834 -0.030456826 0.013970543 0.021074146 0.017462693
-0.026123228 -0.0026812137 -0.028370988 -0.021808552 -0.0241288 0.0068929666 -0.023873499 -0.006080582
-0.004541281 0.018230397 -0.02966225 -0.028024405 -0.024490615 0.016885208 -0.018499201 0.025100162
0.0076680924 -0.0013656875 -0.0035051845 -0.01105429 -0.00095844845 -0.011008332 -0.0046563 -0.0011349922
-0.028192183 -0.021168206 0.022912137 -0.031510815 -0.008290386 0.02696377 0.009877228 -0.0024204282
-0.033049177 0.015164575 -0.027430343 -0.014510409 -0.01460216 -0.009132917 -0.0045195324 0.028617252
0.0035592706 0.027987817 0.017160563 -0.02552856 0.010170864 -0.026118357 -0.018575853 0.0046820138
0.009173884 0.020880714 -0.016148118 -0.0041724946 0.011735351 -0.03782955 0.028055161 -0.025684843
0.0003084246 -0.0085002035 -0.0224057 -0.0014691235 0.03016029 -0.008929253 -0.020418009 -0.013434477

conv1.bias f4 [64]
00000000: deea 6a3b 97bf e73b c55d 853d 7044 943a
00000010: 5795 3fbd 8c6e 003c 0a93 59bc 253c f23b
00000020: 440a 65bd 076c 2cbe 52af e33c 8874 31be
00000030: 134a d8bd 7f96 27bd c1aa 1dbd 748a 553c
00000040: 5d57 743c f19a b5bc 2fec 423e 6982 9abb
00000050: 3f91 15bb f320 323d 6e2d 87be 92bb 42be
00000060: da38 f33e d7cc 0ebe bea4 203a 79dc d83c
00000070: 88fc 13bd 8218 443c 0cc8 5fbe b068 01bd
00000080: da8c 533c 0a49 77be 983b 7d38 7f68 e4bc
00000090: f2a3 91bd a5e8 da3d 0510 363c 27ae 7abd
000000a0: f474 d13b 3871 7bbe 4229 16be 8ade 38be
000000b0: 79e5 c43c 4aa3 8ebc bbde 52be a9c7 d8bc
000000c0: d3f1 10bd 4b6c 68be 8f9e 29bd 9c8e 73be
000000d0: 439c 6b3c 47e1 8cbc eae1 08be 71eb 08bd
000000e0: 7438 c4bb 7340 ac3c ae74 d9bd c2ec 59bc
000000f0: 486e 8c3c 378d 4fba 2ef4 d2bc 997d 96bc
0.0035845558 0.0070724 0.06512026 0.00113119 -0.04677328 0.007838856 -0.013279686 0.0073924237
-0.055917993 -0.16838084 0.02779356 -0.1732961 -0.105610035 -0.04091501 -0.03849292 0.013033498
0.014913407 -0.022168608 0.1903541 -0.004715253 -0.002282217 0.043488454 -0.26401848 -0.19016865
0.47504312 -0.13945328 0.0006128064 0.026472317 -0.036129504 0.011968734 -0.21853656 -0.03159398
0.012912 -0.24148956 6.03754e-05 -0.027881859 -0.07111348 0.10688905 0.011112218 -0.06120124
0.0063921157 -0.24554908 -0.14664176 -0.18053642 0.024035202 -0.017411847 -0.20592777 -0.026462393
-0.03538687 -0.2269756 -0.04141098 -0.2378487 0.014380517 -0.017197264 -0.1336743 -0.03342766
-0.005988175 0.021026826 -0.10617958 -0.013301076 0.01714243 -0.0007917466 -0.0257512 -0.018370437

conv2.weight f4 [128, 64, 3]
00000000: 267e 7abd ace9 873c f613 b2bc 7cfa 3e3c
00000010: bc21 ab3c 01bd 57bd d541 163d 3ff6 99bd
00000020: 1b1b 40bd 85fd 49bd 5088 7bbc d05d 7d3c
00000030: bfaf 89bd 91c5 32bd bf63 39bd b87b 623c
00000040: 0aa9 adbc adcb ffbc f6a9 40bd 49b6 053d
00000050: 17b8 36bb 0a0b c4bc 9da5 99bc 4956 783c
00000060: a642 e5ba 51fa 143d 825d fb3b 804b d8bc
00000070: 13be 243c 4504 f5bb b90e 9abc 33ca 5d3d
00000080: 7619 eb3c dffa 4e3d f581 45bd d49e 50bc
00000090: 48f1 9d3c 32d3 88bd d3c9 a8ba 0689 07bd
000000a0: ca80 b9bc 379d 41bd 7a6f 993a 740a 8abd
000000b0: e3f0 b2bc a9fc 863d c8b1 8abd 371d 9e3c
000000c0: 2542 87bd a69b 903b 6c74 163d 0a15 23bd
000000d0: 4df9 7fbd 593d 5e3c be61 133d 093c 063d
000000e0: 58b7 02bb a8a3 1ebc f11b 9ebd af6e 73bd
000000f0: f388 3f3d cab5 8e3d ca95 43bd 574e 373d
00000100: 0940 ac3c d36a 4ebd 5dff c13c 4aef 6c3c
00000110: e254 ee3c 973e 8cbc e507 a5bc cf78 023d
00000120: 890d a9bc 4773 a8bd f0ea 49bd c2da 87ba
00000130: bb36 3ebd fd4d 9cbd f363 5bbd fdda 80bd
00000140: 25c0 84bd ea8e 763c 19f2 2bbd 8dd5 89bc
00000150: 815e 1abd b80c 7d3d bfd1 643d 3c47 7ebd
00000160: fbde 8abd f225 69bd 0cd5 4fbd 58bb 94bc
00000170: 3723 a13b c0d4 64bd 2bf5 9ebd 0f70 34bb
00000180: a1be cb3b 175a 7fbd 2fa0 bfbc 6761 a7bd
00000190: 990b 4cbd 5561 0abd f34e 013d 92a7 053d
000001a0: d8af 03bc eb60 5ebd 1b6d 153c ca72 503d
000001b0: 0902 56bc 7630 313d c31e f83c 3b5a 9fbd
000001c0: 9a68 0c3d 54bc 9fbd 74af 933d 9038 0c3c
000001d0: 229e 35bd ca2b 1a3d c0ed 2e3d 705f b2bd
000001e0: 0ea7 9bbb f4cd 003d e7a2 ecbc 1fbf 8d3c
000001f0: c1cd ed3c 8d99 113d 9493 4a3d 9549 97bd
00000200: 85c0 66bd 8bbe d0bb 6a67 83bb 0fe1 88bd
00000210: e637 293d 710d 143d 0cdc 73bd cb29 ac3b
00000220: 0105 8dbd 68f9 793d 2a85 a23b 4930 343d
00000230: cebe 5dbd d820 5ebd 9f01 b93c 3555 2c3d
00000240: 2faf 89bd b211 48bd cd1f 34bd 1eb0 afbd
00000250: d3f5 2fbd 1bb3 02bd d29e 13bd 042f e4bc
00000260: 11be 33bd cd2a 793c 8575 95bd e877 ab3c
00000270: db3c 95bc 63e3 973b a478 3a3d 5c58 4abc
00000280: 9b1e 5dbd 4e93 d8bc 7cec 983c 46d0 a53c
00000290: b619 a83c 97d0 51bc a469 4cbc 97cb 2e3d
000002a0: aec9 613d c1d0 f0ba b058 253c 466d 97bd
000002b0: b321 6f38 df58 f8bb 5027 1abc d3d7 473d
000002c0: f941 fab9 42e8 1abd a541 c0bc ba4c 463d
000002d0: 5ecd 153b 612a 82bd 1a43 2e3d f84e 70bd
000002e0: 12e4 0f3c 9199 44bc 0220 98bd 69f6 eebc
000002f0: 9969 1b3d 84c7 babc ed45 87bd 74e5 66bd
00000300: e2c5 7d3d 4d23 5d3d fad2 adbc 7bb6 063d
00000310: 455a e5bc a764 b63b b590 d43d d382 883d
00000320: 9b27 c2bd e6ec f1bb b341 01bd 2eff 18bd
00000330: 0d17 89bd 19d9 61bc af36 263e 1537 9fbc
00000340: 739e 45bc 0487 db3c d5c8 c53b ccff fd3b
00000350: ec25 a4bc 97f6 b63b 26ef 9dbd 195f 543d
00000360: 87a7 103d 8012 233c 8698 6bbe 2c2b c0bc
00000370: cb03 b9bc 2563 c2bd 2f31 c93c 57b9 86bd
00000380: 47ce 843b d6c8 2fbd 5b0f 7a3c ea5f 08be
00000390: 41fb 87bd ac71 7cbd 4458 803d 730c 5b3d
000003a0: 95bd 153d d67e 913c 79b3 58bc 5865 4cbd
000003b0: a0df cc3c 009a 843d 9a0e 033d 9831 113d
000003c0: da87 e43b d671 43bd ed7e 903d 0641 c8bc
000003d0: 3f46 653d 45ab 42bd f954 9bbd 1044 73bd
000003e0: 2d0c dcbd d1a2 8a3d fa52 21bd 42aa 173d
000003f0: 6303 4d3b 0c21 98bc 0514 55bd 640c bdbc
-0.06115546 0.016590916 -0.021738034 0.0116564 0.02089011 -0.052670483 0.036683876 -0.07517671
-0.04690085 -0.04931404 -0.015352324 0.015464261 -0.06722974 -0.043645445 -0.04526114 0.013823442
-0.021198768 -0.03122505 -0.047037087 0.032644544 -0.0027880722 -0.023931045 -0.018755728 0.015157291
-0.0017491176 0.036371533 0.007671059 -0.026403189 0.010055083 -0.0074773156 -0.018805848 0.05414791
0.028698664 0.050532218 -0.04821964 -0.01273318 0.01928009 -0.06680907 -0.0012877531 -0.03308966
-0.02264442 -0.047269072 0.0011706196 -0.06740275 -0.02184338 0.0659116 -0.0677219 0.01930104
-0.06604413 0.004413086 0.036732122 -0.039814986 -0.06249361 0.013564431 0.035981886 0.032772098
-0.0019945707 -0.009682573 -0.07720173 -0.059431728 0.046761464 0.06968267 -0.04775027 0.044752445
0.021026628 -0.050394844 0.023681337 0.014461348 0.02909321 -0.017119689 -0.020145366 0.031853493
-0.020636337 -0.082251124 -0.04929632 -0.0010364878 -0.046438914 -0.076320626 -0.053562116 -0.06291769
-0.06481961 0.015048722 -0.04197893 -0.016825462 -0.037687782 0.061779708 0.055864092 -0.062079653
-0.067808114 -0.056920953 -0.050740287 -0.018155739 0.004917528 -0.055866957 -0.07761606 -0.0027532612
0.006217793 -0.062341776 -0.023391811 -0.08172875 -0.049815748 -0.03378423 0.031569432 0.03263051
-0.00803753 -0.054291647 0.009120251 0.05089072 -0.013062009 0.043259107 0.030288106 -0.07780882
0.034279443 -0.077995926 0.072111994 0.008558407 -0.04434026 0.037639417 0.042707205 -0.087096095
-0.004750139 0.031446412 -0.028886272 0.017303048 0.029028775 0.035546828 0.049457148 -0.073870815
-0.056335945 -0.0063703707 -0.0040101307 -0.066835515 0.041313075 0.03614563 -0.059536025 0.0052540055
-0.0688572 0.061028868 0.004959722 0.04399136 -0.054137044 -0.05423054 0.02258378 0.042073447
-0.06722867 -0.048845 -0.04397564 -0.085785136 -0.042959046 -0.03190909 -0.036040135 -0.02785445
-0.043882433 0.015207958 -0.07297806 0.0209312 -0.018217495 0.004635261 0.045525208 -0.012350168
-0.053984266 -0.026437428 0.018667452 0.020240914 0.020520072 -0.012806079 -0.012476359 0.042674627
0.055123977 -0.001837276 0.0100919455 -0.07393889 5.7013425e-05 -0.0075789536 -0.009408787 0.04878981
-0.0004773287 -0.037819155 -0.023468802 0.048413016 0.0022858004 -0.063557394 0.04254446 -0.05866906
0.008782404 -0.011999504 -0.0742798 -0.029170232 0.037942503 -0.022800215 -0.06605134 -0.056371167
0.061956294 0.053988744 -0.021218766 0.03288887 -0.027997145 0.005566198 0.10379163 0.06665578
-0.094802104 -0.007382977 -0.031556796 -0.037352733 -0.0669385 -0.01378467 0.16231798 -0.019435445
-0.012061703 0.026797779 0.006035904 0.0077514406 -0.020037614 0.005583595 -0.077116296 0.051848505
0.035316017 0.009953141 -0.23007402 -0.023458086 -0.022584816 -0.094915666 0.024559585 -0.065783195
0.0040529105 -0.04291614 0.01526245 -0.13317838 -0.0663972 -0.061631843 0.06266835 0.05347867
0.036557753 0.017760675 -0.013226383 -0.049901336 0.025008976 0.06474686 0.031996347 0.035447687
0.0069742026 -0.047715984 0.07055459 -0.024445068 0.055975195 -0.047526617 -0.075845666 -0.05939108
-0.1074451 0.06769336 -0.039385773 0.037027605 0.0031282536 -0.018570445 -0.052021045 -0.023077197

conv2.bias f4 [128]
00000000: 4855 73bd c523 e3bb 1878 5fbe 4976 1cbc
00000010: bb31 5e3d 4cae 31be 44a4 62be ba3a 4dbd
00000020: 26c4 07be edda 5cbe a86f adbe b8b7 c5bd
00000030: a7b7 6bbe 9e81 2a3d 7a0f e7bd 343c 12be
00000040: ec86 a3bd 89ed a9bd 0861 54be 16fc ddbd
00000050: fc5e 66bd ac2c 64bd 1c96 f83d 3354 1ebe
00000060: bbe7 52bd 8538 84be e7df a9bd 5d6a 6cbd
00000070: 1102 dbbc 3465 82bd c935 d03d 93ef 2abe
00000080: da83 023e 7089 e63d 0e34 3fbe 2412 ce3c
00000090: 00d8 01be 8316 22be 5f3d 2dbe 9a39 6dbd
000000a0: d050 503e 0637 24be 9de1 aebd a642 66be
000000b0: be09 f63d fd71 33be e86d 80be 134d 0dbe
000000c0: 85e3 3abe f890 34be 21fb abbb 6b49 f2bd
000000d0: f7ab 04be fdaa 533e 3fda 87bd df3c 173e
000000e0: b222 87be e12f 45be c167 5bbe e1fc 53be
000000f0: c3b9 e2bd 4c4e 0abe 0ce5 e9bc f214 44be
00000100: 1578 b6be ebb6 55be 030a 3a3e f174 0abe
00000110: 308d 48bd 48ba 903d 3dd3 dfbd 69ee aabd
00000120: 6352 16be eaa5 bf3d 4549 35be bbbd ecbd
00000130: 195f 833d 4e41 80be 70a7 15be ef1e 18be
00000140: 3f3d 1dbe 9347 d7bd 8d25 18be 26da 18be
00000150: 7e36 1fbe 627f 30be f159 19be ec31 aebd
00000160: 39ce 86bd d138 c0bd 1cf7 43bd a684 1fbd
00000170: 2392 383e a795 c03d 998a 15be e066 90bc
00000180: 74c9 01be a358 203b 18ec adbe 13c5 50be
00000190: ba81 b1bc d7e0 27be 6e52 b53d ede9 22be
000001a0: 019e 83bd 0e04 88bd 9445 2fbe 11ff 613b
000001b0: faea a9bd c42f afbd 69e8 18be 3dda 18be
000001c0: febe 96bd 51d0 bebd 3ca4 f3bd 1bdc 83be
000001d0: 714d 493e 7889 2dbe b0c0 34be 9aa1 e5bd
000001e0: a5d0 903d 7edc 64be d4aa 25bd 45cd 353e
000001f0: 8a32 3ebe cef2 c9bd 89ed 1f3e fdf7 88be
-0.059407502 -0.0069317543 -0.21823156 -0.009549686 0.054246645 -0.17351645 -0.22132975 -0.050104834
-0.13258418 -0.21567889 -0.3387425 -0.09654182 -0.23019277 0.04162752 -0.11282249 -0.14280778
-0.07984719 -0.08297259 -0.2074014 -0.10839097 -0.056242928 -0.055706665 0.12138006 -0.15461807
-0.051490527 -0.2582437 -0.08294659 -0.057718623 -0.026734384 -0.06366959 0.10166509 -0.16692953
0.1274561 0.11256683 -0.18672201 0.025155134 -0.12680054 -0.158289 -0.16917942 -0.05791626
0.20343328 -0.16036615 -0.08539126 -0.22486362 0.12013577 -0.17523952 -0.25083852 -0.13798933
-0.18250854 -0.17633426 -0.0052484428 -0.118304096 -0.12956224 0.20670696 -0.06633424 0.14769314
-0.26393658 -0.19256546 -0.21426298 -0.20701934 -0.110705875 -0.1350643 -0.0285516 -0.19148615
-0.3563849 -0.20870559 0.18167882 -0.13521172 -0.048962772 0.0706678 -0.109289624 -0.083462544
-0.14679866 0.093578175 -0.17703731 -0.11559626 0.06414623 -0.25049824 -0.14614654 -0.1485555
-0.15355395 -0.105116986 -0.14858074 -0.14926967 -0.15548131 -0.17236093 -0.14975716 -0.085056156
-0.065823026 -0.09385837 -0.047843084 -0.038944863 0.18024497 0.09403544 -0.14603652 -0.01762718
-0.12674505 0.0024466894 -0.33969188 -0.20387678 -0.021668304 -0.16394363 0.08853613 -0.15909548
-0.06426621 -0.06641398 -0.17116386 0.0034484307 -0.08296771 -0.085540324 -0.14932407 -0.14927001
-0.073606476 -0.09317077 -0.118965596 -0.25753865 0.19658448 -0.16946971 -0.1765163 -0.11212464
0.07071046 -0.22349736 -0.040446118 0.17754085 -0.18573967 -0.098607644 0.15617956 -0.267517

lstm.weight_ih_l0 f4 [200, 128]
00000000: 52b0 993d fa0e 13bd b900 ba3a 7c3e 463d
00000010: 6b63 8a3e 62af dc3d 6baa 753e 080c ffbd
00000020: e1f8 913d 726f e73c a72c 733e 9505 c83c
00000030: 8c0c 54bd 235d 04bc 82b9 3f3e 1422 e4bc
00000040: 7c16 bc3d c565 473b ae10 9bbd 0ce1 7dbd
00000050: 107e 6e3d 9986 e6bd bc47 17bd f994 fc3c
00000060: 656e 98bd 398c 07bd 9aee 1a3e 12c4 47bd
00000070: 7110 d1bc 7f77 3ebc cbfa c3bb 1bf9 0f3c
00000080: 0986 dfbc ee70 b1bb 195b fb3d 1362 1b3c
00000090: 8802 bf3d 2d99 74be edd3 383d d53f cfbd
000000a0: 3179 e8ba 77e0 15bd 2537 9ebd 8dcf 40bd
000000b0: 8b1d 97bc 1b7a 85bd f11f 093e 955a e73d
000000c0: 5411 853d fd59 59bc 51b0 08be c232 c23d
000000d0: 2a32 053e b704 ecbd 3012 aaba be66 093e
000000e0: 5719 a33d d654 143e 2506 1cbd 830e 4c3d
000000f0: 7876 a83e cd54 b8bd aa3a bd3c d10c 79bd
00000100: b89a 5d3d 9ec0 be3d 7e72 c33b 2dcc 4e3e
00000110: 2073 153e 4833 ef3d eae1 713c 915e af3c
00000120: a817 bdbd 52d0 3ebb 8d66 92bc e4e4 30bd
00000130: 7a3b 563e 9b4f c8bc c195 353e 0fea 3ebe
00000140: be5e e53c 4ca9 203e efc2 d9bd 14c4 e53d
00000150: bb3c 8ebd d85f c9bd e2a7 823c c5b1 9e3c
00000160: fa30 853d 5c51 de3c afaf e2bd a0b1 73bd
00000170: bb8d 003e 36f3 0b3e c4d8 643b b020 9b3c
00000180: 3b0e 81bd 975a eebd f07f 3f3d 6d9f 303e
00000190: 0ad5 79bd 0cb4 e53c 56c4 053d ebb1 cb3d
000001a0: 36f0 963d c43c 85bd 807c 36be 9c51 863d
000001b0: 4e1a f93d 0b7c d63a e62c f73d 2267 0bbd
000001c0: 3950 0f3d 6f96 83bd 3f0c 093d d30b 5f3d
000001d0: 163e 43bd 3c14 e5bb bfe3 85bd ca70 083e
000001e0: 76d0 d5bd 110c 973d 0365 ea3d 0844 61be
000001f0: 717e 283e b464 613d 99a9 a33c 8fe2 613d
00000200: 52ea 67bd fcfe 75bd e17d dcbd c1e1 de3c
00000210: 77b2 c2bc 185a bd3d b66d 8dbc 3d9f 8cbd
00000220: 939f d4bd fcbd 8ebd 02ec 2fbe 0d87 dd3d
00000230: c312 16bd fa49 f8bd 286a d9bc 41bd 343e
00000240: ebfb 04be 1e00 0e3e dd2b 09be 8bec 09bd
00000250: 31b2 873d 942a ff3d b596 09be b5f8 743d
00000260: de4a b5bb 045b 443d 7602 ac3d 72c2 06be
00000270: 3745 0e3e e48c 8f3c bb30 243d 3f32 c5bd
00000280: 1b27 623e 4942 d73c 343f b23d 6e80 203e
00000290: 7ad5 05be 38e0 3f3e 9783 9c3c 4451 bf3d
000002a0: 513e 60bc c044 863d ddf8 923d 0eda 34be
000002b0: 10bf 6c3d 472f cabd a91e dc3d 9da3 19bd
000002c0: 861d 703d ca73 a1bd 02cc f0bd 2542 21be
000002d0: 6102 91bb 2ecb 053e e6ed b13d 2187 a33d
000002e0: c3cb 2dbe 413a d9bc beeb 8d3d 5094 d7bd
000002f0: 37d5 e03d 4ded 083d 383a 43be 4b9c 0dbe
00000300: b121 783d a729 6fbd 32d8 8fbd 0359 f33d
00000310: af10 0ebd 6fe2 8dbc a991 0abd 4b4e 883d
00000320: 9276 99bc 3a36 b43c 1748 0ebe 53e7 b9bd
00000330: 6333 713d d416 8dbd 513a d23c 734b 813d
00000340: 5783 94bd 1a40 ed3d 3078 a5bd df36 463c
00000350: c8db 34be 6f17 923d ee20 713a ea6c 3a3e
00000360: f9f1 a33d cc1d 0ebe a09f fb3d ab7c f8bd
00000370: cb98 193c a013 df3d 66eb dd3d cf09 013e
00000380: 0093 103e 0993 d83d 65bf 36bd 4787 89bd
00000390: 7a0f c4bd e526 1bbe aafb 5d3e f87f 1dbe
000003a0: 7e78 ddbc e33f de3c 47fa a83d 56ac 1c3d
000003b0: b764 fb3d ea8a 93bd 1343 103e 25b2 89bd
000003c0: d3b4 973c 879d 113e fd6c e9bc 6b7b 2f3e
000003d0: d148 6a3d 57c8 fabd 6a96 8fbc 462b 36bd
000003e0: 2b47 e9bc d88b 13be 21c4 cdbc cdf6 373c
000003f0: 9e8c 483c a350 263c de74 ce3d 3b95 b33d
0.075043336 -0.035902955 0.0014190889 0.048399433 0.27028975 0.10775639 0.2399079 -0.12453467
0.07127548 0.028251383 0.23747502 0.024416724 -0.051769778 -0.008078846 0.1872311 -0.027848281
0.09183976 0.003042565 -0.07571541 -0.0619822 0.05822569 -0.11256141 -0.036933646 0.030832754
-0.07442931 -0.03309271 0.15130082 -0.04877097 -0.025520535 -0.01162517 -0.0059808246 0.008787419
-0.027285593 -0.0054150736 0.12273235 0.009483832 0.09326655 -0.23886557 0.045123983 -0.10119597
-0.0017736313 -0.03659102 -0.07725362 -0.047072936 -0.018446704 -0.065174304 0.13391091 0.11296574
0.06497446 -0.013266084 -0.1334851 0.094823375 0.13007417 -0.11524337 -0.0012975391 0.134181
0.079638176 0.14485487 -0.038091797 0.049818527 0.32902884 -0.090005495 0.023099262 -0.06080324
0.05410263 0.093140826 0.0059645763 0.20195074 0.14594698 0.11679703 0.014763335 0.021407397
-0.09233028 -0.0029115868 -0.017871166 -0.043187037 0.20921126 -0.024452021 0.17732908 -0.18643974
0.027999278 0.15689582 -0.10632884 0.112190396 -0.06945177 -0.09832734 0.015949193 0.019371876
0.06503482 0.027138405 -0.11068665 -0.05949557 0.12554066 0.13666996 0.0034919241 0.018936485
-0.06301542 -0.116383724 0.04675287 0.17248316 -0.060994186 0.028039955 0.032657944 0.099460445
0.07370035 -0.06505731 -0.1782093 0.065585345 0.1216322 0.0016363872 0.120691106 -0.034033902
0.034988616 -0.06425177 0.033458944 0.054454636 -0.04766663 -0.0069909375 -0.0653758 0.13324276
-0.104401514 0.07375348 0.11445048 -0.21998608 0.16454484 0.05502768 0.019978331 0.055147704
-0.05661995 -0.060057625 -0.10766197 0.027207257 -0.02376674 0.092457 -0.017264228 -0.0686631
-0.10381999 -0.069698304 -0.17179874 0.108167745 -0.036638986 -0.12123485 -0.026539877 0.1765032
-0.12986724 0.13867232 -0.13395639 -0.03367285 0.06625784 0.12459293 -0.13436396 0.059807498
-0.0055326065 0.04793836 0.08398907 -0.13160113 0.13893591 0.017523237 0.040085535 -0.09628724
0.2208523 0.026276724 0.08703461 0.15673992 -0.13069716 0.18737876 0.019105716 0.09341672
-0.013686732 0.06556082 0.07176373 -0.17661306 0.0577994 -0.09872299 0.107480355 -0.03750955
0.058621906 -0.07883413 -0.117576614 -0.15747888 -0.0044253324 0.13065788 0.08687954 0.07984758
-0.1697226 -0.026517035 0.0692973 -0.10526335 0.109781675 0.033429433 -0.19065177 -0.13829152
0.060579006 -0.058389332 -0.07023658 0.11882212 -0.03468388 -0.017319886 -0.03383032 0.06655558
-0.018733297 0.021998513 -0.13894688 -0.09077325 0.058886897 -0.0688912 0.025662573 0.06313219
-0.072516136 0.11584492 -0.080795646 0.012098043 -0.17661965 0.07133376 0.00091983273 0.1820561
0.08005137 -0.13878554 0.122863054 -0.121331535 0.009374808 0.10892415 0.10835914 0.12601398
0.14118576 0.1057492 -0.04461612 -0.06715255 -0.095732644 -0.15151556 0.21678033 -0.15380847
-0.027034994 0.027130073 0.082508616 0.03825029 0.12275069 -0.0720423 0.14088087 -0.067234315
0.01851884 0.14220248 -0.028494352 0.17136924 0.05719835 -0.12245243 -0.017527778 -0.044474863
-0.028476318 -0.14408815 -0.025117936 0.0112282755 0.012240557 0.010151061 0.100808844 0.08768698

lstm.weight_hh_l0 f4 [200, 50]
00000000: b3a9 0abe 1df9 d33d 0f87 063c a449 2cbb
00000010: 42bf 033e 6f19 453d a550 22bd 44c4 cfbd
00000020: 7bfc bc3d d091 bbbd b72f 1cbe 5332 283e
00000030: 46d4 6abd 4fa7 b33c 1645 9fbd 070c 2ebd
00000040: c851 613d b738 993d a051 a03d 2e1b 30be
00000050: f431 e7bd 2d6a 133d 0407 0c3e 50ad 353e
00000060: bcc3 563d efa2 babd 1624 e63d 2574 173c
00000070: 2ca4 543e b669 31bd 0a41 8ebd 414b 813c
00000080: 9816 4bbe 9eef 153d 781e 4d3d 467d 093e
00000090: ea6a 6d3d 5719 00bd 3e41 32be d1e3 c0bc
000000a0: 785d fbbd 77a7 173d d746 b3bd 17b2 d73d
000000b0: 1b2f 59be f2c2 3b3d 5800 a33c 0a4e 663d
000000c0: 0fb6 7c3e dfbd 4c3d 5006 453b d579 7a3c
000000d0: 5ffc 573d d5b4 993c ec4e 8e3c b17a 00bd
000000e0: 91c9 433e c32f 65bd 7311 4cbd 5575 10bc
000000f0: 502e 94bc fbd2 d5bc 063d 1d3d 8eb5 7bbd
00000100: 5455 923d 7e76 5e3d 0e95 1d3d 3ecf d7bd
00000110: ecd2 8dbd 3632 07be f450 8ebd a619 c7bd
00000120: 9f57 a8bc 1ec5 043e 44d7 8e3c 67ed 833d
00000130: fb29 e3bc fe19 c33d a104 25be d3eb 353d
00000140: 2447 3d3d 436f 2b3e d6cf b7bd e76a 74ba
00000150: 0d24 bc3d 9151 d0bc c2a7 113e 78f5 2bbc
00000160: 18fd d23d 55b5 8a3d 0d14 303d 8096 203e
00000170: ea51 263e 2295 a5bd 8ece acbd cee5 cc3c
00000180: 982f c1bd f56a bb3d 0383 543d f2ae 093c
00000190: 8e14 883c 053b 083e 739a a8bd b76e 223e
000001a0: f291 c83d 1aa1 083e 2fe9 293e b81d 40ba
000001b0: c1d7 33be d95d 1bbe 9de5 e7bc 73be acbc
000001c0: dc90 483e 08fc 3a3e 65c0 b83d 3e12 fdbd
000001d0: 0b9b 5f3e fbfc 983c 75d3 113e a54d 01bc
000001e0: bc83 c1bc 13e8 f0bd eb64 c03a 5706 3b3e
000001f0: f7ec 033d 46ee 313d d319 a73d 967b a23d
00000200: 657a 09be ae3d 333e d4f9 023d 2079 5f3e
00000210: cd29 b8bd bd79 3fbd 8a5b 223e 98ca 6fbd
00000220: f514 253d 7b11 4bbe 7039 05bd a3c6 35bd
00000230: 3c1d 30be 1d69 9cbd 3019 1d3e f02a 3f3e
00000240: e18a 1d3d 6524 06be 9d09 d2bd d425 cc3c
00000250: 08fb 8c3d 7051 b6bc 8d13 fd3d 28a2 813d
00000260: aa25 71bd 1b5e ab3d e431 2ebb edf0 afbd
00000270: 2b78 a63d 3d1c 1f3e 1852 aa3c 7e47 203e
00000280: 5bb9 7ebd 0ee3 21be b8f1 913d 23c7 983d
00000290: 68e8 11bd e3a0 2ebd 81a1 30be 7984 61bd
000002a0: dbcc 1a3d 1cfe 90bd 0a26 1d3e 54fc 2b3d
000002b0: 0934 263e e023 12be 22c6 273e e723 dc3c
000002c0: 8a01 a23c dd82 de3d 694d 0b3e c4f5 ad3c
000002d0: 903f 27be a984 edbc 289c 9a3d 6dee 5e3c
000002e0: 29d5 33bd 2c3f 1a3d cc02 b43d e87f 643c
000002f0: 56ad 11be 19b0 723d aef9 dbbd 492e 01be
00000300: 4e0a 2cbe c1b7 04bd 03fa a13d 1346 4abd
00000310: fb75 8b3d 427c 2ebe 63af 1b3e 6c82 8abd
00000320: 1c5a 773d 4ad7 813e a68d 06be cb6c d73c
00000330: 7855 1f3e 656f 013e d730 3f3e 2b81 f8bd
00000340: cb38 acbe 3b2d 38be a346 48be b462 d2be
00000350: 2d5e a53c 12b4 80bc 7a22 ae3d 5153 a1bd
00000360: a181 733d c3ec de3d 172c 443e 2109 60bd
00000370: 3ef9 8abd b2ef 063e f9a9 27be a7b2 093d
00000380: 476e 8ebe 9a09 913e bd04 f03d 4b7a 023e
00000390: ebeb e3bd b2bb d73d 018a 113d bb46 253e
000003a0: 05ee bfbd c7d2 85bd a4fc 9dbd 56a0 adbe
000003b0: 65c2 063e 8d21 04be 4bf2 25be 9418 393e
000003c0: 3745 c6bc 620f 303d dc8e e63d 9e72 253e
000003d0: 21bd 3abe 5655 96bd 76b5 7cbe c6c8 493e
000003e0: 055e 2b3e 69e0 123e e0b1 c4bd 818f 2c3b
000003f0: 544d 6ebd df8b 00be 4e84 153c 65f5 25bd
-0.13541298 0.10350249 0.008210911 -0.002628901 0.12865928 0.04811996 -0.03962769 -0.101448566
0.09227844 -0.09158671 -0.15252577 0.16425447 -0.057331346 0.021930365 -0.07776849 -0.04249194
0.055009633 0.074815206 0.07828069 -0.17197868 -0.11288825 0.03598993 0.13674551 0.17741895
0.05243276 -0.09113108 0.112373516 0.009244 0.20765752 -0.043313704 -0.06945999 0.015782954
-0.19832838 0.03660547 0.050077885 0.13426694 0.05796329 -0.031274166 -0.174077 -0.023546131
-0.12273687 0.03702494 -0.08753746 0.10532015 -0.21209376 0.04584021 0.019897625 0.056226768
0.24678825 0.049985763 0.0030063577 0.015287836 0.052730914 0.018762985 0.017371617 -0.031367008
0.1911986 -0.055953752 -0.04982133 -0.008817037 -0.01808849 -0.02610158 0.038388275 -0.06145244
0.07145181 0.05431222 0.038472228 -0.10537575 -0.06924996 -0.13202748 -0.06949034 -0.09721689
-0.020549593 0.12965819 0.017436631 0.06441765 -0.027729979 0.09526442 -0.16115047 0.044414353
0.046210423 0.16741662 -0.089751884 -0.0009323791 0.09186564 -0.025429519 0.14224151 -0.010495536
0.1030218 0.067728676 0.042987872 0.15682411 0.16242185 -0.080850855 -0.08437835 0.025011923
-0.09432906 0.0915126 0.051882755 0.008403527 0.016611364 0.13303764 -0.08232584 0.15862547
0.09793462 0.13342705 0.16592859 -0.0007328647 -0.17562772 -0.15172519 -0.02830773 -0.021086907
0.1958651 0.18260205 0.09021071 -0.12356995 0.21836488 0.018675318 0.1424082 -0.007892047
-0.023622386 -0.11763015 0.0014678513 0.18264137 0.03220841 0.043440126 0.081592225 0.079337284
-0.13425596 0.17503998 0.031976536 0.2182355 -0.08992348 -0.046746958 0.15855232 -0.058542818
0.04030319 -0.19830887 -0.03252548 -0.044378888 -0.17198652 -0.07637236 0.1534164 0.18668723
0.038462523 -0.13099821 -0.1025574 0.024920382 0.06883818 -0.02225563 0.12357245 0.06329757
-0.05887381 0.083675586 -0.002658003 -0.08590875 0.08128389 0.15538116 0.020791098 0.15652272
-0.062188487 -0.1580927 0.07126182 0.07459857 -0.03562203 -0.042633902 -0.17249109 -0.055057976
0.03779302 -0.070797175 0.15346542 0.041988686 0.16230787 -0.14271498 0.16384175 0.026872588
0.019776125 0.10864804 0.13603748 0.021235354 -0.16332841 -0.028993921 0.07549316 0.01360665
-0.043904457 0.0376579 0.08789596 0.013946511 -0.14226279 0.05924997 -0.10740982 -0.12615313
-0.16800806 -0.032401804 0.07909014 -0.049383234 0.06809612 -0.17039588 0.15203623 -0.06763157
0.06038867 0.25359565 -0.13139972 0.026296994 0.15559947 0.1264015 0.18670975 -0.12134012
-0.3363708 -0.17986004 -0.19558196 -0.4109093 0.020186508 -0.015710864 0.0850267 -0.078772195
0.059449796 0.108850025 0.19157444 -0.054696206 -0.067858204 0.13177374 -0.16373433 0.03361764
-0.2781851 0.28327638 0.11719654 0.12741964 -0.11128982 0.10533847 0.035532 0.16140263
-0.093715705 -0.06534343 -0.07714203 -0.3391139 0.13160093 -0.12903424 -0.16205709 0.18075782
-0.024202926 0.04298342 0.11257717 0.16157004 -0.1823621 -0.07340495 -0.24678597 0.19705495
0.16735084 0.14343418 -0.096042395 0.0026330652 -0.058179215 -0.12553357 0.009125782 -0.04051723

lstm.bias_ih_l0 f4 [200]
00000000: 4ca0 823d aa43 3c3d 82d5 633e 842f 14be
00000010: 256a 9f3e d294 163d 2e72 69bd 0763 81bd
00000020: eae5 6a3d ea71 413d 5e8c ba3d e686 863e
00000030: 4687 afbd 243d 24bc 033b ca3d 14d1 713e
00000040: 0e75 913a 47c7 713d b639 053e 099a 7c3e
00000050: 3a27 983d 775c 09be b4ad 983d e6d5 8f3d
00000060: eaf0 b8bd 914d 523e 5f88 efba cf80 88bd
00000070: c1ad 86bd fbe3 303e aaa5 413e 737d 4e3e
00000080: f332 273d 087a 0e3d dabe 0e3e b7b5 cc3d
00000090: ddd9 333c de47 5dbd 0b5e c93d 9c61 483b
000000a0: 14ac ce3d 75ae a1bd 2f5e d5bc ed7d 03be
000000b0: 55e1 bd3d c1d8 893e ea1c 38bd 48eb 13be
000000c0: 51b4 2dbb 597f dc3d 16a2 cabd a7a8 32bd
000000d0: 1e31 513e 7e65 07be c7ad 27be b152 5d3e
000000e0: 992f 56bd 1f3d 1c3d d72f bebd e97f e5bc
000000f0: caa5 c2bd 11b1 36bc dc73 bdbc 23bb 13bd
00000100: 3bc9 4cbd 18df 64bb cb2d 16be 03e4 05be
00000110: 597a a83d fb7d 03bc b6c6 27bd 58cc d5bd
00000120: 87c5 103c 8736 203e fd5f 273d b7ae 443e
00000130: 5ca4 19bd 90a8 bb3d 55d5 c63d db3c 0d3d
00000140: 2a3e 2dbd 9f00 293e 4a1d e1bc c3a6 313e
00000150: 0182 72be 1c0c 0a3e 33d9 c4bd 843e e5bc
00000160: 2b4d 903d 6828 44bd d7b3 80be 0359 6a3d
00000170: 9f12 6d3b 960b ccbd 41d5 5b3a d914 a0bd
00000180: 3411 853e f19d c4bd df7c 3c3e 6427 543c
00000190: 44ed c3bd 9061 363e 1725 553c 466a 043d
000001a0: dacc e93d 6348 393d d742 6b3d 7e3f c3bd
000001b0: 1406 d8bd da90 44be f1ad ee3c 2aac 7dbd
000001c0: b007 59bd 096c 39bc 262d 92bd 2d29 55be
000001d0: 27da 0fbb a761 343d 24ee 3b3e 8256 6abd
000001e0: 1fe2 72bd 82cf cbbd 1288 603d 72f4 163e
000001f0: 7a7e b1bd 9bb3 063c bc3f 6fbd cbba 60bd
00000200: 50de 03be b88c a13d 587a 643d 2a02 aa3c
00000210: 7200 53bc 9588 bebc e542 2d3d a8e4 3c3d
00000220: 2525 8e3d e70f e23d 2e46 02be 99b4 e03d
00000230: 5f6b 8cbd d9fb bfbd e04b 423d a952 933d
00000240: e1cf acbd 2cce fc3d 0a23 543c 07dd b9bd
00000250: cebf b93d 717f 37bd 8edc 453c 000d 6f3d
00000260: 9fcd 7dbc 4632 86bd 805c 173e 45a6 0dbc
00000270: 4759 debc b93c 1abe fecf 2d3e 50bb 783d
00000280: 5e83 15be 39e9 4a3e d701 9b3d a0ff 03ba
00000290: 5bd0 a4bd 1240 553d b969 79bd 6604 a03d
000002a0: 2757 aabd 300e 463e d8e8 853c 9fed 17be
000002b0: 9176 1ebd 6a1d a7bd b67f 55bd 9141 9f3c
000002c0: 4737 f0bc 0437 073e ee15 38be a058 593e
000002d0: 6f2a 0d3e 1eb0 1fbe 4764 763e 68b3 dcbd
000002e0: 7c72 213e 77ac 17bc 3548 423d 2c24 4cbd
000002f0: e290 3f3e d363 a03e b5ea 5b3e 563a 81bc
00000300: 3909 b43d 652e 903d a194 743e 194f 7bbd
00000310: b8ab ccbd bb44 b2bb 2803 1c3b 7a6b f3bd
0.063782305 0.045962967 0.22249416 -0.14471251 0.3113567 0.03676302 -0.056993656 -0.06317716
0.05734817 0.047227778 0.09108804 0.26274794 -0.08570723 -0.010024343 0.09874537 0.23614913
0.0011097507 0.059027936 0.13010296 0.24668135 0.07429357 -0.13414179 0.07455006 0.0702322
-0.09030326 0.20537402 -0.0018274895 -0.06665193 -0.0657611 0.17274468 0.18910852 0.20165043
0.040820073 0.034784347 0.13939992 0.09995597 0.010977236 -0.054023616 0.098323904 0.0030575758
0.10091415 -0.07894603 -0.026045887 -0.12841006 0.09271494 0.26923183 -0.04494945 -0.14445221
-0.0026505182 0.10766477 -0.09894197 -0.04361787 0.20428893 -0.1322231 -0.16374885 0.21613576
-0.052291486 0.038144227 -0.092864685 -0.028015094 -0.09504278 -0.011150614 -0.023126535 -0.03606714
-0.049996596 -0.0034923013 -0.14665906 -0.13075261 0.08226461 -0.008025642 -0.04096099 -0.10439366
0.008836157 0.156458 0.040863026 0.19207273 -0.03751026 0.0916301 0.097086586 0.034481864
-0.042295612 0.16504143 -0.027479786 0.17348771 -0.23682405 0.13481182 -0.0961174 -0.027983911
0.070459686 -0.047890097 -0.25137207 0.057213794 0.003617443 -0.09963147 0.00083859643 -0.078164764
0.25989687 -0.096004374 0.1840701 0.012948845 -0.09566739 0.17810655 0.013009331 0.032327913
0.114160255 0.04523505 0.05743679 -0.095335945 -0.10548034 -0.19195881 0.029135676 -0.061931767
-0.052985847 -0.0113172615 -0.07137518 -0.20816489 -0.0021950097 0.04403844 0.18352562 -0.057211407
-0.059297677 -0.09951688 0.054817267 0.14741686 -0.086667016 0.008221532 -0.05841039 -0.05486564
-0.12877774 0.07888168 0.05578074 0.020752985 -0.012878524 -0.023258487 0.042300124 0.0461165
0.069406785 0.110381894 -0.12722084 0.10971946 -0.06856417 -0.09374208 0.04743564 0.071935005
-0.08438087 0.12344012 0.012947807 -0.09075361 0.09069787 -0.044799272 0.01207651 0.058362007
-0.015490918 -0.06552558 0.1478138 -0.008645599 -0.02714218 -0.15062226 0.16973874 0.06072551
-0.14600894 0.1981553 0.0756871 -0.00050353445 -0.08047553 0.052063055 -0.06089184 0.07813339
-0.08317404 0.1934135 0.01634638 -0.14836739 -0.038687292 -0.08159907 -0.052123748 0.019440444
-0.029323233 0.1320458 -0.17977116 0.21225214 0.13785718 -0.15594527 0.2406169 -0.107764065
0.15766329 -0.009257427 0.047432143 -0.049839184 0.18707612 0.3132616 0.21476252 -0.015774887
0.087908216 0.07040099 0.23884822 -0.06135473 -0.0999369 -0.005440322 0.0023805592 -0.11885734

lstm.bias_hh_l0 f4 [200]
00000000: 0b14 fcbc c5d6 573e 7028 623e 177c bebb
00000010: e539 063e 6c7d 473d c225 bebd 13ba 463d
00000020: dd13 393d a0cd eb3d ca61 0b3b 8903 fc3d
00000030: 732e b33d 9d76 7a3d b053 cebd bcfb 003d
00000040: b51f 493e 4b47 743e a7e4 143e 81cb f43d
00000050: 42b5 4b3e d6ab a73d 3ecc 9bbd 65e6 9a3d
00000060: 40ff 02bd 8647 8b3e 6281 00be a79c 27bd
00000070: 9ef7 87bd e6c3 8e3d a41e 163c d21c 293e
00000080: 816d 043e 8c7d 483e e360 353e 2176 6fbc
00000090: 73bd 0ebe 679c 843d 42af 30bd eeae fc3d
000000a0: 9611 093e 6879 74bd 27ad 82bd 696d 58bd
000000b0: 9d5a a23d 6813 9a3d dc2e 6abe c15d 2bbd
000000c0: cc75 45be 3ffb 9d3d 13c3 00be d900 07bd
000000d0: 6d22 51bc 1924 e93d dec6 2dbe ece1 ce3d
000000e0: 5575 ccbb 0bf0 b53d 2ee8 9abd d351 383d
000000f0: 4bb8 9abd 1eb0 853c f3f3 59bd cee7 1d3e
00000100: 64da 57bc 62f2 b1bc 6fda dbbd 0206 13be
00000110: e82d 4cbd 57d5 78bd 922b 82bd 55cf f43d
00000120: 6848 333c 21ea fe3d bd54 87bd b609 9c3d
00000130: 2fa9 a3bd 148c d5bc 8903 983d 77db f6bd
00000140: 10fd 5abe d17d 39bc 1d77 b53d 5d26 b23d
00000150: b60f 453b 8349 e83d c7f7 b23c 2aec 4bbd
00000160: b031 26bd af90 783d 8e57 fcbd 0908 23bd
00000170: 26ff 03be d2be 4f3d 201c 08be e0e0 4d3d
00000180: 7fd9 7f3e 4c52 0b3d 597a 133e d7c2 b8bd
00000190: 6159 213d a7d5 6f3d 4d52 95bd f560 033e
000001a0: c9da c3bd 62c5 013c 2693 8b3a 9137 04bd
000001b0: 94ee 2abe 9ae0 fb3c a903 1ebc 916f 9abd
000001c0: 1c90 f5bc bf64 263e 18d2 8d3d 4fc8 5cbe
000001d0: c576 8d3d 1158 fe3d a6e5 c63d d9c4 833d
000001e0: 0e9e e2bd a4e5 e6bb 2733 583d cb99 1c3e
000001f0: 603f 04be 2cdb c43c 0522 80bd 1b63 eb3d
00000200: 0473 2abd 1ea4 bdba e3b7 07be f380 943a
00000210: bb46 813d 9438 873c ab35 08be e09d 9fbd
00000220: 3ffb aa3d 91bf 0f3e a19c e63c c4ff 9b3d
00000230: 7dce 05be c96e bc3c 6865 a3bd e29b b93d
00000240: 06ed 513d 15a7 8d3d 73e0 f73d da64 d73d
00000250: 98f1 0d3e 4810 503d ef33 ef3d c902 91b9
00000260: 3b03 25bd 7d9d 3abe 56b8 ca3d 1cb8 d13b
00000270: 2737 01be 4900 99bb 1135 9f3c e2f3 013e
00000280: f510 b83c 5ba3 173e e7fe 143d fa5d 85bd
00000290: 1398 c9bd 0b69 ea3d 8b6e f6bd 552f a93d
000002a0: 18da fc3c 268d 5b3e 95b8 993d d2c9 0c3b
000002b0: 87ad c1bd 0a8b c43d c968 15bd a093 5c3d
000002c0: 99bd c9bd 161b 723b bc30 bdbc 448b 093e
000002d0: f8b1 163e 2ee5 20be 0a92 483e ea35 89bd
000002e0: b5b0 113e 360e 92bc 00f5 9b3c d2ec 82bd
000002f0: 3a5d 0f3e e097 803e 9b04 d23d 7fd0 283d
00000300: 72e1 1cbd 5218 b23d c5a6 4c3e da60 04bd
00000310: 6849 01bc 6458 20be 232e 843d 6fed d5bd
-0.030771276 0.21078022 0.22085738 -0.0058131325 0.13108023 0.048703596 -0.092845455 0.048517298
0.04518496 0.11513829 0.0021268004 0.12305362 0.08749094 0.061148275 -0.10074556 0.031490073
0.19641002 0.23855321 0.14540349 0.11952878 0.19893363 0.08187072 -0.076073155 0.075634755
-0.031981707 0.27203006 -0.12549356 -0.04092088 -0.06639026 0.069709584 0.009162579 0.165149
0.12932397 0.19579142 0.1771274 -0.0146155665 -0.13939457 0.06475144 -0.04313589 0.12338053
0.13385615 -0.059686095 -0.063806824 -0.052838717 0.07927439 0.07523233 -0.22869438 -0.041837458
-0.19283217 0.07713937 -0.12574415 -0.032959793 -0.012764555 0.11383838 -0.16970393 0.10101685
-0.006239573 0.08883675 -0.07563816 0.04499991 -0.07554682 0.01631933 -0.053211164 0.15420458
-0.013174627 -0.021722022 -0.10735022 -0.1435776 -0.049848467 -0.06075033 -0.06355967 0.11953608
0.010942556 0.12447 -0.066079594 0.0761904 -0.079912536 -0.026067771 0.07422549 -0.12053578
-0.21385598 -0.011321501 0.0886061 0.086987235 0.003006918 0.11342146 0.021846665 -0.04978577
-0.04057473 0.060684856 -0.12321387 -0.039802585 -0.128903 0.05071909 -0.13291979 0.050263286
0.24985312 0.03401403 0.1440214 -0.09021538 0.03939188 0.058553364 -0.07291088 0.12829955
-0.09563214 0.007920595 0.0010648712 -0.032279555 -0.16692573 0.030746747 -0.009644427 -0.07540811
-0.029975943 0.16249369 0.06924838 -0.21560787 0.06907419 0.12419141 0.09711771 0.0643403
-0.11065303 -0.0070464183 0.052783158 0.15293042 -0.129148 0.02403029 -0.06256489 0.11493512
-0.041613594 -0.0014468466 -0.13253741 0.0011329934 0.06312319 0.01650647 -0.13301723 -0.07793784
0.08348703 0.1403792 0.028150858 0.07617143 -0.1306705 0.023002045 -0.07978326 0.090629354
0.051251434 0.06916634 0.12103357 0.10517283 0.13861692 0.050796777 0.116798274 -0.0002765863
-0.040286284 -0.1822414 0.098984405 0.0064001214 -0.12618695 -0.0046692234 0.019434484 0.1269069
0.022469023 0.14808409 0.036375906 -0.06512065 -0.09843459 0.114458166 -0.12032803 0.08260981
0.030865714 0.21440563 0.07505909 0.00214826 -0.09456926 0.09596832 -0.036476884 0.053851724
-0.09850616 0.0036942414 -0.023094527 0.13432032 0.14716327 -0.15712425 0.1958696 -0.066997364
0.14227565 -0.017829042 0.019037724 -0.06392826 0.14000407 0.2511587 0.10254785 0.041214462
-0.03830094 0.08696045 0.19985493 -0.032318927 -0.007891037 -0.15658718 0.064541124 -0.104456775

lstm.weight_ih_l1 f4 [200, 50]
00000000: b812 c3bd 812f 8dbd 8f2b e63d 1e19 3e3e
00000010: fe03 ce3d f545 933d 0760 1a3e e8d2 3fbd
00000020: e80a ba3d 2da7 a93d b2de 863d 343d cd3e
00000030: 4980 c13d 1cfc 373d d88d 543e 4e58 2e3d
00000040: 5ea3 213e a420 1e3e 440c 0abe 8c76 8bbe
00000050: 15e5 153c eae4 dcbd 4686 1ebe ea8e 4c3c
00000060: 0d3b 16bc e126 0d3e ea87 69bd 972d b33e
00000070: 0c21 203e 3c9a 843e 9869 c73d 3371 f83c
00000080: 2f25 413e cb3d aebd 13e0 453e 1b7a 323d
00000090: 85b0 47be 00ac 8dbd 0bbb ccbc 3321 ab3e
000000a0: 6fa2 6abd 7b14 d639 f429 b23d f130 1d3e
000000b0: dc11 2c3e ceeb c6be 6204 18be d915 843e
000000c0: c530 48be 9e19 b03e 2521 bbbd fbfa 91bd
000000d0: a971 993d a44e 1e3c f37e 25bd 10bf 13be
000000e0: 1eaa 6ebd 0ac0 b2bd 09a7 1b3d a8a3 1cbd
000000f0: d3c2 77bc 3490 0f3e 7ed8 cc3d 6bbc cf3d
00000100: 88c0 163d 16e7 173e 28e6 073e 04a8 0f3d
00000110: 38bc 763d d992 bbbd b6fc 053d 8e2d d13d
00000120: e752 11be afc0 133d 015b 77ba 6391 bdbd
00000130: 7d4f 98bd 1132 0b3e 95ae 11be f306 0cbe
00000140: a4af 87bc 496e 84bc 9fdd 4f3e b3f7 313e
00000150: a64a 94bd 82d1 733d 3aa5 b13c 851d 23be
00000160: dc6d 84bd 5f98 cc3d a9de 0cbd 6181 99bd
00000170: 2aa6 d63d e8f3 4abc c9e9 0b3e 355a 853d
00000180: 367d b83d acbc dabd fa64 30bd e254 093e
00000190: 7795 863d 4459 04bc 6324 37bd ffc9 33be
000001a0: ba8b 5cbb 5859 04be 0016 313c c239 11be
000001b0: 5519 23be 5096 a3bd f0c1 51bd dc35 263e
000001c0: ad90 ec3c 68eb 70bd 45bd 4c3e 58ed 523a
000001d0: f524 c23d 930a 6e3e d1c5 1ebd c8c5 513d
000001e0: 595b c7bd 0474 0b3d 13c0 febd 1e57 1c3e
000001f0: 34e6 0ebd 22ed a63d aee7 873e c816 8d3d
00000200: eeed a63d 7e7b 8c3e dfde f7bd 6501 823d
00000210: a3cb a13d 6bbc 17be 6e33 183e 6583 26be
00000220: f108 0b3e fc75 cdbc cf10 7a3c 4585 d03d
00000230: b094 d73d 6144 0f3d 03ed 773c 0ae1 52bd
00000240: 40c1 7f3d 5a4d 803c 21fd 72be c230 c93d
00000250: 0356 9bbd a177 e23d 4711 6e3d c426 69bc
00000260: 1fd4 053d e49d db3d 10f5 93bd c3af 543e
00000270: 4fef cf3c 198b 0bbc 6ba0 7dbd 7111 97bd
00000280: a7b8 40be d9c9 63bd d64a 9a3d a487 053d
00000290: 6939 f0bc a209 263d e1fd 2b3e f497 7bbd
000002a0: ff90 053e a9a9 a53c 92fe a33a 9dd2 45bd
000002b0: 8900 08be 4423 38bd 2726 6cbd 791b d43d
000002c0: d561 47bd b94f a6bd c97d 31be add5 d73c
000002d0: 950a b73c 021c 2ebd 02e5 0dbd 66ae d53c
000002e0: a4b3 783c 811b 87be 4b55 973d 93aa bf3c
000002f0: ba0e c3bd 3721 8fbd e1d7 443e 7a10 81bd
00000300: 03d7 c23b 50a9 e73c 28eb 80be 782e 0dbe
00000310: aecb 14be 3036 d53d 269a 0fbe 2311 e9bd
00000320: f856 273c 1e24 353e 4265 94bd 8453 85bd
00000330: e6c2 493e db49 f3bd 5fa6 283e d698 e13d
00000340: 438a 34bd 154e 093e dcd8 dcbc 4d78 97bd
00000350: 9a12 f3b8 28f4 903d 0829 b538 708c b3bd
00000360: d045 d0bd 253a 5b3e f31f 403d 4880 573e
00000370: b21e 9cbd cde0 583d e42b 20bc 7006 693d
00000380: 7902 603e 796e 68be 2793 bdbd e089 20be
00000390: c483 7cbd 2d4a f6bd 0e1b d53c cc8a 94bd
000003a0: 4df9 4a3a 1862 b93c 1c59 4abe b944 d43d
000003b0: 0b76 473d d154 cd3c 7f83 55be c112 193d
000003c0: 465d 57be 4c41 1bbe afdc 8abc 764d 223d
000003d0: bfff ad3d 99cc 853e fce8 193d 6009 d83c
000003e0: 7e8e 123d da07 28bd 7293 04be 2c83 25bd
000003f0: ed0b 1cbb 79fc 143d 2f6a c63c b9ab 303d
-0.09525055 -0.06893826 0.11238777 0.18564269 0.10059355 0.071910776 0.15075694 -0.046831995
0.090841115 0.082838394 0.065854445 0.40085757 0.094482966 0.044918165 0.20757234 0.042564683
0.15784976 0.15442139 -0.13481241 -0.27238882 0.009148856 -0.107858494 -0.15480909 0.012485245
-0.009169352 0.13784362 -0.057014383 0.3499572 0.15637606 0.2589892 0.09736937 0.030327415
0.1886184 -0.0850788 0.19323759 0.04357348 -0.1950093 -0.06917572 -0.024991533 0.33423766
-0.057283815 0.0004083252 0.08699408 0.15350701 0.16803688 -0.3885178 -0.14845422 0.25797918
-0.19549854 0.34394544 -0.09137181 -0.07127949 0.07492382 0.009662304 -0.04040427 -0.14428353
-0.058267705 -0.08728035 0.038001094 -0.038242012 -0.015122133 0.14019853 0.1000223 0.1014336
0.036804706 0.14834246 0.13271391 0.03507234 0.060238093 -0.09158868 0.032711707 0.10213767
-0.14191781 0.03607243 -0.0009435863 -0.09256246 -0.07437036 0.13593318 -0.14226754 -0.13674526
-0.016563244 -0.01616587 0.20299385 0.17379646 -0.072408006 0.059525974 0.021685231 -0.1592923
-0.064662665 0.0999 -0.034392033 -0.0749538 0.10480912 -0.012387253 0.136634 0.06511346
0.09008257 -0.106805176 -0.04306505 0.13411286 0.06571477 -0.008077923 -0.044712435 -0.17557524
-0.003365262 -0.12924707 0.010808468 -0.14182189 -0.15927632 -0.07987654 -0.051210344 0.16231483
0.02887758 -0.05881825 0.19994076 0.0008046231 0.09479705 0.23246221 -0.03876287 0.05121401
-0.0973422 0.034046188 -0.12438979 0.15267608 -0.034887508 0.08150698 0.26543945 0.06889111
0.0815085 0.27437967 -0.12103056 0.06347922 0.07900169 -0.1481797 0.14863369 -0.1626106
0.1357763 -0.025080673 0.015262797 0.10181669 0.10526407 0.03497732 0.015132192 -0.051484145
0.062440157 0.015661884 -0.23729374 0.09823753 -0.07584765 0.11057974 0.058121946 -0.014230434
0.032672998 0.107234746 -0.07224476 0.20770173 0.025382666 -0.00851705 -0.061920565 -0.073763736
-0.1882044 -0.05561242 0.07533805 0.03260006 -0.02932425 0.04053653 0.16796066 -0.06142421
0.13043593 0.020222502 0.0012511781 -0.04829656 -0.13281454 -0.044955507 -0.057653572 0.103568025
-0.048677284 -0.08120675 -0.1733314 0.026347006 0.022343913 -0.04250718 -0.034642227 0.026084136
0.015179548 -0.2638817 0.07389315 0.023396766 -0.09524293 -0.06988757 0.19222976 -0.06301971
0.0059460416 0.028278977 -0.2517941 -0.13787258 -0.14530823 0.10410726 -0.14023647 -0.11380222
0.010213606 0.17689559 -0.07245876 -0.0651007 0.19703254 -0.11879321 0.16469716 0.11015479
-0.04407717 0.13408692 -0.026958875 -0.073959924 -0.00011590608 0.07077819 8.638395e-05 -0.08767021
-0.10169566 0.21408899 0.04690547 0.21045029 -0.07623042 0.05294876 -0.009776089 0.056890905
0.21875943 -0.22698392 -0.09256583 -0.15677595 -0.0616491 -0.12025867 0.026013877 -0.07253036
0.0007742837 0.022629783 -0.19760555 0.1036467 0.04869656 0.025064858 -0.20850943 0.0373714
-0.21031675 -0.15161628 -0.016950933 0.039624654 0.08496045 0.26132658 0.037575707 0.026371658
0.035780422 -0.041023113 -0.12946871 -0.0404083 -0.002381082 0.03637359 0.024220554 0.043132517
