pol_models/ozone_model_state.pt (torch, 650366 bytes, 16 tensors)

conv1.weight f4 [64, 300, 3]
00000000: 94b9 d0bc 999e b73b 5460 213c 25d2 06bc
00000010: 9921 b33b 453a 16bd 23b4 37bc eb6f 04bd
00000020: 8b72 1fbc 95ef d8bc 9595 94bc 6c64 2e3b
00000030: 5f11 b6bb 5aa6 4bbc fb50 e5bb 0db1 e5bb
00000040: 1da6 a23c ac8a dbbc 3959 95bc 4886 d83b
00000050: 62f4 6c3c b4e2 9e3b c276 19bd 4c87 d83c
00000060: 6a5e d9bc 7fe3 50bb ae89 02bd f410 89bb
00000070: 1348 ab3c abc9 09bd 6e33 beb8 a14e 213b
00000080: 7426 173a 71f5 cd3c 224d bdbc 8999 00bc
00000090: 9e13 823c 6f77 dabc 6bb6 c8bc dc65 873c
000000a0: 427b 25bc 3c64 363c fee2 613c 0642 09bc
000000b0: 5e43 763b 80f1 9ebc fff4 b4bc d452 90bc
000000c0: ddbc 813c 7a8f 5ebc 00b3 ca3c d2f2 223c
000000d0: f972 8e3c e344 b83c be2d 03bd 25b6 81bc
000000e0: 10f2 d3bc 4dc1 61bc 2707 b53c 6f64 2abc
000000f0: 49b1 c73c 8a0d 85bc c66c bb3b 6de1 b23c
00000100: c97a 1fbd c0fd b2bc e675 8a3c fba9 6bbc
00000110: 1ad4 7cbc 3f28 b9bc ebe4 d53b dc3e fcbc
00000120: 296a d73c 2f6e 8a3c b5fa 843c ab15 82bc
00000130: f779 00bd c75b a83c b5c9 1c3c 6686 dabc
00000140: dbf0 4b3c 87c8 2c38 a6d1 febc 4708 d73c
00000150: 3514 073c 6812 953c ca99 a53c 2404 0ebd
00000160: dc70 64bc bffb d7bc 4d57 ec3b 149a a13c
00000170: cd2c 0e3c 8414 8fbc 926e e43c 086d c83c
00000180: fb84 b0bc 3eb6 6fbc 62c7 b13c 1437 b5bc
00000190: 27fb 943c 129e 0fbc 0fa6 2bbb a6c5 c2bc
000001a0: 8f20 a13c 40af c4bc 9c2a 683c a6fe f5bc
000001b0: fb90 bb3c 56ec 06bd 96ee ce3c fbd5 cbbc
000001c0: 139b 90bc 1adb a6bb 7a50 0bbd 6949 81bb
000001d0: d867 c3ba 8699 f5bc 1839 99bc 9e84 bc3c
000001e0: 9118 643c ec27 54bc 2e94 113c e7f2 24ba
000001f0: 8a82 dbbc 830d d3bc 5942 523c 71c3 9fbc
00000200: 276b 4a3b 32bb c13c 61db 623c cfcb a93c
00000210: 49df 47bb 3799 123c 8bae c3bc fccf 17bd
00000220: 5492 01bd 5626 693b a4f4 153c 7c51 8fbc
00000230: cf7b ae3b 303f 053c 64f7 e33c 5600 9b3c
00000240: e02e 5b39 188b 403c aeca c53b a18a bc3c
00000250: ac97 cebc 26d6 8fbc 5789 173b f473 a4bc
00000260: 9634 dcba fb12 0cbd a7bd 90bb 3bcf bcbb
00000270: 2a05 0bbc 1c46 14bd d509 0fbb 28d7 76bc
00000280: 67b6 76bb 4d58 8eba 7539 08bd 2667 b2bb
00000290: 8d8b 7abb f326 4abc ec80 1c3c e60c a0ba
000002a0: 34ae 13bb f282 a43c c405 803c 869e 76bc
000002b0: ebc2 b0bb 2b77 bb3c 2d82 b83b 3067 e1bc
000002c0: c028 a53c 0dc0 913c ee3d aaba 707b debc
000002d0: 4147 e8bb c48f 83bc 0f37 1ebd 1388 533c
000002e0: 101f a03c 3a39 953c 75de 1cbc 95cf cf3c
000002f0: cafb 8bbc 1401 34bb b4d7 153c ed84 04bd
00000300: 6537 b53c c2b7 e3bc b82f bfbc 6d87 6e3c
00000310: 08fb 06bd 27e5 d5bc b90b b73c bccd 3b3c
00000320: 4b04 c63c 9e72 f1ba 6369 f13b 5055 56bc
00000330: 05bb d4bb 2fb3 063c 97c1 02bd ad80 db3c
00000340: 2bff 743c 9c82 abbb 24d7 d1bc 323e 9e3c
00000350: 61bf 5a3c 1617 d4bc cce0 1fbc 849a f73a
00000360: d547 6abc 1532 9f3c 03db afbc 8497 18bd
00000370: 98b0 89bc 614b c33b 2b74 5fbc 4d3c 12bd
00000380: 0ba5 0fbc d9e3 b63c c0d3 9dbc 1853 e03a
00000390: d600 d3bc 08e9 de3c 6c19 fcba c072 b63b
000003a0: 6f79 fc3a e1a6 ce3c 2468 d9bc 42e7 1dbd
000003b0: 3cff 05bc 086b 8abc 74fa 03bd 74cc acbc
000003c0: e714 ff3b c37e a1bc f5e7 8b3c d48b 89bb
000003d0: f59f 41bc c94b 92bc 6d40 febc 6c1f 12bd
000003e0: 8e03 813c 9f1d 0ebd 6a5e 1c3a 8e53 063a
000003f0: ee2e f0bc a17a 4ebc a8f9 ad3b c1c6 ee3b
-0.025479116 0.005603623 0.009849627 -0.008228813 0.0054666516 -0.036676664 -0.0112123815 -0.032333296
-0.009731899 -0.02648143 -0.018137733 0.002661015 -0.00555627 -0.012429798 -0.006998179 -0.0070096315
0.0198546 -0.026799522 -0.018231021 0.0066078044 0.014462562 0.0048488025 -0.037466772 0.026431702
-0.026534278 -0.003187388 -0.031869583 -0.004182929 0.020908391 -0.03363959 -9.0694855e-05 0.0024613517
0.0005765923 0.02514145 -0.023108069 -0.007849106 0.015878495 -0.026668279 -0.024501046 0.016528063
-0.010100188 0.011132296 0.013787029 -0.008377558 0.0037576775 -0.019402266 -0.02208948 -0.01761762
0.015837127 -0.013584012 0.024743557 0.009945588 0.017388808 0.022493785 -0.032026045 -0.015833924
-0.02587226 -0.013778997 0.022098137 -0.010399922 0.024376528 -0.016241807 0.005719754 0.021836007
-0.038935456 -0.021849513 0.016901921 -0.014383788 -0.015431428 -0.022602199 0.0065275333 -0.030791692
0.026295738 0.016898243 0.016232828 -0.015879473 -0.031366315 0.020551575 0.009569575 -0.026675414
0.012447561 4.119475e-05 -0.031105828 0.026249064 0.008244564 0.018197253 0.020214934 -0.034671918
-0.013942923 -0.02636516 0.0072125555 0.01972679 0.0086776735 -0.017465837 0.027884755 0.024466053
-0.021547785 -0.014630852 0.021701518 -0.02212099 0.018186165 -0.008765714 -0.0026191508 -0.023775887
0.019668845 -0.024009347 0.014170315 -0.030028652 0.02289628 -0.03294023 0.025260251 -0.024882307
-0.01765207 -0.005092037 -0.034012295 -0.0039455188 -0.0014908267 -0.029980432 -0.018703982 0.023012456
0.013921873 -0.012948971 0.008885426 -0.0006292299 -0.026795644 -0.025763279 0.012833201 -0.019502373
0.0030886622 0.023648832 0.013846249 0.020727066 -0.0030498079 0.008947662 -0.02388694 -0.037063584
-0.03163369 0.0035575829 0.009152565 -0.01749491 0.0053248177 0.008132741 0.027827926 0.018921059
0.0002090293 0.0117519125 0.006036124 0.023015322 -0.025218807 -0.017558169 0.0023122632 -0.020074822
-0.001680034 -0.03419779 -0.0044171396 -0.0057620085 -0.008485118 -0.036199674 -0.0021825929 -0.015065946
-0.0037645341 -0.0010860056 -0.03325792 -0.005444425 -0.0038230151 -0.012338388 0.009552222 -0.0012210875
-0.0022534253 0.02008197 0.01562775 -0.015052443 -0.00539433 0.022883972 0.0056307525 -0.027515024
0.020161033 0.017791772 -0.0012988427 -0.027158469 -0.0070885723 -0.016059764 -0.038626727 0.012910861
0.019546062 0.018215764 -0.009574522 0.025367538 -0.017087836 -0.0027466463 0.009145666 -0.03235333
0.02212114 -0.027797583 -0.023338184 0.014558655 -0.032954246 -0.026110245 0.022344457 0.011462625
0.024171969 -0.0018420999 0.0073672994 -0.0130818635 -0.006492021 0.008221432 -0.031922903 0.026794756
0.014953415 -0.0052340757 -0.025615282 0.019316766 0.013351292 -0.025889914 -0.009758186 0.0018890654
-0.014299353 0.01943306 -0.021466738 -0.03725387 -0.01680784 0.0059599136 -0.013638536 -0.03570204
-0.008767377 0.022325443 -0.01926601 0.0017114608 -0.025757235 0.027210727 -0.001923365 0.0055678785
0.0019262264 0.025226058 -0.026538916 -0.038550623 -0.008178528 -0.01689674 -0.032221273 -0.021093585
0.007784474 -0.019713765 0.01707838 -0.004197577 -0.011817922 -0.017858403 -0.03103658 -0.035674497
0.015748765 -0.034696218 0.00059649965 0.0005124145 -0.029319253 -0.012602479 0.0053093024 0.007286877

conv1.bias f4 [64]
00000000: 497d 163b 055d babe 6062 973c 1f2a eabc
00000010: 24fe 18bc c92d 913a 05f4 56be 873d 53be
00000020: 608f 903b 2c7f bcbb df95 ad3c c666 f4bc
00000030: 8085 823d a88d bfbe b997 0ebd eb95 b6bc
00000040: 60d9 a8be 3518 2abe d113 09bd e022 73be
00000050: 026c d33c c4e4 9cbd 57f3 91be e256 8dbb
00000060: f2bb 92bd e342 2bbc 8120 d9bc 3b9b a63c
00000070: 7755 09bd 46b7 2a3e e016 84bc 69a6 263e
00000080: a3f5 acbe ce79 91be f9db 953c 8d2f 84bd
00000090: 16db 9c3c 422e 8f3e a757 d53b b5e3 95bc
000000a0: 8d18 1abd fac6 89be 8024 2dbc 7521 abbe
000000b0: bcf6 0bbd e9d3 adbe 2622 9ebe 5104 a0bc
000000c0: 909c b43c 250a f6bb 3206 a8bc 6fe4 b4be
000000d0: 42c6 20bd 34ae a23b 6ccc 08bd ca6d cfbc
000000e0: d3c4 6bbd 01b4 abbc 0cc2 25be 7a87 ebbb
000000f0: afd2 f1bd 32f5 e6bc 7f45 bebe 02a5 11bd
0.002296286 -0.36399093 0.018479526 -0.028584538 -0.009337936 0.0011076267 -0.20991524 -0.2062894
0.004411623 -0.0057524648 0.021189628 -0.029834162 0.06373119 -0.37412763 -0.034812663 -0.022288283
-0.32978344 -0.16610797 -0.033466164 -0.23743773 0.025808338 -0.07660821 -0.28505966 -0.0043133358
-0.07164754 -0.010452959 -0.026504757 0.020337692 -0.03352877 0.16671476 -0.016124189 0.16274418
-0.33781156 -0.28413242 0.018293368 -0.06454382 0.019147437 0.2796498 0.006510693 -0.018297056
-0.03762107 -0.2690962 -0.010567784 -0.33423963 -0.03417085 -0.33950737 -0.30885428 -0.019533308
0.022047311 -0.0075085335 -0.020510767 -0.3533053 -0.039251573 0.0049646143 -0.033398077 -0.025320906
-0.057560753 -0.020959856 -0.16187304 -0.007187781 -0.11807763 -0.02819309 -0.37162396 -0.035557754

conv2.weight f4 [128, 64, 3]
00000000: a6b4 78bd e8f7 0a3d b705 85bd ccff 25bb
00000010: 4d5b c4bc 25ea cb3b 7888 e83c 0e35 33bd
00000020: 1713 93bd df05 48bd a64c 833d 28e9 51bc
00000030: bad8 d43c f9c6 783d 4c8d 283d 8be6 29bd
00000040: 3714 873d 1a12 da3c 5304 6abd d509 83bd
00000050: dd87 733d 24c1 32bb 6f45 71bd 5152 913d
00000060: 8a25 2f3d 3f09 64bd d114 61bd db00 6f3d
00000070: 607f 8cbc 5e62 c73c 2d99 ee3c 7941 1a3d
00000080: 4634 70bd 99ae 143d 58fe cb3c 9e17 bb3c
00000090: c994 07bd f2f0 663d 54b6 9d3d 5fb7 b8bd
000000a0: 50d6 b93c e6c1 8f3d 84de ea3c 4275 7e3d
000000b0: 2f9a 95bd 61ef 11bd 255b 68bd 6804 49bd
000000c0: 453d c73c 3e37 b9bc b489 303d 67c1 babb
000000d0: 5559 3ebd d317 2f3d 29e4 6f3d 7317 5e3d
000000e0: 1c05 843d e300 03bd d165 7dbd f76a 09bc
000000f0: 629a 863d 884d 273d 3d64 68bc c12f afbd
00000100: 70fb 4a3c 787e 083c e14a 05bd 63cf 84bd
00000110: c835 ca3d 14fa 6a3d d907 093c c8a3 94bc
00000120: bbb6 59bd b7e6 333d 580c a7bc 84fc 6dbd
00000130: 8fbb 63bd e272 573d c9c1 493d 1cee 4bbd
00000140: b3ac e1bc a061 9dbb 0300 2f3c fcd2 7c3c
00000150: 6cbd 5fbc 073e 1dbd e1ba e7bc 06a5 b13b
00000160: 26ab 7ebd a882 903d 86eb e93c e58e 753d
00000170: 40ce 3e3d 26b3 333a d5c6 3bbd c1fe 1abc
00000180: feec cfbc bfcf 5c3d f137 043d 9f24 e13c
00000190: a56e 0dbc 1cb9 9f3d e5b9 493d 2d3c 613d
000001a0: 03aa 84bd b7d8 da3c 7616 2f3c 4530 70bc
000001b0: 6067 e03c 7e53 883d f102 98bb 3035 33bc
000001c0: a6ba bf3c f7b5 633d da0a 003d 3151 72bd
000001d0: 7c5c 283d 0858 4abd 6c0d 243c 757b 5b3d
000001e0: 8c03 293d 274b c63c c4e2 983c a97f d1bb
000001f0: 0790 37bd f2fd 983c bffb 313d 8111 22bc
00000200: e229 59bd e1cc 963c 7b04 e23c 2b3b ec3c
00000210: 1cff 7cbd 51a9 80bc 424c 853d 5cfa 5b3d
00000220: f6a8 15bd 1c8b 17bd d6b3 313c fc20 13bd
00000230: e74a b43d 51ac 5fbd c5eb 06bc 5908 113d
00000240: 38e1 d7bc 19d7 083d 498c 92bd c4b7 01bd
00000250: 87ff 303d 2cf1 50bc eae5 89bd 8e41 583d
00000260: dd69 28bc 9476 5bbd 9de8 35bd 5c68 9e3d
00000270: 4f97 2abd 0459 0a3d ed1e 81bd c26d 163d
00000280: 507e cbbb 2887 773d bfa1 ebbc 3f6b be3b
00000290: 7442 fabc 1d9e b2bc f277 44bd 1fb9 1b3d
000002a0: e100 0a3d 9b1d 86bd 4f3c 60bd 621f e13c
000002b0: 48f7 8dbd 996c 4b3d fb7b 3bbc 75cc 7bbd
000002c0: aadd 6a3d 98c9 23bc 7256 263c b4a6 23bd
000002d0: 3860 9c3c c8ce e5bc b808 4f3d 96a5 f83c
000002e0: bd9f 593d 1d8b 8ebd d5bb 3fbc 6d86 d43c
000002f0: f0bc 0f3d 9f30 42bd acf4 aebd 7299 d83c
00000300: b001 623c 28ab 3bbc cca6 85bd efd4 49bd
00000310: 95d6 0dbe 0adc 473c 00a1 8f3d 3c20 efbc
00000320: 7c21 f73c 889b 0f3c a2ff 2abd 3e6b b4bc
00000330: a470 73bd dc15 863d 4099 9abc ccb5 81bd
00000340: 05de 3fbd f4c1 a23c 02d3 40bb b1b1 b9bc
00000350: cbd9 a23d 123e 38bd 4dc3 b0bb 1a2d 0f3d
00000360: 3c5c 503d 8049 b73b bc74 e13c 10e3 bcbb
00000370: 3068 b1bb 8ab4 1abd 6052 3e3d 827a 4cbd
00000380: 0883 1c3d 684d 2b3c d724 61bd 14f5 3ebd
00000390: fa30 0abd d58a 55bd bf7d 8439 48d8 be3c
000003a0: 6d30 ca3c 2309 753d e959 47bd 14f4 733d
000003b0: 54ff 413d 9270 43bd 0a03 923d 0edd 41bd
000003c0: e4bc f9bc 4011 803d 2311 873c cede b2bd
000003d0: ab0b 153c 9aaa bd3d a0cf 813c f029 153c
000003e0: 5cca 30bd d9b6 8abd f308 4a3d 7cc7 913c
000003f0: 70ed b8bb 0472 f63c 9ca9 52bc 7783 3fbd
-0.060719155 0.033927828 -0.06495231 -0.0025329469 -0.023969317 0.0062229806 0.028385386 -0.04375177
-0.071813755 -0.048833724 0.06411104 -0.012811936 0.02598225 0.06073663 0.041150376 -0.04147963
0.065956526 0.02661996 -0.05713303 -0.0639836 0.05945574 -0.0027275765 -0.058904108 0.07095779
0.04276041 -0.05567288 -0.054951493 0.058350425 -0.01715058 0.024338897 0.029125774 0.037660096
-0.0586436 0.03629932 0.024901554 0.02283841 -0.033100877 0.056382127 0.07700792 -0.0901935
0.0226852 0.07019405 0.028670557 0.062123545 -0.07304799 -0.03562868 -0.056727547 -0.049076468
0.024321208 -0.02260935 0.043100074 -0.005699325 -0.046471912 0.04274733 0.0585672 0.05422158
0.06446287 -0.031983268 -0.061864678 -0.008387319 0.06572415 0.040845424 -0.014184055 -0.0855403
0.012389049 0.008330934 -0.032542113 -0.064848684 0.09873539 0.0573674 0.008363687 -0.018144503
-0.05315278 0.0439212 -0.020391628 -0.058102146 -0.05559879 0.052599795 0.049257074 -0.049787626
-0.02754817 -0.0048028976 0.010681155 0.015431162 -0.013656002 -0.038389232 -0.028287353 0.0054212837
-0.06217494 0.07056171 0.02855469 0.059950728 0.046583414 0.00068550033 -0.045843918 -0.009460152
-0.025381561 0.05390906 0.032279912 0.027483283 -0.008632337 0.07798979 0.04924955 0.05498903
-0.0647774 0.026714666 0.010686507 -0.014659946 0.027393043 0.0665655 -0.0046390225 -0.010937974
0.02340443 0.055593457 0.03126035 -0.05915946 0.041103825 -0.04940036 0.010012966 0.053584535
0.04126315 0.024205757 0.018662818 -0.006393392 -0.04481509 0.018675778 0.043452974 -0.009891869
-0.05301846 0.01840824 0.027590027 0.028836807 -0.06176673 -0.015705736 0.06508686 0.05370556
-0.036538087 -0.0369979 0.010846099 -0.03592013 0.08803349 -0.054607693 -0.008234923 0.03540835
-0.02635251 0.033408258 -0.071556635 -0.031669393 0.04321244 -0.012752812 -0.06733306 0.052796893
-0.010279146 -0.05357988 -0.04441129 0.07734749 -0.041648205 0.0337763 -0.06304727 0.036725767
-0.006210126 0.06043163 -0.02876365 0.0058111246 -0.030549265 -0.02180391 -0.04796595 0.038018342
0.033692244 -0.065486155 -0.054745015 0.027480785 -0.06931931 0.049664114 -0.0114431335 -0.061474282
0.0573403 -0.009996794 0.010152446 -0.039953902 0.01908885 -0.028052703 0.050545424 0.030352395
0.053130854 -0.069601275 -0.0117024975 0.025943005 0.035092294 -0.04740965 -0.08542761 0.026440356
0.013794348 -0.011454381 -0.065259546 -0.049275335 -0.13851388 0.0121984575 0.0701313 -0.029190175
0.030167334 0.008765109 -0.041747697 -0.022023793 -0.059433594 0.06547138 -0.018871903 -0.06333503
-0.046842594 0.019867875 -0.0029422645 -0.022667738 0.07951697 -0.04498107 -0.0053943754 0.03495512
0.05086921 0.0055934787 0.027521484 -0.0057643726 -0.0054140314 -0.03776983 0.046465278 -0.04992152
0.0382109 0.010455467 -0.054966774 -0.046620443 -0.033738114 -0.052134354 0.0002527069 0.02329649
0.024681294 0.059823167 -0.04866973 0.059558943 0.04736264 -0.047714777 0.07129486 -0.047329955
-0.030485578 0.0625329 0.016487664 -0.08733903 0.00909702 0.09261055 0.015846074 0.009104237
-0.043161735 -0.06773157 0.04932494 0.017795317 -0.005643539 0.030083664 -0.012857821 -0.046756234

conv2.bias f4 [128]
00000000: ac43 90be a602 8cbe fcb5 54be a95c e33d
00000010: 558f 87bc bc6b 97be 0d11 55be 2933 e63d
00000020: bb84 80be cbc3 8fbe 8b80 cc3d 82e3 b2bd
00000030: 02c8 543d 5634 6abe 663f 8fbe 2469 38bc
00000040: f6f4 b6bd bf38 843e 1231 073d 2283 78be
00000050: f9ed 22bd 98a3 9ebc ebb1 74bc 32d7 df3b
00000060: dd2d 4a3c e3a2 b3be 9790 92be f618 21bd
00000070: 1800 cebc b9a3 54be 1c74 aebe 3c52 4abe
00000080: d2ec b3bd 7bf4 c63d bc7f 61be 2837 96be
00000090: 6fdc 0dbe 1993 17bd c0cd 863c 5d7d a2be
000000a0: 0398 c33b fdac 37be 3dfe c93c b40c 483d
000000b0: fc2d 9f3e dcc5 92be 42d8 d9bc f268 c2bd
000000c0: dc4c 06bc 2456 e7bb e8ac fe3b 1ba3 36bd
000000d0: 59c1 0abd 772e b1bd 416f 303d f6b5 a6bd
000000e0: dc49 a1be 9b00 1e3d 2055 9ebe 97e4 65bd
000000f0: eec1 8e3e d250 8cbd 4fba ae3d 1c1f 08bd
00000100: bedc 2bbe 054d 8ebe c853 923e 2e67 2cbd
00000110: 1a86 7bbe d108 19bd fbba 3d3b 6c77 cbbd
00000120: c75c 27bc 4fce 89bd 302f a6be 2af0 43be
00000130: 759d 47be acd3 99bd bdd6 a8be aa4f a53c
00000140: 061a 3fbe aa9a bdbc 5497 7abe 1b32 273c
00000150: e4e3 2ebe e6ec 853c f981 b1be 1297 3d3c
00000160: 09b7 9fbe ef89 50bb ec7a 0ebe b3a6 623e
00000170: b966 3ebe 9bb8 c63c 9117 92be 1818 003d
00000180: 5ece d8bb 209a 663d 4ae2 ec3d aa96 72be
00000190: 7435 41bb bddd 62be de97 96bc 176a 50be
000001a0: 687e 8c3b 9928 01bd 7acb b6bc 6c14 80bc
000001b0: 301f bdbe b7e7 afbd b667 58bd 9a90 88be
000001c0: 1925 63be 13c0 193d acf8 13bd 506c 803d
000001d0: 1e92 83be 7039 2abd fb7c a1bd 425d f63d
000001e0: 16d0 81be 27d6 363c 5b08 513e 2c4a c1bc
000001f0: 6d26 1dbd 924a 49be 81e7 c1be 96a4 7dbc
-0.2817663 -0.2734577 -0.20772547 0.11101658 -0.016547838 -0.29574382 -0.20807286 0.11240227
-0.25101265 -0.28079066 0.09985455 -0.087348 0.051948555 -0.22871527 -0.27978057 -0.011255536
-0.08933441 0.25824544 0.03300578 -0.24268773 -0.03977773 -0.019365117 -0.014934997 0.006831073
0.012340036 -0.3508521 -0.28625938 -0.039330445 -0.02514653 -0.2076558 -0.3407296 -0.19757932
-0.08785404 0.097146 -0.22021383 -0.29338956 -0.1385362 -0.037005518 0.016455531 -0.3173627
0.005969049 -0.17937084 0.024657363 0.04884024 0.3108977 -0.2866658 -0.026592378 -0.09492673
-0.008197036 -0.0070598293 0.007772077 -0.044589143 -0.033875797 -0.086514406 0.04307485 -0.08140175
-0.31501663 0.038574796 -0.3092432 -0.056126203 0.27882332 -0.06851353 0.08531629 -0.033232793
-0.16783425 -0.27793136 0.28579545 -0.042090587 -0.24562874 -0.037361924 0.002895056 -0.09934887
-0.010214991 -0.06728803 -0.32457876 -0.19134584 -0.19493659 -0.07511076 -0.32976332 0.020179588
-0.18662271 -0.023145039 -0.2447179 0.010204817 -0.17079121 0.016348314 -0.34669474 0.0115716625
-0.31194332 -0.0031820496 -0.13914078 0.22133903 -0.18593873 0.024257949 -0.28533605 0.031272978
-0.0066163978 0.05629933 0.11566599 -0.23690286 -0.0029481323 -0.22154899 -0.018382963 -0.2035297
0.0042875297 -0.031532858 -0.022313822 -0.015634738 -0.36937857 -0.08589118 -0.05283328 -0.26672822
-0.2218212 0.037536692 -0.036125824 0.06270659 -0.25697416 -0.041558683 -0.07885166 0.12029506
-0.2535407 0.011159456 0.20413344 -0.023594938 -0.038366724 -0.19657353 -0.37871936 -0.015481135

lstm.weight_ih_l0 f4 [200, 128]
00000000: fb27 1e3e 3f74 b33d e348 a73d 3560 243c
00000010: d5cb 97bd a534 183e 91e0 a5bd 310e 1a3c
00000020: 6bfb 1cbd 59c2 1a3e 3a26 0f3e bad7 933c
00000030: 4288 803d fffc 9dbd 26f7 a8bc 0a00 c53d
00000040: 12e2 2e3e 77dd c03b 6e12 1e3e b831 7fbd
00000050: 6cc9 3fbd 20ad ec3d ba17 6c3d 99bf c53d
00000060: 9cf0 e83b 712a 083e a28d 5d3d ef20 13bd
00000070: cc12 4cbc 4c1e 9e3d 964a cfbd 93d7 33bc
00000080: 4e2d cf3c 2c9b bc3d 7e31 053e 1ed0 d03b
00000090: a970 b13d 7247 593d dd7a 34bd 509a bebd
000000a0: e8c1 883d e849 123e ba77 4abc 1ea3 bfbd
000000b0: 7a09 923c c5cc 0f3e 87d0 553d 608c 78bd
000000c0: 9cff acbd 316d f33c c2bc 013e 253c 09be
000000d0: 1092 123e 23e1 acbc b792 2e3d c455 ab3d
000000e0: 926a 213e 40ed 97bd 44df 213e 94c9 c63d
000000f0: b120 d43d 1ccb 9e3d f34b 65bc 27c8 03bc
00000100: 0339 8fbd 6119 a3bc ad60 9d3d 96ff ac3d
00000110: b968 97bd 91a4 f4bd 1594 34bd fd1f 0a3e
00000120: cc58 89bd 458c 6bbd e989 ae3d c4c2 993c
00000130: a624 c53d b4b1 ba3c bb15 dd3d 2d38 f93d
00000140: 0e0f 6b3c fe7c 063e c719 b7bd beb5 da3c
00000150: 136e 08bc e765 f13c ab90 583d b7f3 0a3e
00000160: 7e14 ee3d 90d5 b13d b4c3 213e dacf 143e
00000170: 0752 2e3e 5cbd 57bd b695 d33d 0730 febd
00000180: ef89 24bd 1675 893d 7e10 983d 6fd0 573d
00000190: be22 d2bd ca81 763d 1921 1b3e ac28 cd3d
000001a0: 5a73 503d 2266 0d3e 2c91 543b 5352 843b
000001b0: 61f9 d03d b770 d7bd 3c87 003e 2998 7a3d
000001c0: ca9d e23d a3b5 0d3e 2f85 b5bd cea5 213e
000001d0: 1cce 543d 8164 d73d fe0c f23d 3a41 1b3d
000001e0: 6ae9 96bd 72c1 8bbc 7f6d 333d 0566 b13d
000001f0: a327 cbbd 4fba 72bd f499 be3b 9d61 9dbd
00000200: afa5 0b3d 2ba7 afbb 6752 e03d 9f50 223d
00000210: 03c8 35bc 3098 0c3d ce87 e63d 6d80 db3a
00000220: e09a dcbc f9b9 c33d 7fa7 b63d 31fb 0cbd
00000230: b2cb 963c 98b6 143e 4953 273d 936d a13d
00000240: dd13 e43d b97d 373e 3070 b0bc 8441 153e
00000250: 1aaa d73d 886b cdbd 063f f03d a4cb ec3c
00000260: 2951 fdbd 5244 093e 5c06 8f3d 9ee3 eabd
00000270: 3388 0d3e 437f ecbd ef3a adbb 8f50 8c3d
00000280: 48a9 123d adae f03d 8b27 113e c087 5ebd
00000290: a25d 3a3e f370 603e cc89 4c3d f238 883d
000002a0: 749a b73d 482b aabc 03a8 e4bd 3ff5 023e
000002b0: f524 393e 76a4 c83d 4910 b03d 5b86 f63c
000002c0: 576c e23d 9f5b bebc c700 9f3d 178f c53d
000002d0: e598 98bd b6a6 c1bd 1e1a 983d 42e9 783d
000002e0: 41c3 ba3d 8a99 e7bd 90d1 443d 53b8 8cbd
000002f0: b87b a5bc c4bd f5bd 1b43 2e3e b90c 9b3d
00000300: 6a5a 3b3e e0a9 623d 2919 36bc 591d 013d
00000310: 5e49 1d3d 0f84 0c3e 667c f13d ac81 053e
00000320: dc59 0c3e c125 123e ced7 043e 4f21 c3bd
00000330: ee8a 8b3d 7f4a 243d 23d5 b5bd 0504 82bd
00000340: ca05 c0bd 9d50 b73c c981 153e 5f93 a6bc
00000350: 3bea 93bd 1b93 7abc edda cdbd 07ea eb3c
00000360: 231c 913d a0a9 b23d 9ca9 033e 34d4 ac3d
00000370: 51fd 35bd 5691 96bd 91d0 1cbd 5ff8 ba3d
00000380: 3383 4c3d bf46 55bd 8063 933d bf27 093d
00000390: 30d8 a63c 0ace 90bd 2618 a6bc 726f 093e
000003a0: 9d15 0a3c a1d7 5f3d 42c5 a1bd e167 a63c
000003b0: 9b6a 263d b48a 44bb a446 9abd 7ecc 643d
000003c0: 128d e63d 1862 f0bc 8366 083e f704 8cbd
000003d0: 7e9e ad3d e7b5 f0bd e147 babd 2d89 af3d
000003e0: 0edf de3c 7f88 b6bd 43c7 33bc 59ac da3d
000003f0: 3dec d03d aadc 053c 1d11 b03d 58ce 793d
0.15444939 0.087624066 0.08168199 0.010032703 -0.07411925 0.14863832 -0.08099473 0.009402798
-0.03832571 0.151132 0.13979426 0.018047202 0.06275989 -0.07714271 -0.020625662 0.09619148
0.17078426 0.0058857757 0.15436718 -0.062303275 -0.04682295 0.115564585 0.057639815 0.09655685
0.007108761 0.1329744 0.05409015 -0.03592008 -0.012455653 0.077206224 -0.10121648 -0.01097669
0.025290158 0.09209284 0.13007161 0.0063724658 0.08664066 0.05304665 -0.044062484 -0.093067765
0.0667761 0.14286005 -0.012357647 -0.09357284 0.017826784 0.14042957 0.05220082 -0.060680747
-0.08447191 0.029715152 0.12669662 -0.1340185 0.14313531 -0.021103447 0.042620387 0.08365968
0.1576331 -0.07418299 0.15807825 0.09706417 0.10357798 0.07753584 -0.0139951585 -0.0080433255
-0.06993296 -0.019909563 0.07684455 0.08447187 -0.07393021 -0.11945451 -0.044086535 0.13488765
-0.0670639 -0.05750682 0.08522398 0.01876963 0.09626131 0.022789814 0.107951604 0.12168918
0.014346851 0.13133618 -0.089404635 0.02669799 -0.008327025 0.029467536 0.05287234 0.13569532
0.11625002 0.08683312 0.15797311 0.14532414 0.17023478 -0.05267082 0.103312895 -0.12411504
-0.040170606 0.067117855 0.07425021 0.052689012 -0.10260533 0.06018237 0.15149345 0.10017523
0.050891258 0.13808492 0.0032435162 0.004038134 0.10203815 -0.105195455 0.12551588 0.061180267
0.11065252 0.1383882 -0.088632934 0.15785906 0.051954374 0.105172165 0.11818884 0.037904
-0.07368739 -0.017060015 0.043805595 0.08662037 -0.099196695 -0.05925971 0.0058166925 -0.07684634
0.034093555 -0.005360504 0.10953217 0.039627668 -0.01109505 0.034324825 0.112563714 0.0016746648
-0.026929319 0.09556956 0.08918666 -0.034419242 0.018407676 0.14522779 0.04085091 0.07882228
0.11136601 0.17919053 -0.02153787 0.14575773 0.10530491 -0.100302756 0.11730771 0.028905697
-0.12368996 0.13404968 0.06983635 -0.11469196 0.13821487 -0.11547711 -0.0052865664 0.06851303
0.03580597 0.11752067 0.1417524 -0.05432868 0.1819978 0.21918087 0.0499361 0.066514865
0.089650065 -0.020772591 -0.11164858 0.12788866 0.18080504 0.097969934 0.08596856 0.030093363
0.110558204 -0.023237048 0.0776382 0.09646433 -0.07451037 -0.09455626 0.074268565 0.060769327
0.09119273 -0.11308582 0.048051417 -0.068710946 -0.020200595 -0.119990855 0.17017786 0.07570786
0.18296209 0.055337787 -0.011114397 0.03152213 0.038400047 0.13722251 0.11791305 0.13037747
0.13706154 0.14272214 0.12972948 -0.095278375 0.06813608 0.040110108 -0.08878543 -0.06348423
-0.09376104 0.022377307 0.1460029 -0.020333944 -0.0722241 -0.015293862 -0.100515224 0.028798116
0.07085445 0.0872376 0.1285767 0.08438912 -0.044431034 -0.073519394 -0.038284842 0.09129404
0.04992981 -0.05206942 0.071967125 0.03348517 0.020366758 -0.07070549 -0.020275187 0.1342142
0.008428005 0.054649 -0.07898952 0.020313205 0.04062901 -0.00299899 -0.07533005 0.05585908
0.11257376 -0.02934365 0.13320355 -0.068368845 0.084774956 -0.11753445 -0.09095741 0.08571086
0.02720597 -0.08912753 -0.010972801 0.10677404 0.10201309 0.008170286 0.08597014 0.0609878

lstm.weight_hh_l0 f4 [200, 50]
00000000: 188a 94bd ea54 08bd cecf 80bd e09a 6d3d
00000010: b6a9 093e 7075 803d 200c aebc 2c17 72bd
00000020: 78ec 08bd 3614 8d3d 8953 6dbc 7064 e7bd
00000030: fed2 c6bd dbfd a33c e8e0 fd3d a12a 65bd
00000040: 320a 243d 6020 9fbc 1e8f bc3d eda1 fcbd
00000050: bf88 f53d ab6a e53d 4490 4b3e d55b 66bd
00000060: deb3 f6bd bc17 563e 098d b43d 5829 21be
00000070: 94f5 a03d 5add 883c 483a 29be 7ed2 29bc
00000080: fb0d f9bd 1cd6 46be 4813 b0bd bd7f 76bd
00000090: a6a1 5b3d 96d5 debd 6367 5cbc 1190 ff3c
000000a0: edf0 c7bd e293 153e 79c3 81bc 336f c7bd
000000b0: 7dd8 193d 1cb0 263e d824 ef3c 82f8 1b3d
000000c0: b756 fe3d f9b3 2e3d 1ab2 2abe a952 b6bd
000000d0: ceea 013e d10c ef3c b6ed 3e3d eef1 eabc
000000e0: daf4 aabc 1b29 ae3d e1fe 853c 38d1 893c
000000f0: 6662 f7bb a8d9 ea3d e493 a4bc b99c 0c3e
00000100: cfe4 863d f77e 493d 4098 1d3e b209 3c3c
00000110: b59b 15bc 35bb b43d abb0 ee3d d9c4 b43c
00000120: f330 073e 3e55 4e3a 68d1 c6bc caf4 1b3e
00000130: a5fb edbc 1dbe 88bd f330 aa3d 15dc 36be
00000140: 266d b1bc 42d0 a7bd dd0f dabd 3f46 4dbe
00000150: 4acf 543d 7bdd e83c 8070 5f3d 9287 fcbd
00000160: 39f5 313e 0c52 7dbd 0d4d e6bd 8625 c0bc
00000170: a35e 263e dc9f df3a 11aa 9a3d e87f 093e
00000180: a97d 18be 3fda 1bbe e65b 0bbd da32 cfbd
00000190: 102b f1bd 53f4 f53c ed5a e83d f643 f0bd
000001a0: 433b 503c e613 50bd f3e8 f63d fbb9 a8bc
000001b0: 98e9 2f3d 47e0 7bbd c3f3 62be a1f2 2a3e
000001c0: 27b8 863d fe96 f6bc e415 a13d 903d 5ebe
000001d0: a83c b3bc 7308 193e a492 f23d fa12 683d
000001e0: 3f55 b73d 5451 cabd 2597 f4bc 6674 f5bd
000001f0: b0fd bf3d 116b 5f3d d1d3 423c aa48 213e
00000200: 2c83 0e3e 0453 7c3c d423 33be 1fb4 a3bc
00000210: 9993 d4bd 921e 03bd 2c97 45ba bcbb e03d
00000220: 37b0 08be fcb6 52be 1cc2 4e3e b8c4 933e
00000230: b99a 7d3e 5725 003d b20e 5fbc 9ce5 cfbc
00000240: e453 c6bd 1692 813d a309 92bd c627 1fbe
00000250: 2604 cebd f192 ea3c d8d1 f4bd fe74 68bc
00000260: e6c7 863d 866b 333e 0038 7b3e 8826 a93c
00000270: 2e2a 8dbd 9059 093e 2484 56bd 848f 9fbd
00000280: 55fc 293d 29ba f7bc 6155 0f3d 4d4e 82bd
00000290: 39b7 153e 0d90 9b3d 2bf1 ca3d 1e4c 133e
000002a0: 711e 543e 6dc3 643e 63d7 5dbd ea17 1f3d
000002b0: 3b63 363e f34b e33d c382 72bd 6b25 283e
000002c0: bca2 1fbd f77b 533c c2d5 c53d f116 3cbc
000002d0: 19f4 0bbc c2c8 21be ece1 1a3d 6bcd 41bd
000002e0: 8071 18be e810 433e dcec 253e a76c aebd
000002f0: 4f6f 353e 7bca 26bc e6f2 353d 73e0 3c3e
00000300: 1383 de3d c245 ecbd 5e51 d3bd fe74 e8bc
00000310: 5162 35be 1703 653d e79b c4bd aa65 05be
00000320: a3fb cabc 38bf a4be dc63 8fbd a579 033e
00000330: f991 ac3b 51d6 b2bc 574b fa3d dccb 2e3e
00000340: 68f1 c2bd 9e9f a23d 0f26 6c3b 173b a33d
00000350: 6e0f 71bd 9794 06be 4c9c b03d 2fda 7c3e
00000360: 4424 aa3e 0f6a b13e 7418 ba3d 961a 7f3e
00000370: 3ef7 d03d 44e7 5dbc 3dfa 0dbe 30e8 ee3d
00000380: 9204 5fbd 3510 113d 36ee f3bd 65f3 833d
00000390: d990 a93e e47b aa3d d15e 003d e185 04be
000003a0: c02a dabd 9945 28bd 6f02 a4bb 29b7 ff3c
000003b0: d016 c33e f460 833d ad06 123e 0ee5 453d
000003c0: a199 d63c 5143 833d 96cc a4bd 1e09 e63c
000003d0: 3a6e 6dbe 3c3e 58bc d383 61bd 0e1d f5bd
000003e0: 6bd7 1d3d ca0a 8dbe b54d 32bc 786d 5abd
000003f0: 91b0 003e f233 c43d 98d1 f9bd 5e34 c13d
-0.07252902 -0.033284105 -0.062896356 0.05800903 0.13443646 0.062723994 -0.021246016 -0.05910413
-0.03342864 0.068886206 -0.014485248 -0.11298454 -0.09708212 0.020018509 0.12396413 -0.055948857
0.040048786 -0.019424617 0.09206985 -0.123355724 0.11988973 0.11201986 0.19879252 -0.05623992
-0.12046026 0.20907491 0.08815963 -0.15738428 0.0785934 0.016707111 -0.16526139 -0.010365127
-0.1216087 -0.19417614 -0.085974276 -0.060180414 0.053620957 -0.10880582 -0.013452384 0.031196626
-0.0976275 0.14607194 -0.015840279 -0.097380064 0.037559975 0.16278118 0.029192373 0.038078792
0.12418883 0.042652104 -0.16669503 -0.08902485 0.12687227 0.029180916 0.046613418 -0.028679814
-0.020868707 0.08503934 0.016356887 0.016823396 -0.007549572 0.11467296 -0.020090051 0.1373166
0.065866105 0.04919335 0.1539011 0.011476921 -0.009131362 0.088247694 0.116547905 0.02206652
0.13202266 0.00078709784 -0.024269775 0.15230098 -0.029050658 -0.06676886 0.083101176 -0.17857392
-0.021658491 -0.08194019 -0.10647557 -0.20046328 0.0519555 0.028425923 0.054550648 -0.123305455
0.17378701 -0.061845824 -0.11245165 -0.023455393 0.16247039 0.0017061192 0.07551969 0.13427699
-0.14891686 -0.15219973 -0.034023188 -0.10117121 -0.11775792 0.03002373 0.11345468 -0.117317125
0.012709442 -0.050800227 0.1205615 -0.020596495 0.04294738 -0.061493184 -0.221633 0.16694118
0.06578093 -0.030101296 0.078655034 -0.21703172 -0.02187951 0.1494463 0.11844376 0.056658722
0.08951806 -0.09878793 -0.029857228 -0.11985092 0.09374559 0.054545466 0.011891321 0.15750375
0.13917226 0.015400652 -0.17494136 -0.01998335 -0.103797145 -0.032011576 -0.000753748 0.109733075
-0.1334847 -0.20577615 0.20191234 0.28861022 0.24766053 0.03128561 -0.0136143435 -0.025378041
-0.096839696 0.06326692 -0.07130744 -0.15542516 -0.10059385 0.02863452 -0.11954087 -0.014188049
0.06581096 0.17521486 0.24533081 0.020648256 -0.06892811 0.13413072 -0.052372113 -0.07791045
0.04150041 -0.030240135 0.034993533 -0.06362591 0.14620675 0.07595835 0.099092804 0.14384505
0.20714737 0.22340174 -0.054160487 0.038841166 0.17811291 0.110984705 -0.059206735 0.16420524
-0.038973555 0.0129079735 0.09659912 -0.011480079 -0.008542084 -0.1579924 0.037813112 -0.047315042
-0.14887047 0.19049418 0.16203636 -0.085168175 0.17718242 -0.010180111 0.0444211 0.18444996
0.10864844 -0.11536743 -0.10318254 -0.028376099 -0.17713286 0.05591115 -0.096000485 -0.13027063
-0.024778193 -0.32177138 -0.070014685 0.12839372 0.0052664247 -0.02183071 0.12221401 0.17069954
-0.09518701 0.07940601 0.0036033427 0.07970255 -0.058852606 -0.1314262 0.08623561 0.24692605
0.33230793 0.3465123 0.09086695 0.24912485 0.10203408 -0.013543908 -0.1386499 0.1166538
-0.054447718 0.035415847 -0.119106695 0.06442908 0.33118322 0.083244115 0.031340424 -0.12941696
-0.10652685 -0.041082 -0.005005173 0.031215267 0.38103342 0.06414977 0.14260359 0.048314147
0.026196303 0.06409324 -0.08046834 0.02808052 -0.2318658 -0.013198432 -0.055057358 -0.11968432
0.038535517 -0.27547294 -0.010882785 -0.053327054 0.12567355 0.0958022 -0.1219818 0.094338164

lstm.bias_ih_l0 f4 [200]
00000000: ea6b a0bd 6dbe 753d b9be c5bc 968d 58bd
00000010: 33f8 9d3d 9b80 113d 3aad 88bd b513 a43d
00000020: c1f2 603e 9ef9 263e 4630 6abd 7286 08be
00000030: 3036 ba3d ca59 a13d 7fe2 ea3d 580e 3b3e
00000040: 3889 403e fedd 983c 6051 373e 8386 8f3e
00000050: 57a6 9d3c 1f51 06be 0695 813d c53a 8c3c
00000060: 620a 97bd 4f4f 873c ea43 febd ee8e 79bd
00000070: 66da a83c 6f47 103d 8234 61be c2a3 bdbd
00000080: e1ac 72b9 0fa8 963d e6b0 5f3d cb70 20bd
00000090: d024 283d d432 3abc dc33 873c 1566 493e
000000a0: 6b52 ef3d d734 c7bc ae53 ab3d 90a7 913d
000000b0: 441f 633d 138c fabd 8960 2cbe 56db f93d
000000c0: 27a2 0bbd 3686 2b3e 4c46 5839 c8c6 2d3e
000000d0: f950 543d 0f98 753d d63f 273b d0e2 e63d
000000e0: 4525 e83c fa90 2abd 06f8 2cbc 2936 d03c
000000f0: 6554 bfbc 8b7c f93d ee40 2c3c 5925 a53d
00000100: e4ea 1cbc 2ce6 3cbd dc6a b63d 724f 84bb
00000110: e799 1b3e be8e 4c3d 09f7 72bd 3b45 c5bd
00000120: 3cc5 ab3d 0551 9e3d c21b f7bb 5352 80bc
00000130: 8bb9 153d eea0 46be 67c9 e03d 04fd b63d
00000140: 67bf cebd db51 c93d d229 ab3d a0da 0c3e
00000150: d63a 39be 5787 33bd 3b1c c3bd 6fe0 233e
00000160: 7baf 15be 51ea 943d ed2a 843d 1b73 083e
00000170: 9b54 85bd 5952 2f3d 924e 6d3c fc58 8fbc
00000180: 9277 cdbc 6f87 113e 68e6 213d 1c02 9f3c
00000190: bec1 06be e0e2 adbd 34c6 4ebc afbd 21bd
000001a0: ba55 0abe 00a0 babc 0df2 9f3d f0f4 f3bc
000001b0: a5e6 013d 6f23 7abd eb52 f5bd 06d7 b93d
000001c0: 6752 91bb 5c08 4dbd aa9d 913d b16d 9fbd
000001d0: 6afc 58bd 7ab8 61bd b4d6 18bd 4439 62bd
000001e0: 2aa0 2a3e c297 f83d bbcd 0f3e 6c23 3c3d
000001f0: d0ba d0bd e80a 353d 8036 d53d 7738 c8bd
00000200: 450e 283e fba0 21be 6996 dabd 0555 8fbc
00000210: c902 a4bc e117 63bc 1737 e7bd c858 a63d
00000220: ea20 d2bd 77ba c8bc a525 443d fd05 0abe
00000230: efcc 8bbc c22d 2e3e e0f0 e63d 2c7b 47bc
00000240: 5f2f 5b3d 9d04 c03d c74f 85bd 4c60 10be
00000250: 3823 d53c 1c54 cfbd 5c40 973d 747f 023e
00000260: df0b 633b dc5d de3c 9081 24bc e6b6 04bd
00000270: 8d20 da3d 28ca ac3d dfeb 5e3d fea9 c83c
00000280: fd09 ba3d 5de7 263c c490 d13d 8b9e 873b
00000290: 7e80 db3b c31f 663e ed23 8ebd 4b87 44bd
000002a0: 7e7c b13b 6b75 9f3d 0151 58be ba33 983d
000002b0: 5f7e a4bc 16a5 59bd e056 4c3d 73fb 8abc
000002c0: 87a9 b6bc 33d0 873d 8b6d 52bd 0220 3ebe
000002d0: 59db 30be 2b81 6a3d be76 cc3a 5def 5a3e
000002e0: edba 373d 3a79 0bbe d2eb 0f3d 43d8 0d3d
000002f0: d3d9 35bc 84f2 1d3d e75e 8ebc 3f43 be3d
00000300: 1690 a4bc 75fb 3ebc e934 53bd c5d6 c8bd
00000310: f817 ad3c a2ac b63b e77a 76bd d475 2b3e
-0.07833083 0.059996057 -0.024138795 -0.052869402 0.07713356 0.03552304 -0.06673665 0.08011571
0.21967603 0.16306159 -0.057174943 -0.13332537 0.09092367 0.07878454 0.11468982 0.1826719
0.18802345 0.018660542 0.17902136 0.28032312 0.019244356 -0.13116883 0.06327252 0.017117867
-0.07375027 0.01651731 -0.12415297 -0.060927324 0.020611953 0.035224374 -0.21992686 -0.0925975
-0.00023143321 0.073562734 0.054612063 -0.039170068 0.041050732 -0.011364657 0.01650422 0.19667847
0.11685642 -0.024317188 0.0836557 0.07112038 0.05544974 -0.12233748 -0.168337 0.12200038
-0.034090187 0.16750416 0.00020625553 0.1697036 0.051835034 0.059959468 0.0025520227 0.1127373
0.028338084 -0.041642167 -0.01055718 0.02541645 -0.023355672 0.12181958 0.010513527 0.08063764
-0.009577487 -0.046117947 0.089071006 -0.004037791 0.15195428 0.049940817 -0.059317622 -0.09632345
0.08387229 0.07730297 -0.007541151 -0.015664255 0.0365539 -0.19397327 0.109759144 0.08934978
-0.10095101 0.09830066 0.08357586 0.13755274 -0.1808885 -0.043830242 -0.09526869 0.16003583
-0.14617722 0.07271255 0.064535 0.13325159 -0.06510278 0.042803142 0.014484065 -0.017498486
-0.02508143 0.1421182 0.039526373 0.019410186 -0.13159844 -0.084905386 -0.0126204975 -0.039487537
-0.13509265 -0.022781372 0.078098394 -0.029779881 0.0317141 -0.06106895 -0.11978706 0.090742156
-0.004434872 -0.0500568 0.0711015 -0.07784594 -0.052975096 -0.05510757 -0.03731413 -0.055230394
0.1666266 0.121383205 0.14043324 0.04593222 -0.10191882 0.044199854 0.10410786 -0.09776395
0.16411693 -0.15784065 -0.1067322 -0.017496595 -0.02002086 -0.013860674 -0.112898044 0.081224024
-0.10260184 -0.024502976 0.047887463 -0.13478847 -0.017065493 0.17009643 0.11276412 -0.012175363
0.053511973 0.0937588 -0.06509357 -0.14099234 0.02601777 -0.101234645 0.073853225 0.12743932
0.0034644527 0.027144365 -0.010040656 -0.032400988 0.1065074 0.08436996 0.054424163 0.024495121
0.09083936 0.010186997 0.1023269 0.004138773 0.006698667 0.22473054 -0.06940446 -0.047980588
0.005416452 0.077860676 -0.2112465 0.07431741 -0.02007979 -0.053135954 0.049887538 -0.016965603
-0.022297634 0.06631508 -0.051374 -0.18566898 -0.17271174 0.05725209 0.0015599353 0.21380372
0.044856 -0.13620463 0.035137005 0.03463007 -0.011099297 0.03856136 -0.017379237 0.0929017
-0.020088237 -0.011656632 -0.05156413 -0.09806589 0.021129593 0.0055747787 -0.060175803 0.16744167

lstm.bias_hh_l0 f4 [200]
00000000: 1738 2c3d 3c2f ea3d c734 6dbd 9c51 42bb
00000010: e577 1b3e 349f ae3d a34e f73d 0d42 203c
00000020: 6f36 bc3d 9c07 9f3d c610 f33d 2de2 1fbe
00000030: 8e38 a93d ce88 c2bb f2a1 243e f9a3 433e
00000040: e1c0 0cbc 04c3 333b 08a2 5c3c e785 9a3e
00000050: 403f 0cbd fa7c ddbd 709a ff3c a5c8 063e
00000060: 8a58 ce3d 3ff8 1e3e 3ca1 a3bd baae 66bd
00000070: a63a 673e 34b8 c9bb ef7a f8bd 8bc7 303e
00000080: c4f0 813d 84a9 293e 7547 903e 9bd4 dfbd
00000090: a839 aabd 4f12 1e3d 10e6 83bd 0cfc cb3d
000000a0: 03d1 863d 626a c93d 87c1 0bbe 4e3a 0b3e
000000b0: c3e2 a43d 2858 aa3d 0f76 3d3d 1745 81bd
000000c0: d1ce fabc 3193 0b3e e71b 303e fe84 5abd
000000d0: bafd e43d cb54 223e ce5a 03be 040e a53c
000000e0: a827 a83d 29ba 09bd 56a4 59bd 66d6 983c
000000f0: 6e65 613d 4da7 113e 545f 323d c5b6 1a3e
00000100: 4870 98bd 4a09 f33a 11aa 103e 0b72 1abe
00000110: 8a31 abba 0a7f 8a3c c085 6c3d 03ca 6c3b
00000120: 92fa 3fbd cbcf fcbd 7b0b bcbc fb4d 063d
00000130: ce54 21be 3fd2 6e3d 6bbe eb3d 78b2 59bc
00000140: f34a d3bd 2764 5ebc 491d 283d 8688 1c3d
00000150: b40d 7abd cfe4 2d3e ce6a 04be ff12 203e
00000160: 1922 7cbd e129 4d3d 53f4 5a3e 434d 88bd
00000170: b46b 62bd b2a8 15be 2980 c13d e073 4bbc
00000180: 7d46 b43d c0f6 233e d02b 3a3e 0753 e1bc
00000190: 2a93 1dbe e21c 22be f7e3 0cbe 9df5 67bd
000001a0: a60a 05bd d3b0 d3bc 52c9 343e 5e48 08be
000001b0: 8a33 a73c 21a4 9ebd 25c5 0e3c db5c 843d
000001c0: 50cc fdbb 0d66 1d3e ff56 aebd 776d 1dbd
000001d0: fd08 b8bc 16da ad3d 7fae f53d e198 053d
000001e0: cf1e f83d c072 03be 2ff9 033e 5c05 19be
000001f0: 7680 b7bc afc3 52bc 4c44 333d cad2 7dbd
00000200: 807a c63d 4e6f 21be 8bd0 27be 3d23 a43c
00000210: 1f86 ba3a c30e 4b3d 6dbe b5bd 70e7 d3bd
00000220: 2a05 bcbd 47bb f63d 685c 0bbe 40fb 933c
00000230: 986f cbbd 62d9 1c3d 78dd f83d 5754 aa3d
00000240: 9c0f aebd 5c85 343d 83b1 26bd d266 643d
00000250: c8fe a73d 6340 583d 6526 423c 4019 fdbc
00000260: f503 e0bd 6328 0a3e c557 383c 3e00 003e
00000270: 485c b9bd 76ac 853d 8863 273e daf9 cd3d
00000280: a907 7c3c 7cbc 563d 5312 86bd 7923 b2bc
00000290: 1c07 483e d459 ba3d 6497 2f3e 7ee6 42bd
000002a0: 8807 09be 4620 973d 8d4d 3abd 170d c6bd
000002b0: f8fb 07be d5fe 7c3d ced6 0cbe fd88 e43d
000002c0: 56af 37be 5831 b53d 932d d5bd 027b 6bbe
000002d0: 7acd 82bb 92df d63d 7e8f 09be 5804 363e
000002e0: cc8c 3e3d 8764 c3bc e441 05bd bb33 c3bc
000002f0: 7219 78bc f35e 163e 442a b63d 0e2e f0bc
00000300: 8b7a 883d 76dd 0f3e a5e9 ea3d eac7 dc3d
00000310: 86fd 953d 847c cfbd c07e 363d 4dac a03d
0.04204568 0.114347905 -0.05791166 -0.0029650694 0.15182455 0.08526459 0.12075546 0.009781373
0.0919007 0.07765123 0.11868434 -0.15613623 0.0826274 -0.0059367185 0.16077402 0.1910552
-0.008590908 0.002742947 0.013466366 0.30180284 -0.034240007 -0.10814853 0.031201571 0.13162477
0.10075481 0.15524386 -0.079897374 -0.056318976 0.22580966 -0.006155992 -0.12132823 0.1726362
0.063447505 0.16568571 0.28179517 -0.10929223 -0.08311778 0.03859168 -0.06440365 0.099601835
0.065828346 0.09834744 -0.13648044 0.1359646 0.08051064 0.08317596 0.046255168 -0.06312006
-0.030616196 0.13630368 0.17198144 -0.053349487 0.11181207 0.15852658 -0.12827608 0.020148285
0.08210689 -0.0336248 -0.05313524 0.01865692 0.05502837 0.14223976 0.043547943 0.15108784
-0.07443291 0.0018542197 0.14127375 -0.15082566 -0.0013061028 0.01690628 0.05774474 0.003613115
-0.04686982 -0.12344321 -0.022954693 0.03278921 -0.15755007 0.058305975 0.11510929 -0.013287179
-0.1031703 -0.013573683 0.041043554 0.038216136 -0.061048225 0.16981815 -0.12931368 0.15632246
-0.061555956 0.050088767 0.21382265 -0.066553615 -0.055278495 -0.14615133 0.09448273 -0.0124177635
0.08802507 0.16012096 0.18180776 -0.02750541 -0.1538817 -0.1583133 -0.13758837 -0.05663072
-0.03248086 -0.025841152 0.17654923 -0.13308856 0.020410318 -0.07746149 0.008713995 0.06463023
-0.007745303 0.1537096 -0.08512687 -0.038434472 -0.022465223 0.08488862 0.11996173 0.0326165
0.12115251 -0.12836742 0.12888025 -0.1494345 -0.022400122 -0.012864037 0.043766305 -0.061968602
0.09691334 -0.15765116 -0.16388147 0.020036334 0.0014230645 0.049574625 -0.088742115 -0.103468776
-0.091806725 0.12047439 -0.13609469 0.018064141 -0.09933394 0.03829325 0.12151617 0.08316868
-0.08499071 0.044072494 -0.040696632 0.05576212 0.082028925 0.05279578 0.011849974 -0.03089583
-0.10938255 0.13491969 0.011251395 0.12500092 -0.090508044 0.06527035 0.16346562 0.10057421
0.015382686 0.052425846 -0.06546464 -0.02174543 0.19533962 0.090991646 0.17147595 -0.047583096
-0.13381779 0.073792025 -0.045484114 -0.096704654 -0.13279712 0.061766464 -0.13753816 0.11158941
-0.17937979 0.08847302 -0.10409083 -0.22996143 -0.00399178 0.104918614 -0.13433644 0.17775095
0.046520993 -0.023851646 -0.03253354 -0.023828378 -0.015142785 0.14684658 0.0889478 -0.029318836
0.06663998 0.14049324 0.114703454 0.10780318 0.073237464 -0.10131171 0.044554472 0.07845364

lstm.weight_ih_l1 f4 [200, 50]
00000000: 619e 02bd 53cd 1abd dc64 04be ad32 0ebd
00000010: cb2f efbd bbdc ca3d 2b6a a63d 8548 c0bd
00000020: b3e5 e13d cac5 77bd 0631 043c e0ad 183b
00000030: 0017 373d 3772 9bbd 6be6 623d 9607 e53d
00000040: 8803 20be e838 c23c 6ceb b53b d26c 193e
00000050: 6cd0 153e a994 12be 98db 633d 83cd a03d
00000060: 4e5b ad3d 47e9 3f3d 6dfa 433c 16e5 043e
00000070: c59c c1bd 166e 0fbe a23b 743d a410 ea3d
00000080: 17d3 c83d b7a5 053e 409d fe3d af8f 233e
00000090: c2a5 99bc cc3f 5cbe ff85 d63c 6199 c8bd
000000a0: 7db7 833c 0360 3bbe d629 eb3c 0195 1dbe
000000b0: 338c 103e 1782 903d 73f9 f2bd 6539 633d
000000c0: 45eb b23d 1f8c 93bd b319 b9bd 6604 a3bc
000000d0: 9a4f e0bd 7425 ae3d 617c bb3c 634d d2bd
000000e0: e4f2 2abd 0368 05be 5493 953c ddd6 5c3d
000000f0: 3851 09be 8bd3 183e 2e42 433c 5afc c33c
00000100: 0ebb 44bb a882 c13d 7572 8cbd 658f c73d
00000110: 72b2 8b3b 36ee 2dbd 1476 1d3e 5fe1 8fbd
00000120: 6669 b53d 1317 66bc f904 8e3d b8a6 013e
00000130: 15a1 ed3b f7c7 3fbe e4eb c93d 8cf8 ecbb
00000140: 0db9 22bd d21e 473d 78ce 88bd 37fc d8bd
00000150: 2b9f 9cbc 9897 b2bc ec13 5c3d 724f 17be
00000160: e365 fe3d 0a6d a0bc 71c9 14bd 7403 413d
00000170: af9f fcbb 4757 ffbc cd24 9cbd 28f1 d93d
00000180: 0295 873d e690 e9bd d9ed 81bd c0e7 dbbc
00000190: 0ee5 40bc 5555 debd 4865 b53c 04af 743d
000001a0: ac2c 853e e8fa d73c f265 203d 1d32 2c3d
000001b0: b812 f7bd dbc7 dabd c566 553c ffb0 c63d
000001c0: 8d6e 14bd 0b5e b9bd 937b 91bd 0ddd 42be
000001d0: 64de b73c f73a 2cbd 1564 dabd 2825 26be
000001e0: 4e61 04bd 6f8c c3bd 49c7 2cbd bbf3 af3d
000001f0: 3bb2 ec3d 3a5f a2bd eb88 f63c e743 363c
00000200: ab49 eebc e11d 083e ca93 593b 0186 cfbd
00000210: 4c29 6fbd aa5d b0bd 8c9a c43d c6a9 ddbc
00000220: c5cd 55bd cc0b 003e 4190 0ebe ff18 803e
00000230: fe6d 7a3d e07f 823d 4c54 e2bb fd0e c7bd
00000240: abbd cc3c ac7c 443c 09ba 143d 969a 993d
00000250: d45e cdbd f332 9fbd ebe3 013d 8b53 84be
00000260: b3ec 8a3d 26fc 173e 6c93 773e 5812 0c3e
00000270: de07 01be 99c9 623e 1981 f4bd 19c8 bf3d
00000280: a777 f33d 8a10 503e 3b4e 02be 81e1 95bd
00000290: 8d00 e8bd ec8b 273e 9fae 8fbd 846a c13b
000002a0: 4ad4 fbbc 53c7 d63d 1b48 383d 79a2 a73d
000002b0: 5ee4 21bd 7cdc ecbd 408c 463e ff09 d43d
000002c0: f4ad 973d b0da 03be f927 123e deae 79bd
000002d0: 02ae 8bbd 7d97 21bc 28c4 0c3d f524 f2bd
000002e0: ce9f bfbc 2cf1 f83d 6560 4bbd 9aea 88bd
000002f0: 93da 8a3c 0a23 4dbe f81b a63a cb44 8b3c
00000300: 87d9 21be 1af1 223e 2fa4 00be fc7c 53bd
00000310: e552 8e3c d968 153e 67ae f43d 4926 d1bd
00000320: af8e 013e e278 1e3d f363 6c3c 0003 b53c
00000330: 421d 82bd f1a1 3cbb 5925 69bd 3941 21be
00000340: 6dc7 b6bd f8c2 8d3a 94ea 7bbd 21c9 473e
00000350: 50ee 12bd bc3f 32bd c0cc 96bd a962 74bc
00000360: 99f6 01be 1f9a e63d 1809 a5bc 9e24 a43d
00000370: b62d 9bbd ef4f dc3c c605 3c3b 32b6 8fbd
00000380: cf4d 05be 1469 873d 9e70 cf3b c96d b2bd
00000390: 9388 3bbd 8116 d5bd 7564 13be e9b1 bc3d
000003a0: f31b aebb 5e56 25bd f68c 733d f128 313d
000003b0: 3550 2ebe 82d4 a0bd fdec 29bc d1d0 b3bc
000003c0: fb7c 543d 8ad0 4e3d 3442 9f3d fa27 133e
000003d0: 1a04 f9bc b4d4 ff3c 954e ef3b d248 13bd
000003e0: b3e6 9bbd d7f9 a9bd d9b8 173e ac19 e13c
000003f0: c4fe 08bc a7bc 34bd 8b18 df3c 07de 82bd
-0.031889323 -0.03779347 -0.129291 -0.034716297 -0.11679038 0.09905382 0.08125719 -0.09388832
0.1103014 -0.06049136 0.008068329 0.0023296997 0.04469967 -0.07590144 0.055395525 0.111830875
-0.15626347 0.023708776 0.005551746 0.14982918 0.14630288 -0.14314522 0.055629343 0.07851698
0.084646806 0.04685333 0.011961562 0.12978014 -0.094537295 -0.14006838 0.059627183 0.11428955
0.09805887 0.13051496 0.12432337 0.1597278 -0.018755797 -0.21508712 0.026186941 -0.0979488
0.016078705 -0.18298344 0.028706472 -0.15388872 0.14115982 0.07056063 -0.11863985 0.055474658
0.0873628 -0.0720446 -0.09038105 -0.019899558 -0.10952683 0.08503237 0.022886457 -0.102686666
-0.041735545 -0.13027959 0.018258728 0.053915847 -0.13409889 0.14924447 0.011917634 0.023924042
-0.003001872 0.09448749 -0.068577684 0.09744147 0.0042632157 -0.042463504 0.15377074 -0.07025408
0.08857994 -0.014043587 0.06934542 0.12661254 0.0072518685 -0.18728624 0.09859446 -0.0072317775
-0.03972726 0.048613377 -0.06680006 -0.10594981 -0.019118866 -0.021800801 0.053729936 -0.147764
0.12421777 -0.019583244 -0.036324922 0.047122434 -0.0077094655 -0.031169547 -0.07624207 0.106417
0.06620218 -0.1140459 -0.06344194 -0.026843905 -0.011773361 -0.108561195 0.022143021 0.05973722
0.26010644 0.026364759 0.039159723 0.04203998 -0.12064117 -0.10682651 0.01302499 0.09701728
-0.036238242 -0.090511404 -0.07103648 -0.19029637 0.022444911 -0.04204842 -0.106636204 -0.16225111
-0.03231936 -0.0954827 -0.04218224 0.0859141 0.11557432 -0.07928319 0.030094584 0.011124588
-0.029087862 0.13292648 0.0033199661 -0.10132981 -0.058388993 -0.08611615 0.0959979 -0.027058493
-0.05219819 0.125045 -0.13922216 0.2501907 0.061140053 0.063720465 -0.0069070216 -0.09719656
0.024992784 0.011992615 0.03631023 0.07500188 -0.10027853 -0.0777339 0.0317115 -0.25844988
0.06783428 0.14842281 0.2417733 0.13678873 -0.12600657 0.22147216 -0.11938686 0.093643375
0.11888056 0.20318809 -0.12725155 -0.07318402 -0.1132823 0.1636197 -0.07015728 0.00590259
-0.030740876 0.10487237 0.04499064 0.08185286 -0.03952443 -0.115654916 0.19389439 0.10353469
0.07406226 -0.12876391 0.14273061 -0.060957782 -0.06820299 -0.009862778 0.034366757 -0.11823455
-0.02339163 0.12155375 -0.049652476 -0.06685372 0.016949927 -0.20032898 0.001267313 0.017000576
-0.15805636 0.15912285 -0.12562631 -0.051632866 0.017373512 0.14590777 0.11947327 -0.102123804
0.12652086 0.0386895 0.014428127 0.022096157 -0.06353237 -0.0028783048 -0.056920383 -0.15747537
-0.08924756 0.0010815552 -0.061503008 0.19510318 -0.035871804 -0.043517813 -0.07363272 -0.014916101
-0.12691726 0.11259865 -0.020145938 0.08014797 -0.07577078 0.026893584 0.0028689965 -0.07017173
-0.13017963 0.06611839 0.0063305637 -0.08712346 -0.045784544 -0.10404683 -0.1439379 0.09213621
-0.0053133904 -0.04036557 0.059460603 0.043251935 -0.17022784 -0.07853033 -0.010371444 -0.021950157
0.051877003 0.050491847 0.07776299 0.14370719 -0.030397464 0.031229354 0.007303069 -0.03595812
-0.07612362 -0.08299606 0.14816608 0.027478062 -0.008361522 -0.044125225 0.027233383 -0.063900046
