pol_models/pm_10_model_state.pt (torch, 650288 bytes, 16 tensors)

conv1.weight f4 [64, 300, 3]
000000 ac 78 06 bc ae 3a 20 3c fa af 09 bd de 6c f0 bc
       -0.008207481 0.009779615 -0.03361509 -0.029348787
000010 73 04 91 bc 51 61 4b 3b 61 7d b1 bb ab b2 b1 3c
       -0.017702317 0.0031033347 -0.0054165577 0.02169164
000020 35 7f e5 bb c5 2c 85 3b 81 ed 72 bc 3c ee 49 bc
       -0.0070036897 0.004064175 -0.014827133 -0.012324866
000030 d6 2c 15 bd 1a 10 dc bc 2d 71 9e bc 12 4f 39 bb
       -0.036419712 -0.026863147 -0.019341076 -0.002827589
000040 7d 72 16 3c ca ba 86 3c 61 a2 e2 bc 45 a1 9f bc
       0.00918257 0.01644649 -0.027665319 -0.019486079
000050 f0 1f ff 3b a5 74 a5 3c a0 d2 72 bc 72 c3 96 3c
       0.0077857897 0.020197222 -0.014820725 0.018403742
000060 48 69 4d bc e0 66 03 bb 1b 36 c6 3c 3d f3 1c bd
       -0.012537308 -0.0020050332 0.024195721 -0.038317908
000070 7e fc f1 bc 78 f3 6e bc c2 81 91 bc ba ea c3 3c
       -0.029539343 -0.014584415 -0.017762069 0.023915637
000080 2e d4 e1 bc de 23 b9 bc 6b fe fb bc d6 ea 18 bd
       -0.027566995 -0.02260011 -0.030760964 -0.037333332
000090 4a 0d c2 bc 60 71 c7 3c 8d 19 36 3c b9 11 3d 3c
       -0.023687977 0.024346054 0.01111449 0.01153987
0000a0 06 85 3f bb b0 5a ad bc be 38 55 3a e0 f8 13 bd
       -0.0029223575 -0.021161407 0.00081337604 -0.036126018
0000b0 6d e9 f6 bc 80 5f b5 bc a0 83 83 3c 76 cf 68 3c
       -0.030140603 -0.022140265 0.016053975 0.014209619
0000c0 dd fd a0 bc 6c 25 ca bb 5c ac 8c 3c de d6 ef 3c
       -0.019652301 -0.006169012 0.017172031 0.029277261
0000d0 8b b9 18 3c ff b2 93 3a a3 b6 90 3c 2f f6 c7 bc
       0.009321581 0.0011268555 0.017665213 -0.024409382
0000e0 10 ba ae 39 c4 a3 fc bc f4 60 e6 bc 95 47 c0 bc
       0.00033326494 -0.030839808 -0.028122403 -0.023471633
0000f0 8b 9e 28 3c ec 62 0c 3c d6 03 c3 bc 7d e7 9a 3b
       0.010291706 0.008568507 -0.02380554 0.0047273026
000100 8a 84 59 3c 91 d8 23 bc 65 a6 78 bb 03 1e 32 3b
       0.013276229 -0.010000364 -0.0037940976 0.0027178533
000110 51 9b 85 3c bb 96 c2 3c ba 25 0b bd c3 0f 99 bc
       0.016309412 0.023753515 -0.033971526 -0.018684274
000120 b0 a8 9a 3b 9f be 95 3c ea d7 b2 3c 0b b7 c6 3c
       0.004719816 0.018279372 0.021831471 0.024257204
000130 34 2c d5 3a a5 26 0f bd a9 4b 0f bb 0a 15 d6 bc
       0.0016263784 -0.034948964 -0.0021865165 -0.02613308
000140 f7 18 18 bd cc 0b b2 3c 17 9c 8c 3c a9 e2 21 bd
       -0.037133183 0.02173414 0.017164273 -0.0395228
000150 6c 54 ba 3a d6 b0 2b bc 1a 7a 39 bc 3a d5 a1 bc
       0.0014215834 -0.010479173 -0.011320615 -0.019754995
000160 e3 24 07 3c 1c 37 c2 bc 0f 63 fb 3b 66 b3 48 3c
       0.008248541 -0.023707919 0.007671721 0.012249803
000170 af e4 a2 3c 17 c9 ee 3b 9d eb 1c bd 6a 66 e2 bc
       0.019884435 0.0072871554 -0.038310636 -0.027636725
000180 a6 ea 40 3c b1 c1 03 3b 02 fc f6 bc df 0f c9 bc
       0.011774695 0.0020104463 -0.030149464 -0.0245437
000190 73 86 d5 3c 1f 9c 85 3c 0e c9 a1 bc ff 66 5d bc
       0.026065087 0.016309796 -0.01974919 -0.013513326
0001a0 78 87 1b bd 0f 37 ac bb ca 88 f4 bc 15 b4 00 bd
       -0.03797099 -0.005255587 -0.029850382 -0.03142174
0001b0 5e a6 32 bc 2f b0 83 bb a9 d1 a4 bc 9b 59 78 3c
       -0.010903923 -0.0040188055 -0.020119505 0.015158082
0001c0 bb 8f cc bc c2 d4 cc 3c 32 41 8f 3c f7 f5 08 bd
       -0.02497088 0.025003795 0.017487142 -0.033437695
0001d0 8b 71 55 bc 11 8b 4b bb 9a 25 f0 38 5e ea 7b 3b
       -0.013027559 -0.0031058232 0.000114510956 0.0038439254
0001e0 96 23 bd 3b 52 ec aa bb 7d 53 b6 bc 10 8c 0b 3c
       0.0057720644 -0.00521616 -0.022256607 0.00851728
0001f0 20 94 21 bd 85 f0 d3 bc 20 3b 80 bc 19 1a c0 bc
       -0.039447904 -0.025871525 -0.015653193 -0.023449944
000200 ec 9d 90 bc 43 49 03 bd c4 5a 42 bc 2b 3e 4b 3b
       -0.017653428 -0.03205229 -0.0118624605 0.0031012397
000210 a5 66 db bc 40 14 dc bb 73 ad 9f 3c 68 e0 2e bc
       -0.026782343 -0.006716281 0.019491887 -0.01067362
000220 f9 65 e2 bb f4 e2 1a bc 1f b2 66 bb fd ac 31 3c
       -0.0069091287 -0.009453524 -0.0035201383 0.010844466
000230 2c ac b5 3c de 76 86 3c b2 0c dc 3c fa bb d4 bb
       0.022176825 0.016414102 0.026861522 -0.006492135
000240 d7 e0 0b bd c4 91 a3 bc 14 61 9d 3c 77 fa b4 bb
       -0.03414997 -0.019966967 0.01921133 -0.005523022
000250 ad b4 b3 bc fa 1b 02 bd 14 55 13 bd 4f 5d 07 bd
       -0.021936739 -0.03176496 -0.03596981 -0.03304797
000260 d6 58 4c bc 5e 0c 57 3c 6a 38 55 3c dc 19 1c bd
       -0.012472352 0.013125507 0.013013938 -0.0381106
000270 be 69 7f 3c 7f c8 ff bc 34 e9 3c bc 89 7d 9a bc
       0.015589176 -0.031223534 -0.011530209 -0.018858688
000280 e4 7c 3b bc ce 24 4a bc 4c 1a 19 bd cc 68 14 bd
       -0.01144335 -0.0123378765 -0.037378594 -0.036232755
000290 d5 d2 3d bc 37 a6 98 bb dc 3d a6 bc dc d9 ce 3b
       -0.011585911 -0.004658486 -0.020293169 0.006312592
0002a0 7c a8 0e bd 9a 28 e8 bb 96 03 c2 3c e2 34 9b bc
       -0.034828648 -0.007084918 0.02368335 -0.018946115
0002b0 c8 37 cb 3c af 04 c2 3b 07 f4 10 bd 22 ca 80 3c
       0.024806872 0.0059209685 -0.035388973 0.015721384
0002c0 20 f3 24 bc 39 ca a2 bc 48 fe a7 3c 80 18 08 bd
       -0.010067731 -0.019871818 0.020506993 -0.03322649
0002d0 80 2b 84 bb 8d e4 6d bc 76 36 90 3c 62 04 91 3b
       -0.004033506 -0.014519823 0.017604094 0.0044255713
0002e0 30 0b 37 3c 73 ba c3 3b 99 2b 54 bc c4 0d 42 bc
       0.011172101 0.005973154 -0.012949848 -0.011844102
0002f0 df ab 08 bd 5b 53 31 3c 10 f9 9d 3c 43 fb 87 3c
       -0.033367034 0.010823096 0.019283801 0.016599303
000300 da 9a e7 bc fb 6b 53 bb 15 50 e0 bc ab 1b c4 bc
       -0.028272081 -0.0032260406 -0.027381936 -0.023938974
000310 3c fa d2 bc 4b f7 aa 3b 0d 55 e6 bc 37 a4 13 bc
       -0.025754087 0.005217468 -0.028116727 -0.00901132
000320 a8 03 a6 bb 12 69 88 3c 81 34 f6 bc 40 f4 dc bc
       -0.005066354 0.016651664 -0.030054333 -0.026971936
000330 7e 09 c7 bc 5f b5 96 3c c4 39 85 bc 26 2f 9a 3c
       -0.024296518 0.018397031 -0.016262896 0.01882131
000340 b4 66 26 3b 88 72 60 bb ff 96 a6 bb a2 89 3b bc
       0.0025390806 -0.0034247953 -0.005083918 -0.011446388
000350 e4 28 c5 38 48 c5 52 bc fc ac b4 bb ff e3 ed ba
       9.4013085e-05 -0.012864418 -0.0055137854 -0.0018149613
000360 aa 49 ff bc 30 51 b9 bc 1c 59 a9 3c ac c8 03 bd
       -0.031163055 -0.022621721 0.020672373 -0.032173797
000370 54 5a f6 bb 75 60 da 3c 9e 14 77 3b 63 e8 ff bb
       -0.007518092 0.026657322 0.0037701498 -0.007809685
000380 af 87 11 bd 74 5d 3a 3c 34 78 ec bc 0c 66 71 bc
       -0.03552979 0.01137482 -0.028865911 -0.0147338025
000390 4b 15 83 bc 8a 90 20 bc 08 43 b3 bb 5b 93 be 3c
       -0.016001364 -0.009800086 -0.005470637 0.023263624
0003a0 5a 04 19 b9 4c c9 d5 3c de 97 7c 3c b2 3f d4 bc
       -0.00014592838 0.026096962 0.015417067 -0.025909279
0003b0 7f 35 33 3c 55 6b e9 bc b6 0f 9d bc 7f 0b 6d 3b
       0.010938047 -0.028493563 -0.01917253 0.0036170182
0003c0 81 ff 3e 3b 44 44 8b 3c 02 f7 8c bc 1e 23 a9 bb
       0.0029143991 0.017000325 -0.017207626 -0.005161657
0003d0 a5 36 45 3c 13 82 1d bd 22 d4 9f 3c a4 bb 03 bd
       0.012036954 -0.038454127 0.019510332 -0.03216137
0003e0 15 11 64 bb b2 90 28 bc df 34 b6 bc 53 34 5b ba
       -0.003480022 -0.010288404 -0.022242008 -0.0008361984
0003f0 66 da bf 3c c8 42 64 bc 86 68 bf bc c5 37 8f bc
       0.02341957 -0.0139319375 -0.02336527 -0.017482648

conv1.bias f4 [64]
000000 16 77 19 3b 28 2e f5 bd c4 37 3b bc 00 b6 61 3b
       0.0023416928 -0.11971694 -0.01142687 0.0034440756
000010 39 86 fe bc 0b 60 00 3c 30 b4 5c bc 14 ed e6 3b
       -0.031069862 0.007835398 -0.013470694 0.007047305
000020 05 92 17 be ca bb e0 bd b2 86 18 3d 17 61 21 be
       -0.14801796 -0.10973318 0.03723783 -0.15759693
000030 c2 bb 60 bd a7 06 24 be 02 ed 1d bd 07 db 20 3c
       -0.05486656 -0.16018163 -0.038556106 0.009817845
000040 17 4c 88 bc ff de b5 bc 36 12 1f be af 1e 12 bc
       -0.016637845 -0.02220106 -0.1553429 -0.008918448
000050 7e 6f 15 bb 14 59 c4 3a 7f b9 fd bc de af 76 3d
       -0.002280205 0.0014980161 -0.03097224 0.060226314
000060 69 bf 31 bb c9 2c 71 3d 85 6f 9e bd 3f 9b 27 3e
       -0.0027122146 0.0588806 -0.077361144 0.16367815
000070 ef ad 13 bd 06 ca 5c 3c 51 75 f3 bd 3c bb 86 3b
       -0.036054548 0.0134759005 -0.11887611 0.0041116755
000080 85 c2 48 3c a5 74 f8 bc ff 30 37 3b 0a 70 e6 bc
       0.012253408 -0.030329058 0.0027952788 -0.028129596
000090 e5 82 9b bd 89 0c 99 3c ce cb ee 3b b7 10 55 bc
       -0.075933255 0.018682735 0.007287479 -0.013004473
0000a0 c9 d0 e4 3b e5 cd ed bd b4 26 77 3d cc 91 e7 bc
       0.006982897 -0.11611537 0.060339645 -0.028267764
0000b0 5e 6c e8 3c 62 05 8f bc 7d fe 1d 3c 22 c2 d8 bc
       0.028371986 -0.017458621 0.009643194 -0.026459757
0000c0 21 c8 0f bd 2e e2 6e be 66 b6 06 bd 90 f0 bc bc
       -0.035102967 -0.23328468 -0.032888792 -0.023063928
0000d0 4b 05 67 3c bb 77 93 bd c1 33 1a bd a1 57 08 bd
       0.014100383 -0.07200571 -0.037647013 -0.033286694
0000e0 34 a3 dc bb ef 97 bc 3c 89 81 de 3c f6 f0 5f bc
       -0.0067333225 0.023021666 0.027161377 -0.013668289
0000f0 af f7 ac 3c a4 7f 3e 3d 36 9c da bc ea 27 a4 bc
       0.021114198 0.046508446 -0.026685815 -0.020038564

conv2.weight f4 [128, 64, 3]
000000 0d 7e 81 bd c2 82 62 3c ce dd d3 bc 25 2e a1 bc
       -0.063228704 0.01382512 -0.0258626 -0.019675324
000010 d8 c2 1c bc 66 c2 a6 bd 80 8f 83 3d 26 a9 7e bd
       -0.009567939 -0.08142547 0.06423855 -0.06217303
000020 02 66 2f bd 85 fd 49 bd 50 88 7b bc d0 5d 7d 3c
       -0.04282189 -0.04931404 -0.015352324 0.015464261
000030 47 b8 65 bd 28 d9 2d bd af b5 2a bd 11 46 52 3c
       -0.056083944 -0.042443424 -0.041677173 0.012834088
000040 41 3a b2 bc 79 85 02 bd ed d9 42 bd 14 f7 04 3d
       -0.021756293 -0.03186557 -0.04757111 0.032462195
000050 1d da 3f bb 85 3f c6 bc b6 68 9b bc 6b 61 68 3c
       -0.0029274293 -0.02420021 -0.018970829 0.0141833825
000060 1f 71 dc 3b 87 fd 14 3d 45 d4 a0 3c 34 da 17 bd
       0.0067273523 0.036374595 0.019632468 -0.03707333
000070 38 30 1e 3b 87 8d c9 ba 0c 3a a9 bc 89 26 52 3d
       0.0024137627 -0.0015377261 -0.020657562 0.05130628
000080 23 c7 db 3c 8f 15 5e 3d 6a 81 4f bd 3e 53 f5 bb
       0.026828354 0.05421978 -0.05066053 -0.00748673
000090 72 72 a3 3c aa 75 8f bd e5 65 4c 3c ea 8c 07 bd
       0.019952033 -0.070048645 0.012475465 -0.03309337
0000a0 25 c9 b6 bc 7d 98 47 bd 3f 7a 06 bc 27 14 9e bd
       -0.02231271 -0.04872941 -0.008207857 -0.077186875
0000b0 1e 04 06 bd ad 03 83 3d 8e 30 8f bd 18 0b 8a 3c
       -0.03271877 0.063971855 -0.06991683 0.016850993
0000c0 9d 38 87 bd 47 44 22 3c be 2e 61 3d 22 b6 2e bd
       -0.06602595 0.009903974 0.054976217 -0.042654164
0000d0 d2 a3 92 bd 4b a9 77 3b 2b b3 2f 3d 19 67 2f 3d
       -0.071601525 0.0037790115 0.042895477 0.04282293
0000e0 9c ff 9c bc 95 ed 46 bc cd 74 a2 bd f5 1b 7b bd
       -0.019164853 -0.012141605 -0.07932434 -0.06130596
0000f0 8d c6 1a 3d 0c a2 7c 3d 85 1d 64 bd 19 5d 68 3c
       0.03778701 0.061677977 -0.055692215 0.014182352
000100 51 b3 30 bc b1 f8 a0 bd 49 76 ee 3c 8c d9 9f 3c
       -0.01078494 -0.07859934 0.029109137 0.019512914
000110 60 06 01 3d 10 c7 36 bc af ed 92 bc a3 73 79 3d
       0.03150022 -0.011155859 -0.017935602 0.060901295
000120 d9 9c 84 bc f3 bf 9f bd 99 a5 5a bd 8c a4 03 bc
       -0.016188072 -0.07800283 -0.053380582 -0.0080348365
000130 1f 30 41 bd 0b 1c 84 bd 80 9f 82 bd ed 0c 99 bd
       -0.047165032 -0.06450661 -0.063780785 -0.074731685
000140 8e bf a4 bd 18 ac 2b 3c ef f7 3f bd 62 1f d6 bc
       -0.08044349 0.010478042 -0.046867307 -0.026138011
000150 56 80 24 bd 38 11 73 3d 2c 01 5b 3d d1 9b 81 bd
       -0.040161453 0.059342593 0.053467914 -0.06328548
000160 98 3e 8d bd ed 66 6d bd 58 cd 42 bd de 69 7d bc
       -0.068967044 -0.057959486 -0.047559112 -0.015467135
000170 2f ab 74 3c fc 0a 94 bd ae 8e bc bd 8e 20 c3 bc
       0.0149333915 -0.072286576 -0.092069015 -0.023819234
000180 7c c1 af 3b 3c fb 83 bd 0f 45 07 bd 90 f4 a6 bd
       0.0053636413 -0.064444035 -0.033024844 -0.08152115
000190 ed 0f 45 bd 40 af 1d bd 20 d8 f3 3c 11 49 c8 3c
       -0.04811089 -0.03849721 0.029766142 0.024448903
0001a0 64 af 0f bc 7a 79 5e bd 30 0e 26 3c c2 03 53 3d
       -0.008769844 -0.054315068 0.0101352185 0.051517256
0001b0 f9 5c 03 bd cf 3b d2 3c b7 f3 16 3d b2 38 88 bd
       -0.032071088 0.025663285 0.03685352 -0.06651439
0001c0 5d ee 36 3d 7f 90 98 bd 74 af 93 3d 90 38 0c 3c
       0.044660915 -0.074494354 0.072111994 0.008558407
0001d0 22 9e 35 bd 72 cc 42 3d 8c 0a 46 3d e3 8a 87 bd
       -0.04434026 0.047558255 0.048349902 -0.066182874
0001e0 a9 c4 c8 bb f8 8d fc 3c fc 3e f1 bc 98 a0 00 bc
       -0.0061269593 0.030829415 -0.029448979 -0.0078507885
0001f0 62 b1 8b 3b 22 ed 42 3c a9 56 1b 3d 3e 5a a3 bd
       0.004263089 0.011897357 0.037924442 -0.07976197
000200 56 3d 2f bd 4b 39 9f bc c4 f4 73 bc 7e 28 7f bd
       -0.042783104 -0.0194365 -0.0148899 -0.062294476
000210 12 96 26 3d 56 1d 10 3d 00 30 78 bd 02 f7 b6 3b
       0.040670462 0.035184227 -0.06059265 0.005583645
000220 e1 38 93 bd 68 f9 79 3d ca 28 68 3c 71 75 5b 3d
       -0.07188583 0.061028868 0.014169881 0.053578798
000230 f4 46 0b bd 5f c8 62 bd 46 d2 5e 3c ef 0b 22 3d
       -0.034003213 -0.05536687 0.013599938 0.039562162
000240 aa 07 8a bd f7 54 48 bd 17 dc 33 bd 34 55 dc bd
       -0.06739743 -0.048909154 -0.043911066 -0.10758439
000250 62 13 92 bd 30 5f 09 bd d2 9e 13 bd 04 2f e4 bc
       -0.07132603 -0.033538043 -0.036040135 -0.02785445
000260 11 be 33 bd 23 02 d0 3c 8d f2 82 bd 0d c0 af 3c
       -0.043882433 0.025391644 -0.06393919 0.021453882
000270 71 5b 9f bc ae 6f 5f 3b d3 5f 36 3d c2 48 3c bd
       -0.019452782 0.0034093666 0.04452498 -0.045967825
000280 eb f3 b1 bd 7c e2 63 bd 53 19 2d bc 27 82 b8 bb
       -0.08689102 -0.055635914 -0.01056512 -0.0056307497
000290 19 a5 9c 3c 29 3b 9c bc 4f 62 38 bc d2 13 2f 3d
       0.019121693 -0.019071179 -0.011253907 0.04274351
0002a0 d4 32 61 3d 83 e2 fc ba 2d 03 25 3c bb 64 97 bd
       0.054980114 -0.001929358 0.010071558 -0.0739226
0002b0 1b 7a e5 38 8c 96 f6 bb 9d 4f b8 bb 1b 4c 58 3d
       0.00010942315 -0.007525271 -0.005624725 0.052806955
0002c0 2d d6 aa 38 3d 9a 1b bd 5b 51 c1 bc 11 0d 46 3d
       8.146125e-05 -0.03798889 -0.023598364 0.048352305
0002d0 30 30 5b 3b 48 a4 6f bd 44 7a 41 3d 25 bb 67 bd
       0.003344547 -0.05850628 0.047235742 -0.05657496
0002e0 4b d7 43 3c ef 21 ca bb dd 83 98 bd a5 f6 ee bc
       0.011953185 -0.006168596 -0.07447026 -0.029170344
0002f0 56 50 1a 3d 84 c7 ba bc ed 45 87 bd cc 70 66 bd
       0.03767427 -0.022800215 -0.06605134 -0.056259915
000300 06 da 23 3d 4d f4 fe 3c 4c cf 19 bd ef 9a 1c 3c
       0.040002845 0.031122351 -0.03755121 0.009558423
000310 cc e7 81 bd 67 d7 b0 bb 3c f9 7f bc 2e 44 90 3c
       -0.0634304 -0.0053967717 -0.015623387 0.017610636
000320 e3 42 63 bd b0 ea f1 bb 93 3b 08 bd 2e ff 18 bd
       -0.05548371 -0.0073827133 -0.03325994 -0.037352733
000330 ec df 1e bd a5 ec 4a bc ca a4 c8 3c a2 57 e1 bc
       -0.038787767 -0.012385522 0.02449264 -0.027507607
000340 d9 bc 98 bc c3 99 af 3c 9e a7 49 bb 14 1c 20 ba
       -0.018644737 0.021435624 -0.0030770074 -0.00061076996
000350 28 ba b4 bc 7b 0c 97 3b 34 63 a0 bd 56 25 34 3d
       -0.022061422 0.004609642 -0.078314215 0.04398092
000360 c3 93 88 bd fa 60 aa bc 17 26 94 bd 05 75 c7 bd
       -0.06668808 -0.020798195 -0.072338276 -0.097391166
000370 0c 7e 4a bd 73 49 42 bd 65 e0 75 3c 09 2e 94 bd
       -0.049436614 -0.047433328 0.015007113 -0.07235343
000380 49 1b 88 bb 5e 80 d0 bd 60 6b 0a 3b 60 7a 2f bd
       -0.0041536433 -0.10180734 0.002112113 -0.042841315
000390 5f 09 9a bd bd b4 a1 bd 4b 69 0b 3d 06 9f 88 bd
       -0.07521319 -0.07895801 0.034035962 -0.06670956
0003a0 2e 61 60 3b 92 62 23 3d f0 e5 85 bc 5c 40 6e bd
       0.003423761 0.039888926 -0.016344994 -0.058166847
0003b0 35 10 8f 3c 86 9e 6a 3d c2 b4 cf 3c ed 62 d3 3c
       0.017463783 0.057280086 0.025354747 0.025804007
0003c0 1d f4 cb 3c 98 a0 07 bd 9b 04 44 3c be 7b 00 bd
       0.024896676 -0.03311214 0.011963989 -0.03136801
0003d0 62 2a 44 3d ae b5 51 bd 1a 2c a4 bd 46 af e0 bc
       0.047891982 -0.051198654 -0.08016224 -0.027427327
0003e0 e3 ae e8 bc 7c 3d 50 3d 5c 77 68 bd c6 21 ef 3c
       -0.028403705 0.050839886 -0.056754455 0.02919091
0003f0 72 08 ec 39 b2 be ca bc f6 c3 6c bd 5d 58 3c ba
       0.0004501972 -0.024749134 -0.05780407 -0.0007184798

conv2.bias f4 [128]
000000 64 2b 85 bd 40 55 70 3d 01 72 0b bd a8 e1 e0 bc
       -0.06502417 0.05867505 -0.03404427 -0.027451351
000010 93 24 db bd ac ac bf bd 38 7e bb bd 4e 5b 05 3d
       -0.10700335 -0.093591064 -0.09154934 0.032557778
000020 ab 21 37 3d 2e 9e 77 bd 2a a7 54 bd 3e 58 b5 3c
       0.044709843 -0.060453586 -0.051917233 0.022136804
000030 6b a2 65 bd 05 2b 45 3d ef 68 05 3c 5e 8f f3 3d
       -0.056063097 0.04813673 0.008142694 0.118925795
000040 23 ec 79 3d 5c d2 87 bd 0e 69 25 be 9b fa 24 bc
       0.061016213 -0.0663192 -0.16153356 -0.010069515
000050 e1 5a 6e bd e3 55 8b bd e5 67 40 bd 3b 86 75 bb
       -0.058192138 -0.06803491 -0.04697408 -0.003746404
000060 55 71 91 bd 4f 02 db bc ad 83 83 bd 6a 4f a2 3c
       -0.071016945 -0.0267345 -0.064215995 0.019813258
000070 52 ad b4 bc 5e 7f 2f bd e7 33 2c 3c 24 39 58 bd
       -0.022055302 -0.042846076 0.010510421 -0.05278887
000080 38 16 aa bc 9a 0d 97 3d 12 23 8c bc 95 17 65 bd
       -0.020762548 0.07375641 -0.017106567 -0.055930693
000090 45 df 69 bc ce ea 4d bc 6f 40 39 3c 66 67 95 bd
       -0.014274423 -0.012568189 0.011306866 -0.07295112
0000a0 bd 04 e5 3c c3 d7 9f bd f1 33 ca bd 05 8e 6d bd
       0.027956361 -0.07804825 -0.09873188 -0.05799677
0000b0 cf 99 f8 bc ab 04 03 bc 31 3a a5 bd cf 65 32 3e
       -0.03034678 -0.007996718 -0.0806774 0.1742165
0000c0 3f 06 0e be 89 be 06 be b2 4b 36 bc cc f4 83 3c
       -0.1386957 -0.13158621 -0.011126446 0.01610794
0000d0 b1 88 3f bc 7c 3b 0a 3d bc 99 42 3d 7c 94 41 3d
       -0.011690305 0.033748135 0.047509894 0.047260746
0000e0 cb 35 22 bd 6a 50 de bb a5 50 0e 3d ed 70 20 bd
       -0.039602082 -0.0067844884 0.034744877 -0.039170194
0000f0 94 bc 77 bd 1b b0 78 3d b7 6c c6 3c e4 35 64 bd
       -0.060482576 0.060714822 0.024221761 -0.055715457
000100 a5 9c b0 bd 5b 43 82 3d 81 1e 7d 3c b5 ae 9b bd
       -0.086236276 0.06360503 0.015449167 -0.07601682
000110 43 b5 71 3e bf 62 4d bd 26 ed 69 bc aa 51 70 bd
       0.23604302 -0.050143 -0.014277732 -0.05867163
000120 5e 5a b8 3d 26 a8 72 bc 5a 68 83 bd 41 fc 2a bd
       0.09001611 -0.0148105975 -0.06416388 -0.041744474
000130 7e 09 bc bc bd 4e a2 bd 89 6a 77 b9 07 4b 0b bd
       -0.022953745 -0.079251744 -0.00023595443 -0.0340071
000140 7b fb 1a 3e ab bb 86 bd 42 cf da bd 5e 31 f7 bd
       0.15134995 -0.065787636 -0.106840625 -0.12069963
000150 8b 40 cc 3b c3 21 3c 3d c1 e7 94 bd 18 bf fb bc
       0.00623328 0.045930635 -0.07270766 -0.030730769
000160 aa 98 99 bd c3 16 8c bd 53 e9 5c bd a1 ed d0 bc
       -0.074998215 -0.06840279 -0.053933453 -0.025503935
000170 6a 0c b0 3c 3a 12 52 bd 61 b0 68 3e bb d6 97 3c
       0.021490294 -0.051286913 0.22723533 0.018535009
000180 a7 dc dd 3b 19 98 97 bc 45 e8 39 bd c9 0f 81 3d
       0.0067706886 -0.018505143 -0.045387525 0.06301839
000190 ac 5a 4e 3e bf 00 ea ba 31 7b ea bc 4e 18 03 bd
       0.20151776 -0.0017853006 -0.028623195 -0.0320056
0001a0 79 23 7f bd fe 33 20 bc be 5a 3a 3d e3 ce 4d bd
       -0.06228969 -0.009778021 0.045496695 -0.05024613
0001b0 e6 cf ba bd fe 98 8f bd 22 3b 77 bd 0e 84 81 bd
       -0.09121685 -0.07011603 -0.060359128 -0.063240156
0001c0 9d 3a 8a bc 08 a3 ce bc dd b7 8e bc 8c 8a 9a bd
       -0.016873652 -0.025224224 -0.017421657 -0.07545957
0001d0 de b9 09 3e 23 62 53 bd 1c b6 51 bd e1 06 6f 3d
       0.13449809 -0.051607262 -0.051199064 0.05835617
0001e0 37 73 22 3c ba db 0e be be 49 db bc 08 46 e2 38
       0.009915165 -0.13951007 -0.026768561 0.00010789564
0001f0 f2 55 27 3e 62 3b 56 bc 6a 2d e8 3c 7b 96 f6 bc
       0.1634138 -0.013075681 0.028341968 -0.030101052

lstm.weight_ih_l0 f4 [200, 128]
000000 ef 37 9f 3d 52 cd 32 3d 95 22 6c 3d ba f9 2c 3d
       0.0777434 0.04365284 0.057650167 0.042230345
000010 9b 4f 98 3d be 6c 12 3e a2 6f d4 3d e7 3f c5 3b
       0.074370585 0.14299294 0.10372855 0.0060195806
000020 50 7c 0b 3e 2f ec 2e 3e fe 7e fa 3d 1a ff fd 3d
       0.1362164 0.17082284 0.12231253 0.124021724
000030 cd 06 6d 3d 31 22 81 bc 7b 31 c6 3d 97 39 66 bc
       0.057867814 -0.015763374 0.096774064 -0.014051816
000040 cf 8d 5c 3d d6 ad 57 bd e0 83 2f bd 57 9b d5 bd
       0.053846177 -0.052656017 -0.042850375 -0.10430019
000050 7c a1 cc 3c 65 82 f2 bd 50 af 00 be 44 f1 41 3d
       0.024979346 -0.11841277 -0.12566876 0.04734923
000060 2f ea c2 bd f2 3c 95 3d e9 67 0f 3e f8 14 89 be
       -0.09517323 0.07287015 0.14004482 -0.2677381
000070 59 73 a4 bc b0 d8 3f bc 26 53 9a bc 32 be e5 3b
       -0.020074533 -0.011709377 -0.018838476 0.0070111984
000080 57 76 64 bc b3 c3 49 be b0 04 d7 3d ff 95 45 3d
       -0.01394423 -0.1970356 0.10498941 0.04823875
000090 09 b0 95 3d bc 15 d4 bd 3a 0f e0 3d 71 b8 99 bd
       0.07308967 -0.10355708 0.10940404 -0.075058825
0000a0 df c7 f2 3d 6d a3 b8 ba e4 f0 83 bd 4d 8c 98 bd
       0.11854529 -0.0014086791 -0.064424306 -0.07448635
0000b0 25 ae 0d be 63 c1 ba 3c 0c 79 f5 3d c4 91 ca 3d
       -0.13835962 0.022797292 0.119859785 0.09891084
0000c0 e0 81 9d 3d c6 56 71 3d e0 5a 08 be d0 d2 e2 3d
       0.07690787 0.058920644 -0.13315916 0.110753655
0000d0 88 e6 5d 3d a3 f7 c0 3d 71 20 3d bc c8 40 89 3d
       0.05417493 0.09422233 -0.011543379 0.06701809
0000e0 11 34 c5 3d 70 34 ef 3d 56 7a 9f bd 61 78 19 3e
       0.096290715 0.116799235 -0.077870056 0.14987327
0000f0 cd 0f a7 3d 97 ab 1a bd 73 3b 5e 3d 20 82 d4 bd
       0.08157311 -0.037761297 0.054255914 -0.10376382
000100 85 55 b7 3d 9a d1 20 3d 11 10 93 ba 54 67 18 3e
       0.089518584 0.03926239 -0.0011219998 0.14883167
000110 a1 ab b0 3e 94 08 a3 3d 58 f5 a5 bd 82 07 b5 3c
       0.34505942 0.079606205 -0.08103436 0.022098307
000120 a4 c7 e4 3c 02 f6 38 3d 5f 71 18 bd 6c 76 30 3d
       0.027927227 0.045156486 -0.037217494 0.043081686
000130 00 58 4e 3d b0 04 6c bd 5f 59 02 3d 0b 9c c3 bd
       0.050376892 -0.057621658 0.031823512 -0.09551247
000140 28 88 46 3e b3 b1 c7 bb 94 31 89 bd d0 6b 1d 3e
       0.19387877 -0.0060941814 -0.066989094 0.15373158
000150 0c 42 a0 bd 5a 40 70 bd 25 4a e7 3d c4 39 ed 3c
       -0.078250974 -0.05865512 0.11293439 0.028958209
000160 97 77 85 3d 74 5d 1b 3d 0e 71 e5 bd 89 51 60 bd
       0.065169506 0.03793092 -0.11203204 -0.054765258
000170 e4 fa 07 3e 60 6a 00 3e 74 08 b6 3e dc 31 6c 3c
       0.13279301 0.12540579 0.35553324 0.014416184
000180 38 ec 64 be c5 1b fb bd fd 83 af 39 7d ce 0c 3e
       -0.22355735 -0.12261156 0.0003347694 0.13750644
000190 17 43 91 bd b6 ec 39 3d 0c 9c 2a 3d 36 58 ee 3b
       -0.070928745 0.04539176 0.041652724 0.007273699
0001a0 c6 86 a4 3c 98 58 8a bd 57 e9 b6 bd 93 ce 9b bd
       0.020083796 -0.06755179 -0.08931225 -0.0760776
0001b0 a0 e3 eb 3d 86 80 4d b9 cf 5c 0a 3e 04 5a a5 bd
       0.115180254 -0.00019598202 0.13511966 -0.0807381
0001c0 c6 ce f7 3b 77 34 44 bd 62 2b 0d 3d 23 56 87 3e
       0.007562491 -0.047901597 0.0344652 0.26432905
0001d0 d8 74 93 3c b2 26 a1 3d 48 ba 25 bc ae bb 1b 3e
       0.018000051 0.07868709 -0.010115214 0.15208313
0001e0 da ab 2d bd 1e fb 03 3e d1 cd be 3d 8f c3 71 bd
       -0.04240022 0.12888762 0.093166 -0.05902439
0001f0 dd 43 40 3e 61 61 d3 3d 32 7d ab 3d bc 52 bd bd
       0.18775888 0.10321308 0.083734885 -0.09244296
000200 b9 2c 6a bd 2e aa ec bd fd e9 09 be 14 7a 03 3d
       -0.057171557 -0.11555897 -0.13468166 0.032098845
000210 d0 30 81 bd 39 9b fd 3d 8d f3 be 3c 1f 3d 3f bd
       -0.06308138 0.12383122 0.023309493 -0.04668915
000220 85 a7 24 be e9 b1 fc bc b4 13 df bd 80 b1 c5 3d
       -0.16079529 -0.030846553 -0.1089243 0.09652996
000230 47 e0 55 3d 33 5f 66 bd fa 92 e4 bd c6 83 dd 3d
       0.05221584 -0.056243133 -0.11160846 0.108161494
000240 45 9b f7 bd 3f 8e fc 3d 33 79 c9 bd 8a 5a 01 bd
       -0.12090162 0.12331819 -0.0983757 -0.031580485
000250 4a 97 b1 3d 74 1e 03 3e a5 a0 0f be 64 6e c7 3d
       0.08671434 0.12804586 -0.14026125 0.09737852
000260 b7 b7 14 bb 07 d8 8d 3d 71 48 93 3d b4 93 39 bd
       -0.002269251 0.069259696 0.071915515 -0.045306876
000270 a9 ba 08 3e 70 49 8b 3c fb c6 4c 3d 7c 5e 98 bd
       0.13352455 0.017002791 0.04999445 -0.074398965
000280 6e 5d 01 3e 8d 52 ea 3d 1f cc dc 3d ea b3 7b 3d
       0.12633297 0.114415266 0.107811205 0.061450876
000290 08 64 f1 bd 86 9a 0c 3e 14 e3 99 3d f5 c9 74 3d
       -0.117866576 0.13730821 0.07514015 0.059762914
0002a0 d9 5f 86 bd 19 e2 aa 3d 1d b6 b4 3d ce 26 af bd
       -0.0656125 0.08343906 0.08823798 -0.08552323
0002b0 e1 a6 0e 3d 00 8e 0f bd b0 73 b6 3d 4f 0e 2f bd
       0.034827117 -0.03504753 0.089087844 -0.042738255
0002c0 ca 43 51 3d d3 14 47 be 9c 26 ff bd 9b bb c6 bd
       0.05109004 -0.19441538 -0.12458536 -0.09703752
0002d0 75 05 50 3b bb ff 26 3d a6 01 16 3d f5 2b 4a 3d
       0.0031741534 0.040771227 0.036622666 0.049358327
0002e0 4f e2 ff bd 82 d9 10 be 1c a1 b9 3d 51 6f be bd
       -0.12494337 -0.14145473 0.09063932 -0.09298576
0002f0 fb 27 14 3c f7 a8 91 bd 9b db 13 bc 13 1b 60 bd
       0.009042735 -0.071123056 -0.009024526 -0.05471332
000300 f3 f6 9c 3d dd 4d ba bd 34 c6 d3 bd c4 5d ac 3d
       0.07664289 -0.090968825 -0.103405386 0.08416322
000310 16 a0 45 3c 1c a5 90 bc 1a d2 d4 bd db 83 25 3d
       0.012062093 -0.017656855 -0.10391636 0.04040895
000320 eb de 8b bb 11 de 4c 3d bb f1 79 bd 02 55 02 bd
       -0.0042685173 0.050016467 -0.061021548 -0.03181935
000330 8b 59 6e bd df 05 31 bd 45 8e 2a bc 25 ff a0 38
       -0.058190864 -0.04321849 -0.010409896 7.676919e-05
000340 39 a1 f0 bd f8 73 55 ba e4 05 f5 bd bf 56 5a bd
       -0.11749501 -0.0008142586 -0.11964014 -0.053305384
000350 93 e2 f0 bd b0 53 d7 3d cc 56 ce 3d 7d 83 36 3e
       -0.117619656 0.10514009 0.10075149 0.17823596
000360 14 4e a8 3d f0 4e 00 be 9d 7a f8 3d ef b7 fb bd
       0.08218017 -0.12530112 0.121327616 -0.12290942
000370 d5 85 f7 bd 88 7f 33 bd 2e 3d c7 bc c3 6f 05 3e
       -0.12086073 -0.043822795 -0.024321165 0.13030915
000380 2f 3f 4d 3d 28 52 bd 3d 94 02 1e bd 8e 86 6f bd
       0.050109085 0.09244186 -0.038576677 -0.05847793
000390 15 23 d4 bd d7 9b 14 bd 7b 46 01 3e 75 7c c7 bd
       -0.10358254 -0.036281433 0.12624542 -0.09740535
0003a0 86 f4 31 bd 7f b2 e7 3b 1d 35 f0 3d 3c 2c 78 bd
       -0.043446086 0.007070839 0.117288806 -0.06058906
0003b0 da c0 01 3e f9 1b 89 bd d4 90 0d 3e 1d 30 be bd
       0.12671223 -0.066947885 0.13824779 -0.09286521
0003c0 98 27 67 3c 49 35 3a 3e a0 95 16 3e bd a4 a0 3d
       0.014108561 0.18184389 0.14705515 0.07843921
0003d0 90 f4 60 bc 85 a2 d1 bc be 1f 6d bd 9e bb 17 be
       -0.013730183 -0.02559019 -0.0578916 -0.14817664
0003e0 8e 0b e9 bd d8 fb 41 bd 08 de 2b bd 8a c5 2d be
       -0.11379157 -0.047359318 -0.041959792 -0.16969886
0003f0 7c aa ce 3d 59 49 16 bd ee ae 97 3d 72 48 13 3e
       0.10091111 -0.036691044 0.07406412 0.14383104

lstm.weight_hh_l0 f4 [200, 50]
000000 1f 53 5b 3c c1 6c cd 3d 24 13 05 3c 30 bd e5 bd
       0.013386517 0.10030509 0.008122239 -0.11217725
000010 d7 56 6c 3d 21 f1 10 bc 2e 60 d1 3c 86 db d4 bd
       0.057700004 -0.008846552 0.025558557 -0.10393433
000020 86 30 f4 3d 4d ed 1d bc 1e f0 7d be 71 5e 25 3e
       0.119233176 -0.009639096 -0.24798629 0.16149308
000030 d6 63 94 3c 78 4e 1e be b9 66 ee bd 10 b1 8c bd
       0.018114012 -0.15459621 -0.116406865 -0.068697095
000040 7d dd c8 bd b2 01 30 3b 7d ab 95 3d 93 09 90 be
       -0.098078705 0.002685648 0.073080994 -0.28132305
000050 03 ec 11 be 89 25 c8 3d 70 f0 ef 3c f6 c2 22 3e
       -0.14250188 0.09772784 0.029289454 0.15894684
000060 3b bd 6a 3d 99 13 cf bc 13 1d 32 3e cc 50 97 3d
       0.05730937 -0.0252779 0.17393903 0.07388458
000070 e4 9c 38 3e 6e 6a 37 be 21 76 20 be 2c 60 c2 bd
       0.18028599 -0.17911693 -0.15670063 -0.094909996
000080 e3 c2 31 be ad 93 98 3a 7f b3 8a 3e 40 60 87 3e
       -0.173595 0.001164069 0.2709007 0.2644062
000090 08 0c 89 bd 23 9f 13 be 4a 3e 59 be 3a 11 c7 bc
       -0.06691748 -0.14416175 -0.21215168 -0.024300206
0000a0 4d 5f 20 be 87 48 b8 3d f2 a5 01 be 54 22 5c 3d
       -0.15661354 0.089982085 -0.1266096 0.053743675
0000b0 4d f5 b8 bd 2d bb 82 3d bd bf 8c 3b cc f5 24 3d
       -0.090311624 0.06383357 0.004295318 0.040273473
0000c0 6d e2 47 3e d0 81 98 3d fe 1e e8 b9 a1 25 46 3c
       0.19519968 0.07446635 -0.0004427358 0.012093932
0000d0 82 29 04 3e 05 e8 ab 3d 99 ff c4 bd 1d 98 14 3b
       0.12906459 0.083938636 -0.09619064 0.0022673674
0000e0 4f d2 37 3e 66 c3 00 be f2 5f b3 bb a3 25 63 3c
       0.1795132 -0.12574539 -0.005474084 0.013863954
0000f0 1b 3c 1b bd 49 24 08 bc 10 a9 b6 3d 18 d3 11 3c
       -0.037899118 -0.008309432 0.08918965 0.008900426
000100 bb f0 28 3e 2d 0c 0b 3e 6a c2 2f 3e b3 82 24 be
       0.16498081 0.13578863 0.17164007 -0.16065483
000110 88 99 ef 3c f2 a0 6a be 9e bb 08 be 2d 20 b0 bd
       0.029248014 -0.22912958 -0.1335282 -0.08599887
000120 e8 13 a6 3d 0c 13 81 bc 62 42 a7 bb 72 0d 67 3d
       0.081092656 -0.015756153 -0.005104349 0.056409307
000130 70 16 bf bd 4f 82 35 3d 23 32 7f be c7 19 a2 3d
       -0.093304515 0.044313725 -0.2492147 0.07915073
000140 d4 44 ff 3d e5 93 4c 3e 98 7a 27 be f6 1a 87 bc
       0.124643 0.19978292 -0.1635536 -0.016492348
000150 53 42 96 3d 81 1e 0b 3e df ac 4b 3e b8 d3 89 3d
       0.07336869 0.13585855 0.19890164 0.06729835
000160 e4 2b 16 3e 4d e5 e0 3d a4 76 51 3d 6a c4 f5 3d
       0.1466518 0.10981236 0.051138535 0.12000354
000170 e5 63 40 3e 00 fc 0c bc d1 a2 09 be a3 f2 d9 bc
       0.18788107 -0.008605003 -0.13441016 -0.026604956
000180 82 a8 4d be 6b c2 17 3e e0 13 f6 bd 41 e0 37 3d
       -0.20083812 0.14820258 -0.120155096 0.0448916
000190 de 9d fa 3d c2 61 0b 3e d6 10 d0 bc ab 22 6c 3d
       0.12237142 0.1361151 -0.025398653 0.05765025
0001a0 a8 12 bd 3d d2 fb 97 3b 8f 98 92 bc 4a f5 22 3c
       0.09232074 0.0046381736 -0.017895011 0.009946177
0001b0 30 f8 43 be c8 ed c9 bd d8 09 7e 3e 49 25 49 3d
       -0.19137645 -0.09859806 0.24808443 0.049107824
0001c0 fd 04 f4 3d d2 5b 04 3d cf b5 a3 3d fb 84 40 bc
       0.11915014 0.03231413 0.079936616 -0.011750455
0001d0 e1 4f 03 3e fa e5 9e be 1a 27 66 3c 0d 3a 81 3c
       0.1282344 -0.31034833 0.0140474085 0.015774751
0001e0 18 fc 24 3d 69 c2 d8 bb c9 c3 ce 3d 93 4d d7 3b
       0.040279478 -0.0066149724 0.10095937 0.006570527
0001f0 ee 04 e3 3c 98 2a 1e bd bd b8 4a 3a be bd 27 be
       0.027712312 -0.03861484 0.00077332166 -0.16380975
000200 62 59 a1 bd f1 76 b9 3d 13 4e b0 bd 71 81 ef 3d
       -0.078783765 0.090558894 -0.086086415 0.11694611
000210 3c 9a 37 bd db be 24 3d 1a 78 20 3e bd 8a 54 3d
       -0.044824824 0.040221076 0.15670815 0.051890124
000220 ea ad db 3d 6d 7b 03 bb 75 4d 31 be 19 f1 5b be
       0.10726531 -0.0020062581 -0.17314704 -0.2147869
000230 5a f5 2a be 8a 7d 16 be 66 34 d5 3d 86 41 0c 3e
       -0.16695157 -0.14696327 0.10410385 0.1369687
000240 3f 45 40 3d c6 d6 13 be b4 03 d1 3d 1b ee 79 3c
       0.04694104 -0.14437398 0.102057844 0.015254523
000250 3b 73 a5 3d 5c 40 4d be 4d 22 16 3e db 5f 02 3d
       0.08078619 -0.20044082 0.14661522 0.031829696
000260 ba 6a e1 bc a2 23 d4 3b e2 b2 1c 3e 8f 84 4e 3d
       -0.027516712 0.0064739743 0.15302613 0.050419386
000270 1b c2 a6 3d e3 ed 14 3e e8 36 74 bd e3 8b e5 3d
       0.081424914 0.14543872 -0.059622675 0.11208322
000280 08 3d b7 bd 4d f9 c8 bd 8d ce 28 3d 0f 1a 9d 3c
       -0.08947188 -0.09813175 0.041212607 0.019177465
000290 65 91 8b bd 4c 47 37 be 9c 05 2c be 25 74 08 3e
       -0.06814841 -0.17898291 -0.16799015 0.13325556
0002a0 8b 0b b0 bd 6f d0 aa bd 80 45 0a 3e 36 33 db 3d
       -0.08595952 -0.08340537 0.13503075 0.10703127
0002b0 a1 c0 45 3e de 1c ba 3c cf da 56 3e 0d a7 98 3d
       0.19311763 0.022718843 0.20981906 0.074537374
0002c0 35 52 91 3d 58 b1 bc 3d 75 54 2d 3e 95 c6 2c 3c
       0.07095758 0.09213513 0.16926749 0.0105453925
0002d0 58 9b 33 be 57 23 e5 bc a4 01 a6 3c ed 27 23 bb
       -0.17539728 -0.027970953 0.020264454 -0.0024895624
0002e0 09 7b 00 bc 00 03 86 bd c4 df 3d 3d fe 33 b7 bd
       -0.007841834 -0.06543541 0.046355978 -0.089454636
0002f0 7a 53 96 bc 1f e7 d5 3d b4 a1 89 3d f8 d5 cd bd
       -0.018350352 0.104444735 0.067202955 -0.10050577
000300 a4 8e 41 be 6d 17 60 bd 8c af 10 3e 10 5a e9 bd
       -0.1890207 -0.05470984 0.14129466 -0.11394131
000310 04 21 d0 3d f6 4e 78 be 3e 02 16 3e b0 0a 5f 3c
       0.10162547 -0.24248871 0.14649293 0.013613388
000320 6e 1d 0a 3e 6f 40 fc 3d 51 90 bd 3d 49 7e d9 bd
       0.13487789 0.12316977 0.09256042 -0.1061979
000330 32 8d 8a bd a8 60 1e 3e d7 ba 3d 3d b0 fb 2e 3e
       -0.06765212 0.15466559 0.046320762 0.17088199
000340 01 be 7f 3d 06 8a 80 3e 2f 94 ed bd aa 69 fc 3b
       0.06243706 0.25105304 -0.116005294 0.007703026
000350 f8 8c 03 be 38 b1 8f bd 69 bb 02 bd eb 94 ca 3d
       -0.12846744 -0.07016224 -0.03191701 0.09891685
000360 4c 67 18 bd 44 8e 5a bd bc 2b 2b 3c d4 c1 0e be
       -0.037207887 -0.05335833 0.010447439 -0.13941127
000370 b4 6f 17 3e 23 42 1f 3e c4 98 da bd f2 b8 08 bd
       0.14788705 0.15552573 -0.10673669 -0.033379503
000380 61 ad a7 bd 9f 87 cb 3d c6 f5 28 3e 0e 45 b9 3d
       -0.08187366 0.09937977 0.16500005 0.09046374
000390 9b ed 79 3d 36 f9 e0 3d 3b a7 d0 3d a6 9f 21 3d
       0.061017614 0.10985033 0.10188147 0.039458893
0003a0 74 b3 30 3e 40 87 82 3d 24 a3 6c be 4b 0a b7 bd
       0.17255956 0.06373453 -0.23109108 -0.0893751
0003b0 35 b8 c1 3d 4b 40 b0 bd 4a f3 08 be f7 3f e0 3d
       0.09458963 -0.08606013 -0.13374057 0.109497
0003c0 5c 24 5b bd 92 b1 02 3e ae 64 34 bd cb eb 4c 3c
       -0.053501472 0.1276305 -0.044041328 0.012507389
0003d0 00 c2 4b bc c9 b1 d0 bc f4 b0 9f bd cd a7 bd 3c
       -0.01243639 -0.0254754 -0.07797423 0.023151303
0003e0 46 28 2c bd 36 5a 0e 3e f1 4f 0a be 0f 2f 3f 3d
       -0.042030595 0.139016 -0.13507058 0.046675738
0003f0 53 9d 8b 3d 54 40 ae 3b 8d c6 5e 3d f7 b3 ff 3c
       0.068171166 0.005317727 0.05438857 0.031213744

lstm.bias_ih_l0 f4 [200]
000000 db 45 e1 3c f7 30 89 3d e5 aa 4c 3e 50 72 4c be
       0.02749913 0.066987924 0.19987066 -0.19965482
000010 59 57 0b 3e 09 d0 83 3d 9a 9f ec 3e b5 3b 84 bd
       0.13607539 0.06436164 0.46215516 -0.06456701
000020 16 64 68 3d 12 27 07 3e 9e 32 30 3e 60 e5 67 3e
       0.056736074 0.13198498 0.17206809 0.22646093
000030 b2 ed 87 bc 8e 50 64 bd 41 a3 fd 3c 28 b1 17 3e
       -0.016592834 -0.055740885 0.030961635 0.14813673
000040 90 fa 09 bd 9a 29 e6 3c ed bc d7 3d e4 22 16 3e
       -0.03368622 0.028096009 0.105340816 0.14661747
000050 03 b3 0a be c8 2c 38 be 70 1f 92 3e d7 1e c4 bc
       -0.1354485 -0.17985833 0.2853961 -0.023940487
000060 bf b4 5d bd ea 29 9d 3e 42 8f f1 bc fa fc 3f bd
       -0.05412745 0.3069604 -0.029487256 -0.046872117
000070 3a 53 04 be 31 fd 60 bd 87 ac de 3d ee 9d d4 3d
       -0.12922373 -0.054928962 0.10872751 0.10381685
000080 56 5f f4 3d 76 00 ac bd 40 0f 94 3d 75 47 b9 3e
       0.119322464 -0.083985254 0.07229471 0.3618733
000090 47 f1 c0 3b e2 f5 cd 3e f6 cd b8 3d 94 40 c9 bd
       0.0058881375 0.40226656 0.09023659 -0.098267704
0000a0 85 89 75 3d 9c 3e 11 bc 1a 0a 10 bd 49 d1 3a be
       0.059945602 -0.008865025 -0.035165884 -0.18243898
0000b0 a0 4b 9f bc f2 b5 33 3e 61 ae 13 bb 8c 37 3a be
       -0.01944524 0.17549875 -0.0022534358 -0.18185252
0000c0 fb 29 b6 bc 4e 8f b1 3e 01 97 5a be 7e 78 9f bc
       -0.022236815 0.34679645 -0.21346666 -0.019466635
0000d0 9b b7 b7 3d 2b d7 5e be 52 ce 61 be e5 82 3d be
       0.08970567 -0.21761768 -0.22051361 -0.18506964
0000e0 87 5a a9 3c 0b 31 b7 bd 48 c0 4b bd 7a e0 bc bd
       0.02067305 -0.08944901 -0.04974392 -0.09222503
0000f0 e9 d1 a8 bd 21 28 69 3e cd ff 80 bd 24 5d e4 bd
       -0.08243162 0.22769214 -0.0629879 -0.11150578
000100 d1 f8 0a be 65 05 c9 bd 8d e6 54 be 4b db 66 3d
       -0.13571478 -0.09815482 -0.20791073 0.056361478
000110 bf 44 c0 bd 9b 1d 0a be 0e 43 01 be f5 fd 8a be
       -0.09388112 -0.13487856 -0.12623236 -0.2714688
000120 89 ba 8c bd 7a 58 da 3d 17 97 d7 3d c6 0c 38 bd
       -0.06871516 0.10661407 0.10526865 -0.044934057
000130 65 db 1b be c0 98 c9 bd 2b 71 2d bd 52 9a 51 bd
       -0.15220411 -0.09843588 -0.042344254 -0.051172562
000140 b0 85 55 bd 24 d6 88 bc fb a6 41 be 1e c7 82 3d
       -0.052129447 -0.016703673 -0.18911354 0.06385635
000150 f1 4e e6 be a7 0f ad bc a4 fb 3a be dc 15 30 bc
       -0.44982103 -0.021125628 -0.18260056 -0.010747399
000160 68 45 e2 bc a3 fd 48 be 06 2d 9e bc da 8f ab bc
       -0.027620986 -0.19628005 -0.019308578 -0.020942617
000170 51 24 93 bd a4 98 48 be 8d cb c8 bc b9 5c 5f be
       -0.07184661 -0.19589478 -0.024511123 -0.21812715
000180 4d 85 17 bc 89 3e 41 be 4c 35 48 be 49 6a 97 bb
       -0.00924809 -0.18871512 -0.19551581 -0.0046208245
000190 ab 0a 42 bd 4b 33 ef 3e d3 23 84 3d ba 46 83 bd
       -0.047373455 0.4671882 0.064521454 -0.064099744
0001a0 1a e0 c6 3d 79 5a 1e 3d 80 13 b9 3b 8c a7 08 bd
       0.09710713 0.0386605 0.0056480765 -0.03336291
0001b0 36 ec b4 3d c4 7c 35 be 81 a3 cc 3d 8a e9 f1 3d
       0.08834116 -0.17723376 0.099921234 0.11812122
0001c0 bb 28 6f bd da ab bb bd b7 e6 0e be 8b a5 2b bd
       -0.058388453 -0.091636375 -0.13955198 -0.04190592
0001d0 da eb 65 bd 64 49 5b be 79 e8 36 3d 68 63 a2 bd
       -0.05613313 -0.21414715 0.044655297 -0.079291165
0001e0 3d 7e 5c 3d e8 4c 89 bd 6e ac c1 3d 03 da 3c 3e
       0.053831328 -0.06704122 0.094567165 0.1844254
0001f0 74 8f 8b be 0b 20 fd bd a4 07 ea bc 98 35 9c bd
       -0.27257884 -0.12359627 -0.028568096 -0.0762741
000200 c1 4e 6a bd 08 ec 8e 3c 2e bb 93 bb 54 c7 48 be
       -0.05720401 0.017446533 -0.0045083975 -0.19607288
000210 04 59 d5 3d 5c 55 22 3c f9 0d a9 3d f5 1d 82 3d
       0.10417369 0.009908047 0.08254618 0.0635337
000220 1b 25 bf 3d 42 3b 07 3e f3 75 67 be 4a 3b 63 3d
       0.09333249 0.13206199 -0.22603588 0.055476464
000230 7b fe 54 be da 90 80 bd f8 03 2f 3c 75 db 05 bd
       -0.20800202 -0.06277628 0.010682099 -0.032679994
000240 03 0f 03 bc 6e 96 3c 3e b8 db 1d 3c c9 8e 23 be
       -0.007999185 0.1841676 0.009634905 -0.15972437
000250 d2 1a 25 3e 9f 76 89 bd 6a 79 fc bc bc 58 98 3d
       0.16123512 -0.06712078 -0.030819613 0.074388
000260 15 d8 e4 bb 0d b3 19 be 5f f0 02 3e 9d 9c 53 bd
       -0.006983767 -0.15009709 0.12787007 -0.05166303
000270 8c 4c 95 3e fc d3 e4 bd 46 69 dc 3d 0c eb 8a 3e
       0.29159963 -0.11173245 0.10762267 0.27132452
000280 bc b7 a9 3c 8c f4 ee 3c 24 7b 42 3e 79 ef e8 3c
       0.020717494 0.029169343 0.18992287 0.028434502
000290 31 d9 3a be d1 f2 8e 3d 33 7a e5 3b e3 b6 90 3d
       -0.18246914 0.06979907 0.0070030927 0.07066133
0002a0 00 ea 8e bd fe b1 74 3e bf 70 b8 bd df 9f 35 be
       -0.06978226 0.23896024 -0.090058796 -0.17736767
0002b0 4d f7 71 3e ce d5 4a be 55 32 75 bd 07 2e 6d 3e
       0.23629494 -0.19808123 -0.059862453 0.2316209
0002c0 1c 29 89 bd de 87 46 3e 46 4f 6a be 91 5d 79 3d
       -0.06697294 0.19387767 -0.22881803 0.060880248
0002d0 f7 92 07 3e 94 76 22 be 64 36 9e 3e b4 3e 45 be
       0.13239656 -0.15865546 0.30900872 -0.192622
0002e0 ad 14 45 3e ca 74 49 3e 98 0e 58 3c 6e a8 ab 3e
       0.19246168 0.19673458 0.013187073 0.3352694
0002f0 1d ce 47 3e ce c6 27 3e 1e c7 7c 3d b5 59 20 3e
       0.1951222 0.16384432 0.06171333 0.1565922
000300 36 e9 90 3d 8b 85 0c bc 8b 29 b1 3d b8 42 54 3d
       0.070757315 -0.008576761 0.08650502 0.05182144
000310 53 2d 18 be a8 ec 0c bd 27 9d d9 bd 80 bf d1 3d
       -0.1486104 -0.03440538 -0.106256776 0.10241604

lstm.bias_hh_l0 f4 [200]
000000 c5 53 89 bd 62 5e 6d 3e d3 fd 4a 3e 0d db 78 bd
       -0.06705431 0.23180535 0.19823389 -0.060755778
000010 6f 0c 35 bd 47 44 9c 3d 7f 44 da 3e 0a 09 41 3d
       -0.04420131 0.0763021 0.42630383 0.04712776
000020 1b 92 36 3d 47 b1 4c 3e 18 34 aa 3d f5 b2 b1 3d
       0.04457293 0.19989501 0.08310717 0.086767115
000030 31 5d 20 3e eb d4 7c 3c 0e 93 2c be 2a 83 67 bd
       0.1566055 0.015431623 -0.16852972 -0.056521572
000040 0b 7e 25 3e a5 9a 54 3e d5 12 f7 3d 58 74 9f 3c
       0.16161363 0.20762117 0.12064139 0.019464657
000050 4d 17 31 bc 36 16 14 3d ac 01 0a 3e 78 dc 97 bc
       -0.010808778 0.036153995 0.134772 -0.018537745
000060 c9 6d 89 3b b7 4a bf 3e 22 d4 1c be 46 30 ad bc
       0.0041939956 0.3736169 -0.15315297 -0.021141183
000070 22 f8 04 be 22 c1 21 be e5 da 91 bd 6a dc 89 3d
       -0.1298528 -0.1579633 -0.07121829 0.06731494
000080 8b d0 54 3e 99 bd 9d 3d 47 53 e1 3d 7e 3d 7d 3e
       0.20782678 0.077021785 0.11002212 0.24730489
000090 82 f3 13 be 16 63 05 3f 76 cf 51 bd ed ac b4 3c
       -0.1444836 0.5210432 -0.05122324 0.022055114
0000a0 b0 3b be 3d 17 4e 2a 3c b4 5a 95 bd 54 dd da bd
       0.09288728 0.010394595 -0.07292691 -0.10686746
0000b0 28 b3 06 bd 58 8f 97 bc 6c 76 3e be 79 47 a2 bd
       -0.0328857 -0.018500969 -0.18599862 -0.079237886
0000c0 0c 84 59 be 57 ee a1 3e f6 08 76 be 18 51 10 bc
       -0.21241778 0.3162715 -0.24026856 -0.008808397
0000d0 58 67 02 be fb 02 e9 3c 68 e7 67 be 54 b2 99 be
       -0.12734735 0.028443804 -0.22646868 -0.30018866
0000e0 24 a7 88 3d df be 1e bd ad 30 05 bd fb 5e 9d bc
       0.066725045 -0.038756248 -0.032517124 -0.01921033
0000f0 6d e4 80 bd 99 a4 82 3e f1 9c be bd e4 4f a1 3d
       -0.06293569 0.25516203 -0.09307278 0.07876566
000100 1e 88 ca bd 08 5b ee bd 13 a6 2c be ed 52 32 3d
       -0.098892435 -0.116384566 -0.16860227 0.043536115
000110 32 6b 67 be 3b 1b 40 be 44 67 18 be ca b7 42 bd
       -0.22599486 -0.18760388 -0.14883143 -0.047538556
000120 20 6a 88 bd 5e d5 98 3d 1c 5f db ba 3a ad 24 be
       -0.06660867 0.074625716 -0.0016736719 -0.16081706
000130 eb 46 47 be 17 52 5d be 69 8a 85 bd ac 23 53 be
       -0.19460647 -0.21613346 -0.0652054 -0.20619076
000140 fa 0e 65 be 3b b3 45 be 7c 8f 95 bd c5 7f b9 bc
       -0.22368994 -0.19306652 -0.07302758 -0.022643933
000150 63 07 57 be a0 25 2e bd 84 5f 84 bd 5b 52 05 bd
       -0.20998912 -0.04251635 -0.06463531 -0.032549243
000160 b1 fb 0d be 2e 9f b3 bd 8b ec de 3d 85 94 f1 bd
       -0.13865544 -0.087705955 0.10884961 -0.11795906
000170 ae 45 51 be 6f 8c 3a bd 3e 11 22 be 30 b4 b7 bd
       -0.20436737 -0.045544084 -0.1582689 -0.08969915
000180 98 09 9e bc d8 6b 70 bd dd 37 71 be 57 be dc bd
       -0.019291684 -0.058696598 -0.23556466 -0.10778492
000190 93 94 b3 3d 7c fd b1 3e e7 4c af bc 56 8c 02 3d
       0.08768573 0.34763706 -0.021398975 0.031872116
0001a0 7e c7 e6 bd 0d 72 b0 3a ad c3 4f bd 7d 3f f3 3c
       -0.11268519 0.0013461724 -0.05072372 0.02969336
0001b0 f2 54 dc 3c a2 40 3a 3d b9 6e 7a 3d 2a 50 d6 3d
       0.026895974 0.045471795 0.06114075 0.10464509
0001c0 b4 e8 10 bd 0a 4b a8 3d b6 74 8c 3a 42 22 4a bd
       -0.035378173 0.082174376 0.0010715935 -0.049349077
0001d0 44 fe 77 3c b9 35 09 be c7 04 2b bd b4 19 2d 3d
       0.015136305 -0.133994 -0.041752603 0.04226084
0001e0 ef 4b 22 3b 7d 50 d0 3c fc 81 bd 3d 68 7f 42 3e
       0.0024764498 0.025429005 0.09253308 0.18993914
0001f0 82 4f a1 be a7 bf dc bd 0e 08 06 bd ec 8a bf 3d
       -0.31505972 -0.10778742 -0.032722525 0.09352669
000200 a5 6e f5 3c 2a c8 80 bd 62 74 45 be 86 de 5c be
       0.029959986 -0.06288178 -0.19282678 -0.21569261
000210 e8 7f 38 3e fd 75 4b 3d fb fe bd bd 14 e4 77 bd
       0.18017542 0.04967307 -0.09277149 -0.060520247
000220 39 fb db 3d 04 f3 25 3e fb b8 90 bd 3a a3 b3 3c
       0.10741276 0.16205984 -0.07066532 0.021928418
000230 dc 4b 8a be 43 0d 5d 3d 26 ab ee bd eb 22 65 bc
       -0.27011 0.053967725 -0.11653738 -0.013985376
000240 22 b2 02 3e 17 03 05 3e 89 17 f1 3d af 48 14 3d
       0.12763265 0.1298946 0.11772067 0.03620213
000250 b2 2c 56 3e a9 44 e9 3c 22 5a 97 3d 97 05 81 3c
       0.20915487 0.028475123 0.07390238 0.015749736
000260 bd 2a 02 bd b0 9b 88 be 20 e0 a1 3d f2 fb 15 bd
       -0.03177904 -0.2668128 0.079040766 -0.036617227
000270 c6 2c 45 3e 8f 2a 0c 3d 10 d3 2e bd 90 cd ac 3e
       0.19255361 0.034220275 -0.042681754 0.33750582
000280 77 bc 41 3e 55 3a ab bc 13 3a 1a 3e 64 34 14 bd
       0.1891955 -0.020901838 0.15061216 -0.036182776
000290 01 3d 4d be fc 5d 07 3e 40 c4 56 bd bc e1 99 3d
       -0.20042802 0.13219446 -0.052433252 0.075137585
0002a0 8a 47 35 3d 93 18 85 3e 4a 65 00 bd c9 f9 db bc
       0.044257678 0.2599531 -0.031346597 -0.026852505
0002b0 2b be 38 3e fb 0b a8 bc ca 1b 35 bd 79 35 88 3e
       0.18041293 -0.020513525 -0.044215955 0.26603296
0002c0 52 6c 0b be 3c 32 86 3d e7 be 93 bd 25 b1 8b bc
       -0.1361554 0.0655255 -0.07214146 -0.017052243
0002d0 90 1a 11 3e aa ab 23 be 2c 4d 87 3e e9 7f 1b be
       0.14170289 -0.15983453 0.26426065 -0.15185513
0002e0 fe 52 35 3e c7 ad 40 3e 23 28 79 bc b7 71 a4 3e
       0.1770744 0.18816291 -0.015207323 0.32118008
0002f0 83 9a 17 3e c3 5d d0 3d a5 d9 4e bd 15 b5 5a 3e
       0.14805035 0.10174134 -0.05050053 0.2135814
000300 a8 21 63 bd 79 c9 02 3c c4 9a 42 3d bf 98 a5 3d
       -0.05545202 0.007982605 0.047510877 0.08085775
000310 d2 b0 67 bd 48 01 3e be 7c 9e 34 bd 8e 3d ef 3d
       -0.056565113 -0.18555176 -0.044096455 0.116816625
