pol_models/pm_25_model_state.pt (torch, 650366 bytes, 16 tensors)

conv1.weight f4 [64, 300, 3]
00000000: 803b 34bc 9e00 c93c 7205 41bc 9d4e dabc
00000010: 9a51 003d a776 24bb ea57 bf3c 3b9a c33c
00000020: c49e 5ebc c4e5 8b3c e56b a9bb 54c7 92bc
00000030: 2a83 d5bc 78b2 afbb 8451 ebbc e686 e1bc
00000040: b698 27bb 5cb3 05bd 93a9 d0bc e162 013d
00000050: f72a ce3c 73f8 29bc ae49 15bd c43f 07bd
00000060: eb9a 843c 5515 e4bb 0a10 07bd a344 523c
00000070: bcbf d5bb d660 bcbc 6577 c33c e42f 663c
00000080: 1d21 143b ac77 de3c 9dc5 343c e605 5f39
00000090: 924d 9e3c 0244 2ebc 9408 143c 6bf1 6d3c
000000a0: 3af8 05bc 8bdd 833c ebae efbc 1409 123a
000000b0: 067b fcbc fa6f 02bd c858 24bc a1e6 f1bc
000000c0: 7d97 c2bc d0e6 00bd 251a 63bc 4622 13bd
000000d0: a1f3 16bb f83b b9bb 2745 cdbc 7ba0 0ebc
000000e0: a656 173b 8daa aa3c 6684 22bc aeb8 57bb
000000f0: b1ae cd3c ba1c 253b ab22 eabc 7a2f 043d
00000100: 0c51 b7bc 0784 61bc 60bc d03c cb40 973c
00000110: d717 023c af4a c03c 201d f1ba 6c63 2c3c
00000120: 64fa 32bc 8a24 9bbb 932a e63b 1ebf 8ebc
00000130: 5a72 983c 8fe9 0fbc 933d bcbc e5c6 b83c
00000140: da3e 113c 1b11 93bc 75fe 0ebc 0ba6 a13c
00000150: 32bb 33bc ea18 68bc 2719 c7bb 6ce3 153c
00000160: 8cbf 0d3b 0a1d 16bd e1fa 333c 2eb8 84bc
00000170: 111c 33bc 363a c2bc 3d62 d33b e96f 183c
00000180: 3c34 03bd 4fbc f4bb 2a9b 6fbc f07f b9bb
00000190: 2a29 823b 400b 59bc d8aa d2bb a15f 863c
000001a0: 71c6 bb3c 0f7a 18bb 421c eebc b519 d83c
000001b0: 5dfa 0cbd 4931 fdbc 8e48 87bc 2642 aebb
000001c0: 8e5d d6bc 8c16 ddbc bf9c 463b c795 4a3b
000001d0: d951 ac3b fb5c f93a 48ed 74bc 3697 3e3b
000001e0: 99ea 09bd d6ce e8bc c5f0 83bb 0187 b13b
000001f0: 565d ffbc 59c0 f0bc b314 15bd 1102 4a3c
00000200: f859 37bc c123 f3bc 817d d0bc bf30 b73c
00000210: bc69 1aba d746 933b e0be 943b 9c53 56bc
00000220: 4700 8abc 0337 26bd 6dfd 81bc cc6e dbbb
00000230: ff9a 7fbb 29c1 0ebd 5403 463b 2f28 1fbc
00000240: fa11 0cbd c969 35bc 83ee e4bc 2c38 083c
00000250: 351c fa3b acc7 b3bc 634c fe3b e794 23bc
00000260: 5bdb 14bc 4db9 dabc 8fc8 0b3d 72c5 16bc
00000270: 51b1 e0bc e742 3fbc a586 883c 4665 d6bc
00000280: 34c1 8ebc 9f10 c7bc 75f6 f5bc 24b2 25bd
00000290: 8aca 08bd 9e02 99bb dc1e 1abd 926c 28bc
000002a0: a42a cd39 2ac0 5bbc f464 f2bb d917 d1bc
000002b0: 88e4 b53c 2cb4 3b3b eb02 993c e35b a33c
000002c0: d470 903c 8e02 aa3c 6048 2d3c cc33 04bd
000002d0: b51a 08bc 4d24 f3bb 4035 efbc e8d4 003d
000002e0: ce8d 033d 8340 223c e2f3 dfbc 0b49 7c3c
000002f0: 2ae5 7c3b 0bf0 53bc 6d96 d93c d79c 393c
00000300: 6cef 36bc 4df2 ee3c 7694 853c bcaa c23c
00000310: ac7c bcbc 0c8d eb3b ef66 08bc d6e6 d5bc
00000320: f109 86bb 6409 f53c 2508 0dbb 80e1 0fbd
00000330: be18 ae3b d57f 313c 37d6 20bc cfc6 98bb
00000340: 9a81 d3bc 6523 bb3c 0c8a aebb a9bf 383c
00000350: a2bd 0bbc 69d6 e6bb a3ac 18bc 0b6e 943c
00000360: 3a73 12bd 1478 89bc c041 e4bc 4b8a cc3a
00000370: 9149 f1bc f89b d13c e844 5a3c 4c96 1fbd
00000380: dab1 c4bc 0c8b 76bc 4e11 8bbc 1781 1ebc
00000390: c3a4 143c 2bcd 9bbb 2f2e 603a 0b90 75bc
000003a0: 783e 763c 1b0e bb3c e846 0abd 9b96 f13c
000003b0: bd99 6c3c 3d77 f03c ae62 f23c 2af4 97bc
000003c0: d65b 1abc d6a9 853b af2b 86bc f792 ba3c
000003d0: cb3c 963c 46e4 0f3b 81d7 233b a2fe d03b
000003e0: 244c 2fbc aaa3 ffbc 1ceb 7d3b 9a0c 613c
000003f0: 99c3 963c 4586 a13b 01e2 41bc e5df 78bc
-0.011000514 0.024536427 -0.011781083 -0.026648814 0.03132782 -0.0025095136 0.02335735 0.023877254
-0.013587657 0.017077334 -0.0051703327 -0.017917313 -0.02606352 -0.0053618513 -0.028725393 -0.027530145
-0.00255732 -0.032641754 -0.025471484 0.03158844 0.025166972 -0.010374176 -0.03644722 -0.033019796
0.016187152 -0.006960551 -0.03297428 0.012833747 -0.0065231007 -0.022995394 0.023860643 0.014049504
0.0022602745 0.027156673 0.011033443 0.00021269135 0.019324098 -0.0106363315 0.009035248 0.014522891
-0.008176858 0.01609685 -0.029258212 0.0005570811 -0.03082038 -0.03184507 -0.010030933 -0.029528918
-0.023753876 -0.03147012 -0.013861214 -0.035921358 -0.0023033398 -0.005652901 -0.025057388 -0.008705254
0.0023092418 0.020833278 -0.009919262 -0.0032916474 0.025107713 0.0025194124 -0.028580984 0.03227184
-0.022377513 -0.013764388 0.02548045 0.018463513 0.007940254 0.023473112 -0.0018395521 0.010521751
-0.010923956 -0.0047345804 0.007024118 -0.017425116 0.018609215 -0.008783712 -0.02297858 0.022555778
0.008865083 -0.017952492 -0.0087276595 0.019732496 -0.010969924 -0.014166096 -0.0060759964 0.00914846
0.0021629063 -0.036648788 0.010985107 -0.016201105 -0.0109319845 -0.023709398 0.00645092 0.009304025
-0.032032236 -0.007468737 -0.014624396 -0.0056610033 0.0039721923 -0.013247311 -0.0064290576 0.016403021
0.022921773 -0.0023266112 -0.029066209 0.026379446 -0.034418453 -0.03090729 -0.016514089 -0.005317944
-0.026167657 -0.02698829 0.003030583 0.0030912028 0.0052587804 0.0019024903 -0.01494915 0.0029081828
-0.033670995 -0.02841894 -0.0040265047 0.005417705 -0.031172436 -0.029388594 -0.036396693 0.012329594
-0.011190884 -0.029680135 -0.02545047 0.022362111 -0.00058903894 0.0044945288 0.0045393556 -0.0130814575
-0.016845835 -0.040579807 -0.015867913 -0.0066965576 -0.0039002297 -0.03485218 0.0030214386 -0.00971417
-0.03419683 -0.011072584 -0.027945763 0.008314174 0.007632757 -0.021945797 0.007760571 -0.009984232
-0.009085502 -0.026699686 0.034126814 -0.009202348 -0.027428301 -0.011673666 0.016665766 -0.026171338
-0.01742611 -0.024299918 -0.030024746 -0.04045309 -0.03339628 -0.0046695014 -0.037627086 -0.010279791
0.00039132417 -0.013412515 -0.0073972885 -0.025524067 0.022203699 0.0028641326 0.01867815 0.019941276
0.017631926 0.020753171 0.010576338 -0.03227596 -0.008307149 -0.007420099 -0.029200196 0.031453043
0.032117657 0.009903076 -0.027337972 0.015398274 0.003858874 -0.012935649 0.026560986 0.011328897
-0.011165481 0.029168272 0.016306143 0.023763053 -0.023008667 0.007188445 -0.0083253225 -0.026111048
-0.0040905406 0.029911704 -0.0021519747 -0.035127163 0.005313008 0.0108337 -0.009816698 -0.0046623717
-0.025818635 0.022844026 -0.005326515 0.011276164 -0.008529099 -0.0070446027 -0.009318504 0.018118879
-0.03575442 -0.01678089 -0.027863383 0.0015605179 -0.029454025 0.025587067 0.013322093 -0.038961694
-0.024010587 -0.0150478 -0.016976025 -0.009674332 0.009072485 -0.0047546825 0.0008551804 -0.014987956
0.015029542 0.022833874 -0.033759028 0.02949076 0.014440951 0.029353732 0.02958807 -0.018549044
-0.009421309 0.004079084 -0.016378252 0.022775156 0.018339535 0.002195613 0.0025000277 0.006378011
-0.010699306 -0.03120597 0.0038744872 0.013735915 0.018403815 0.0049293363 -0.011833669 -0.015190099

conv1.bias f4 [64]
00000000: 511b 5a3c 5d8a 0fbd 5d35 cebe b8a7 c5bb
00000010: 0b4a 04bc c4f5 c1bc b5ca 6dbc 8bf6 d8be
00000020: 78e2 503e 680f 03bd 7d3f 0bbd 7ff1 a23b
00000030: 970f 5b3b f7e2 8cbc 4bfa 0f3c dc1b 04bf
00000040: 88ee 05bd a595 06bd a387 eb3b 124f 82be
00000050: 429c 44be 6a42 92bc bd75 82bc f94c a53c
00000060: 1fa8 e9bc b3da 29be ddbb efbb 478a b8bc
00000070: e62b 08bd 05b8 3fbc 8688 1a3b 5516 eabc
00000080: d930 a43b 3be3 673c 888e 1dbe 8861 92bc
00000090: 761e 90bc 9398 713c 305e ebbc 379d a53a
000000a0: 4d77 8ebc bc2f 543b d5a1 e8be 0a06 cb3b
000000b0: 6162 b1bc 41f5 033d d61c f5bb 4f84 19bd
000000c0: fdb0 63bc 371d 68be e9ec 91bc c135 3d3c
000000d0: f9a6 f5be f59d bd3c 2872 e13b 8408 d5bc
000000e0: 51a0 6e3c 887e 743c a739 43bb 9562 02be
000000f0: 1aed 18bd 3cf4 8d3b 0f12 49bc 7650 34be
0.013312177 -0.035044063 -0.40275088 -0.0060319565 -0.008074294 -0.02367676 -0.014513661 -0.42375597
0.20398891 -0.031997114 -0.033996094 0.0049726362 0.003342604 -0.017198069 0.008787702 -0.5160501
-0.032698184 -0.032857556 0.0071878 -0.2545095 -0.19200233 -0.017853934 -0.015925283 0.020178305
-0.02852255 -0.16587333 -0.007316096 -0.022526873 -0.03324499 -0.0117015885 0.002357991 -0.028575102
0.005010706 0.014153297 -0.15386403 -0.017868772 -0.01759265 0.014745849 -0.028731436 0.0012635355
-0.017390871 0.0032377085 -0.45435968 0.0061957883 -0.021653356 0.032216314 -0.007480244 -0.037479695
-0.013897178 -0.22667395 -0.017813163 0.01154846 -0.47978953 0.023146609 0.0068800636 -0.026005037
0.01456459 0.0149227455 -0.0029789002 -0.12732919 -0.037335493 0.0043320935 -0.012272372 -0.17608818

conv2.weight f4 [128, 64, 3]
00000000: 329b 913d 7a3c e7bc 1c81 30bc 0c6a 363d
00000010: a2c3 573d 0501 653d c807 9e3d bd11 3cbd
00000020: aa68 15be de1b e43c d9ba 923d ff55 82bd
00000030: 26c8 a1bd 76b5 353d 0000 e1bb 40f9 363d
00000040: 159d a13c 5f32 943d bd7d 46bd 42f3 6cbd
00000050: 7212 2abc 3e72 dfbc 39b1 a23c fe0f 9f3b
00000060: f03b f1bc 9378 52bd f46e aabc 2234 bdbc
00000070: cd08 11bd dad1 ecbc 6f4d 2dbc e4ef 87bd
00000080: 6513 533d 39ab 8a3d 4ad9 4fbd 028a 50bd
00000090: b8ab eabc aed8 993c 6c77 52bc c8ce cabc
000000a0: 21f7 ea3b 2d6f 24bc 5cad debc 5184 bc3c
000000b0: a0fb 84bd ce0d 49bd ae17 9b3d ca4c 463d
000000c0: 0597 8e3d 8a9f 513d 5f33 06bc 432d 2a3c
000000d0: e5e1 593d 0be6 8f3d c999 0cbc b4a8 693d
000000e0: cb68 80bd ea34 a7bd e381 033d 90cd eb3d
000000f0: ecd9 b83c 32bd 3abd dd37 393d 3374 7f3d
00000100: ba4d c93c 1c70 0bbd 42c3 78bd 7f44 90bc
00000110: f8de 473b e79d b9bc a0a2 0bbd d2f0 383d
00000120: 6eef 3a3d 4ddd 753d 004d 31ba dd09 443d
00000130: 242e ffbc 67cd d2bc d954 1fbb 26bc 53bc
00000140: 9ebc 85bd ba7f 523d 9ce3 3c3d dc3b 0d3d
00000150: 1b09 673d b8fc 21bd b6a1 38bd abb0 62bd
00000160: 19b2 54bd 0c16 533d 8628 87bc 476c 81bc
00000170: 9576 79bd 90f8 fdbc faea 04bd 0dd0 363b
00000180: 626b 6abd b76c aabc caa3 06bd 4627 853d
00000190: d6c6 24bd a043 03bb 007e afbd b474 d2bc
000001a0: 3087 e73d bc84 243b 726f 86bc 714b 77bd
000001b0: 9db6 a63c b2e7 22bd e754 993d e948 db3c
000001c0: 2a04 803d 0984 7ebd 9ffc e6bc 4276 633d
000001d0: d5b1 ad3c 0193 2d3d 92b7 30bd 2b17 093d
000001e0: ff08 75bd cb6e 1fbd 5203 8f3d be5e 863d
000001f0: 7d20 ea3c a4ae 573d dfc9 0f3c feb1 d6bc
00000200: 5a87 b8bd 063a a03d 9ea9 943d 8097 13bd
00000210: 3ba0 a9bc c423 9b3c 01a9 71bd 93fa 6c3d
00000220: 8f0f 353c e70b 0e3d 0a11 d0bc 07f3 253d
00000230: 810d 393c 74b6 bd3a 14d5 05bd dde2 fe3c
00000240: f048 123d 3f5d 62bd 53fb 523c cd97 393d
00000250: a0d6 9abd c9e6 12bd 10ba 88bb 949e 883d
00000260: 635a 7d3c 7026 413c b85c 04bd da44 973d
00000270: 30ea 89bd 33f7 0bbd 789e 253e 2412 133d
00000280: 4f34 73bd b72b 293d d80d 723d ede8 25bd
00000290: 6216 afbc 4e52 4f3d ceeb 1abb 5987 dfbc
000002a0: 42e1 673d 5f3f 38bd e692 87bc 9dc9 de3c
000002b0: 3c5b 273d 01ee d43b a3fa 0fbd e288 143d
000002c0: d4df a7bc 23bb 6bbd 1cd2 c3bd 9110 853d
000002d0: 706c e8bd 0ae0 fe3c 410e 693e 1c12 123d
000002e0: 580f c33c f6cb 44bb e2ad 7cbd 7281 413c
000002f0: 0573 9f3b 408f bdbd 61f5 353a 91cc 0d3e
00000300: 5816 7cbd a3dd 63bc a22f 89bd 04e0 d5bc
00000310: 403b 7cbd 71ad 8ebd f012 2d3c adab 69bd
00000320: d314 173c bebe 8a3b f7e3 e23b 22c2 8dbc
00000330: 5a00 a3bd 41bb 3c3d 6c35 87bd 1695 26bd
00000340: ede4 92bd 8f7c c53c 9605 813d 97b1 f03c
00000350: 4806 5abd c8d5 133d d965 61bd 8fd5 e4bb
00000360: 306e 503c 9371 84bc 77b5 ab3c 9c8b 6c3d
00000370: f349 8abd 8079 7f3b 9ebd fb3c effa c9bc
00000380: d10e 69bd ad6e a0bd 1679 ee3b 4e9a 753d
00000390: 6a3d 69bd 604d 7d3d 9c0e 753d 2929 693c
000003a0: de6f 6f3c f75a eabb 9f0a 66bd 6c34 1dbd
000003b0: cc3d 7e3c 045a f4bd 8e1c b4bc aaa3 d7bd
000003c0: 10ba 2d3d 2d1a 4b3c cf52 923d 7a9a b939
000003d0: d3d5 c93c ee48 713c e08b b1bb 72a3 49bd
000003e0: 6417 e1bc 05e8 2f39 804c 72bd b487 11bd
000003f0: ded8 fdbb 168c c5bd b719 da3c 79f6 033d
0.07109679 -0.02822708 -0.01077297 0.044534728 0.052676804 0.055909175 0.07716328 -0.045915354
-0.14590707 0.02784532 0.071645446 -0.06364059 -0.078995034 0.044362508 -0.006866455 0.044671297
0.019728223 0.0723617 -0.048459757 -0.057849176 -0.010380374 -0.027276155 0.019859897 0.0048542013
-0.029447526 -0.05138452 -0.02080486 -0.023096148 -0.035408784 -0.028908659 -0.010577544 -0.066375524
0.051532168 0.067709394 -0.050744332 -0.050912865 -0.028646335 0.018780079 -0.012845855 -0.024756804
0.0071705733 -0.010036272 -0.027182274 0.023012312 -0.06493306 -0.04908543 0.07572876 0.048413076
0.069623984 0.05117754 -0.008190959 0.010386768 0.053193945 0.07026299 -0.008581587 0.057045653
-0.06269988 -0.081643894 0.03210629 0.11513817 0.02256485 -0.045590587 0.04521929 0.062366676
0.024573196 -0.034042463 -0.060733087 -0.017610786 0.003049789 -0.022658302 -0.03409064 0.04515154
0.045638494 0.060025502 -0.0006763488 0.04786097 -0.031149931 -0.02573271 -0.0024312048 -0.012923276
-0.065301165 0.05139134 0.046115503 0.034480914 0.056405168 -0.039547652 -0.045076095 -0.055344265
-0.05192766 0.051534697 -0.016498815 -0.015798701 -0.060904104 -0.031002313 -0.032450654 0.0027895004
-0.057231314 -0.020803792 -0.032871045 0.065016314 -0.040228687 -0.0020029321 -0.085689545 -0.025690414
0.11305082 0.002510353 -0.016410563 -0.06037468 0.020350749 -0.039771743 0.07486897 0.026768165
0.06250794 -0.062137637 -0.028196631 0.0555327 0.021202961 0.042376522 -0.043143816 0.03346936
-0.059823032 -0.03892402 0.06983055 0.065610394 0.028579945 0.052656785 0.008776157 -0.02620792
-0.09010191 0.07823567 0.072589144 -0.036033154 -0.020706287 0.018937953 -0.058999065 0.057856154
0.011051073 0.03467932 -0.02539875 0.040514972 0.0112947235 0.0014473931 -0.03267391 0.031114036
0.03571409 -0.055264708 0.012877303 0.045310784 -0.07560468 -0.035864625 -0.004172571 0.066708714
0.015463444 0.011788949 -0.032314986 0.07386179 -0.06734121 -0.034171294 0.16173732 0.035905972
-0.059376057 0.041301455 0.059095234 -0.04050534 -0.021372978 0.0506156 -0.0023639086 -0.027286218
0.056611307 -0.04498231 -0.016549539 0.027195746 0.040858492 0.006498099 -0.035151135 0.036263354
-0.020492472 -0.057551514 -0.095615596 0.064973004 -0.11348808 0.03111269 0.22759344 0.0356618
0.023811027 -0.0030028797 -0.061689265 0.011810647 0.0048660063 -0.092558384 0.00069411664 0.13847567
-0.061544746 -0.013907823 -0.06698538 -0.026107796 -0.061579943 -0.06966675 0.010563597 -0.05704849
0.0092212735 0.004234164 0.006924148 -0.017304484 -0.079590514 0.046077017 -0.06601986 -0.040669523
-0.071725704 0.024107246 0.062998936 0.029381556 -0.053228647 0.03609255 -0.05502877 -0.006983466
0.012721583 -0.016167438 0.020960553 0.05775033 -0.06752386 0.0038982332 0.030730065 -0.024655787
-0.056898896 -0.0783361 0.007277618 0.05996161 -0.056943335 0.06184137 0.059828386 0.014231005
0.014614074 -0.007151957 -0.056162473 -0.03838007 0.015517663 -0.119312316 -0.021986272 -0.10529263
0.04241377 0.0123963775 0.07144701 0.00035401044 0.024638092 0.01472686 -0.0054182857 -0.04922814
-0.027476974 0.00016775735 -0.059154987 -0.035529807 -0.0077468 -0.0964586 0.02662359 0.032217477

conv2.bias f4 [128]
00000000: e234 16be 0c48 f5bd 0de7 9b3d 3a6c b1bd
00000010: 486e 533e 8011 13bd 9967 a1bd b24b e2bb
00000020: a212 b6be 5338 c1bd ca7f 5e3d 1b5a b1be
00000030: fe69 98bd d665 88be be00 6abc 5806 a43e
00000040: fd4c a2bd 7062 27bd 73f1 423e d99b a73d
00000050: fcf7 5b3e b0bd 9b3e 561d 093a 6af6 8dbc
00000060: f1ff 2fbd 6975 8fbe 2c1b 08bd 9542 86bd
00000070: 1b92 5a3e 306a 493e c29c c0bd 0b3b ffbd
00000080: 17f2 a1be 0312 86bc 5eeb a23e a497 26bd
00000090: 2438 ef3b 7279 b7be 6f26 8cbe 4fab 69be
000000a0: 1e4b b1bc d031 c63d 7b47 8abd 3a00 62bd
000000b0: deed c73d 30f7 6dbe defe a7bc 65a9 28be
000000c0: 85b0 8fbd 22cc b2bd 91f8 62bc d991 9d3e
000000d0: 889b 71be 69f3 8abe 4033 c33c 8428 7ebd
000000e0: 809b 9e3e 5bf9 fdbb 99d4 42be a9b7 6bbe
000000f0: 28ad cdbc b761 dcbd f1c4 f2bd 817e 1a3e
00000100: 2f8a adbd e494 7fbe f176 40be 4e2f 21be
00000110: 433e acbd 0b0d d43c 5244 80bd 21f3 61be
00000120: 9775 5cbd f146 b83b 71ac 9abe e113 c1be
00000130: f3b6 5cbd cfdf 1dbd abea 64be a936 283e
00000140: a983 a9be 4309 96bc a328 fdbd 4db0 29be
00000150: fee5 96bd fdec a7bc a20d b3be 88b2 7d3e
00000160: 814d 65bd 1acd 9dbe db4d 74bd 299e d6bd
00000170: 67d4 96be e682 ab3e e30a 0dbc e7f9 a8be
00000180: c7f0 54bc 1ac0 a8be 2543 a3bd 7bb2 a7be
00000190: d715 42bd f74f 00bd e6da bfbc d377 9abe
000001a0: c74c 90be 0231 34be 4e8b 833e bcfc 80bd
000001b0: 40f9 b5bd 1bd9 90bd cf0f da3d c839 2abd
000001c0: 2f85 babd b328 c13c c97b ae3d 2718 4cbe
000001d0: 0b60 59be 8742 45be 1795 c7b8 7866 98bc
000001e0: d0a9 a6be 5020 8ebd 12a4 bcbe 6901 3bbe
000001f0: af62 3cbd 3627 95be e4e4 a4be 46e5 84bd
-0.1466861 -0.119766325 0.07612429 -0.08663221 0.20647538 -0.03590536 -0.07881088 -0.0069059962
-0.3556109 -0.09434571 0.054321088 -0.34639058 -0.074420914 -0.26640195 -0.0142824035 0.3203609
-0.079248406 -0.04086536 0.19037418 0.081840225 0.21481317 0.30418158 0.00052305066 -0.017329413
-0.042968694 -0.28019264 -0.033229038 -0.06555668 0.21344797 0.19669414 -0.09404899 -0.124624334
-0.31630012 -0.01636601 0.31820196 -0.04067196 0.0073003937 -0.35834843 -0.27373073 -0.22819255
-0.021642264 0.0967747 -0.06751915 -0.055175997 0.097621664 -0.23238826 -0.020507272 -0.16470869
-0.0701609 -0.087303415 -0.013853208 0.30775335 -0.23594487 -0.27138832 0.023828149 -0.062050357
0.30978012 -0.0077506728 -0.19026412 -0.2301928 -0.025106981 -0.10760825 -0.1185397 0.1508732
-0.08473622 -0.24959141 -0.18795373 -0.15740702 -0.08410313 0.025885126 -0.06263031 -0.22065403
-0.05382308 0.0056236912 -0.30209687 -0.3771048 -0.05388541 -0.03854352 -0.22355144 0.16427101
-0.3310826 -0.018314963 -0.123612665 -0.1657116 -0.07368086 -0.020498747 -0.3497134 0.24775136
-0.055982117 -0.30820543 -0.05964456 -0.104793854 -0.29458925 0.33498305 -0.008608553 -0.3300316
-0.012996859 -0.32959062 -0.07971791 -0.32753357 -0.04738411 -0.03132626 -0.023419809 -0.30169544
-0.28183576 -0.1759682 0.2569222 -0.06298205 -0.08885431 -0.070726596 0.106475465 -0.04155901
-0.09107434 0.023578977 0.08519704 -0.19931088 -0.21228044 -0.1926366 -9.5168296e-05 -0.018603548
-0.32551432 -0.06939757 -0.36843926 -0.18262257 -0.04599255 -0.29131478 -0.3220588 -0.06489043

lstm.weight_ih_l0 f4 [200, 128]
00000000: c2ee ae3d a3ce a1bc c7f4 f03d 3160 a6bd
00000010: 4d6e 70be 584f 5fbd 5784 40bd b9bc ff3d
00000020: 48d8 23bc 0ce2 d0bd 8c50 86bc 608c 81bd
00000030: c6b7 853d 2289 bb3b 10ca 4bbd dfdd 3dbc
00000040: 342c 7ebd 1057 d43d b12a 123e 3c30 2dbd
00000050: a6a8 09bd ce75 233e c92e 063e 8e19 823d
00000060: 20ac d3bd 0c0e 33bd 366c 29bd e4e2 c3bc
00000070: 1869 d33d be3c 083e 9699 893d 4855 1b3d
00000080: 6c80 3dbe 36c4 f7bc e6d2 9cbe 4e17 113e
00000090: 755a 383d 3478 4cbe 9cfe 433d 6d70 75be
000000a0: eee3 e23d e261 25be 3065 033d 21d8 cbbd
000000b0: 1f84 4c36 9993 6c3d 1590 1e3d cbf5 01bc
000000c0: 4d15 a03d 518e 25bd 7592 ee3c d34d b23e
000000d0: 38cf b1bd aa27 35be 6fd3 973d 3ee5 a43d
000000e0: 6db4 33bd aafa 51bc 318f 1c3e 06f5 b43d
000000f0: d093 e9bd 8479 dd3c 4da9 82bc 3000 70be
00000100: e946 10bd f6c5 82bd d265 4f3e 9e03 80bd
00000110: 4a43 51bd 6093 0a3e 2a4e a93d 265c 02be
00000120: afaf 7abe bf27 493e c51a 5d3c 6a5c 21bc
00000130: 5862 fcbd 3879 f53d 614c 00be b714 733e
00000140: 8aa5 aebd be35 83bb 176b 4a3b 1ad4 72bd
00000150: 6ec8 ff3c ae6b 823c 43ea 38be 94e6 8b3d
00000160: 6faf 433d 7a20 61bc 8be7 0bbe f8e6 afbc
00000170: 5f49 7fbe 41d2 86be 1426 a93d e656 4cbe
00000180: d678 bc3d aaff 2ebe fad3 da3d 7352 7fbd
00000190: 1fa0 72bd d294 9abd 9159 4c3d 446c 833c
000001a0: 048a 0cbe 953e d43d 09ea 333e b86a e7bd
000001b0: 10c7 d43c 2a86 76bd 05c3 69be 7fcb 35bd
000001c0: 0e9d 003d be1f 713d fd70 49bd 2b5a 883d
000001d0: e0b7 843c 270d 8cbd 7515 28bc e249 8fbd
000001e0: d5b4 bbbd c83b b3bd 0f21 f13d b49b 77bd
000001f0: 6495 d63d e7e8 12bc efc7 02bd a1fc 543c
00000200: 1d03 32be bc88 a53d 5c72 de3c c35f 883d
00000210: 5d6c 683e 40c9 b6bd b983 9cbd 3f06 7c3c
00000220: e0ef 573d 0d13 bdbb 6f4d 893c 2105 8abd
00000230: 91af 0bbe 47d4 f33b eaf7 fbbc 339d 06bd
00000240: 367d e43d a174 9b3d 549b 88be d449 893e
00000250: 3187 febc f2c0 abbd 56fb 9a3d f84a a93d
00000260: 5aca 18bd 9dbe bbbb 49e0 833d 5736 8f3d
00000270: 7dbb 933d 4203 43bc f998 0f3e 21c8 b03c
00000280: 374d 683e 1474 a13d caf8 c3be 19da 053e
00000290: 4b2e 303d 6649 10be 159a 48bb 145d ef3d
000002a0: ed1a f4bd e38f 863e 521b dd3d f6aa 0a3d
000002b0: 4241 9dbd f519 40bb 38cd 0cbd 0e20 13be
000002c0: aa09 cbbd 4996 8635 9737 023e 32c4 80bd
000002d0: 3183 24bd 63d9 c93c a5e1 103e debd f2bb
000002e0: 3699 23be 7a34 eb3c f873 6dbe a610 f0bc
000002f0: 05b1 56bd d3a6 32bc 5e49 d13c 0c1a 1ebd
00000300: bcd7 3a3c c216 1d3e a012 a9be d944 713d
00000310: 0cb6 b6bc 569b 3fbc 94a3 af3d 1e72 8c3d
00000320: b88d d53c bee2 c8be 7d66 12bd 84dc 953d
00000330: 4be3 df3c 76ea c23d e72c 573e efc9 3abe
00000340: 2ca4 08bd 94fe f33d 46b3 3abe b16d 203c
00000350: 1286 c93d af13 0bbd 2dd1 c43b 09a1 acbe
00000360: 3294 61bd b2c1 7ebd 1919 55bc d4e2 0bbd
00000370: a19f 5a3d ff3e 47be c18e b63d b37e d2bd
00000380: 751a a1bd d190 f93b c1b0 d43d bda9 52bd
00000390: 3aa5 d4bc cd88 103e c69d be3c e69d 2b3b
000003a0: 7788 38be d1ca 86bc 2bf0 32be e5d0 163e
000003b0: eb58 18bd dd69 fb3b 1825 5a3e 6d57 49bc
000003c0: 7826 f33d e072 b03d 3db4 29be 4c63 ddbc
000003d0: c860 d13d 157b d33b fedd 70bd 743a 933d
000003e0: 010d ccbd de33 943d 6f33 8d3c eb69 34be
000003f0: fc3e 93bc 0354 d3bd a11e c63c 0844 5fbd
0.08541633 -0.019751852 0.117654376 -0.08123816 -0.23479576 -0.054519027 -0.04700121 0.12487168
-0.010000296 -0.10199365 -0.01639583 -0.063256025 0.065291926 0.0057231346 -0.04975325 -0.011588543
-0.062053874 0.10368168 0.14274098 -0.042282328 -0.0336081 0.15962908 0.13103785 0.063525304
-0.103355646 -0.043714568 -0.041362964 -0.0239119 0.103227794 0.13304421 0.06718747 0.037923127
-0.1850602 -0.030244928 -0.30629653 0.14169046 0.04500814 -0.19967729 0.047850236 -0.23968668
0.110786304 -0.1615062 0.03207892 -0.09953333 3.0475273e-06 0.057757948 0.038711626 -0.007932137
0.07816563 -0.040418927 0.02912257 0.34825 -0.08682102 -0.17690912 0.07413375 0.08051537
-0.04387324 -0.012816111 0.15288998 0.08835797 -0.11405146 0.027035482 -0.01594987 -0.23437572
-0.035223875 -0.06385414 0.20253685 -0.0625069 -0.051089562 0.13532782 0.08266862 -0.12730464
-0.2448108 0.19644068 0.013495152 -0.009848693 -0.12323445 0.11986011 -0.12529136 0.23738371
-0.08527668 -0.0040042093 0.0030886584 -0.059284307 0.031223502 0.015920486 -0.18058114 0.06831089
0.04777473 -0.013740653 -0.13662545 -0.02147244 -0.24930333 -0.26332286 0.08259216 -0.19955024
0.09202735 -0.17089716 0.106849626 -0.06233449 -0.059234735 -0.075479165 0.049890105 0.016042836
-0.13724524 0.10363499 0.17569746 -0.11299652 0.025973827 -0.060186543 -0.228283 -0.044383522
0.03139978 0.058868162 -0.04918002 0.06657823 0.01620096 -0.06838446 -0.010259022 -0.06996514
-0.0916535 -0.08751637 0.117738836 -0.060451224 0.10477713 -0.008966661 -0.031928953 0.012999685
-0.17384 0.08082721 0.02715414 0.0665889 0.22697587 -0.08925104 -0.076423116 0.015382349
0.052718997 -0.0057700933 0.016760556 -0.067392595 -0.13641192 0.007441077 -0.030757863 -0.03286476
0.111566946 0.075906046 -0.26681006 0.2681414 -0.031070324 -0.08386411 0.0756747 0.08266252
-0.037302352 -0.00572951 0.064392634 0.069927864 0.07213495 -0.011902632 0.14023198 0.021579804
0.22685705 0.07883468 -0.38275748 0.13071479 0.0430129 -0.140905 -0.0030609418 0.11687675
-0.11919198 0.26281652 0.107962266 0.033854447 -0.076784626 -0.0029312347 -0.0343754 -0.14367697
-0.09913953 1.0027517e-06 0.12716518 -0.06287421 -0.040164176 0.02463979 0.14148577 -0.007407888
-0.15976414 0.028711546 -0.2318877 -0.029304814 -0.052414913 -0.010904032 0.02554768 -0.03859906
0.011403974 0.15340713 -0.33022022 0.05890355 -0.022303604 -0.01169475 0.08576122 0.068577036
0.026068553 -0.3923549 -0.03574227 0.07317451 0.027330061 0.09517376 0.21013223 -0.18241094
-0.03335969 0.11913791 -0.1823245 0.0097917775 0.09840025 -0.03395432 0.006006381 -0.3371661
-0.05507297 -0.06219644 -0.013006472 -0.034151867 0.05337489 -0.19457625 0.08913947 -0.10278072
-0.078663744 0.0076161404 0.10385276 -0.051431406 -0.025957692 0.14114685 0.023268592 0.0026186644
-0.18020807 -0.016454132 -0.1747443 0.14728124 -0.037194174 0.007672532 0.21303213 -0.01228891
0.11872572 0.08615661 -0.16572662 -0.027024888 0.10223538 0.0064538815 -0.05880546 0.071888834
-0.09963418 0.072364554 0.01723644 -0.1761853 -0.01797437 -0.10318758 0.024184527 -0.05450824

lstm.weight_hh_l0 f4 [200, 50]
00000000: 32eb e53d 4463 71bd 5f79 a53d 0557 5b3a
00000010: b249 d13d 8e78 2fbe 8ae2 413e 14c5 06bc
00000020: 0f9e 73bc cb07 0cbe 5dd8 a2bc 5448 abbe
00000030: 23d8 d1bd 7163 ddbc 779d a13d cae2 debe
00000040: 91fe 34be 2bd6 b03d 974b be3e f4d8 b3bd
00000050: 02cd 22be 69cf 033e a194 4f3e 8853 953c
00000060: 8cae 12be 7562 91be 919e f93d 8f99 7c3e
00000070: f910 863e 6d15 d43d 8d7f 94be 0f68 f8bd
00000080: c65a b73c c073 ab3e 2313 a5be 637f 133e
00000090: 7a69 e93d 44a4 393e 3dc0 76be 6431 7b3d
000000a0: 709f 383e 9410 123e 07c6 b23e 0536 813d
000000b0: 2d8e 153e 0402 893e cf2b 433d a4ec 10be
000000c0: 53a1 d9bd 6912 2e3e ccf9 84bd 4c00 09be
000000d0: b3de 18bd 06ce d43d 58b6 16be c062 cfbc
000000e0: fa43 273e 6a24 533b b6fd 133d 4fa3 a33c
000000f0: df5a 043d 5876 2fbd 3b78 83bd a28d 88be
00000100: c697 293e 5d2b 963e 5437 333e 1e30 2c3c
00000110: f905 2a3e 37f8 b53d 6be3 18bb 2602 a5bc
00000120: 9c49 273e b495 7c3e f66f 8bbe 0128 b7be
00000130: 4ae2 a33e 67cf 23be 9660 82be 0483 69be
00000140: c7cb 59be 426f e1bd 0032 103d f6ac 68bd
00000150: 7ebf e43d f485 933b cf8f c1bd 6444 60be
00000160: 9718 08be 1b11 26bc 979f 8cbe 8f97 cb3c
00000170: cc8c 0d3e 354a b33d 3534 8bbb af44 54bd
00000180: 611f 873d 29e1 a6bd 19a8 bcbd 74c4 11be
00000190: d31c 923e c80e f3bd f66a 913d c2c6 8a3d
000001a0: 7cf0 e73d e0fa 83bd 6be8 91bd d7d9 17be
000001b0: a238 a73d 9ea5 bb3d b778 85be 948b cf3c
000001c0: 6119 3cbe 0ee5 0d3e dfa0 06be b37f 7cbd
000001d0: 680f c3be 5a45 ce3e 3372 c03e 4ecc d73d
000001e0: 098c 5abe 365c b7bc 5c97 923e 0ca0 2abe
000001f0: 6c89 3c3e 0075 ccbe 6666 1cbd 643c bd3e
00000200: d280 2dbd ec07 3a3d c43d 313e 89dc 2c3e
00000210: b208 a03d 09fc e5bd f12b c13d 4ef9 083e
00000220: 9fea 613e be1d 923d 51b5 fb3c 6081 0a3e
00000230: b478 8c3d 0014 363e 1b1a 6ebe 430f 723e
00000240: b011 48be b516 bebd 78ee 063e 38a6 16be
00000250: e99a 033e b342 643e bafc 373e 7e5c 1bbe
00000260: 4a16 5fbc 2cbf 813d 08c2 86be e920 dcbc
00000270: 1172 8fbd 4878 f6bc 6887 ec3c 8917 5e3e
00000280: af2b 08be 1a30 9c3c 916c 973d cc2b 1dbe
00000290: dbfb 69bd f2b6 2e3d 35d4 aabc dbc3 863d
000002a0: f603 033e 5dfe 8abd 611c 8bbc af58 3abd
000002b0: 6ee1 2c3c 9a3c 743d db03 533e 6c86 5dbe
000002c0: 96c9 f73c c07c 9c3d 70aa b1be 4e70 c2bd
000002d0: 6756 dcbd 0dbb 80be 2dc1 b63a b213 7c3d
000002e0: 1285 553d 357a e73d e605 b53d 3383 773d
000002f0: 2409 023c 3ee0 d8bd f175 73be 91d9 55ba
00000300: 7185 b4be 0927 b1bd 7584 fabc 21c1 d23d
00000310: 9655 17be 82b0 05be 4423 85bd 04f3 46bd
00000320: de02 7e3e bf7a 9dbc 9af8 c8bd 88c4 f93d
00000330: b380 39bd de22 8cbd 40ef 05bf a9fe 5bbe
00000340: 4032 a2bc a686 8e3e f026 34be 2cf2 cb3d
00000350: 24df 34bd f5e1 8dbc ea82 613d e835 8dbe
00000360: 89b8 a4bd cbee 62be 4017 cd3d 2244 c0ba
00000370: a511 c1bb 434b 7e3d 6217 9b3d 991d aa3d
00000380: d388 e23e f30b 5abd 28f6 3b3d bdc2 2c3e
00000390: 95ef bb3e b1ba e83c cff7 1f3d c511 d2bd
000003a0: d3ec 173e 29ac cebd 8ae8 173e 0587 843e
000003b0: 53af 0a3e 6409 4c3e a9c8 403e 2e51 383c
000003c0: b07e 2fbe 8306 08be 72c0 14be c3c5 d8be
000003d0: 0a0f 733d 44b0 ccbd 7132 233e effd 1fbe
000003e0: 08a4 afbd 1eb4 e23c 9626 913e 5c38 5dbe
000003f0: 7cb1 fbbd 080b ea3c 78bb 213e d3c5 3bbd
0.112265006 -0.058932558 0.0807979 0.0008367154 0.102191344 -0.17135832 0.18934074 -0.008225698
-0.014869227 -0.13674848 -0.01987856 -0.3345362 -0.10246303 -0.027024956 0.07891362 -0.435324
-0.17675234 0.08634599 0.37167045 -0.08781615 -0.15898517 0.1287209 0.20271541 0.018228307
-0.14324397 -0.2839543 0.12188447 0.24667953 0.26184824 0.10355649 -0.29003564 -0.121292226
0.022382151 0.33486748 -0.32241163 0.14404063 0.11397071 0.18129069 -0.2409677 0.0613264
0.1802957 0.14264137 0.34916708 0.063091315 0.14605017 0.2675935 0.0476492 -0.14152771
-0.10626473 0.1699921 -0.064929575 -0.1337902 -0.037321758 0.10390858 -0.14717996 -0.025315642
0.16334525 0.003221775 0.03613063 0.019975333 0.032313224 -0.04283747 -0.064194165 -0.26670557
0.16561803 0.2932996 0.17501575 0.010509519 0.16603841 0.08885234 -0.002332891 -0.020142626
0.16336673 0.24666482 -0.27233857 -0.35772708 0.32008582 -0.15997086 -0.25464314 -0.22803885
-0.21269141 -0.11007549 0.035203934 -0.056805573 0.11169337 0.0045020524 -0.094512574 -0.21901089
-0.1329063 -0.010135914 -0.27465507 0.024852542 0.13823241 0.08754388 -0.004248167 -0.051823314
0.06597782 -0.08148415 -0.092117496 -0.14235097 0.28537616 -0.11868054 0.07100479 0.06776191
0.11325166 -0.06444335 -0.07124408 -0.14829193 0.08165099 0.09162448 -0.2606866 0.02533511
-0.18369056 0.13856909 -0.13147305 -0.06164522 -0.38097692 0.40287286 0.37587127 0.10537015
-0.21342482 -0.022382837 0.28631103 -0.16662616 0.18411797 -0.39933014 -0.038183592 0.36960137
-0.04235918 0.04541771 0.17308718 0.16881002 0.078141585 -0.112297125 0.09432209 0.13376352
0.22062157 0.07134579 0.030726107 0.13525915 0.0685896 0.17781067 -0.23252146 0.23638634
-0.19537997 -0.09281675 0.13176906 -0.14711845 0.12852062 0.22291069 0.17967501 -0.15172002
-0.013616154 0.06335291 -0.2631991 -0.026871162 -0.07004178 -0.030086651 0.02887316 0.21688665
-0.13297914 0.019065905 0.07393754 -0.15348738 -0.057124954 0.04265494 -0.020853141 0.06580325
0.1279448 -0.06786797 -0.016981306 -0.04549473 0.0105517935 0.059628107 0.2060694 -0.21633309
0.03024749 0.07640982 -0.34700346 -0.09494077 -0.107586674 -0.25142708 0.0013943069 0.06154222
0.05212886 0.11302606 0.08839016 0.060427856 0.00793675 -0.10589646 -0.2377546 -0.0008157725
-0.35258058 -0.086500235 -0.030580739 0.10290743 -0.14778742 -0.13055614 -0.06500867 -0.0485716
0.24805781 -0.019223569 -0.09813042 0.121956885 -0.045288753 -0.06842588 -0.5231819 -0.21483864
-0.019799352 0.27837104 -0.17592978 0.099583 -0.044158116 -0.017319659 0.05505649 -0.2758019
-0.0804301 -0.22161405 0.100142 -0.0014668743 -0.005891996 0.062083494 0.07572819 0.083064266
0.44245014 -0.053234052 0.04588905 0.16871162 0.36706224 0.028409334 0.039054688 -0.102572955
0.14836435 -0.10091431 0.148348 0.25884262 0.13543443 0.19925457 0.18826546 0.0112498235
-0.17138171 -0.13283734 -0.14526537 -0.4233838 0.059340514 -0.099945575 0.1593721 -0.15624212
-0.08576208 0.027673777 0.2834975 -0.2160353 -0.12289712 0.028569713 0.1579417 -0.045842957

lstm.bias_ih_l0 f4 [200]
00000000: b5b9 11be a1ae 053d 0910 78bd d4de 00be
00000010: 429e 133d 312a 64be 0ff7 2f3e 4f84 2ebe
00000020: 89eb 24be 0574 6e3e 1b41 db3e 6e98 403c
00000030: 0073 ce3c c93c ae3c 6408 95bd c060 10be
00000040: 642f 58bd 276e 243e 33e3 383e b821 9dbb
00000050: 457d 493e b80b a83c b70c e53d 2e3b 43be
00000060: 8e05 da3d 1bdc c23e d6ac 6b3e 9304 c2bd
00000070: ee10 693c fcd3 2cbb ac55 62bd 0858 59bd
00000080: 87e7 92bd c632 e5bc 72fc df3d dab7 5c3e
00000090: 5c5b 833e 6dd5 a0bd 7428 50bd 9ece fdbd
000000a0: c91d 233e 31d7 a1bc 622a fd3d 2ffa 393d
000000b0: 9d85 59be 2825 9fbd e7e5 08bd 4374 13bb
000000c0: 3994 24be acf2 a5bd 028b dbbd e717 2b3c
000000d0: 8c0d 0f3e 7b2a a4bb 52e7 0b3b 6906 ff3d
000000e0: ad30 bfbd 25ed 1f3b 2ade 55bc d978 89be
000000f0: ffa8 aabe 191e 0bbe a1f3 7c3d 4f38 abbd
00000100: 1234 5b3d 7ca3 5bbc bb9e f7bc 3f95 d2bd
00000110: 5643 6cbc d8ed 463d 572d 873d fa4d 30bd
00000120: 7ef0 bebd c14b 553e eb35 a2bd e492 45be
00000130: 5773 85bc 6c63 edbd 4854 17bd e4ca 49be
00000140: eb9b e8bb 1c72 81be d316 57be 904d df3c
00000150: eb73 283c 9944 b0bd 293d 86bc 0e58 00be
00000160: cf57 6dbd 8602 78bd 3849 0fbe f331 1cbd
00000170: c9eb 79be 231a 72bc cb38 593d f5ca 893b
00000180: 000e 3e3d e5bf e1bd c3fe 223e 9b41 413e
00000190: 846e 6d3d c202 0cbe da21 f1bc da5a 373e
000001a0: 2c66 14be c640 b33d 2d90 08be 2e91 783d
000001b0: 2d88 ddbd 9676 07bc ef77 1ebe 2e95 50be
000001c0: 2b80 fdbd 728a aa3d 4194 6dbd 10f3 233e
000001d0: ba63 b3bd 4ddc 6c3d 1a18 c63b aec2 febb
000001e0: 0282 2e3c 3426 4fbe cfbf df3d 9bc2 30be
000001f0: 7ab5 c53d 9249 2fbe eec6 b23c aee7 d23d
00000200: 3dbe a33b 451a 5139 3eb4 e43c b98a 00be
00000210: 66f1 5fbc 39be 433e 190a ffbc 9245 a63d
00000220: 16fc d7bd d410 d43d 4a63 5dbe 05c8 9bbd
00000230: 0e35 243d b148 d0bd d5c6 85bd cf22 5dbd
00000240: 1d3d 453e 6503 dfbc 8152 ec3c 8c2e b53d
00000250: 0aad 1cbc a6e7 2dbe bb3d 973d 865e 4fbd
00000260: 2e5f 02be f2a5 babc 4e4f 90bd abba a3bc
00000270: be36 693e 84ea 74bc 20ab 303e cfca 69bc
00000280: 8d5a 953e cced 37bd 96a1 ff3d 2b1f 2abb
00000290: 91a9 7abd 2d25 5a3d 01d1 e5bc c0a8 963e
000002a0: 8c64 f73d 2317 e2bd 11cc 013e 1e0a 023e
000002b0: 2da0 1a3e e87a 1dbe 5d3b 6939 5137 9a3e
000002c0: 3b67 eb3d eb25 d33d dc69 313e 52de da3d
000002d0: 6b73 c2bd bf90 a83d 52b8 22bd b7be 99bc
000002e0: 290d 2d3e 6ae0 ecbd 1c84 843e dac3 eb3c
000002f0: 05b9 34bd a3c4 e3bd ff4b 883e eae0 c13d
00000300: 8b00 fb3c a089 e5bd 165f 37bd dea6 6dbe
00000310: d03f 243d a48e e0bd 5a00 48be 1d8b 06be
-0.14230998 0.032637242 -0.060562167 -0.12585002 0.0360396 -0.2228172 0.17184089 -0.17042659
-0.16105475 0.23286445 0.4282311 0.011755092 0.02520132 0.021269219 -0.07276991 -0.14099407
-0.05277957 0.16057645 0.1805542 -0.0047952794 0.19676693 0.0205134 0.11184066 -0.19065544
0.10645591 0.38058552 0.2301515 -0.09473529 0.014225228 -0.002637147 -0.055257484 -0.05306247
-0.071730666 -0.027978312 0.10936822 0.21554509 0.2565564 -0.07853208 -0.05081983 -0.12392925
0.15929331 -0.019755932 0.123615995 0.04540461 -0.21242376 -0.07770759 -0.033422377 -0.0022499717
-0.16072167 -0.081029266 -0.10719873 0.0104427105 0.13970011 -0.005009947 0.0021347594 0.124523945
-0.09335456 0.0024402824 -0.013053456 -0.26850012 -0.3333206 -0.135857 0.06175578 -0.083603494
0.053516455 -0.013405677 -0.030227056 -0.10282373 -0.014420351 0.04856667 0.06600445 -0.043043114
-0.09323214 0.20829679 -0.0792044 -0.19294316 -0.01629035 -0.11591229 -0.03694561 -0.19706303
-0.007098665 -0.2528237 -0.210048 0.027258664 0.010281543 -0.08606834 -0.016386585 -0.1253359
-0.05794507 -0.06054928 -0.13992774 -0.038133573 -0.24406351 -0.014776739 0.053032678 0.0042051026
0.04640007 -0.11022929 0.15917496 0.18872683 0.057966724 -0.13672927 -0.029435087 0.17905751
-0.144921 0.08752589 -0.13336249 0.06068533 -0.10816989 -0.008268019 -0.15475439 -0.20369408
-0.12377962 0.083271876 -0.058002714 0.1601069 -0.08759256 0.057827283 0.0060453536 -0.0077746725
0.010651113 -0.20229417 0.109252565 -0.17261736 0.096537545 -0.17117909 0.021823373 0.10298096
0.0049970434 0.0001994158 0.027917977 -0.12552918 -0.013668394 0.19115533 -0.031132745 0.08118738
-0.105461285 0.10354772 -0.21619907 -0.0760651 0.04008966 -0.10170115 -0.06532065 -0.053988274
0.19261594 -0.027223298 0.028847935 0.08846769 -0.00956274 -0.16982898 0.07384821 -0.050627254
-0.1273162 -0.022784207 -0.07046376 -0.019986471 0.22774789 -0.014948491 0.17252779 -0.014269545
0.29170647 -0.044904515 0.12481992 -0.002595852 -0.061196867 0.05325811 -0.028053762 0.2942562
0.12079725 -0.11039569 0.12675501 0.12699172 0.15100165 -0.15378916 0.00022242726 0.30120328
0.11494299 0.10309967 0.17325538 0.106869355 -0.094946705 0.08230733 -0.039726563 -0.018767698
0.16899551 -0.11566241 0.2588204 0.028779913 -0.04412176 -0.1112149 0.2662048 0.09466727
0.030639907 -0.112078905 -0.044768415 -0.23208186 0.04009992 -0.109647065 -0.19531384 -0.13139005

lstm.bias_hh_l0 f4 [200]
00000000: c7d9 88bd 1c81 fe3a 68e7 6ebe 6cc5 3fbe
00000010: a835 533c 42e0 79be 4d13 933e 1099 28be
00000020: a972 94bd feb7 d43d 8581 333e d2a2 bbbd
00000030: 41e4 533d 3010 8a3d 0e8b 09bd d175 13be
00000040: 9a2a 913d 2801 a53e f2ca ba3d 4283 2ebe
00000050: 069a f03d 58e8 2ebd ac77 383e dc6f 34be
00000060: 2fce 843d e449 383e 487b d03d 80d1 4abc
00000070: d049 363d a791 71bd b4f0 e9bd 81ec febd
00000080: c444 85bd 72e4 3fbe af7a d13d 77d8 743e
00000090: 219e 7b3e d788 9cbd 452b 96bd bd30 7bbe
000000a0: 37a6 b43e f08b 4d3e de37 e13d b788 223d
000000b0: a812 90bd 5a24 70be 4cd6 4abc 991c 4fbd
000000c0: 7793 99bd 14de d7bd b604 e1bd 4e80 aabc
000000d0: e367 033d b7db 34bc 9f44 1dbd 8994 1b3e
000000e0: 8fa3 8bbe 353b 1cbe 64c7 b73d 7721 acbe
000000f0: aca3 bebe c61c 09be 8d99 21be e255 a7bd
00000100: f2bc b63d 9311 28bd 4b2d 18be 72c3 30be
00000110: 5f5c 8abd 3117 57be b29e 1e3e c994 173c
00000120: 71a2 9fbe 83a8 4f3e 8800 8cbe 7c89 ecbd
00000130: 1c2d 443d a7c7 2ebe 3835 083e 2a30 f8bd
00000140: d982 1c3e 67e1 40bd a923 3cbe 2c3c 12be
00000150: 6a1f a9bd 2afe 62bd ccf7 5fbe 7033 2dbe
00000160: 6d0a fc3a ee79 94bd 7f68 38bd 23a7 b3bd
00000170: 1748 e0bd c37e 20bd 3e81 943e 6fad 30be
00000180: a871 e3bd 805a 2ebe cc41 66bd 20ae ac3d
00000190: bbe4 02bd 638f 393b c560 433c 7ef9 463b
000001a0: 4de1 f4bc 5f79 2b3e 8779 16be 3a64 c53d
000001b0: 7102 43be fc19 9cbb fdc0 5f3d c358 173d
000001c0: 1354 a93d 0ef5 00be d58f 503d 275a 6f3d
000001d0: 9609 643d 555c c73d 6805 cb3c ef0c 43bb
000001e0: 6973 863d 79aa 3fbe f7c1 5bbd 7403 f0bb
000001f0: 9aa9 7ebd f8d1 6fbc 453a f93c 3cf0 c2bd
00000200: 9dd8 90bd b294 3abd dc6a 35be ea15 c7bd
00000210: d58b 9ebc b77a ac3c f671 18bd ec42 ca3d
00000220: e63b 14be 653e 433c 47a2 eebd 156c 123d
00000230: 8947 2e3d 90a9 b43d 3c26 5fbb 2a5e 1abe
00000240: a6e1 c23d 3b92 023e dbce 473e 29ee 40bd
00000250: 857e a8bd 305f 3cbe 91c0 053d 7631 ce3d
00000260: 3b78 8d3d 50b0 19bd 67ea 93bd 13ef a4bd
00000270: 2fc7 9c3e dffa 00be a40b ee3d acd2 443d
00000280: c67f 453e 20a8 47bd 81bd 29bd 65d6 4f3e
00000290: a9d1 323e 111c e23d 4fe3 123e 7a36 cb3d
000002a0: b2e6 d5bc 4b48 a9bb be69 943c 4444 13bd
000002b0: 1238 08bd 7dbb df3c ef1f 1c3e 456d bc3e
000002c0: 90eb 553e 4a57 c4bc d0e2 353e 1c6c 02bc
000002d0: 5d2a e53d 1a33 bc3d b669 c23d 765b 00be
000002e0: 4354 803e f060 29bd 9c7e 963e 39a7 2f3d
000002f0: d2ec 26bc 7bc7 073d 2c8d c93e 9882 7bbd
00000300: fbfd 303d 4d4a 9a3d 2862 173d 8a2a 73be
00000310: 8428 e13d a103 5fbe 545a 5bbd ab3d c2bd
-0.06682163 0.001941714 -0.23330462 -0.18727654 0.012891211 -0.24401954 0.28725663 -0.16464639
-0.07248432 0.10386656 0.17529877 -0.09161915 0.05173135 0.06741369 -0.03357988 -0.14400412
0.07088204 0.32227445 0.0912074 -0.17042258 0.11748128 -0.04270205 0.18014401 -0.17620796
0.06484639 0.17996937 0.10179764 -0.01237905 0.044503987 -0.058976796 -0.114228636 -0.12447453
-0.065072566 -0.18739489 0.10228478 0.239107 0.2457204 -0.07643288 -0.07332472 -0.24530311
0.35283062 0.20072913 0.10996984 0.039681163 -0.070348084 -0.23451367 -0.012380194 -0.050564382
-0.0749883 -0.10540405 -0.10987227 -0.020813134 0.032081496 -0.011038712 -0.03839552 0.1519338
-0.27273223 -0.1525696 0.089735776 -0.33619282 -0.37234247 -0.13389882 -0.15781231 -0.08170678
0.08922757 -0.041032385 -0.14861028 -0.17262056 -0.067559 -0.2100494 0.15490225 0.009251782
-0.3117862 0.20279126 -0.27344155 -0.115496606 0.047894582 -0.17068349 0.13301551 -0.121185616
0.1528429 -0.04708996 -0.18372978 -0.14280766 -0.08257945 -0.05541817 -0.21871871 -0.16914153
0.0019229181 -0.07249819 -0.04502153 -0.08772113 -0.1095125 -0.03918339 0.29004854 -0.1725366
-0.111056626 -0.1702671 -0.056215093 0.08431649 -0.031956416 0.0028314225 0.011924927 0.0030361111
-0.029892588 0.16745518 -0.14694797 0.09638257 -0.190439 -0.0047638398 0.054627407 0.036949884
0.08267989 -0.12593481 0.05091842 0.058435585 0.055673204 0.09734408 0.024782851 -0.0029762348
0.065649815 -0.18717374 -0.053651776 -0.0073246304 -0.062173463 -0.014637463 0.030423293 -0.09518477
-0.07072566 -0.045551963 -0.17716545 -0.09720977 -0.019353786 0.021054609 -0.037218057 0.098760456
-0.14475974 0.0119167315 -0.11652046 0.035747606 0.04254869 0.08821404 -0.003404989 -0.15074983
0.09515695 0.12751095 0.19512503 -0.047102127 -0.08227257 -0.18395686 0.03265435 0.10068028
0.06907698 -0.03752166 -0.07222443 -0.08053412 0.30620715 -0.125957 0.11623314 0.048052475
0.19287023 -0.04874432 -0.04144049 0.20296629 0.17462792 0.110405095 0.14344524 0.099225
-0.02611098 -0.0051660887 0.018116828 -0.035953775 -0.033256598 0.027311081 0.15246557 0.36802116
0.20890641 -0.023967404 0.17762303 -0.007960346 0.11189721 0.09189434 0.09492819 -0.1253489
0.25064287 -0.041352212 0.2939347 0.042884085 -0.010188298 0.033149224 0.39365518 -0.06140384
0.043210965 0.07533703 0.036958843 -0.23746696 0.10994056 -0.21778728 -0.05355294 -0.094844185

lstm.weight_ih_l1 f4 [200, 50]
00000000: e14b 983d 586f 3ebd b4fa 573e b78c a93d
00000010: eb46 15be f51f 14be 80b9 3d3c 9d2a b0bc
00000020: 9c87 af3d dbb4 b1bd 8077 7b3d cade 14be
00000030: 2743 15be d6a1 b83c a15a 433d de05 70bc
00000040: d2ba 4abd ecfb 293d 82cb 903d 1abc b3bd
00000050: 48ac 233e eb3a e53d f2b3 f7bd c7a7 b53c
00000060: bf85 b8bd a0e6 40be a9c9 373d 19c8 443d
00000070: 027b 293d 1316 1abd b1e0 f63d 67b5 34bc
00000080: 7a98 b0bd c337 90bd 430d f0bc 0a7f bf3b
00000090: 9bff 0e3e 5c4c 03be e4fa 493e 6762 41bd
000000a0: b2dc 18be 54df c3bb 2a0e 54be 8c99 9ebc
000000b0: d96f 94bd 4055 8b3d fb42 b13b 7567 babd
000000c0: d7d7 253d bfb4 1f3e f37f 83bd 22c0 84bd
000000d0: 8d5e 9a3d cdae 74bc b8c1 8fbd 1b23 50bc
000000e0: 1b89 9f3d e9b1 fcbd 18f9 63be 148e 59be
000000f0: cabf 113e 7f3a 9bbe 3093 0f3e cd49 ed3c
00000100: 3b0a 48be 4b9e 23be 5e37 a13e c2cd 493d
00000110: dae0 1f3d 5ec3 023e cb11 1d3d dba8 f9bc
00000120: 4c3b f33c 441c 6d3d fe3c fcbd 4201 6cbe
00000130: cc13 8e3e 5f25 febe 26c7 64bd 84c2 62bd
00000140: 2e46 b43e 59bf 10be d1c7 b93d 8a22 7dbd
00000150: fed2 8c3e 43b5 f63d 0aea bfbd 0007 843d
00000160: 3148 e53d 2282 e8bd 7bbc e9bd 2011 61be
00000170: 6dd7 173d 8e9d 46be c671 d7be 0a44 4a3d
00000180: d79a c63d 8897 75be cb96 a33d cdfd b83c
00000190: 54fc cebd 3906 d0bd c03e b2bc 053e 65bd
000001a0: 28de 54be de69 343e b727 4f3e 00b8 38bd
000001b0: 031c 0f3e 9388 233e b9f0 b1bd a846 473b
000001c0: 6b48 6c3d 6469 63bd cb0c ae3d 9c42 903c
000001d0: 6123 7a3d d4f7 403e c2a4 2a3c 3c04 9d3d
000001e0: d5ad e63d 0a60 8d3e 9acb 633d 4a58 d8bd
000001f0: 0956 c7bd 9150 e2bd 850c e33c 1caa 303d
00000200: 5fdc 6cbe 78d0 a3bd e3ff f23c e4c3 a83c
00000210: 9371 65be 4a93 a93a 2201 c7bd 546f 0dbd
00000220: fde0 62be ba5c 45be 1a7f 143e 38ad e13c
00000230: 8a7d d63d a6fd b03d 45f4 943c afef e3bd
00000240: 9b12 2e3e 5be3 9c3d e910 5eba d0a4 a43d
00000250: 5d97 61bd fc4c fc3b 3527 ccbc 5f5f 2a3c
00000260: 1db5 27bd 3b18 0c3e b9a7 c93d c785 01be
00000270: eacb a9bd 72ec f4bd 0e58 6fbd 7b09 d63d
00000280: 56f6 a0be 5618 ca3d 8e9c c5bd 177a 9fbc
00000290: a581 fe3d 058d 133e 0fb6 c23d 5f75 c1bd
000002a0: 82be 113d 9397 9dbc eab6 cabc eabf fe3d
000002b0: fb32 893e 8906 93bd 2b9a a33d 03e8 74be
000002c0: ad21 373e 59e7 90bd de16 96bd 2ded 99bd
000002d0: 6891 e43d dfa3 0a3d e5e3 0e3c b2f7 aabd
000002e0: 0515 033e a91c 71bc 5dcd 65be 261f 933d
000002f0: 02f8 2cbd 204f 06be 78e6 4d3d 563a 873d
00000300: c6c9 143d d008 e2bb 0afc f4bd 46ab 33bd
00000310: 4048 293e 9197 103d 1a07 863d 1514 1cbe
00000320: 3a37 40bd 3f49 98be 5e6a bb3d 4b91 34bd
00000330: 13f0 d73d 9889 1b3d 5668 543e 84f2 1bbe
00000340: 4587 453e 3c2d 273d cc28 0bbe a785 34be
00000350: 3522 4f3d 2905 2f3d e3f4 7a3d fdc4 c7bd
00000360: 2706 a9bd 8e85 683d 70c7 593e acec b5bd
00000370: 91b0 993e b080 8e3e 89c2 f23c 5528 9cb9
00000380: 8f29 273e 460f 39bd 18ff 093e 23bc 74be
00000390: 08d0 3abd ded0 16bd 74a9 513e 6b50 093e
000003a0: 9d94 373c c663 aa3d 6ae0 983b 7719 373e
000003b0: 78b1 263d e675 2b3c f1af 7f3c f89f dfbc
000003c0: 2fbf d8be 822b a0be 580a 873e 17c0 e9bd
000003d0: 672a bb3c 7a38 483d 743b e0bd 5d15 e43d
000003e0: 4535 153e ed8b 123e e329 03bc 45a3 8a3c
000003f0: 7c97 45be 7ffa 5b3d b029 e53e 60b9 46be
0.07436348 -0.046492904 0.2109173 0.08278792 -0.14577834 -0.14465316 0.011579871 -0.021504695
0.08570787 -0.086770736 0.06139326 -0.14538112 -0.14576398 0.022538107 0.047693852 -0.014649836
-0.049494572 0.041500017 0.07070066 -0.08776112 0.15983689 0.11192878 -0.12094869 0.022174729
-0.09009885 -0.18837976 0.044870052 0.04804239 0.041377075 -0.037618708 0.12054575 -0.011029578
-0.086228326 -0.07041886 -0.029303199 0.0058440017 0.13964693 -0.12822098 0.19724613 -0.047212984
-0.14927939 -0.0059775505 -0.20708528 -0.019360326 -0.07247896 0.068033695 0.005409596 -0.09101764
0.040489044 0.15596293 -0.06420889 -0.06481959 0.075375654 -0.014934254 -0.07019371 -0.012703682
0.07789823 -0.12338621 -0.2226299 -0.21245605 0.14233318 -0.30318066 0.14020991 0.028965855
-0.19535153 -0.15978353 0.31487554 0.04926849 0.039032795 0.12769839 0.038347047 -0.030476024
0.02969136 0.057888284 -0.12316321 -0.23047355 0.2774948 -0.49637887 -0.055853985 -0.055361286
0.35209793 -0.14135493 0.09071315 -0.061800517 0.27504724 0.12046292 -0.09370811 0.06446648
0.1119541 -0.11352946 -0.11412903 -0.21979189 0.03707068 -0.1939604 -0.4207899 0.049381293
0.09697502 -0.23983586 0.07987746 0.02258196 -0.101067215 -0.10157437 -0.021758437 -0.05596735
-0.20787871 0.1761851 0.20229994 -0.04509735 0.1397553 0.15970068 -0.08688492 0.0030407105
0.05768625 -0.05552043 0.08498534 0.017609887 0.061068896 0.18844539 0.010415258 0.07666823
0.112636246 0.27612334 0.05561409 -0.10563715 -0.09733207 -0.11050523 0.02771593 0.04313098
-0.2313094 -0.07998747 0.029663032 0.02060122 -0.22406606 0.0012937572 -0.09717013 -0.03453
-0.22156139 -0.19273654 0.1450161 0.027548417 0.104731634 0.086421296 0.018182883 -0.111297004
0.16999285 0.07660552 -0.0008471148 0.08039248 -0.055075992 0.007699607 -0.02492104 0.010398715
-0.040944207 0.13681118 0.09846444 -0.12648688 -0.08290847 -0.11959161 -0.058433585 0.10451027
-0.3143794 0.09867923 -0.09649001 -0.019467397 0.124270715 0.14409263 0.09507381 -0.09446215
0.035582073 -0.019237315 -0.024745423 0.124389485 0.26796708 -0.07178981 0.079883896 -0.2391663
0.1788394 -0.07075376 -0.0732858 -0.07515941 0.111605465 0.033847686 0.0087213265 -0.083480254
0.12800987 -0.014716306 -0.22441621 0.071836755 -0.042228706 -0.13116121 0.05026862 0.066029236
0.03632524 -0.006898023 -0.11962135 -0.04386451 0.16531467 0.035300795 0.06544323 -0.15242036
-0.04692767 -0.29743382 0.09151147 -0.044083875 0.105438374 0.037973017 0.20742926 -0.15229231
0.19289882 0.040814623 -0.13589782 -0.1762911 0.05056973 0.04272953 0.0612687 -0.097543694
-0.082531266 0.056767993 0.21267486 -0.08883032 0.30017522 0.27832556 0.029633777 -0.00029784688
0.16324447 -0.04518058 0.13476217 -0.23899893 -0.04560855 -0.036820285 0.20474797 0.13409583
0.011204866 0.083198115 0.004665424 0.17880808 0.04069659 0.010465121 0.015605913 -0.027297959
-0.42333362 -0.31283194 0.2637508 -0.11413591 0.022847367 0.048881985 -0.1094884 0.11136887
0.14571102 0.1431119 -0.008005592 0.016923556 -0.19296068 0.05370569 0.44758368 -0.19406652
