pol_models/sulphur_dioxide_model_state.pt (torch, 650624 bytes, 16 tensors)

conv1.weight f4 [64, 300, 3]
000000 02 06 ca bc 95 3c a7 3c b3 d5 98 3c 13 31 e8 3b
       -0.024661068 0.02041463 0.018656587 0.007085928
000010 0b 2e 95 3c 7c 75 9c 3c 29 1e 8f bc 62 c4 06 bd
       0.018210432 0.01909899 -0.017470436 -0.03290213
000020 a1 9f 8c bc a9 d0 13 bc 39 fa b6 bb 54 83 c1 bc
       -0.01716596 -0.009021916 -0.005584028 -0.023622192
000030 06 5d f9 bc 65 c6 58 bc 88 31 25 bc ea ca e1 3b
       -0.030439865 -0.013230895 -0.01008261 0.0068906443
000040 9a 4d fa bc 40 8b f4 3b 32 f5 ca 3c 4a 75 a0 3c
       -0.030554581 0.007462889 0.024775121 0.019587178
000050 bd 69 db 3c 17 90 b3 3a c8 17 ed bc db b2 98 bc
       0.026783818 0.0013699558 -0.028942004 -0.018639972
000060 49 23 10 bd e0 3c 92 3c 8b 5d c0 bb 8b 4c a4 bc
       -0.0351899 0.017851293 -0.005870526 -0.02005603
000070 d5 f0 cf 3c cd a9 c3 bc 39 b2 ad 3b ed 49 e1 bc
       0.025383392 -0.023884678 0.005300787 -0.02750107
000080 9d df 8e 3b 2c 17 a9 3c 9f 0a 2a bc 87 07 30 3c
       0.004360153 0.020640932 -0.010378509 0.010743982
000090 cc 9a 21 ba 49 41 aa bc 8c 11 14 bd 17 be 81 3c
       -0.0006164729 -0.020783084 -0.036149547 0.015837712
0000a0 91 6c 0f bc 3f 19 9d 3c 5c 96 49 3b cc 54 b9 bc
       -0.008753912 0.019177077 0.0030759787 -0.022623442
0000b0 4a f0 a8 3c 5c f1 c2 3c fe 55 e1 bb d1 fa 05 bd
       0.020622391 0.02379673 -0.006876706 -0.0327099
0000c0 cd 0f 36 37 d7 35 14 bd 9e 2d 1a 3c 35 07 c7 bc
       1.0851724e-05 -0.03618416 0.00941029 -0.024295429
0000d0 55 c2 d8 bc c1 d7 9c 3c 6c ae ee bb 97 2b 1a bd
       -0.026459852 0.019145848 -0.0072839763 -0.037639227
0000e0 62 6b bb 3b 7e 7e 01 bd e3 96 e5 bc 3a 94 8e 3c
       0.005719588 -0.031614773 -0.02802605 0.017404664
0000f0 17 dd 97 3c e8 be be 3c 28 c7 94 3b 55 b2 54 3c
       0.018538041 0.02328439 0.004540343 0.012981971
000100 7e 1f 12 bd 3d 1e 1a bd 1b 57 ed bc 3d dc b1 bb
       -0.035674565 -0.037626494 -0.0289722 -0.005427866
000110 27 b8 a6 3c 6b f4 dd 3c 79 c5 c0 bc 39 63 66 bc
       0.020351483 0.027094087 -0.023531662 -0.014061742
000120 52 55 ca 3c 67 54 87 bc db 3b b5 3b 69 fd 8e 3b
       0.024698887 -0.016519738 0.005530817 0.004363705
000130 42 14 bf bb 55 96 1f bb 17 9c 20 bd 60 7a 11 bc
       -0.0058312723 -0.002435108 -0.03921136 -0.008879274
000140 7b 5d 3f ba a2 f5 b3 3c 2e 42 00 bc 5d a9 c5 3c
       -0.00073000015 0.021967713 -0.0078282785 0.02412861
000150 f4 05 0c bd d3 b0 cf 3c 2f 55 00 bb be d7 02 bc
       -0.034185365 0.025352871 -0.0019582023 -0.007986007
000160 31 8e fe bc b5 c1 08 bd af bf 96 bc d1 22 13 bd
       -0.031073662 -0.03338786 -0.018401949 -0.035921875
000170 4f 29 14 bd 84 22 0c bd 1a 4b 12 bc b9 a3 7d ba
       -0.036172207 -0.034212604 -0.008929038 -0.00096755807
000180 e8 97 9b bc 46 eb fa bc 29 76 0b 39 57 ae 9a 3c
       -0.018993333 -0.030629765 0.00013300091 0.01888196
000190 ae 2d cc 3c 30 a0 dd 3c dc 05 d9 bc 8f fd fb bc
       0.024924126 0.027053922 -0.026492052 -0.030760555
0001a0 7a 9f 4d 3c d5 ff 57 3c 93 5c 6d 3c 69 95 b1 3c
       0.012550229 0.013183554 0.014487403 0.02167769
0001b0 ce 3d 26 3c 8d d2 c1 3c 06 98 c5 3c 3c 5b 7b bc
       0.010146571 0.023659969 0.024120342 -0.015341576
0001c0 36 52 e4 bc 55 db 23 3c c1 83 e6 bb 36 5e 8f 3c
       -0.027871232 0.010001023 -0.0070347493 0.017500978
0001d0 45 4b 0d 3c b2 9f 1e bc 56 9b 0f bd f8 f9 08 bd
       0.008623903 -0.009681629 -0.03506025 -0.033441514
0001e0 13 8b 92 b9 d4 18 7e 3c c4 68 67 3c 12 46 f0 bc
       -0.00027950908 0.015508849 0.014124099 -0.029330287
0001f0 36 0a e7 bc 05 8d 0d bd 04 a2 87 3c 55 bf 92 bc
       -0.028203111 -0.034558315 0.016556747 -0.0179135
000200 73 80 f3 bc e8 2e 70 bb 52 10 b4 3c 53 6a 15 bd
       -0.029724335 -0.0036649052 0.021980438 -0.03647835
000210 24 f2 e4 bc a6 fe 8e 3a 31 58 b1 b9 3f 8d 01 bb
       -0.027947493 0.0010909631 -0.00033825779 -0.0019768027
000220 e3 39 dc 3c 33 86 bd bc 58 c1 44 3c cc 04 7f 3c
       0.026883071 -0.02313528 0.012008987 0.0155651085
000230 5b 75 a3 bb eb 9c 2f 3c 67 c2 3d bc 56 f8 56 bc
       -0.004988355 0.0107185645 -0.011581994 -0.013120731
000240 b9 0a 37 3c 4f 32 6f 3c dd ec 4a 3c f6 62 1e bd
       0.01117199 0.014599397 0.012385574 -0.038668595
000250 80 6c 12 bd 37 01 db bc 0f 5a f0 bc 90 06 10 3c
       -0.035748005 -0.026733978 -0.029339818 0.008790627
000260 28 71 04 3c 07 79 66 3c b2 4c 34 3c d8 26 04 3c
       0.008083619 0.014066941 0.011004614 0.008065902
000270 71 7f 15 bd 18 3d 04 bd f8 9f dc 3b 61 10 dd 3c
       -0.03649849 -0.032284826 0.006732937 0.02698535
000280 00 62 58 3c 0b 10 9b bc dc b3 14 3c a8 d6 ab 3c
       0.013206959 -0.018928548 0.009076085 0.02097638
000290 3f fe 8c 3c f5 d4 c6 3c 53 b4 af 3c a0 4c 5e bc
       0.017211078 0.024271468 0.02144829 -0.0135680735
0002a0 ee 32 92 3c 5a 31 47 3c 8f c4 78 bc e9 15 ca bc
       0.01784655 0.012157762 -0.015183582 -0.02466865
0002b0 be 60 d6 3c 72 7f b1 3c 22 fb 1f bd 58 a9 6c 3c
       0.026169177 0.021667216 -0.03905786 0.014444672
0002c0 63 d1 a4 bb 02 86 3f bb ab 8f b1 3c 5c b8 5e 3c
       -0.0050298437 -0.0029224162 0.021674952 0.013593759
0002d0 01 81 b1 bc 1c bb dc bc d7 58 a0 bc 55 28 9a bc
       -0.02166796 -0.02694469 -0.019573612 -0.01881806
0002e0 1b b7 d5 b9 47 0b 10 bd d9 9d a3 3b 57 3b 82 bc
       -0.0004076295 -0.035167005 0.004993182 -0.015897436
0002f0 82 6f d8 b8 bc 55 61 3c cd be d7 3c e8 c2 63 bb
       -0.000103204526 0.013753351 0.026336098 -0.0034753624
000300 a1 73 c3 ba 11 c8 07 bd c9 3e f0 bb 79 b7 81 bc
       -0.001491178 -0.033149783 -0.0073317033 -0.015834557
000310 f0 9d 0e bd df 32 d1 bc 5c 6b a6 bc b9 11 0c bd
       -0.03481859 -0.025536953 -0.020314865 -0.03419659
000320 e2 2c c0 bc 70 2b c6 bc 87 65 ec bc f2 5f 0f bd
       -0.023458902 -0.024190634 -0.028857006 -0.03500361
000330 b8 9e 27 bb 6d 87 7f bc 35 46 ff bc 9d 8a c6 bc
       -0.0025576781 -0.015596253 -0.031161407 -0.024236018
000340 c6 d9 f6 bc 57 ad 98 3c e7 27 c0 bc 5f 2c 60 3c
       -0.03013314 0.018637342 -0.023456527 0.013682454
000350 78 11 2c bc 35 16 8b bc c6 36 b4 bc 54 fe 4f 3c
       -0.010502212 -0.016978363 -0.021998774 0.012694914
000360 3a ac 65 bc bc ed 24 3b 97 8e eb bb d5 ac da 3b
       -0.014018113 0.0025166115 -0.007188629 0.006673435
000370 3a ac 7e bc 71 93 f1 bc 0e 54 1d bc 6d 4f a5 ba
       -0.015543992 -0.02948925 -0.00960256 -0.0012612172
000380 38 bf fd bc 1f ee 77 bc 15 2b c2 bc be ed 2e 3c
       -0.03097497 -0.015132456 -0.023702184 0.010676799
000390 76 c4 24 3b 1b 48 b2 3c cb 1a 8d bc 03 b9 7c 3b
       0.0025141514 0.021762898 -0.01722469 0.0038562424
0003a0 30 de eb bc 66 d0 b7 bb 39 4f 89 bc 44 91 1f bd
       -0.02879247 -0.00560956 -0.01676141 -0.038956895
0003b0 16 d7 98 bb f9 8b 5c bc 33 d7 f5 3b c3 f2 2a bc
       -0.004664312 -0.013461106 0.0075024604 -0.0104338555
0003c0 fa 00 84 3c ce 9a 5c 3c 15 02 cb bc 89 05 b5 bc
       0.016113747 0.013464643 -0.024781266 -0.022097366
0003d0 18 78 ee bc 30 60 84 3c 5b 82 a0 bc 8d 97 c0 bc
       -0.02911 0.016159147 -0.019593408 -0.023509765
0003e0 29 fd 77 3c e8 83 71 bb 1a d5 be 3c 1c b2 1e bd
       0.015136042 -0.0036852304 0.023294974 -0.038744077
0003f0 47 6a 45 3a 0e b3 0b bd 31 a5 1a bc 21 1e f1 bc
       0.000753079 -0.034106307 -0.009438799 -0.029433312

conv1.bias f4 [64]
000000 21 52 af bb 7f 7d 99 bc 6b 43 00 bd e7 89 3e be
       -0.0053503667 -0.018736599 -0.031314295 -0.18607293
000010 fb ea 09 be fb 25 b1 3c 3e d6 a3 3c 0b a1 f8 bb
       -0.13468544 0.021624556 0.01999962 -0.007587557
000020 57 8c 3d be 80 cb d5 3b 39 87 7b be df 71 3b be
       -0.18510567 0.006524503 -0.24563302 -0.18305157
000030 da 11 b1 bc ca 52 90 3c ef 57 6c be fe f5 93 3c
       -0.021614958 0.017617602 -0.23080419 0.018061634
000040 95 c3 81 3c c2 99 ad 3c d0 0c 9d 3c 40 fe 95 bd
       0.015840331 0.021191482 0.019171149 -0.07323885
000050 cc 62 f4 3b 4d f7 02 3c 82 dc 54 be b3 cc 1e bd
       0.0074580666 0.007993531 -0.20787242 -0.038769435
000060 10 9c 62 bb 70 33 da bc eb 7f 18 bd 13 5f 96 3c
       -0.0034577884 -0.026635855 -0.037231367 0.018355882
000070 d0 84 20 be 49 ac 12 be dc d3 37 be ed f4 a4 3c
       -0.15675664 -0.14323534 -0.17951912 0.020136321
000080 b5 0f 72 be 08 3d 4c bc d8 fe 58 3c 4a 78 92 bc
       -0.23638804 -0.012465723 0.013244353 -0.017879624
000090 b6 c1 a4 3c be 98 90 bc 43 cb 0b bd 07 b1 10 bc
       0.0201119 -0.017650958 -0.034129392 -0.008831269
0000a0 73 e4 8d 3b fd 6d 84 3c e2 90 e0 bc 4a 5c d4 bc
       0.004330212 0.016165728 -0.027412836 -0.025922913
0000b0 54 bf 83 3c 23 4a 2a bc 5b 3c a1 bc b9 83 3c be
       0.016082443 -0.010393652 -0.0196821 -0.18409623
0000c0 4f ca bd bc 06 a0 e4 bc 45 0c 9e be 67 55 8d be
       -0.023167757 -0.027908336 -0.30868736 -0.2760422
0000d0 77 0a 92 3c ef 89 d6 3c d8 45 e7 bd 46 d8 b5 bc
       0.017827256 0.026188819 -0.112926185 -0.022197854
0000e0 55 c7 d2 bd b3 ca b6 3b b5 dc c8 bc d8 59 81 3b
       -0.10291926 0.005578363 -0.024519304 0.003947478
0000f0 bc 31 f4 3b 2a 7e e5 bc 49 dc 72 3c af c6 28 bd
       0.007452218 -0.028014261 0.014823028 -0.041205104

conv2.weight f4 [128, 64, 3]
000000 42 a7 c8 3c 13 f1 7c bd 59 fa d6 3b 09 33 40 bb
       0.024493817 -0.061753344 0.0065606055 -0.0029327294
000010 b5 2a c9 bd 23 3b 30 3c a6 6b 2a bd 7b fa b6 3c
       -0.09822599 0.010756287 -0.041606568 0.022336235
000020 af 5e 82 3c 8b 09 45 3b 39 aa 2a be 66 20 1c 3d
       0.01591429 0.0030065503 -0.16666497 0.038116835
000030 bd a1 f8 3c 44 63 1c bc 76 c5 e8 3b c4 9b ca bc
       0.03035056 -0.009545151 0.0071036173 -0.024732478
000040 66 a1 3b bd 2f a9 54 bd 4d a9 92 bd df ca da bc
       -0.04580822 -0.05191916 -0.07161198 -0.026708065
000050 ce 00 56 bd 6e 9a 79 3d 97 fc 40 3d 25 d6 5e bd
       -0.05224686 0.06093829 0.04711589 -0.054403443
000060 b2 37 53 bc 6e f1 a8 bc 13 ac 88 bd e4 93 e7 3c
       -0.012891697 -0.020622935 -0.066734456 0.028268762
000070 f7 27 72 3c 45 f9 b9 bc 8a a2 a3 bd 93 e2 f5 be
       0.014780036 -0.022701869 -0.07989986 -0.48024425
000080 26 bf 27 be 46 db 81 3b eb 26 ec be f1 ef 84 be
       -0.16381511 0.003962907 -0.46123442 -0.2596431
000090 3d 28 97 bd 5a e5 cf bb 4f 26 6d bd ed 90 36 3d
       -0.07380722 -0.0063444795 -0.057897862 0.044571806
0000a0 1a b3 0a 3d b3 8c 55 39 ee ba ed bc 98 29 d2 3c
       0.03386221 0.00020365677 -0.0290198 0.0256546
0000b0 93 c9 98 bd 2a a7 58 bd 59 40 34 bd 5e 57 3a bd
       -0.07460322 -0.052893795 -0.04400668 -0.045493476
0000c0 8c cf f3 bc 95 49 3d 3d 5e f8 f5 bc e6 61 07 3d
       -0.029762052 0.04621275 -0.030025657 0.033052348
0000d0 eb 8d f7 bc f4 be db bb 78 a1 19 3c 3b 8a 62 bd
       -0.030219039 -0.006706113 0.009376876 -0.055307608
0000e0 df d4 94 bd 71 a8 80 3d d1 8a 7c 3e b5 5f 8e 3d
       -0.072671644 0.06282128 0.2466233 0.069518484
0000f0 08 33 57 3d b3 07 8e bd 7d 55 87 bc ae ff 81 bd
       0.0525389 -0.06935062 -0.016520256 -0.06347595
000100 16 15 ee 3c 33 98 8b bd 06 a5 53 bc f6 82 d9 bc
       0.029062789 -0.06816139 -0.012917763 -0.026551705
000110 fa 2e 09 bd 2a 1e 54 bd a1 fb 63 bd a4 0b 2f bd
       -0.033492066 -0.05178658 -0.055659894 -0.04273571
000120 40 7d 40 bd 00 f8 a1 3c f0 16 8d 3c cf e7 31 3d
       -0.046994448 0.019771576 0.017222852 0.04343396
000130 7c 9a 68 3d 13 0a 2b bd 17 2e 18 3d 7d d3 d6 3c
       0.056787953 -0.041757654 0.03715333 0.026223892
000140 79 22 f9 bc 73 70 8e 3c f8 29 7f bd 19 22 e3 bc
       -0.030411946 0.017387604 -0.062295884 -0.02772622
000150 9d 6b 46 bd 0b 9d ab 3d 1d 7b 96 bc d1 d8 0d bc
       -0.04844247 0.08379563 -0.018369252 -0.00865765
000160 2c 47 85 bd de 0c 8c 3d c1 7b 09 3d 13 2d 08 3d
       -0.065077156 0.06838392 0.033565287 0.03324611
000170 26 81 ce 3d 19 68 11 bd cb 95 6e 3b 33 24 9a 3d
       0.10083227 -0.035499666 0.0036405202 0.07526436
000180 9d cf 42 bc db 7f a2 3c 77 89 ed bd 1b 72 c4 3c
       -0.011890319 0.019836357 -0.11598485 0.023980191
000190 b6 db d1 bc f4 df 20 bd dc 33 83 3c 10 2f 86 bc
       -0.025617462 -0.03927608 0.01601594 -0.016379863
0001a0 7c 17 64 3d b9 7e 11 bd f0 bf 8c bd fc ee 76 3d
       0.05568646 -0.035521243 -0.06872547 0.060286507
0001b0 9b 2c 70 3d 17 1b 4f 3d df 17 57 bd 85 07 e2 3c
       0.05863629 0.050562944 -0.052513 0.027591476
0001c0 58 1e 08 bc bd 49 be bb db 96 1d bd a2 c7 19 3d
       -0.008308016 -0.00580713 -0.038473945 0.0375439
0001d0 36 4e 89 bd e6 77 b8 bb fe 43 43 bd d9 76 8d bc
       -0.06704371 -0.0056295274 -0.047672264 -0.017268585
0001e0 1f b6 6f bd 1b b0 22 bd f6 44 a7 bc be 46 08 bd
       -0.058523294 -0.03971873 -0.020418625 -0.03327059
0001f0 55 8e 07 3c 62 4c 4d 3d 0f de d0 3c 5f ee b0 bd
       0.008273681 0.050121672 0.02549651 -0.08639216
000200 02 19 33 3c 3e cb 38 bd 50 1e 44 3c 61 a8 90 3d
       0.010931255 -0.0451157 0.011970118 0.07063366
000210 6e 70 ed bc a2 7c c0 3b 3f 1d e6 bc 2d 42 6c bc
       -0.028984275 0.0058742324 -0.028090117 -0.014420074
000220 f9 95 98 bc 44 e3 7e 3b 64 d2 56 bd e3 25 0f 3c
       -0.0186262 0.0038892785 -0.052446738 0.00873706
000230 f4 b6 59 bd dc 26 2f 3d f2 68 22 bd cc df ba 3d
       -0.053152993 0.04276167 -0.039650865 0.09124717
000240 6e 07 a8 bc 0a af 69 3d 20 10 02 3d 0f cd 4b bd
       -0.020511355 0.057051696 0.03175366 -0.049756106
000250 ab 1b 80 bb f4 5b 8d 3c e9 67 a8 3c f9 80 23 bd
       -0.0039095483 0.01725576 0.02055736 -0.03991792
000260 f4 be 2a bd d9 e7 cd 3d 29 af 4a be 73 59 3d be
       -0.041686013 0.10053987 -0.19793381 -0.18491153
000270 bd ff 0c 3d 8b 85 80 3d 7f e1 5d 3d 40 dd 9f bd
       0.03442358 0.06275471 0.054170128 -0.07805872
000280 ab 3e 2f bd 90 4c 4b 3c aa f3 9e bd 45 c3 aa 3d
       -0.042784374 0.012408391 -0.07761319 0.08338026
000290 85 0a b0 bd 59 8c 73 bc 3b 58 60 bd 9b f0 2f 3c
       -0.085957564 -0.014865004 -0.054771643 0.010738517
0002a0 01 eb 01 3d 48 3c ee 3d a6 15 d4 bd 2d 0c 0f bc
       0.031718258 0.116325915 -0.103556916 -0.00873093
0002b0 bd 55 58 3d 74 b4 03 3d 1c 1a e1 3b 78 ec 82 bc
       0.05281614 0.032154515 0.0068695676 -0.015981898
0002c0 48 b5 c2 3b d9 b6 03 3c 8d bb 2b 3d e3 0c d8 bc
       0.0059420206 0.0080392 0.04192691 -0.026373332
0002d0 cc 33 d8 bb 4c cf c5 bc 26 d7 77 bd a6 c7 93 bc
       -0.0065979715 -0.024146698 -0.060507916 -0.018039536
0002e0 6c 13 56 bd 7f d7 aa 3c 46 83 63 bc c8 5f 10 bd
       -0.052264616 0.02085471 -0.0138862785 -0.035247594
0002f0 d8 8b 38 bb b0 01 9c 3b 34 e4 75 3d a0 e5 1a bd
       -0.0028159525 0.0047609434 0.060032085 -0.037816644
000300 b3 b6 05 3c 47 16 3a 3c 1f b4 4f bd f3 c1 1b 3d
       0.008161235 0.01135785 -0.050708886 0.03802676
000310 40 a4 8a 3c dd ec b6 bd 50 12 3f 3d 13 a7 a8 3d
       0.016924024 -0.08931897 0.046648324 0.08234992
000320 97 58 a4 bc 30 fa 35 bc 19 6d a1 3d 27 78 44 3d
       -0.020061774 -0.011107013 0.07882137 0.04796615
000330 18 2e db bd 14 49 96 bd 91 fe c5 bc 59 e8 1f 3d
       -0.10702151 -0.07338157 -0.024169238 0.039039943
000340 10 71 23 3d be e8 2f 3d 42 59 85 ba aa 8c 6a bd
       0.039902747 0.04294657 -0.0010173696 -0.057263054
000350 00 7a 4e bd a9 6a 87 3d 31 a4 93 bc e0 a5 11 bd
       -0.050409317 0.06612141 -0.018022629 -0.03555858
000360 d3 08 2a bd 8a 19 44 bd f9 d0 30 3d da e4 85 3b
       -0.04151232 -0.04787592 0.04316804 0.004086119
000370 78 ad 91 3d bf 08 a2 3d 4f e8 21 3d a0 80 c2 bc
       0.07113165 0.079118244 0.039528187 -0.023742974
000380 81 00 ac 3d 40 90 01 3c bd f1 8c bd 82 10 27 3b
       0.083985336 0.007907927 -0.068820454 0.0025492017
000390 70 12 a7 bb c4 36 83 3c 16 b0 33 3c 79 2a 30 3c
       -0.0050986335 0.016017325 0.010967275 0.010752314
0003a0 df c4 ed 3b b0 37 3c 3d 94 7e 0b bd 5a 07 8f 3d
       0.007256135 0.045951545 -0.03405626 0.06983824
0003b0 94 3e e1 3c 55 f1 00 bb b9 63 99 bc 20 06 ea 3c
       0.02749566 -0.0019675095 -0.01872431 0.028567374
0003c0 6c 78 89 bc a5 98 bf bc cd 21 3e 3d c4 72 be 3c
       -0.016781054 -0.023388216 0.046418954 0.023248084
0003d0 a1 12 c1 3c 4e 40 68 3d 53 d7 9b 3d 6d e7 76 bc
       0.023568453 0.05670195 0.07609429 -0.015069825
0003e0 bf d6 9b 3d b4 3f bf 3c c1 53 ec bd 33 59 03 be
       0.07609319 0.023345806 -0.11539412 -0.12826996
0003f0 6d 0f 82 3d 76 16 2b bd b8 85 98 3d fc 22 1c bd
       0.063505985 -0.041769467 0.0744738 -0.0381193

conv2.bias f4 [128]
000000 43 73 aa 3d d9 63 33 be de d1 17 bd 33 bf 88 be
       0.08322766 -0.17518558 -0.03706538 -0.26708373
000010 b1 6e 89 bd 04 bc 2e be ca dc 13 3c 4f 66 4b be
       -0.06710566 -0.1706391 0.009024808 -0.19863246
000020 10 86 16 bd cb ff 1a be 08 9a 09 be 85 db 46 bd
       -0.036748946 -0.1513664 -0.13437665 -0.048549194
000030 d8 08 07 be a8 2b 0d be b5 88 52 be a5 39 1e be
       -0.13186967 -0.13786185 -0.20559962 -0.15451677
000040 25 10 df bd 5f 57 02 bd cc 6a 80 bd 96 0e 6d 3b
       -0.10891751 -0.031821605 -0.0627037 0.0036172024
000050 07 a8 06 be 39 df 63 be 82 4b 84 3d ed 75 78 bb
       -0.13150035 -0.22253121 0.064597145 -0.0037912086
000060 13 05 14 bb 1d 6d 2f be 88 df 8a bd 22 5c 3f bd
       -0.0022586032 -0.17131467 -0.067809165 -0.046718724
000070 4f 78 f4 3d d9 fe 2c be 37 e2 6d bd 66 e9 bf bd
       0.119370095 -0.16894092 -0.058077063 -0.09370689
000080 4b 27 3b be 1c 84 bf bd ea 86 1f be dc df 62 3e
       -0.18276708 -0.0935137 -0.1557881 0.22155708
000090 cf 87 5c bd 68 fa 9e bd 7e be a3 bd 97 7f c0 bc
       -0.053840455 -0.07762605 -0.07995318 -0.02349834
0000a0 84 c1 20 be 3e 05 5a be 45 5b 22 be 97 31 71 bd
       -0.1569882 -0.21291062 -0.15855129 -0.058885183
0000b0 5f 67 e5 bd ed 85 c1 bd 5a 4d 52 be 7e 38 42 be
       -0.11201357 -0.094493724 -0.2053732 -0.18966863
0000c0 81 e2 21 bd 8b 31 a0 3c 0f 71 80 bd 11 b0 d0 bd
       -0.03952265 0.019554874 -0.06271564 -0.10189832
0000d0 b1 a0 5e be 8c fa de 3c 3d aa 3e be af cb 8a be
       -0.21740986 0.02721908 -0.18619628 -0.27108523
0000e0 ef ad 85 bd 41 20 b2 bd 7d cf 5b be 51 e4 49 3d
       -0.06527316 -0.08697558 -0.21465869 0.049290005
0000f0 a5 f5 28 3e 5b fb 6f be 19 16 99 bd 05 d0 6a 3e
       0.16499956 -0.23435728 -0.07474918 0.22930916
000100 9f 77 41 bd be 9e 8f bd 08 e4 62 bd 3a f3 bb bc
       -0.04723322 -0.070126995 -0.05539325 -0.022943128
000110 89 cf 8c 3a 6d ae 86 bc e3 f7 3b be e4 0f 87 bc
       0.0010743003 -0.016440595 -0.1835628 -0.01648707
000120 0b 33 3e 3d fe c3 bb bd 17 58 32 bc df 14 56 bd
       0.046435397 -0.09168242 -0.01088526 -0.052265998
000130 54 36 42 be 2f db 84 bd 6b 5d 3d be 84 88 88 bd
       -0.18966037 -0.064871185 -0.18492667 -0.06666663
000140 e5 e9 22 be 0a 79 17 be ab 85 79 bb 9d e8 26 bd
       -0.15909536 -0.14792266 -0.0038074057 -0.04074918
000150 92 34 0a be 5f 16 15 be 0d 46 62 bd d5 cc 0b be
       -0.13496616 -0.14559315 -0.055242587 -0.13652356
000160 5c 58 39 bd 9f 82 5e be d4 6e 11 be f1 f6 cf bc
       -0.04525028 -0.21729515 -0.14202434 -0.025386306
000170 3b da 29 be 90 7b 36 be ae f8 d6 3d 5f 6d 0b bc
       -0.16587155 -0.17820573 0.10496651 -0.008509963
000180 21 49 30 be 82 90 ad bd 55 de 67 be 86 09 df bd
       -0.17215396 -0.08474828 -0.22643407 -0.10890488
000190 6b 24 4b be 3b cb 2e 3e ed 7b a1 3b 5a d5 3b be
       -0.19838111 0.17069714 0.004928103 -0.18343106
0001a0 ca 3d d9 bd f1 56 34 3d 60 66 77 3e b7 fc f2 bc
       -0.106074885 0.044028226 0.24160147 -0.02966152
0001b0 87 15 49 bd 1f 67 7e be d8 69 05 3d 10 2f a6 bd
       -0.049092796 -0.24844025 0.032571644 -0.08114445
0001c0 bf 55 38 bd 2b 30 00 be 7e 5f 41 be 4d d5 59 bc
       -0.04500365 -0.12518375 -0.18884084 -0.013295484
0001d0 73 98 21 bd ee 87 16 be 8c e2 45 bd 04 c2 49 be
       -0.039452028 -0.1470029 -0.048311755 -0.19702917
0001e0 fc 8c 39 3d 8b 53 9c bd 0f a3 a4 3d bb bc 2b be
       0.04530047 -0.07633122 0.080389135 -0.16771214
0001f0 6f 07 9a bd 69 1b 43 be bb 53 69 3c 75 ee 13 bd
       -0.07520949 -0.19053425 0.014241154 -0.036116082

lstm.weight_ih_l0 f4 [200, 128]
000000 14 87 c8 3d 7e c0 2b 3e 61 40 fe 3d 7d ba 66 3d
       0.09791389 0.16772649 0.12414623 0.056330193
000010 9c 81 82 3d 50 df f8 bd 19 e8 0c be a0 81 02 3e
       0.06372377 -0.121519685 -0.13760413 0.1274476
000020 ce b8 bc bd 36 fa 13 be 8c 78 f5 3c a3 c8 e1 bc
       -0.09214936 -0.14450917 0.029964708 -0.027561491
000030 2d c0 89 3d 97 59 eb bd 7f 4d ab bd ea df 5c 3e
       0.06726108 -0.11491697 -0.083643906 0.21569791
000040 4e f2 ac bc ad 6b 62 3c ef 69 9f bd f1 e4 a1 be
       -0.021111634 0.013819617 -0.07783877 -0.3161998
000050 84 cb 99 3d 12 3b 12 bd 95 25 e4 3b 22 ae 01 3d
       0.07509521 -0.035700865 0.006962488 0.031660207
000060 c3 3a 20 3e c8 f1 04 bd 4a aa 78 3d 9b e3 87 bc
       0.15647416 -0.032457143 0.060709275 -0.016588023
000070 97 75 4f 3e 1e 21 19 be 6b c6 9e bd 31 3f b1 bd
       0.202597 -0.1495404 -0.07752689 -0.08654631
000080 91 39 83 3e ae 0a 8a bd c0 49 95 3e 35 67 b7 bd
       0.25629857 -0.06740318 0.2915783 -0.08955232
000090 5f 89 61 3d db c9 8b bd 16 d0 bf bd ee 52 7b 3e
       0.055062648 -0.0682561 -0.09365861 0.24543354
0000a0 cf 3b 90 3e 57 a4 e3 bc 4a e4 e6 bd 44 fe ee bd
       0.2817063 -0.027788324 -0.112740114 -0.11669591
0000b0 af 22 bb 3e f4 47 e8 bd 19 15 80 bc e4 c3 ca 3d
       0.365499 -0.11341849 -0.01563506 0.099006444
0000c0 0b 96 0b bf 28 2e 07 3e e0 89 cc bd 4c 49 ba 3d
       -0.5452582 0.13201201 -0.09987235 0.090960115
0000d0 dc 2b 5b 3c 59 8b 16 3d 1f b5 09 be 1c 3a 13 3e
       0.013377156 0.036753986 -0.13447998 0.14377636
0000e0 02 a8 d0 3d f2 10 46 bd 72 93 c8 bc 67 ba 87 3d
       0.10188295 -0.048356004 -0.02448437 0.0662735
0000f0 a0 86 8e bd ab 22 1a 3d 43 3b 51 bd 1e fa 61 be
       -0.069592714 0.03763072 -0.051081907 -0.22068068
000100 08 95 d6 3d dc 60 19 3e d3 c1 f0 3d 10 32 aa bc
       0.10477644 0.14978355 0.11755719 -0.020775825
000110 66 53 56 bd d6 0d 2c bc 4f 03 48 3e 9c 46 4e bd
       -0.05232563 -0.010501346 0.19532512 -0.050360307
000120 a7 71 9f bd 8a c9 13 3e 61 5a 0c 3e 97 ee ee 3d
       -0.07785349 0.1443235 0.13706352 0.11666601
000130 91 90 ca bd e0 81 e3 bc 5f 86 51 bd d6 86 dd bd
       -0.09890855 -0.02777189 -0.051153537 -0.108167335
000140 3a e5 29 bd 88 07 75 bc b0 a2 81 3c 31 37 c2 3d
       -0.041478373 -0.014955409 0.015824646 0.09483183
000150 6d e6 1c 3e e1 6d a8 bd 9c 09 e2 3c 10 79 9e bd
       0.15322275 -0.08224083 0.027592473 -0.077379346
000160 fa 71 0f be a6 f0 ef bd b6 b3 ff 3d ac 73 80 3b
       -0.14008322 -0.11715822 0.12485449 0.003920039
000170 e4 cd 0d be 0a 64 9f bd 66 78 e9 3d b3 4c d2 3d
       -0.13848072 -0.07782753 0.11399917 0.102685355
000180 4b a6 88 bc 61 df 45 bd 61 a9 01 be 64 0c b3 bc
       -0.016680857 -0.048308734 -0.12662269 -0.021856494
000190 b7 1e 63 3e 73 35 c5 bd b6 3d 3c 3e ef bd 15 be
       0.22179686 -0.09629335 0.18382916 -0.14623235
0001a0 5f a3 d3 3d 66 f1 48 be e9 64 86 bd 94 80 f2 bd
       0.10333895 -0.19623336 -0.06562216 -0.118409306
0001b0 0e bc 89 be ea 7c 46 3c 6b 26 9e 3d 56 ed 57 be
       -0.26901287 0.012114743 0.077221714 -0.2108663
0001c0 6f 5a ff 3d f2 bb 47 bd 20 d3 9f 3e 57 43 83 bd
       0.12468421 -0.048763223 0.31215763 -0.064093284
0001d0 a5 53 87 bc d1 17 25 3e 44 24 d2 3c 6c 56 b3 bd
       -0.016519377 0.16122366 0.025652058 -0.08756718
0001e0 d7 ce ea 3d 3d a4 a9 3e 37 5b 90 3e ed 58 4f 3e
       0.11465233 0.33133116 0.2819459 0.20248766
0001f0 91 22 d1 bd 07 d3 24 bd 51 02 15 bb f4 e3 c2 3d
       -0.10211671 -0.040240314 -0.0022736976 0.09516135
000200 db 07 86 3e 2a 45 6b bd e5 86 bc bd 1c 77 11 3e
       0.26177868 -0.057439007 -0.092054166 0.14205593
000210 24 dd b5 bd 32 12 98 bd c4 f3 83 bc a7 95 fb 3d
       -0.0888007 -0.074253455 -0.016107447 0.12284403
000220 7a f8 a2 bd b1 9c 22 3d e7 ad 1a 3d 15 dc 08 bd
       -0.079575494 0.039700214 0.037763502 -0.03341301
000230 1c 1b 52 3d 39 b4 d3 bd 65 a4 ac bc 35 ea d6 bd
       0.051295385 -0.10337109 -0.021074483 -0.1049389
000240 fb 5f 76 3d b7 f4 a9 bc a5 be c5 bd 24 8e a2 3d
       0.060150128 -0.020746572 -0.09655503 0.079372674
000250 63 e6 42 3d 2e 35 95 bd 05 a7 79 3c 39 81 44 3d
       0.047582995 -0.07285534 0.015237574 0.0479748
000260 b6 65 b3 3d be a5 81 3d f3 7f e6 bd 35 3f 88 3d
       0.08759634 0.06330441 -0.11254873 0.06652681
000270 52 df c0 3d 21 56 2d 3d 20 24 04 be f1 17 03 3d
       0.09417595 0.042318467 -0.12904406 0.032005254
000280 2f 29 a1 3d ea 52 d7 3d 4c dd d2 3c f6 5d 92 bd
       0.07869183 0.105138615 0.025740288 -0.07146828
000290 70 d6 3e 3d 3e 9f 93 bd 30 22 81 3d 0a fd e1 bd
       0.046591222 -0.072081074 0.06305349 -0.110345915
0002a0 47 25 63 bd dd 38 99 3d 5b 0c 78 bc 5c 67 1a be
       -0.055455472 0.07481549 -0.0151396645 -0.15078491
0002b0 71 d7 fc 3c 6f 92 10 3e 68 60 9a 3c f1 cf 75 3d
       0.03086445 0.1411836 0.018844798 0.06001276
0002c0 b5 8a 07 be 23 6a fd 3d 4c a3 9d bc d8 58 af 3d
       -0.13236506 0.123737596 -0.019242905 0.085618675
0002d0 08 b2 2e 3d 25 0f 24 3d 3b e6 cb bb 60 9c 18 3d
       0.042650253 0.040053505 -0.006222514 0.037258506
0002e0 51 a9 d6 3d f8 67 27 bd 0d b3 bf bd 80 bb 4e 3d
       0.10481513 -0.040870637 -0.09360323 0.050471783
0002f0 a0 a2 b8 3d 20 55 0f bd c6 3e f5 3d 08 af 47 be
       0.09015393 -0.03499329 0.11974864 -0.19500363
000300 ad a7 d5 3d ec 18 e2 3d 05 71 9f 3d 0c b8 74 bd
       0.10432372 0.1103991 0.07785229 -0.059745833
000310 36 57 9b 3d e9 54 c1 3c f5 02 2e 3d f8 cb ad 3c
       0.075849935 0.023600059 0.04248329 0.021215424
000320 a1 58 f1 3d 02 72 8f bc 19 40 38 3d cc ba 75 3d
       0.11784483 -0.017510418 0.044983003 0.059992597
000330 e3 22 4c bd 7f 92 bf 3b 4b 8e 26 3d fc b6 90 3d
       -0.049837958 0.005846321 0.040663045 0.070661515
000340 78 e4 f6 3c f1 e1 04 3e 58 c5 dc 3d a8 10 ac 3d
       0.03013824 0.12976815 0.10779828 0.084016144
000350 ce 1c db 3d 46 f7 22 3d 11 92 53 3d 5d c1 32 3e
       0.106988534 0.0397866 0.05165297 0.17456575
000360 5e a3 19 be 0d 74 c3 bd b1 10 e2 bb 85 d8 08 be
       -0.15003726 -0.09543619 -0.0068989624 -0.13363846
000370 be 3c 20 3e 91 c8 f0 3d 2e de 97 3d 63 2d 08 be
       0.15648171 0.11757005 0.07415424 -0.13298564
000380 d3 65 07 3e c6 2b c2 3d e9 7f a5 bd bc 47 45 3d
       0.13222437 0.09481005 -0.080810376 0.048164114
000390 f7 64 a4 3e 1b e5 97 bc b5 4d ca 3d 1c f1 0d bd
       0.3210828 -0.018541863 0.09878103 -0.034653768
0003a0 1f 6d c4 3d 47 51 98 3d bc 48 3a bd 1d 74 01 be
       0.09591126 0.074373774 -0.04547952 -0.1264195
0003b0 13 d2 2e 3e 5a 91 e4 3d 2a cd d6 3d 48 11 0e bd
       0.17072324 0.11160536 0.10488351 -0.03468445
0003c0 ea af f1 3d 8c 40 75 bd 77 2a 11 3e 68 69 b6 3d
       0.11801131 -0.05987601 0.14176355 0.089068234
0003d0 c3 03 a8 bd b6 c4 90 3d ea 11 a7 3d 7d 74 3a 3d
       -0.082038425 0.0706877 0.08157714 0.045521248
0003e0 73 a2 d3 bd f3 b2 44 3d 37 3a 5e 3e 82 5a bc bc
       -0.10333719 0.04802222 0.21701895 -0.022992376
0003f0 fb 31 07 bd 61 d2 19 3e 94 ba ea 3c bc 7e 9b bc
       -0.03300665 0.1502166 0.02865342 -0.01898133

lstm.weight_hh_l0 f4 [200, 50]
000000 f2 c5 da 3d c2 ce e5 bd 67 97 01 be 99 2b 69 bd
       0.10682286 -0.112210765 -0.12655412 -0.056926344
000010 8e e0 31 3e 60 07 da 3d bf 73 a7 3d 55 92 96 3d
       0.17370817 0.10645938 0.08176374 0.07352129
000020 69 24 9d 3c 96 5a 22 3c c1 30 49 bd 48 58 aa bd
       0.0191824 0.009909293 -0.04911876 -0.083176196
000030 12 7c e4 3d 68 34 46 be 8e 62 20 3e f2 ad 28 bd
       0.11156477 -0.19355929 0.15662596 -0.041181512
000040 a8 bc 8a 3e 9d cb e0 bc 9a 1d 08 3e ae 3d 43 be
       0.27097058 -0.02744084 0.13292542 -0.19066498
000050 ca a8 1e be c5 d4 c6 3d c6 19 e0 3d 92 61 9d bd
       -0.15494075 0.09708551 0.10942416 -0.07684626
000060 2f 5a 31 3c f8 2c 6c 3d 04 c2 31 bd 98 e1 2f 3e
       0.010824724 0.057660073 -0.04339792 0.17175901
000070 7f 86 b6 3d 3a 2f 85 3b c8 36 db 3c 78 04 a0 3e
       0.08912372 0.0040644677 0.02675952 0.3125341
000080 17 2f 74 be 1b 0c 44 be 90 59 71 bb 5c f5 c6 bd
       -0.23846088 -0.19145243 -0.0036827065 -0.09714767
000090 c1 2a 12 be 75 ad 05 3e 43 7a 0b bd d0 16 c4 ba
       -0.14274122 0.1305445 -0.034052145 -0.0014960412
0000a0 02 67 db 3c 80 2b 6c 3e ed 53 41 3e 64 d1 49 3e
       0.026782516 0.23063469 0.18879671 0.19708782
0000b0 3d 32 e2 3d b7 22 bc bd 2c bd d2 bd 5c 64 0f 3e
       0.110447384 -0.09186309 -0.10289988 0.14003128
0000c0 70 67 54 bc 8f 5e 94 bd 86 37 ad 3d 39 f2 a1 bd
       -0.012964115 -0.07244598 0.08457856 -0.079075284
0000d0 19 7a e0 bd 94 b5 35 bd dc f1 9a 3d 57 6f 82 bd
       -0.10960788 -0.04436262 0.07565662 -0.06368893
0000e0 93 35 d3 bc 88 2a ef 3b cf ba c6 3d 22 d2 82 bc
       -0.025782382 0.0072987713 0.097036 -0.01596934
0000f0 86 30 74 bd a7 73 1d bd 7f 39 d6 3d 13 f1 eb 3d
       -0.059616588 -0.038440373 0.10460185 0.11520591
000100 44 1e f0 bd b4 9b f5 3d 03 0d 2e 3e 9e 71 17 bc
       -0.11724523 0.11992589 0.16997151 -0.009243397
000110 19 ff aa bd b0 da ec 3c f4 1f 48 3e 65 d0 c6 3c
       -0.08349437 0.028912872 0.19543439 0.024269292
000120 28 71 02 bd 56 4b 70 be 3e 4e 79 bc 9f 73 43 bd
       -0.031846195 -0.23466238 -0.015216408 -0.047717687
000130 12 2d 21 bd 63 7b dd bd 34 8f 11 bc 8d 82 16 bd
       -0.039349623 -0.1081455 -0.00888424 -0.036745597
000140 ad e3 6a 3e c6 12 96 bd f9 4b 89 bd 85 1f ae bc
       0.22938414 -0.073277995 -0.06703944 -0.021255264
000150 1e 3e 89 bd 0e 5d bb 3d cb 07 bf bc 8a 22 bc bd
       -0.06701301 0.09148608 -0.023319146 -0.09186275
000160 36 f3 f5 bd 3a c1 af 3c 4e 2a 34 3e c0 0c 7f bd
       -0.120092794 0.021454442 0.17594263 -0.06226802
000170 6b c2 06 be a3 72 ec 3d 9e 3d 53 39 30 c9 fe 3b
       -0.13160102 0.11545303 0.00020145482 0.0077754483
000180 24 69 9d bd 56 5a 09 bd d3 ec da bd 4f 3c 8f bd
       -0.076860696 -0.033533417 -0.10689702 -0.06993925
000190 8c d1 08 be 60 92 ab 3d 33 db bf 3d ff 56 a9 3d
       -0.13361186 0.08377528 0.09367981 0.08268546
0001a0 b0 6a 49 bd 7f 0d 44 3e 3e e1 a1 3e 6a 32 25 3d
       -0.04917401 0.19145773 0.3161716 0.04033128
0001b0 b4 46 ba 3d 5c 76 1d 3c 80 bd 8f bd f9 a8 85 3d
       0.09095517 0.009610739 -0.07018566 0.065263696
0001c0 f3 b2 e4 bc 66 29 6e 3e ad 17 12 3e 0d 8d 3d be
       -0.02791736 0.2325798 0.14266844 -0.18510838
0001d0 d0 f2 69 3a 5b ca 71 bd 51 e9 84 3d 40 42 4b be
       0.00089244265 -0.05903087 0.06489814 -0.19849491
0001e0 d6 a3 a1 3c ca 6c 14 3e db 36 11 be a4 35 fb bc
       0.019731443 0.14494625 -0.14181082 -0.030665226
0001f0 0c a2 7c bd 6a 5d c3 3d 4b 90 1d 3e 49 12 91 bd
       -0.061677977 0.09539302 0.15387075 -0.07083566
000200 d6 87 1f bd c7 53 39 3e 9f bf b1 bd 61 3a 8e 3d
       -0.038947903 0.18098365 -0.08679127 0.06944729
000210 14 64 9b bd 27 fc d6 bd e9 2d 9b 3c 1c 09 59 3e
       -0.07587448 -0.10497313 0.01894279 0.21194881
000220 07 ab ee bc a2 e2 7a 3e 82 de cf be 2c 24 de bc
       -0.029134287 0.24500516 -0.40599447 -0.027116857
000230 49 51 36 bd 70 32 04 3e 7b 1e cd bd b1 db 08 bd
       -0.044511113 0.12909865 -0.10015579 -0.03341264
000240 7d 9b 1f bd 2a 5d 20 3e cc 7e 58 3e 9e d0 ef 3c
       -0.038966645 0.1566054 0.21142119 0.029274281
000250 7a 9d 69 3e 6b 52 0a be 77 af 2d 3e 20 63 33 be
       0.22813979 -0.13508002 0.16961466 -0.17518282
000260 0f b3 a0 be 5e e4 3d 3e cf 01 f7 bc 0f 93 29 be
       -0.3138661 0.18544146 -0.03015223 -0.16560005
000270 87 5e 84 be ac d8 f4 bd 07 63 7f bc f7 8d 59 bd
       -0.2585337 -0.119553894 -0.015587575 -0.053113904
000280 83 36 8c 3d 57 e5 21 3e b9 73 f4 bd 70 14 a4 be
       0.06846335 0.15810142 -0.11936135 -0.32046843
000290 88 bc 35 3c 70 cf 7b 3d d5 fe b2 3d 1f a0 54 bc
       0.011092313 0.061477125 0.087400116 -0.012977629
0002a0 33 1a 98 3e 48 26 90 bd d6 34 90 be 1e bb fd 3d
       0.29707488 -0.070385516 -0.2816531 0.123892054
0002b0 55 ae 73 3d d4 6d b4 3b 2a 14 a2 be 03 9f 55 bb
       0.059492428 0.0055062566 -0.3165601 -0.0032596
0002c0 7c 19 89 3d 54 ef d1 bc ab 03 95 bb e7 3e df bc
       0.06694314 -0.025626816 -0.0045475564 -0.027251674
0002d0 32 cf 82 3e bc 27 5f bb 95 ee 86 bd 67 11 29 bd
       0.25548702 -0.0034050783 -0.06588475 -0.04127636
0002e0 f0 b9 42 bd ac 4d 9f bd 44 b2 00 3e ab 3b d8 bc
       -0.047540605 -0.077784866 0.12568003 -0.02639564
0002f0 f3 14 f4 3d a9 28 07 be 5a cb e8 3e 12 12 70 3e
       0.11918058 -0.13199104 0.45467645 0.23444393
000300 d7 4f 88 bc 93 c9 1c be fa 89 bd bc f3 cc c2 bd
       -0.016639633 -0.1531127 -0.023137081 -0.09511747
000310 2f 75 1d 3e a0 00 7e 3d 88 0c fb be d4 0b d5 3d
       0.15376733 0.062012315 -0.49032998 0.10402647
000320 ad ef da bc 70 0b 77 bd e0 69 3d be 77 db 0f 3e
       -0.026725614 -0.060313642 -0.1849742 0.14048563
000330 e7 67 17 be d6 64 92 bd 9a f2 90 bd 68 21 5d bd
       -0.1478573 -0.07148139 -0.070775226 -0.053986937
000340 81 8a ee 3b 0d e9 19 3e 5d 54 bb 3d 78 27 2e 3e
       0.0072796945 0.15030308 0.091469504 0.17007244
000350 1a 9a 19 3e bc 72 31 3d e4 65 7c 3d 6c 85 9d bd
       0.15000191 0.04332231 0.061620608 -0.07691464
000360 c5 45 76 3e 18 58 83 bd 78 ce 5a 3e c8 88 00 be
       0.24050052 -0.06413287 0.21367824 -0.12552178
000370 89 2b fd bc b1 3e 3d bd c2 91 fd 3b 9d e7 4b be
       -0.030904548 -0.046202365 0.007738323 -0.19912572
000380 07 e8 a3 bb 76 b2 2a bc fe fd 9f bd 47 24 e7 bc
       -0.005002025 -0.010418525 -0.07812117 -0.02821554
000390 23 b0 22 be d6 c1 61 bd 58 c0 51 3d a0 7b 53 bd
       -0.15887503 -0.055116497 0.051208824 -0.05163157
0003a0 de 34 3c 3d e3 e0 0d 3d 51 17 e2 3d c9 39 60 bd
       0.045948856 0.034638297 0.110396035 -0.05474261
0003b0 0d 20 2c 3e 72 2c d0 bd 84 b5 ca bb 0c c2 14 bc
       0.16809101 -0.10164727 -0.006186189 -0.0090794675
0003c0 77 d1 33 3e b7 f1 f8 bc 76 62 81 3c 87 72 2a bc
       0.17560373 -0.030388696 0.01579402 -0.010403282
0003d0 b2 d2 56 b9 a0 2c 45 be 1d 73 f0 bd 55 e4 21 bd
       -0.0002048712 -0.19255304 -0.11740706 -0.039524395
0003e0 4d bd df 3c d0 4c 99 bd c6 15 5d bc 5c f6 55 3d
       0.027311945 -0.07485354 -0.013493961 0.0522369
0003f0 a8 e3 94 3e 36 29 bf bd 2b 60 fd bd 4a f3 93 3d
       0.29079938 -0.09334032 -0.12371858 0.07224138

lstm.bias_ih_l0 f4 [200]
000000 95 af c2 bd 32 8c a9 3d a1 48 57 3e 37 50 fe 3d
       -0.09506146 0.08278693 0.210238 0.124176435
000010 e2 71 47 be c2 4d 13 3e 5a 19 47 3d cc 79 0a be
       -0.19477037 0.14385131 0.04860816 -0.13523024
000020 f8 08 f4 3d 39 c7 02 3d 86 83 97 3d b3 9e ea 3d
       0.11915773 0.031928275 0.07398133 0.11456051
000030 19 cd 59 3c 60 4e f9 3c 23 1f 07 be c1 46 bb bd
       0.013293528 0.03043288 -0.13195471 -0.091443546
000040 7b a1 18 be 33 5b 33 3e 59 66 15 be 13 26 02 3e
       -0.1490535 0.17515258 -0.14589824 0.12709837
000050 08 22 41 3e 8b 1c 46 3e 13 05 07 bc b4 aa 94 3d
       0.18860638 0.19346826 -0.008240956 0.072591215
000060 bc 60 1f 3e a6 db 01 3e 6d ab 91 3e 9a 7d d6 bd
       0.15564245 0.12681445 0.284511 -0.10473175
000070 30 dc 70 bc b7 8e 4e 3c 88 fe 2c 3e 4f 94 54 bc
       -0.014700934 0.012607268 0.16893971 -0.012974813
000080 ec 50 70 3e 91 d6 b3 bd 6f b7 99 3c d4 6b 0b be
       0.23468369 -0.0878116 0.018764226 -0.13615352
000090 16 62 4a 3e c9 f8 c3 bc 7e c9 bf 3e 78 49 12 bd
       0.1976398 -0.023922341 0.37458414 -0.035714597
0000a0 5f 64 88 3d da 20 d6 3c 4b 47 a1 bc 38 44 2c be
       0.06659769 0.026138712 -0.019687315 -0.16822898
0000b0 a9 e1 1d 3d 6b 93 bc 3d a8 b6 d6 3d f5 46 ca bb
       0.038545284 0.09207805 0.10484058 -0.0061730095
0000c0 ba 1b 97 bd db 00 b0 3e 8d 3d 8c 3c b0 2d 31 bd
       -0.07378335 0.34375653 0.017119193 -0.04325646
0000d0 4c c1 70 be 59 41 4e be 96 47 c0 bd 38 97 9d b8
       -0.23511237 -0.20142116 -0.09388654 -7.51451e-05
0000e0 e8 4a 06 3e 59 04 a4 bc 14 e1 bf 3d c6 3a 2f bd
       0.13114512 -0.020021604 0.09369102 -0.04278066
0000f0 f6 29 c8 3b af 4f 24 bd 2e d3 20 be c2 23 86 bd
       0.0061085178 -0.040115055 -0.15705559 -0.06549789
000100 29 16 13 be 15 ae 6c bc b2 e9 ae 3d 23 48 62 3e
       -0.14363922 -0.014445801 0.085406676 0.2209783
000110 68 c4 af bd cf 2c 39 bd 07 de f0 3c 45 45 86 3d
       -0.085823834 -0.04520875 0.029402746 0.06556181
000120 27 95 5b bd 05 af 0f be 89 c4 ce bd 52 0c ed 3d
       -0.05360904 -0.14031608 -0.1009608 0.115746155
000130 7b c8 2f bb 53 66 1c 3e a1 ad 13 be a6 54 43 3e
       -0.0026822377 0.15273409 -0.14421703 0.1907526
000140 45 55 e5 bc a0 5c 3f 3e 2c b8 73 bd 24 8a 1d bd
       -0.027994761 0.18687677 -0.05950181 -0.03846182
000150 3c de 5b 3d c0 28 98 bd 87 e7 f2 3d 63 03 92 bc
       0.053678736 -0.074296474 0.118605666 -0.01782388
000160 47 83 3d 3c 11 34 c8 bd e2 d3 fe 3d 4b 0c 72 3d
       0.0115669435 -0.09775556 0.12442757 0.059093755
000170 98 69 61 be dc 5d 65 3d 2d de 85 3d 9c 27 4f 3e
       -0.22012937 0.055997714 0.06536517 0.20229954
000180 38 0b 70 3d fb 17 44 bd 5c 4c d7 bd d9 56 38 be
       0.05860445 -0.047874432 -0.10512611 -0.1800188
000190 d1 59 f3 bd b3 e6 84 3d ac 4d b3 3d 1b 1e 00 3e
       -0.118823655 0.06489315 0.08755049 0.12511484
0001a0 12 f6 85 bc 26 54 92 bd b2 77 5e 3d 23 a7 f2 bd
       -0.016352687 -0.07144956 0.05431337 -0.11848285
0001b0 a0 0c 60 bc a1 4a d3 bd 58 2c 08 be ef d2 cb 3d
       -0.013674885 -0.10316969 -0.13298166 0.09952342
0001c0 e3 10 95 bd 10 30 97 bc e4 06 be 3d b4 66 fd bd
       -0.072786115 -0.018455535 0.09278658 -0.12373105
0001d0 82 ed 0a bc 63 4a 8f bd db ef b5 3d 05 51 67 bd
       -0.008479478 -0.0699661 0.088836394 -0.05647375
0001e0 ad 81 f8 bc ee 44 7f 3d f9 50 03 be 35 a4 4d 3b
       -0.030335272 0.062321596 -0.12823857 0.0031378393
0001f0 ff 74 c5 bc d8 50 cb bb 2f bf 4a 3d 26 ec 15 bc
       -0.02410364 -0.0062047057 0.049498733 -0.00915054
000200 09 f1 4f bd da d3 9e bd e4 50 99 3d 31 45 03 bd
       -0.05076698 -0.07755251 0.07486132 -0.032048408
000210 58 38 3f 3c 72 9c 29 bd 9d 00 80 3d fe 3f 94 3d
       0.011671148 -0.041408964 0.06250117 0.07238768
000220 19 44 88 bd 38 7e 41 3d 81 19 c6 3d af 01 04 be
       -0.066536136 0.047239512 0.09672833 -0.12891267
000230 b0 ac 25 3d 86 ba a1 3a a3 d9 e0 3c 6a 1f 19 3d
       0.04044789 0.0012338914 0.027447527 0.037383474
000240 6c 3f 80 3d 57 d2 88 3e a3 f3 3c 3d 5f 60 30 3d
       0.06262097 0.26722977 0.046130788 0.043060657
000250 c2 bc e9 3c a1 a8 3a 3c a2 da 9f bd 1c cf 08 be
       0.02853239 0.011392743 -0.07805373 -0.13360256
000260 1d 17 9e 3e 0f 64 04 3e e1 06 70 3b b6 fb ae 3d
       0.3087701 0.12928794 0.0036625194 0.08544104
000270 33 97 89 bc b0 66 b1 bd 44 62 1b 3d 51 cb bb 3d
       -0.01679573 -0.08662164 0.03793551 0.09169639
000280 4d 2d d8 3d 3b c0 c7 3d 76 4c 08 3c 68 f3 24 3e
       0.105555154 0.09753462 0.008319011 0.16108477
000290 db e1 91 bd 82 0e 8d 3d fa f3 e2 bc 70 b0 2d bc
       -0.07123157 0.06887533 -0.027704228 -0.010601148
0002a0 44 a8 a3 3c bb f4 6a 3e f3 cd 4c 3e 53 f7 8e 3c
       0.019977696 0.2294492 0.20000438 0.017451918
0002b0 3d fd c6 bd 65 d8 9e 3e 33 c9 51 bb 2d 15 08 be
       -0.0971627 0.3102447 -0.0032010793 -0.13289328
0002c0 e3 0f 04 3e d3 48 23 3d 9e a6 da bd 53 54 84 bb
       0.12896685 0.039864372 -0.10676311 -0.0040383725
0002d0 a0 16 6f 3e 7a ca dc 3d 9d b5 a4 39 44 7d 90 3d
       0.23348475 0.10780807 0.0003141583 0.070551425
0002e0 34 19 30 3c 31 76 40 3d 0f 4f be 3c 00 25 8a 3e
       0.010748196 0.046987716 0.023231057 0.26981354
0002f0 0b 91 95 3e a8 67 bd 3d 20 e6 98 3e c7 53 5f 3d
       0.29212222 0.092482865 0.2986307 0.054523256
000300 90 d4 e4 3d 22 09 ae 3c 3a 2c 8f bd 27 3b 9d 3d
       0.111733556 0.02124459 -0.069908574 0.07677298
000310 27 7e a8 3c 47 b7 05 3e d6 b3 a8 bd fb a0 4e 3e
       0.020567967 0.13058196 -0.08237426 0.20178597

lstm.bias_hh_l0 f4 [200]
000000 89 f1 ed 3d 18 93 34 3d 0d 5b 8a 3e 54 5e 81 bd
       0.11618335 0.044085592 0.2702259 -0.0631682
000010 c0 09 02 be 57 17 18 bc 22 9b 0f be 1d d5 04 3e
       -0.12699032 -0.009282908 -0.14024022 0.12971921
000020 cd d3 7d bb a2 9a c4 bd 67 b3 d1 3d da 5d 3c 3d
       -0.003873098 -0.09599806 0.102392964 0.04598794
000030 28 fb d0 3d 4f 54 af 3d 90 0e fa 3a 51 3a af 3d
       0.10204154 0.085610025 0.0019077826 0.08556045
000040 6d 11 42 bd fb 43 67 bd fc fb 15 be 0f fd 24 3e
       -0.0473799 -0.056461316 -0.14646906 0.16112159
000050 d8 c5 00 3e ab 64 41 3e 38 d2 84 bd 86 e4 7c 3d
       0.12575471 0.18886058 -0.064854085 0.061741374
000060 26 de 49 3d ee 08 cd bd 69 4f 92 3e 89 53 1a 3e
       0.049284123 -0.10011469 0.2857621 0.15070929
000070 f9 ef 38 bc 0a d1 5a bd c0 84 b6 3e ac 3d 24 3e
       -0.011287683 -0.05342201 0.35648155 0.16039151
000080 1b 0c fe 3d 02 2a 78 bd c5 1b 0b 3e d8 9a fc bd
       0.12404653 -0.060586937 0.13584812 -0.123342216
000090 77 8c c7 3d 5c f0 93 bd 11 84 88 3e f0 c9 9a 3d
       0.097435884 -0.07223579 0.2666326 0.07558048
0000a0 81 b4 45 3e b5 1c 03 3e 99 56 1e 3e 77 95 9d bd
       0.19307138 0.1280392 0.15462722 -0.07694524
0000b0 aa c1 48 3d f6 15 87 3e f0 e4 f4 3c ac a6 c0 3d
       0.049012817 0.26383942 0.029894322 0.0940679
0000c0 6d 6b 89 bc e8 4f de 3e 62 77 e1 3d 32 ec 87 3d
       -0.016774857 0.4342034 0.110090986 0.066368476
0000d0 8f f3 db bd e5 4d b7 3c 9f 97 ae bd 5b 22 58 be
       -0.107398145 0.02237601 -0.08525013 -0.21106856
0000e0 2b f9 d6 bd fa b3 23 3c f9 42 47 3d 5a 30 16 be
       -0.10496744 0.00999164 0.048647854 -0.14666882
0000f0 85 59 b3 3d 7b 22 f1 bb 58 0b 41 bd 13 ce 1a 3d
       0.08757309 -0.0073588467 -0.04712996 0.037794184
000100 be 58 4d bc 97 fc 12 be 1d 78 e5 3d 4c 60 3b 3e
       -0.012533365 -0.14354168 0.112045504 0.18298453
000110 0a 13 1b be 63 80 48 bc f2 59 d4 bd 01 9a 4c 3d
       -0.15143982 -0.012237641 -0.10368718 0.049951557
000120 79 a1 bf 3c 9b bc 91 3d e5 d2 5a bd 27 e9 a1 3d
       0.023392426 0.07116052 -0.05342378 0.079057984
000130 90 94 2f bd ad 77 b1 bc f9 e2 e4 bd 2d 16 a2 3c
       -0.04286629 -0.021663511 -0.11176104 0.019785965
000140 2d 6b 21 be 14 e6 01 3e 49 84 ac bb df 7e 86 bb
       -0.1576354 0.12685424 -0.005264793 -0.0041044797
000150 d8 e7 46 bb b1 ee b3 bd 79 e1 18 3e be 43 58 be
       -0.0030350592 -0.08785761 0.14929761 -0.21119592
000160 ac 8f da bd 86 d0 db 3c 4c 26 a0 bb 82 30 a8 3d
       -0.106719345 0.02683283 -0.004887378 0.08212377
000170 33 f0 b3 ba 09 da 52 bd fb de 2f 3e 03 2e b9 3d
       -0.0013728201 -0.051477466 0.17174904 0.09041979
000180 61 4d 2d bd e6 b6 2c bd 1a 18 5a 3d 59 9e 04 bd
       -0.042310122 -0.042166613 0.05324564 -0.032377575
000190 eb 97 65 bc f6 32 37 bc aa 33 e9 bd 3c a9 77 bd
       -0.014013271 -0.011181584 -0.11386807 -0.06046413
0001a0 8c af 6c 3b 7c 28 f3 3c ff 15 13 3e 80 5e df 3c
       0.0036115376 0.02968239 0.1436386 0.02726674
0001b0 7d 33 36 3d f1 2b d0 bc b9 f2 7a bd 50 76 75 bd
       0.044482697 -0.025411578 -0.061266635 -0.059927285
0001c0 7e 97 55 bd 72 d7 8a 3c 3c 83 9d 3d 64 e8 63 3d
       -0.052146427 0.016948435 0.076910466 0.055641547
0001d0 76 98 b0 bd 86 f0 b9 3b e0 9f 96 bd 90 37 cd bd
       -0.086228296 0.0056744246 -0.073547125 -0.10020363
0001e0 66 b2 e5 bd 19 54 69 3e bf c9 d5 bc 8c 8b 87 3d
       -0.112156674 0.22785987 -0.026097177 0.06618413
0001f0 be 97 e5 bd ad 00 f3 bd ec 98 b5 3d 08 43 f7 3a
       -0.11210583 -0.11865363 0.08867058 0.0018864581
000200 92 4a a0 bd 94 de 86 3d b4 52 94 3d fa 59 8f 3c
       -0.07826723 0.06585422 0.07242337 0.017498959
000210 87 ac bb 3d 67 a3 83 bb ff a5 d4 3c a5 6b cc 3d
       0.09163766 -0.004017282 0.02595806 0.09981469
000220 4e 54 3a be 2b 74 b8 3d 55 49 97 3c 05 c5 2a be
       -0.18196222 0.09006532 0.018467585 -0.1667672
000230 be 67 c1 3c e8 8d f8 bc 36 69 a1 bd 43 8f 31 bd
       0.023609038 -0.030341104 -0.078813955 -0.043349516
000240 bb d3 85 bc 33 1c 5f 3e 3b a9 0c 3c e8 f6 ee 3d
       -0.016336313 0.21788101 0.00858527 0.116681874
000250 9b 66 83 bc a5 31 d7 3c 79 c8 1b be 52 3c 78 bd
       -0.016040137 0.02626879 -0.15213193 -0.0606044
000260 a3 45 62 3e b2 f1 ce bc 2d 6f ab bd f2 2a 9d bc
       0.22096877 -0.025261734 -0.083708145 -0.019185517
000270 46 04 eb 3d fa 1d 54 3c 46 a9 c3 3d 08 43 21 3e
       0.114754245 0.0129466 0.09553771 0.15748227
000280 9a 99 c7 3d fa 3a b4 bc 6b 5d 21 be cf e7 86 bd
       0.09746094 -0.022000778 -0.15758292 -0.06587183
000290 9d 09 38 be da c7 6f 3d 5d 7f 9f bd 3c 2f fb 3d
       -0.17972417 0.058540203 -0.077879645 0.122648686
0002a0 e6 7e 9a 3d 57 cf b1 3d d7 ba 4c 3e e5 a0 89 3c
       0.07543735 0.08682125 0.19993149 0.016800353
0002b0 bc c4 a8 bd 62 20 b3 3d 2e a2 35 bd a5 27 ad 3c
       -0.08240649 0.08746411 -0.04434412 0.021137068
0002c0 2c 36 64 bd 9e 21 4e bd b6 b1 14 be 18 e4 0f be
       -0.055715725 -0.05032503 -0.14520916 -0.14051855
0002d0 cf 4d 7a 3e 3d 35 60 3d d0 d2 ab 3c 3b 0d 10 3e
       0.24443744 0.054738272 0.020974547 0.14067547
0002e0 a8 a8 8a 3d f8 fd a2 3d 1b 7c d6 bd ca a3 fc 3d
       0.0677045 0.07958597 -0.1047289 0.12335928
0002f0 a7 76 9c 3e 70 11 48 bd e0 c2 2e 3d 2c c9 02 bd
       0.30559275 -0.048844755 0.042666316 -0.031930134
000300 94 06 1e 3b e0 bc 06 be d8 68 09 be 3c 72 18 3c
       0.0024112808 -0.13157988 -0.13418901 0.009304579
000310 00 b9 a7 bd 58 66 c1 3d 7b dd 04 3e a6 73 66 3e
       -0.08189583 0.09443349 0.12975113 0.22505054
